Assets/Scenes/TestScene/ShipMovementImitation.onnx (onnx, 75174 bytes, 6 tensors)

network_body._body_endoder.seq_layers.0.weight f4 [128, 1]
0.56357056 -0.47040123 0.23049091 0.88846475 0.9731862 0.37742883 -0.295949 -2.2496157
-0.34535038 -1.2407559 -0.11702331 0.53038275 -1.8204782 -0.26478347 1.3127075 1.0288131
2.6634607 -0.6449648 0.48309052 -0.81388974 -0.28821033 -0.23562934 1.0817714 1.2836348
0.62852746 -1.5352428 0.17778307 -0.67887497 0.5976963 0.53623 -1.6201891 -0.3549631
-0.22068314 -0.22485448 0.9832461 1.5519608 1.0556973 -1.3888932 -0.31628036 0.30143404
-0.77608144 0.27624655 0.62708515 1.3721427 -0.6805815 -0.3481519 -0.8937208 1.5297416
0.29996654 -1.4420711 1.0461578 0.23552005 0.848589 -0.6123864 -1.2212445 0.57172334
0.93878347 0.21868871 -0.54547054 -0.8156539 0.77038145 0.35650498 -0.38729897 -0.48331782
-0.31531957 -0.13747814 1.420364 0.15889518 1.2191634 0.92067045 -0.5730761 -0.28184313
-0.8293827 0.68134326 0.10854752 -0.65276945 0.44293788 0.268307 0.71364594 -0.23468015
1.1852717 0.17663318 -0.25309908 -1.05566 -1.0420222 0.84385943 -1.7735463 0.38036743
0.8296117 0.4846677 -0.05237464 0.9675896 0.42564726 -2.0348144 -0.16034631 1.2931483
0.27761582 -0.52948254 1.1760422 1.2131191 -1.7305554 -1.2002388 -1.7051042 -0.6584319
0.39040932 0.60640347 0.20983839 -0.3084234 -1.4318374 1.6236726 -1.2428948 -1.5265937
1.007165 0.46882498 -1.8820988 -0.18474688 0.12226033 -1.8386759 1.6588475 0.88224965
0.2535214 -1.5113664 0.83029443 -1.7431725 -0.18292034 1.1234387 -0.28432754 -0.017228836
00000000: 2946 103f 6ed8 f0be cf05 6c3e 6d72 633f
00000010: bb22 793f 5a3e c13e a186 97be b4f9 0fc0
00000020: c4d1 b0be 17d1 9ebf eba9 efbd 2ac7 073f
00000030: 6e05 e9bf b391 87be cd06 a83f 26b0 833f
00000040: 2476 2a40 6a1c 25bf a457 f73e 145b 50bf
00000050: 4e90 93be d148 71be 7c77 8a3f 254e a43f
00000060: 2de7 203f d682 c4bf c40c 363e c0ca 2dbf
00000070: a002 193f 5f46 093f 5b62 cfbf b9bd b5be
00000080: c3fa 61be 4140 66be 04b6 7b3f a7a6 c63f
00000090: 1721 873f 41c7 b1bf 80ef a1be 9055 9a3e
000000a0: 46ad 46bf 3070 8d3e a788 203f 5fa2 af3f
000000b0: 973a 2ebf f740 b2be e3ca 64bf 93ce c33f
000000c0: 3795 993e c995 b8bf 80e8 853f 2b2c 713e
000000d0: 213d 593f 5bc5 1cbf bd51 9cbf 765c 123f
000000e0: 1d54 703f efef 5f3e f5a3 0bbf b2ce 50bf
000000f0: b837 453f d287 b63e 0d4c c6be 6f75 f7be
00000100: 9171 a1be 12c7 0cbe 7dce b53f 6bb5 223e
00000110: 8c0d 9c3f 0fb1 6b3f 1eb5 12bf be4d 90be
00000120: 6d52 54bf 836c 2e3f 2a4e de3d e61b 27bf
00000130: c1c8 e23e 895f 893e 80b1 363f fe4f 70be
00000140: fcb6 973f 54df 343e 3496 81be de1f 87bf
00000150: fc60 85bf 2c07 583f 9103 e3bf 85bf c23e
00000160: 6f61 543f 5d26 f83e ca86 56bd f4b3 773f
00000170: 70ee d93e 663a 02c0 d331 24be e285 a53f
00000180: a923 8e3e 2b8c 07bf 8d88 963f 7d47 9b3f
00000190: d782 ddbf 6da1 99bf db40 dabf fe8e 28bf
000001a0: bbe3 c73e 423d 1b3f e0df 563e ace9 9dbe
000001b0: 7346 b7bf 81d4 cf3f 2d17 9fbf 6c67 c3bf
000001c0: c8ea 803f d409 f03e 9de8 f0bf 492e 3dbe
000001d0: a063 fa3d bb59 ebbf 1d55 d43f 1ddb 613f
000001e0: 8fcd 813e 7474 c1bf 2d8e 543f 4720 dfbf
000001f0: 784f 3bbe d7cc 8f3f 6193 91be 7d23 8dbc

network_body._body_endoder.seq_layers.0.bias f4 [128]
-0.0068290127 0.009339877 -0.0021195575 -0.0066040736 9.990225e-05 -0.0045907497 0.013181439 -0.0069475914
-0.013571205 0.010005399 -0.012130407 0.005571283 0.012032126 0.017476132 0.0002926355 -0.004328876
0.0051269797 0.0099947015 -0.008645159 -0.011701856 -0.014309308 0.010601143 0.0036912041 0.0019068969
0.02025332 0.010405328 0.004870876 0.0111198295 -0.0052181715 0.0034325256 -0.012843653 0.010710551
0.010466659 -0.0073996494 0.005329846 -0.012605523 -6.71909e-05 -0.018660182 -0.024411 -0.0066574817
-0.017268078 -0.0071686804 -0.008803847 -0.0064020385 0.011977261 0.017635258 0.0120140165 -0.008029815
0.0056435405 0.017602656 -0.0044778767 0.0046983412 -0.0067733205 0.011382691 -0.012773953 -0.006669569
0.00630506 -0.0054261 -0.012299655 -0.010666373 -0.0055500474 -0.006179638 -0.016398394 -0.011504075
-0.012745674 -0.013743313 0.009239935 -0.019411026 -0.004659833 0.0044793626 0.022182904 0.0122484015
0.012730048 -0.003430778 0.011169675 -0.012383217 0.0014465954 0.0054331375 -0.0053191413 0.011381255
0.0048811706 -0.0054243687 -0.011766277 0.0045483415 -0.010073355 0.0029360733 -0.012753977 0.005266739
0.007248486 -0.006196002 0.0021446578 -0.0045336825 -0.0030058254 0.012834811 0.009640714 0.003466092
0.0047787945 0.009110921 0.0016485519 0.0054536844 0.009967975 0.011206575 0.008080633 0.015868278
-0.006392604 -0.003300835 0.004583995 -0.013255169 -0.012383645 0.006684657 -0.014392073 -0.011694891
0.0061215498 0.0052453782 -0.012027373 -0.014540843 -0.005876932 0.0039434605 0.0048177294 -0.0150848385
-0.00947593 0.01267972 -0.0051817275 -0.0134160565 0.0132342735 -0.0062273946 0.012068381 0.008024754
00000000: e9c5 dfbb 4906 193c 46e8 0abb fc66 d8bb
00000010: 9d82 d138 006e 96bb f6f6 573c 9fa8 e3bb
00000020: c259 5ebc afed 233c 9dbe 46bc 4f8f b63b
00000030: 6522 453c 1b2a 8f3c df6c 9939 3ed9 8dbb
00000040: 3900 a83b d1c0 233c 6da4 0dbc 24b9 3fbc
00000050: 9671 6abc 6bb0 2d3c 21e8 713b d8f0 f93a
00000060: 4aea a53c 1c7b 2a3c df9b 9f3b f22f 363c
00000070: 32fd aabb 39f4 603b 2f6e 52bc 4f7b 2f3c
00000080: 5a7c 2b3c c278 f2bb fda5 ae3b 6587 4ebc
00000090: d7e8 8cb8 3ddd 98bc 94f9 c7bc 0127 dabb
000000a0: c975 8dbc 40e7 eabb 033e 10bc 31c8 d1bb
000000b0: 463c 443c d177 903c 70d6 443c 7c8f 03bc
000000c0: 73ed b83b 7233 903c 27bb 92bb 8bf4 993b
000000d0: bbf2 ddbb 777e 3a3c d849 51bc 668c dabb
000000e0: ad9a ce3b 6dcd b1bb 7e84 49bc 03c2 2ebc
000000f0: 2cdd b5bb 907e cabb ed55 86bc 967b 3cbc
00000100: 3bd3 50bc a22b 61bc 1963 173c df03 9fbc
00000110: 83b1 98bb 9ec7 923b ecb8 b53c 85ad 483c
00000120: b191 503c e7d6 60bb 0301 373c fae2 4abc
00000130: b09b bd3a 7608 b23b 314c aebb 7278 3a3c
00000140: 3af2 9f3b e7be b1bb 58c7 40bc 410a 953b
00000150: b70a 25bc 236b 403b 0ff6 50bc 9c94 ac3b
00000160: b584 ed3b d507 cbbb 638d 0c3b 498f 94bb
00000170: 62fd 44bb 1949 523c 16f4 1d3c 6027 633b
00000180: 6f97 9c3b f945 153c 3914 d83a d2b4 b23b
00000190: b850 233c c89b 373c a264 043c 31fe 813c
000001a0: 0d79 d1bb d252 58bb 5635 963b 352c 59bc
000001b0: c6e4 4abc f80a db3b bbcc 6bbc ee9b 3fbc
000001c0: 4897 c83b 6ce1 ab3b 750e 45bc b73c 6ebc
000001d0: 4793 c0bb 2538 813b 0bde 9d3b 6626 77bc
000001e0: ee40 1bbc 9abe 4f3c 7bcb a9bb 05cf 5bbc
000001f0: 91d4 583c 2c0f ccbb 75ba 453c 427a 033c

network_body._body_endoder.seq_layers.2.weight f4 [128, 128]
0.012817817 -0.014609013 -0.14339896 0.009972023 -0.0019373269 -0.061251782 -0.10550403 -0.008072671
-0.057319887 0.022277847 -0.11122512 -0.024901554 0.14507891 -0.10835836 -0.16530377 -0.00851303
0.046135973 0.0020905377 0.059825294 -0.016693348 0.05685975 -0.10283564 -0.1021435 0.031552088
-0.21214293 0.15031905 -0.033568595 0.045475937 0.0080529405 0.08403389 -0.027134703 0.016508704
-0.14074872 0.14433736 -0.026772127 -0.029557008 0.06569698 0.18400855 0.08608527 0.0193595
0.098109566 -0.04813969 0.12660776 -0.052432943 -0.053776845 0.05712442 -0.113693245 0.17069978
-0.07164885 0.11662482 0.09289233 0.028953543 -0.070344515 -0.046345826 -0.06979725 0.09905883
-0.06418938 -0.23804031 -0.14014414 -0.08441595 -0.023815736 0.08464801 0.012310588 0.04494717
-0.09320852 0.02273155 -0.13574679 -0.19611448 0.023691233 0.106478766 -0.14226101 0.25983828
-0.15131232 -0.09942976 -0.01817692 -0.04344711 -0.07772278 -0.10764548 -0.17582849 0.012703831
0.0037424194 0.07109308 -0.15752804 -0.028964465 -0.11588585 -0.2178689 0.032422263 -0.020467643
0.00097456184 0.02410071 -0.052529324 0.00025328124 -0.012148702 -0.03244133 -0.012817547 0.06812764
-0.060342003 0.08830485 0.063847 0.17222318 -0.07022107 0.0062580598 0.053919073 0.12405468
-0.048453394 0.051820744 -0.16049328 0.008712018 0.13149707 0.02246978 0.09168912 -0.035134368
-0.04860388 0.05361477 -0.052934546 -0.12842289 -0.07202102 -0.19147405 -0.18226509 -0.13250479
-0.06956267 -0.02633499 -0.119509384 -0.0045052255 -0.022142142 0.022463024 -0.03101305 -0.117892675
0.036492977 -0.03228387 -0.023696914 -0.1494568 -0.01671475 -0.020696381 -0.08928728 -0.024316182
-0.08275708 0.030905122 0.023994783 -0.14218429 -0.16211995 -0.04913445 -0.026216177 0.036533386
-0.12123392 0.0015389811 -0.22340728 0.16028069 0.036488075 0.020725196 0.110307515 -0.014909989
-0.09709702 -0.0061032474 0.06615585 -0.044296205 0.068642944 -0.05996612 -0.08554404 0.19436479
-0.07886606 0.041849677 -0.08913926 0.0103270635 0.06807326 0.0141430525 -0.08679268 -0.14813034
-0.07911099 0.047607247 0.0035628376 -0.033144146 0.06040041 0.06592865 -0.009835017 -0.037335612
0.024391983 -0.06369198 0.12687564 -0.04313239 -0.21392158 0.12887457 -0.020903489 0.229888
0.09690909 0.07052214 0.0067434045 0.024870062 0.038510486 0.040873114 0.14380476 0.019145979
0.09087581 0.01183591 -0.04044611 -0.025167294 0.035777066 -0.05092136 0.081482455 0.15905249
0.007281753 0.056790687 -0.053491212 -0.062008098 0.13339023 -0.27508745 0.04154435 -0.1319826
-0.021797609 -0.063213915 0.047078006 0.09618638 -0.19035505 0.06795218 -0.004455173 -0.041811623
-0.083845906 0.09976966 0.029514708 0.12672336 -0.073686935 0.03025582 0.026908243 0.0247799
-0.031912025 0.051448446 -0.09555672 -0.051536385 -0.0048112916 0.08663778 0.0080364 0.03390571
0.03419879 -0.025751088 -0.14467514 0.023326244 -0.13090114 -0.057511657 0.044950567 0.07734874
-0.07862387 -0.025527436 0.02204141 -0.057999786 -0.06296369 -0.021718685 -0.06970271 0.033569805
0.0063355193 -0.0057035172 -0.062300168 0.092070416 -0.012101508 -0.0959834 -0.078822516 0.040382363
00000000: d201 523c a45a 6fbc 2dd7 12be b261 233c
00000010: e7ed fdba 26e3 7abd 7f12 d8bd 3c43 04bc
00000020: 42c8 6abd 0880 b63c ffc9 e3bd 58fe cbbc
00000030: 918f 143e fdea ddbd 6445 29be 3c7a 0bbc
00000040: 13f9 3c3d 6701 093b 5e0b 753d 7dc0 88bc
00000050: c5e5 683d 7e9b d2bd 9c30 d1bd c33c 013d
00000060: ff3b 59be 3ded 193e 397f 09bd fa44 3a3d
00000070: 7bf0 033c f619 ac3d 9949 debc 433d 873c
00000080: 6f20 10be 2ccd 133e 3851 dbbc 8a21 f2bc
00000090: 238c 863d bd6c 3c3e 794d b03d d097 9e3c
000000a0: abed c83d 202e 45bd 77a5 013e edc3 56bd
000000b0: 1c45 5cbd 4cfb 693d 01d8 e8bd eccb 2e3e
000000c0: a2bc 92bd fed8 ee3d 553e be3d fb2f ed3c
000000d0: c910 90bd 1fd5 3dbd dcf1 8ebd 5bdf ca3d
000000e0: b975 83bd d7c0 73be f281 0fbe 45e2 acbd
000000f0: 3819 c3bc f05b ad3d 59b2 493c 861a 383d
00000100: 1ce4 bebd 8437 ba3c 3501 0bbe 3cd2 48be
00000110: 1e14 c23c 8a11 da3d dfac 11be 8609 853e
00000120: 9ef1 1abe d4a1 cbbd c4e7 94bc 99f5 31bd
00000130: 1f2d 9fbd 3c75 dcbd 620c 34be bb23 503c
00000140: 6143 753b 4099 913d 084f 21be e346 edbc
00000150: 8f55 edbd 0619 5fbe 35cd 043d c2ab a7bc
00000160: bd79 7f3a da6e c53c fd28 57bd d5ca 8439
00000170: 590b 47bc 33e1 04bd b000 52bc 8186 8b3d
00000180: 2d29 77bd 2cd9 b43d 37c2 823d 465b 303e
00000190: 10d0 8fbd 6910 cd3b 3fda 5c3d 6110 fe3d
000001a0: 1177 46bd fd41 543d 5a58 24be dabc 0e3c
000001b0: 2ba7 063e 8b12 b83c 81c7 bb3d 0ee9 0fbd
000001c0: dd14 47bd 299b 5b3d e5d1 58bd 4a81 03be
000001d0: c27f 93bd c611 44be b3a3 3abe 56af 07be
000001e0: e076 8ebd 7abc d7bc 56c1 f4bd 92a0 93bb
000001f0: 7063 b5bc 6004 b83c 140f febc b771 f1bd
00000200: a979 153d 173c 04bd 0820 c2bc 340b 19be
00000210: 5fed 88bc 758b a9bc 40dc b6bd bb32 c7bc
00000220: 8b7c a9bd bd2c fd3c b590 c43c c298 11be
00000230: c602 26be 3441 49bd 4fc3 d6bc 08a4 153d
00000240: 7d49 f8bd a3b7 c93a e1c4 64be 9f20 243e
00000250: 8574 153d e3c7 a93c e8e8 e13d 0749 74bc
00000260: cdda c6bd c0fd c7bb b87c 873d f06f 35bd
00000270: ac94 8c3d 099f 75bd b731 afbd 9007 473e
00000280: 8784 a1bd 916a 2b3d a58e b6bd d832 293c
00000290: fe69 8b3d 43b8 673c 5cc0 b1bd 7baf 17be
000002a0: f104 a2bd d1ff 423d 7f7e 693b 28c2 07bd
000002b0: 6c66 773d 9a05 873d 0d23 21bc 3aed 18bd
000002c0: b2d1 c73c f170 82bd b0eb 013e 97ab 30bd
000002d0: 420e 5bbe b2f7 033e cb3d abbc c367 6b3e
000002e0: 4678 c63d e96d 903d c7f7 dc3b 4dbc cb3c
000002f0: 2cbd 1d3d 916a 273d 8e41 133e 07d8 9c3c
00000300: 191d ba3d 68eb 413c d2aa 25bd a42b cebc
00000310: f98a 123d ea92 50bd 46e0 a63d a8de 223e
00000320: c59b ee3b 5a9d 683d 9a19 5bbd 34fc 7dbd
00000330: 7397 083e 43d8 8cbe 692a 2a3d 7226 07be
00000340: e690 b2bc 4c76 81bd ded4 403d 5dfd c43d
00000350: 6fec 42be 832a 8b3d b3fc 91bb aa42 2bbd
00000360: 67b7 abbd 0954 cc3d d4c8 f13c c5c3 013e
00000370: 2de9 96bd 0edb f73c ad6e dc3c 38ff ca3c
00000380: 2fb6 02bd 9bbb 523d 3eb3 c3bd d117 53bd
00000390: 0aa8 9dbb 266f b13d 1bab 033c b7e0 0a3d
000003a0: 0814 0c3d f2f3 d2bc b825 14be ae16 bf3c
000003b0: f30a 06be 5891 6bbd 161e 383d 0469 9e3d
000003c0: 8d05 a1bd ea1e d1bc 3090 b43c 2f91 6dbd
000003d0: 1bf3 80bd 62eb b1bc 4bc0 8ebd 7e80 093d
000003e0: 309a cf3b 92e4 babb 762e 7fbd 6a8f bc3d
000003f0: 6745 46bc f292 c4bd b36d a1bd fa67 253d

network_body._body_endoder.seq_layers.2.bias f4 [128]
0.011005704 0.015421409 -0.0052423333 -0.013055546 -0.013734634 0.004885448 0.011252298 -0.013280485
0.006435639 -0.014098555 0.0128804725 -0.006828825 -0.013417693 -0.0049359505 -0.012587505 0.015923146
0.005474273 -0.006324339 0.01235956 0.0128141465 -0.011488091 -0.006053292 -0.0063522123 0.004810873
0.009899499 0.0131281875 -0.009237525 -0.00027116504 0.01210413 0.010588425 -0.004151802 -0.0039746417
-0.0036384428 -0.013970136 0.005665633 -0.009348676 0.0021213714 0.0127022285 0.014013111 0.01210056
-0.013899616 -0.0132704 -0.0041345377 0.0035152985 -0.01229353 0.013008308 -0.013159578 0.012208697
-0.011515981 -0.010792679 0.01566158 -0.011441481 0.0055754306 -0.007251823 0.0096443705 -0.013820584
-0.0032791034 0.014186225 0.0038208102 -0.005024726 -0.0067199003 -0.013394771 0.011863876 -0.012499827
0.0035025333 0.0057090498 0.006186446 0.0035503847 -0.012350318 -0.004309706 -0.012358036 -0.00351498
0.005755806 0.0031073233 -0.005501351 -0.008738775 0.0045597986 0.012187851 0.013373319 -0.013821278
0.001665951 0.0032095893 0.013623586 -0.00995417 -0.006097256 -0.0024823702 -0.008971721 0.005018915
0.0058959764 0.012773201 -0.013717841 0.013578999 -0.0056041437 -0.013410088 0.009850222 0.011255702
-0.013516452 0.013323433 -0.011725087 0.013368209 0.011970406 0.008343786 -0.014897224 -0.00010528976
-0.013619795 -0.0044978503 0.0050626565 0.0051845275 0.012864412 0.0055676387 0.008101352 0.004462988
0.0057878974 0.0006496452 0.012232086 0.012807566 -0.0077340384 0.007686252 0.012990606 -0.00027976165
0.007111383 -0.013335538 -0.013829942 0.0027524661 0.00321124 0.013401569 -0.006600082 -0.005938958
00000000: 4551 343c 14aa 7c3c e1c7 abbb eee6 55bc
00000010: 3b07 61bc 1c16 a03b 8f5b 383c 6496 59bc
00000020: 0ee2 d23b a0fd 66bc 9e08 533c 56c4 dfbb
00000030: e2d5 5bbc c1bd a1bb d33b 4ebc 4271 823c
00000040: 8861 b33b 673c cfbb c07f 4a3c 6df2 513c
00000050: 8c38 3cbc b25a c6bb 3826 d0bb 87a4 9d3b
00000060: 8231 223c 9c17 573c fd58 17bc 282b 8eb9
00000070: 6750 463c 137b 2d3c d70b 88bb b63d 82bb
00000080: f172 6ebb ffe2 64bc c6a6 b93b 302b 19bc
00000090: b506 0b3b 021d 503c 3f97 653c 6d41 463c
000000a0: 37bb 63bc 186c 59bc 047b 87bb ec60 663b
000000b0: cd6a 49bc cc20 553c 459b 57bc fd06 483c
000000c0: 86ad 3cbc c7d3 30bc b74c 803c 0d75 3bbc
000000d0: 1ab2 b63b b3a0 edbb 6c03 1e3c bb6f 62bc
000000e0: 3ae6 56bb 576d 683c 8f66 7a3b 75a6 a4bb
000000f0: 9c32 dcbb be75 5bbc b460 423c 13cc 4cbc
00000100: c28a 653b fb12 bb3b acb7 ca3b 92ad 683b
00000110: fd58 4abc 6f38 8dbb 5c79 4abc 945b 66bb
00000120: 339b bc3b 3ca4 4b3b ad44 b4bb 142d 0fbc
00000130: 5d6a 953b 8daf 473c c41b 5b3c a472 62bc
00000140: 0a5c da3a f957 523b 7635 5f3c d116 23bc
00000150: 7ecb c7bb 43af 22bb 20fe 12bc b675 a43b
00000160: 0933 c13b b046 513c ccc0 60bc 737a 5e3c
00000170: f7a2 b7bb fcb5 5bbc d362 213c d669 383c
00000180: 1c74 5dbc 874a 5a3c 941a 40bc 5506 5b3c
00000190: 861f 443c 60b4 083c 7c13 74bc 02cf dcb8
000001a0: 9025 5fbc b462 93bb a4e4 a53b f8e2 a93b
000001b0: 41c5 523c bd70 b63b 88bb 043c 423e 923b
000001c0: 67a8 bd3b f44c 2a3a 1669 483c d3d6 513c
000001d0: d16d fdbb f4dc fb3b 8dd6 543c f9ac 92b9
000001e0: 9b06 e93b 4d7d 5abc fb96 62bc b862 343b
000001f0: ab73 523b 4192 5b3c 8045 d8bb 979b c2bb

action_model._continuous_distribution.mu.weight f4 [1, 128]
-0.023181973 -0.002739492 0.0010010382 0.0375457 0.017883893 -0.0120039135 -0.017292727 0.02859295
-0.0011572269 0.003269503 -0.019422067 0.0132409 0.009200245 0.0033991712 0.01619598 -0.004334715
-0.014097099 0.010771034 -0.0038718188 -0.014214971 0.03351286 0.01966207 0.04203749 -0.006819107
-0.00578043 -0.017098647 0.012721403 -0.007850985 -0.0035632357 -0.007522863 0.010354167 0.0016317806
0.0077190194 0.0051816036 -0.021979509 0.001682245 -0.00075053005 -0.01318141 -0.0032362833 -0.018616663
0.021645298 0.037477978 0.054783564 -0.013967088 0.019048786 -0.033143114 0.011362743 -0.024321755
0.00081786327 0.060146786 -0.013667998 0.036187217 -0.003978728 0.009171091 0.028831031 0.0018060099
0.0058397246 -0.009180475 0.0466254 0.025877805 0.043802537 0.03541922 -0.0034131468 0.0014163017
-0.0003588633 -0.023877911 -0.009749487 -0.0035691261 0.0030760576 0.031697147 0.03891551 0.0036971562
-0.024732603 -0.004760029 0.03628293 0.057246093 0.0004890174 -0.005460656 -0.01579537 0.005686789
0.07757887 -0.012680636 -0.027282478 0.010116118 0.032014914 0.06925043 0.042902954 -0.008897922
-0.02849355 -0.0060789757 0.004870666 -0.021114789 0.056685384 0.043134227 -0.014714823 -0.0035596087
0.016183227 -0.012271339 0.015968975 -0.017221335 -0.0045438507 -0.025623646 0.02008377 -0.0073939725
0.008782093 0.0049501928 -0.00083735085 -0.0342845 -0.014506304 -0.016758138 0.025855187 -0.0029902903
-0.0143611925 0.04055064 -0.0060606296 -0.034042 0.038231164 -0.01105936 -0.008497503 -8.09962e-05
-0.005837329 0.011018968 0.010596287 -9.892114e-05 -0.0022235748 -0.013447376 0.027461456 0.017036026
00000000: 1fe8 bdbc 0d89 33bb 4535 833a 85c9 193d
00000010: 3e81 923c 10ac 44bc 7aa9 8dbc c33b ea3c
00000020: 17ae 97ba 2845 563b 071b 9fbc 5cf0 583c
00000030: a0bc 163c a1c4 5e3b 6fad 843c 3a0a 8ebb
00000040: 85f7 66bc fe78 303c 57be 7dbb e9e5 68bc
00000050: c844 093d 5912 a13c 812f 2c3d d172 dfbb
00000060: c369 bdbb 7612 8cbc 6e6d 503c 6ba1 00bc
00000070: 2d85 69bb 5982 f6bb 86a4 293c 79e1 d53a
00000080: d4ef fc3b 71ca a93b 5f0e b4bc c77e dc3a
00000090: 38bf 44ba d7f6 57bc d317 54bb f981 98bc
000000a0: 7b51 b13c 8282 193d bb64 603d 37d6 64bc
000000b0: 330c 9c3c 13c1 07bd cc2a 3a3c 6b3e c7bc
000000c0: e065 563a 7a5c 763d bdef 5fbc 0c39 143d
000000d0: fd5f 82bb 5842 163c 0e2f ec3c a3b7 ec3a
000000e0: 295b bf3b b469 16bc 47fa 3e3d b1fd d33c
000000f0: 4a6a 333d be13 113d 1aaf 5fbb 33a3 b93a
00000100: d125 bcb9 9c9b c3bc 50bc 1fbc 00e8 69bb
00000110: af97 493b ded4 013d df65 1f3d fd4b 723b
00000120: 079c cabc 04fa 9bbb 699d 143d e17a 6a3d
00000130: 6731 003a 4def b2bb 4b65 81bc 3e58 ba3b
00000140: ace1 9e3d 71c2 4fbc 817f dfbc 13be 253c
00000150: 1222 033d 2bd3 8d3d 02bb 2f3d 97c8 11bc
00000160: 4e6b e9bc 2532 c7bb 1c9a 9f3b ecf8 acbc
00000170: ef2e 683d 84ad 303d 7116 71bc 5348 69bb
00000180: b092 843c ba0d 49bc 5ed1 823c c213 8dbc
00000190: 95e4 94bb aee8 d1bc b886 a43c 2349 f2bb
000001a0: c5e2 0f3c 3a35 a23b aa81 5bba e76d 0cbd
000001b0: d9ab 6dbc 5d48 89bc 42ce d33c bff8 43bb
000001c0: 354b 6bbc 6e18 263d 3f98 c6bb a06f 0bbd
000001d0: 4898 1c3d 5132 35bc 1c39 0bbc 81dc a9b8
000001e0: 1147 bfbb e788 343c 0d9c 2d3c e273 cfb8
000001f0: 65b9 11bb 6252 5cbc d9f6 e03c 238f 8b3c

action_model._discrete_distribution.branches.0.weight f4 [1, 128]
9.466305e-05 0.0014147534 0.013096635 -0.0058698296 -0.01328816 -0.00038430316 -0.0020112903 -0.021733088
-0.0118004065 0.0029084438 -0.011054921 0.0021429218 -0.0072199884 -0.0020586327 -0.013364631 0.0017208944
-0.009073374 0.0004447464 0.017943231 0.0026859026 -0.024607455 0.0017309341 0.002292852 -0.019259335
0.009243043 -0.007901402 0.014186054 0.014274159 -0.003780512 0.00086205994 -0.019636797 -0.0066409395
0.014144075 0.0018608721 0.009433282 0.0073425034 -0.0076029287 0.0028003647 -0.0072405855 0.00030688054
-0.014308832 -0.009093804 -0.007933987 -0.007813022 -0.0059639285 0.0013237129 -0.001635701 0.004270529
-0.0062743733 -0.0112736765 -0.0037730613 -0.004027577 0.00978634 0.010852553 -0.016820986 0.010042928
0.0093132695 -0.00632745 -0.00040079706 0.0046177628 -0.009172799 -0.006987603 0.010567332 -0.009338259
0.009323723 -0.002529602 -0.0071019675 0.0003132296 -0.00010770295 0.0038511239 0.0030392173 0.013659455
0.003765947 -0.00054175785 -0.002742844 -0.0005055628 -0.017140998 -0.008381613 0.0071216947 0.008741952
0.011293962 0.008926816 0.00032204142 -0.012465647 0.011971216 0.0066118017 0.008355889 0.0008592824
0.00021158006 -0.0122982655 -0.007842069 0.0012400843 -0.021421587 0.011771079 -0.00423633 -0.0039031226
0.01482142 0.00074236136 0.010363858 -0.002964923 0.0011052478 0.0010564086 0.007967682 0.006160107
-0.004654939 -0.00020878144 -0.0013162227 -0.001611287 0.0005054032 -0.0012392503 0.0023152763 -0.005127139
0.0077797817 -0.0090822615 -0.0021162992 0.004574487 0.010227191 -0.0004723671 -0.0059180516 0.00047167653
-0.0011850165 -0.01636683 0.0017778439 -0.0046597025 0.0035828443 -0.017192848 -0.01128856 0.016725015
00000000: d785 c638 3f6f b93a 4593 563c b357 c0bb
00000010: 95b6 59bc 4c7c c9b9 dacf 03bb 9709 b2bc
00000020: 7e56 41bc 979b 3e3b b31f 35bc 4370 0c3b
00000030: a795 ecbb 20ea 06bb 53f7 5abc a28f e13a
00000040: 7da8 14bc da2c e939 affd 923c f805 303b
00000050: 9395 c9bc 83e0 e23a ac43 163b c1c5 9dbc
00000060: 2270 173c e274 01bc 9f6c 683c 2ade 693c
00000070: 77c2 77bb ddfb 613a 59dd a0bc 3d9c d9bb
00000080: 8dbc 673c 82e8 f33a 0d8e 1a3c 6299 f03b
00000090: fd21 f9bb 5386 373b 6f42 edbb cfe4 a039
000000a0: 976f 6abc 2efe 14bc 8efd 01bc 3002 00bc
000000b0: 0f6d c3bb 6f80 ad3a 0565 d6ba cbef 8b3b
000000c0: 4299 cdbb 3ab5 38bc 7745 77bb c4f9 83bb
000000d0: e356 203c e8ce 313c 2acc 89bc 188b 243c
000000e0: af96 183c 7f56 cfbb 1222 d2b9 9a50 973b
000000f0: 8249 16bc 43f8 e4bb 9a22 2d3c 7fff 18bc
00000100: 87c2 183c aec7 25bb 9fb7 e8bb f738 a439
00000110: 95de e1b8 2363 7c3b 9b2d 473b e8cb 5f3c
00000120: 1bce 763b c104 0eba 49c1 33bb bf87 04ba
00000130: 476b 8cbc 0853 09bc 1b5d e93b 673a 0f3c
00000140: 4f0a 393c c841 123c abd7 a839 b73c 4cbc
00000150: eb22 443c d0a7 d83b 23e7 083c 7741 613a
00000160: 97db 5d39 aa7e 49bc 057c 00bc 538a a23a
00000170: 537c afbc 7cdb 403c e9d0 8abb 88cb 7fbb
00000180: 8bd5 723c 079b 423a 2ccd 293c 274f 42bb
00000190: f6dd 903a 3177 8a3a e18a 023c b9da c93b
000001a0: 7588 98bb 57ec 5ab9 1b85 acba d231 d3ba
000001b0: 097d 043a 576e a2ba e4bb 173b 8f01 a8bb
000001c0: 8aed fe3b c4cd 14bc 9cb1 0abb 94e5 953b
000001d0: f38f 273c 0aa8 f7b9 37ec c1bb 5a4b f739
000001e0: 8e52 9bba bb13 86bc 8b06 e93a 6bb0 98bb
000001f0: 27ce 6a3b 04d8 8cbc a7f3 38bc e602 893c
