Assets/ML-Agents/results/sshipMovMod2Test01/ShipMovementImitation/ShipMovementImitation-149982.onnx (onnx, 605703 bytes, 9 tensors)

network_body._body_endoder.seq_layers.0.weight f4 [128, 1]
-0.08889621 -0.17296405 1.4920079 1.4114121 0.6543891 -0.20137818 0.05802607 -0.65943533
-0.6021158 0.11648603 -2.1749935 0.8907825 0.8928062 0.81862587 0.032466803 -0.12877242
1.5848211 0.7685781 -1.8440601 -0.31979215 0.96895736 1.0570998 -1.3604021 1.2072694
-0.7293411 0.04607118 0.6356334 1.2026851 -1.3064909 -0.48701474 1.0281229 0.20618653
-1.5200995 1.768613 -0.33000672 1.6935028 -1.2346234 -0.9585836 0.1515743 0.23777421
0.9260167 0.25308028 -0.5558996 -1.9225305 0.090823345 0.7383877 -0.4435864 -1.8284732
0.015391015 0.027770013 0.3049592 0.6147452 -0.57638234 1.6549532 -1.399594 -1.614161
0.4955109 0.76534057 0.6644573 0.9267434 0.6304213 0.26535028 -0.73879623 -0.11516754
0.8794329 -0.049380317 -1.6472788 -0.13976647 1.8503101 -0.9338996 -0.93179303 -1.5349125
-0.5760046 0.48637018 1.0554602 -0.16964906 -0.6823662 0.9036907 1.3307459 -0.10751188
0.38404825 -0.34340313 2.1369612 -0.09403746 0.15247968 0.5146711 0.4895011 0.92956024
0.9877993 0.40820494 -0.06616625 0.017190795 1.7377363 0.96786654 -0.30971554 0.30915537
0.036683816 -0.01928766 -0.8348621 0.87199974 0.27244392 0.64899653 -0.15930276 -0.7826148
-1.3188627 -0.688691 0.20637468 0.8028806 -0.48784426 0.4947933 0.494388 -0.54684025
-0.11152356 -0.49210858 -1.1225964 0.7830449 -0.17834897 -0.45154446 -0.13876334 -1.6477125
-0.3900091 -0.260849 -1.018654 0.966692 -0.41424137 1.060423 -0.16977033 -1.3329601
00000000: 370f b6bd 7d1d 31be 1dfa be3f 27a9 b43f
00000010: 0b86 273f 1536 4ebe bfac 6d3d c1d0 28bf
00000020: 4324 1abf 3a90 ee3d 1833 0bc0 520a 643f
00000030: f28e 643f 7791 513f e9fb 043d ebdc 03be
00000040: 6bdb ca3f 89c1 443f 290a ecbf ccbb a3be
00000050: 970d 783f 0c4f 873f a821 aebf ce87 9a3f
00000060: 19b6 3abf 22b5 3c3d dfb8 223f 96f1 993f
00000070: 183b a7bf ff59 f9be 8899 833f 9022 533e
00000080: 9f92 c2bf e961 e23f a4f6 a8be b3c4 d83f
00000090: 2408 9ebf bc65 75bf 4b36 1b3e 157b 733e
000000a0: 6e0f 6d3f bd93 813e 704f 0ebf 7b15 f6bf
000000b0: 9701 ba3d fa06 3d3f c21d e3be 690b eabf
000000c0: 992a 7c3c f07d e33c 9d23 9c3e f15f 1d3f
000000d0: cb8d 13bf 82d5 d33f e525 b3bf d49c cebf
000000e0: 9bb3 fd3e 5ced 433f e019 2a3f 0e3f 6d3f
000000f0: 4a63 213f fedb 873e c021 3dbf f6dc ebbd
00000100: 8422 613f 0443 4abd 08da d2bf f11e 0fbe
00000110: f6d6 ec3f 0b14 6fbf fd89 6ebf 0378 c4bf
00000120: 0a75 13bf 8305 f93e 5219 873f 7cb8 2dbe
00000130: 8daf 2ebf 4658 673f e255 aa3f 302f dcbd
00000140: f9a1 c43e 89d2 afbe f9c3 0840 b696 c0bd
00000150: a223 1c3e 7cc1 033f e39f fa3e a9f7 6d3f
00000160: 6ae0 7c3f 3d00 d13e 2c82 87bd b6d3 8c3c
00000170: 256e de3f 1ac6 773f 0993 9ebe 9d49 9e3e
00000180: c541 163d 2801 9ebc 86b9 55bf 603b 5f3f
00000190: c57d 8b3e a324 263f 4320 23be 7259 48bf
000001a0: 7ed0 a8bf 0e4e 30bf e253 533e 9589 4d3f
000001b0: b9c6 f9be 8c55 fd3e 6d20 fd3e b9fd 0bbf
000001c0: 7766 e4bd a8f5 fbbe 3db1 8fbf a175 483f
000001d0: 1da1 36be d630 e7be fa17 0ebe 3ee8 d2bf
000001e0: 46af c7be 008e 85be 4163 82bf 2079 773f
000001f0: 7217 d4be f1bb 873f 46d8 2dbe 709e aabf

network_body._body_endoder.seq_layers.0.bias f4 [128]
-0.006630794 -0.00062900456 -0.007844939 -0.014702718 -0.023238124 0.0038749415 -0.0012631519 -0.01801454
-0.010324632 -0.009573336 0.005088073 -0.0023124707 0.0010533915 0.004852583 0.011851276 -0.0107933255
0.004087445 -0.013820531 0.006888251 -0.007190996 -0.00053228915 -0.008099833 0.00418591 -0.007001018
-0.008638477 -0.0012463251 0.010483795 -0.010142955 -0.004660658 -0.0022104194 0.01344262 0.014925003
-0.0084073 0.008346721 0.0067099733 -0.005805805 0.003804905 -0.00042897128 0.015491794 -0.00858608
-0.004054617 0.0092558935 0.0041355537 0.0023756512 0.008188165 0.007283226 0.00013026326 -0.009181301
-0.0050265095 -0.007848136 0.0020139485 -0.0013022581 0.0041305437 0.0037779754 4.310998e-05 -0.0113725625
0.0011194176 0.006423841 -0.0024275791 -0.017646076 -0.0020487846 3.2461514e-05 0.0035980279 0.0026919544
-0.001991664 0.006832949 -0.0027480943 -0.0039254683 -0.0045982744 -0.009471825 0.004628421 -0.009476813
-0.01266286 -0.0008412075 0.0022486637 -0.00290357 0.009069754 0.0068794363 -0.0005582827 -0.01641841
0.0017263371 0.0013673557 -0.0149277095 -0.006602158 0.007823214 -0.0038920925 0.008112696 0.0036268649
0.005920085 0.0017886924 -0.014930061 0.005134242 0.0045499257 -0.009152867 -0.009653581 0.012602333
-0.0066154855 -0.008798255 -0.009006088 -0.00928354 -0.006678255 0.0070633185 -0.008704097 -0.015211792
-0.0005879414 0.000410205 0.0027816973 0.015700445 0.0029517221 -0.005095208 -0.0003370039 0.005922256
-0.0036683085 -0.0016303492 0.0061602867 -0.0031745185 -0.015583872 0.00490277 0.0028517386 -0.0009766713
0.017098775 0.013553876 -0.0029541047 0.0151930535 0.006933999 0.0057316446 0.0018192729 0.0039451183
00000000: 2247 d9bb c8e3 24ba 0f88 00bc abe3 70bc
00000010: e15d bebc bbf2 7d3b 5890 a5ba 3b93 93bc
00000020: a528 29bc 7bd9 1cbc dab9 a63b d28c 17bb
00000030: f411 8a3a 6b02 9f3b db2b 423c 7dd6 30bc
00000040: f9ef 853b 826f 62bc d6b6 e13b 72a2 ebbb
00000050: 5289 0bba 29b5 04bc f529 893b cc68 e5bb
00000060: 6688 0dbc bb5b a3ba 39c4 2b3c a32e 26bc
00000070: 6fb8 98bb afdc 10bb 6f3e 5c3c 0088 743c
00000080: c6be 09bc afc0 083c 56df db3b 9f3e bebb
00000090: b75b 793b 8de7 e0b9 4bd1 7d3c a1ac 0cbc
000000a0: 98dc 84bb 08a6 173c 8a83 873b d0b0 1b3b
000000b0: a727 063c 21a8 ee3b 4797 0839 2b6d 16bc
000000c0: 6bb5 a4bb 7895 00bc 73fc 033b 88b0 aaba
000000d0: 8359 873b e997 773b fdd0 3438 fc53 3abc
000000e0: 6cb9 923a 167f d23b 0518 1fbb 818e 90bc
000000f0: e744 06bb 4927 0838 e4cc 6b3b 806b 303b
00000100: 9486 02bb eee6 df3b 5f19 34bb 37a1 80bb
00000110: 1fad 96bb b72f 1bbc 02aa 973b a244 1bbc
00000120: e277 4fbc 7b84 5cba 515e 133b d249 3ebb
00000130: 4e99 143c e56c e13b b859 12ba e77f 86bc
00000140: 4346 e23a d838 b33a 5a93 74bc ea56 d8bb
00000150: f02c 003c 7a12 7fbb 1deb 043c b2b0 6d3b
00000160: 46fd c13b 8f72 ea3a 379d 74bc 253d a83b
00000170: 8b17 953b e8f5 15bc 0e2a 1ebc 047a 4e3c
00000180: b7c6 d8bb 8e26 10bc 458e 13bc fd19 18bc
00000190: 43d5 dabb 6973 e73b a19b 0ebc e13a 79bc
000001a0: 1420 1aba c810 d739 234d 363b 389e 803c
000001b0: ae71 413b b4f5 a6bb e6af b0b9 7c0f c23b
000001c0: 0168 70bb 71b1 d5ba 3bdc c93b 950b 50bb
000001d0: 7f53 7fbc 6aa7 a03b 3ce4 3a3b a703 80ba
000001e0: bb12 8c3c 1411 5e3c a799 41bb 49ec 783c
000001f0: 9936 e33b 85d0 bb3b ab74 ee3a 0d46 813b

network_body._body_endoder.seq_layers.2.weight f4 [128, 128]
-0.025213396 0.085247 0.16937792 -0.005504221 -0.05504787 0.023701591 -0.11908603 -0.04821298
-0.07111963 0.013797148 0.09475342 0.026887894 0.08286215 0.04584319 0.10436386 0.056424543
0.041777007 -0.02260769 0.029303903 -0.04771278 0.026609339 0.0020083939 0.14630443 0.0011578125
-0.02904115 0.00064249826 0.11422864 -0.16680309 0.14014056 -0.019099493 0.016208231 0.13418347
-0.039932996 0.029851224 -0.028250141 0.1471419 -0.009821163 0.15026186 0.009280781 0.08776585
-0.1364397 7.605272e-05 0.124707945 0.05153715 0.0020329522 0.0049601733 0.09186215 -0.09552831
-0.033404615 0.006667725 0.13096681 0.12491383 0.004249214 0.047702823 -0.0721676 -0.13082565
0.17810689 -0.022018805 0.2853212 0.023171531 0.0025542753 0.16010374 0.045603614 0.095709436
-0.076902986 -0.088246964 -0.0056856154 -0.086442836 0.102486834 -0.031908114 -0.020387037 0.046739306
0.035064366 0.03231232 0.039785117 -0.003295179 0.10791199 -0.036530472 -0.07887446 0.08017102
-0.023381364 0.06583329 0.06317752 -0.042188644 -0.010841158 0.07561996 -0.11890222 0.029402262
0.10647525 0.15721713 -0.06990125 -0.079303585 0.12183514 0.10533987 -0.093535624 -0.010512239
0.12941776 0.10453672 -0.024369901 -0.027245905 0.050347447 0.107896484 -0.06593521 0.104461975
-0.09213746 0.014831277 0.0046088398 -0.16883996 -0.029107159 -0.07746586 0.0022006468 0.0043372703
-0.06463757 0.12178054 0.08496659 -0.027975759 -0.081329286 -0.06762091 0.1284141 -0.21056354
-0.04542539 0.05437833 -0.0037862484 0.04895417 0.16077636 0.08400595 -0.031300038 -0.051031277
-0.037078142 0.042355727 0.12267307 -0.040978335 -0.051642157 -0.06852461 -0.07364674 0.007107491
-0.032362778 0.09939554 -0.06637266 -0.0334164 0.058245234 -0.034396384 -0.052788034 0.20626475
0.056772318 -0.02397269 -0.10478846 0.032355107 0.0034711065 -0.030353967 0.07325937 -0.00027177963
-0.026403638 0.09192866 0.02027296 0.05484347 0.08815318 0.10335071 0.081143945 0.040865097
0.17983589 -0.095790945 -0.20624968 -0.1949682 0.057203233 0.07994816 0.0783544 -0.026285877
0.004518817 0.0044633388 0.00073451 0.028792363 -0.033826552 0.035183746 -0.048548844 0.04885785
0.09774325 0.07716158 0.104935795 -0.0036448913 0.023119647 -0.06490099 -0.049639 -0.052088376
0.019196354 -0.21974969 0.09834772 0.07944134 -0.09374962 0.02784592 0.0010044632 0.050096445
0.06614963 0.03437917 -0.024492327 -0.01309575 0.04888105 0.019515526 0.07873075 0.11473419
0.019970678 -0.11650369 0.078342006 0.13672858 -0.047341853 0.08707468 0.020687098 0.036928188
0.06337245 0.06558494 -0.052963313 -0.07773816 0.13410935 0.08782797 -0.052374385 -0.013302157
-0.003997938 -0.07312271 0.05571839 0.0429763 -0.042878915 0.15019499 0.018082485 0.06097441
0.04009583 0.2808184 -0.04289353 0.024889808 0.07874656 0.12278105 0.051060762 0.05188029
0.04190913 0.116113834 -0.14634289 -0.040869668 -0.23112844 -0.16478428 -0.14807124 -0.037006542
-0.035668913 0.11099403 -0.046256047 0.0891331 -0.14454575 0.004335441 -0.10546496 0.11073875
-0.15967318 -0.115263484 0.12171708 -0.029964197 -0.009135647 -0.11608148 -0.023409873 0.025856769
00000000: 538c cebc fb95 ae3d 6871 2d3e c15c b4bb
00000010: e079 61bd d729 c23c 60e3 f3bd f97a 45bd
00000020: 2ba7 91bd 6f0d 623c 150e c23d 0044 dc3c
00000030: a2b3 a93d 12c6 3b3d b8bc d53d 6c1d 673d
00000040: 5e1e 2b3d c333 b9bc bd0e f03c 7a6e 43bd
00000050: d4fb d93c 429f 033b d4d0 153e bec1 973a
00000060: b5e7 edbc 546d 283a b5f0 e93d 6ece 2abe
00000070: 0281 0f3e 8a76 9cbc 20c7 843c 6467 093e
00000080: c890 23bd 8e8a f43c d76c e7bc 5eac 163e
00000090: f1e8 20bc 3fde 193e 6b0e 183c 95be b33d
000000a0: d9b6 0bbe 7e7e 9f38 e166 ff3d 9e18 533d
000000b0: 473b 053b f388 a23b 3922 bc3d 59a4 c3bd
000000c0: 47d3 08bd ee7c da3b 2a1c 063e d2d2 ff3d
000000d0: fe3c 8b3b 0964 433d 9bcc 93bd 29f7 05be
000000e0: a761 363e c860 b4bc 9f15 923e 39d2 bd3c
000000f0: a165 273b 3cf2 233e dbca 3a3d 4f03 c43d
00000100: 507f 9dbd d3ba b4bd 664e babb f108 b1bd
00000110: 9ee4 d13d 15b2 02bd b702 a7bc b771 3f3d
00000120: a79f 0f3d ec59 043d b8f5 223d eef3 57bb
00000130: f600 dd3d faa0 15bd ef88 a1bd b430 a43d
00000140: 468a bfbc 9bd3 863d 3763 813d 00ce 2cbd
00000150: 1d9f 31bc a3de 9a3d 0283 f3bd 03dd f03c
00000160: b20f da3d 87fd 203e 6328 8fbd eb69 a2bd
00000170: b484 f93d 6ebc d73d 9b8f bfbd 873b 2cbc
00000180: 1786 043e 5917 d63d 63a3 c7bc ce32 dfbc
00000190: 2039 4e3d d5f8 dc3d 0a09 87bd 29f0 d53d
000001a0: 91b2 bcbd e2fe 723c c005 973b 62e4 2cbe
000001b0: 2372 eebc 6ca6 9ebd ba38 103b a91f 8e3b
000001c0: b460 84bd 1368 f93d f702 ae3d 6b2d e5bc
000001d0: f88f a6bd d57c 8abd fc7e 033e f89d 57be
000001e0: f90f 3abd d0bb 5e3d b522 78bb 2b84 483d
000001f0: 8fa2 243e 500b ac3d 7834 00bd 2c06 51bd
00000200: 40df 17bd 337d 2d3d 053c fb3d e6d8 27bd
00000210: ba86 53bd a156 8cbd 1ad4 96bd f5e5 e83b
00000220: d58e 04bd e48f cb3d 64ee 87bd a3df 08bd
00000230: 8e92 6e3d 39e3 0cbd 4438 58bd 1137 533e
00000240: 178a 683d 6062 c4bc 559b d6bd ca86 043d
00000250: 817b 633b e2a8 f8bc 0209 963d a57d 8eb9
00000260: 714c d8bc 1845 bc3d 7b13 a63c 8ca3 603d
00000270: a889 b43d 89a9 d33d cc2e a63d 2962 273d
00000280: e626 383e 0b2e c4bd 1e33 53be bea5 47be
00000290: f04d 6a3d dcbb a33d 4678 a03d 7b55 d7bc
000002a0: 9612 943b 3341 923b 228c 403a f6dd eb3c
000002b0: b68d 0abd d51c 103d 27db 46bd 2b1f 483d
000002c0: 9d2d c83d e406 9e3d 94e8 d63d 21df 6ebb
000002d0: 6a65 bd3c cfea 84bd 4452 4bbd 9f5a 55bd
000002e0: ac41 9d3c 1006 61be 886a c93d 24b2 a23d
000002f0: cdff bfbd 201d e43c 31a8 833a ee31 4d3d
00000300: 7579 873d 2cd1 0c3d 22a4 c8bc 8e8f 56bc
00000310: 7f37 483d 06df 9f3c 963d a13d c2f9 ea3d
00000320: 8c99 a33c 7d99 eebd c671 a03d 9402 0c3e
00000330: 88e9 41bd 3654 b23d fd77 a93c 0342 173d
00000340: 6ac9 813d 6651 863d 0ff0 58bd 2f35 9fbd
00000350: f653 093e 27df b33d 8686 56bd 4af1 59bc
00000360: 2201 83bb 5cc1 95bd f738 643d eb07 303d
00000370: cda1 2fbd b7cc 193e b821 943c 4ec0 793d
00000380: 863b 243d 6ec7 8f3e 20b1 2fbd b6e5 cb3c
00000390: e045 a13d a274 fb3d 1725 513d 6d80 543d
000003a0: e8a8 2b3d 17cd ed3d e9da 15be f466 27bd
000003b0: efac 6cbe 36bd 28be fd9f 17be 2c94 17bd
000003c0: 9119 12bd d750 e33d fb76 3dbd 6a8b b63d
000003d0: cd03 14be 5110 8e3b 03fe d7bd ffca e23d
000003e0: 5e81 23be 430f ecbd ce46 f93d 7a77 f5bc
000003f0: aead 15bc 21bc edbd 10c6 bfbc 93d1 d33c

network_body._body_endoder.seq_layers.2.bias f4 [128]
0.013908246 -0.021509547 -0.00018962644 0.0026241164 -0.020769738 -0.0036691392 -0.005055629 -0.0046125525
0.0037093314 0.00089519547 0.0064639286 -0.003149659 0.0019182828 -0.008641371 -0.00666261 0.008961108
-0.011990551 -0.001992376 -0.008616904 -0.0045472053 0.0035703925 -0.0030982934 0.007630887 0.00039675037
0.01775693 -0.0059907725 0.0027189471 0.010745612 -0.014933372 0.011256606 0.010869877 -0.006203196
-0.014583136 0.0052449987 -0.008696706 -0.0075077387 -0.0012186067 0.00836733 -0.014796416 0.002281059
0.0047781644 -0.01357191 -0.008593841 -0.016059294 -0.028449686 -0.0038213183 0.008065804 -0.0007298333
-0.0045559285 0.0057848515 0.009204216 -0.013435135 0.02827791 0.0066969423 0.00068738713 -0.017969545
0.008147333 0.0035608253 0.0027827166 0.016026286 -0.0009023605 0.013042086 -0.006723412 0.0019430943
-0.017234247 0.007838683 -0.006304962 0.004008281 -0.018260548 0.010800992 0.0076294146 -0.012891029
-0.011781536 0.001648095 -0.006749808 0.008006527 0.0013621188 -0.0074910843 -0.0053320024 -0.0017874094
0.0021207433 -0.0152851 -0.0031489031 0.008539548 0.035558484 -0.02217749 0.0027092975 8.458571e-05
-0.008343028 0.0055034356 -0.0038897821 0.012886635 -0.00077214645 -0.0068187844 -0.0030731764 0.019865302
0.0085526705 0.007971517 0.011003348 -0.013043586 -0.0020215015 -0.008570972 -0.0077682487 -0.0026462583
-0.0017426872 0.0006922739 0.003356653 -0.0034546452 -0.0030925903 -0.0011409658 -0.0039885156 -0.004982687
0.008320107 -0.004379818 0.0020666784 0.0048486413 -0.0038009933 0.0040314705 0.010404282 -0.0033080166
-0.005291192 -0.014030699 -0.010450008 -0.0010347752 0.00068679673 0.0041953893 -0.0050521735 -0.0068016634
00000000: 69df 633c ca34 b0bc 76d6 46b9 5ef9 2b3b
00000010: 4c25 aabc f175 70bb b1a9 a5bb e524 97bb
00000020: 4118 733b 8dab 6a3a 5dcf d33b 826a 4ebb
00000030: e46e fb3a 8994 0dbc 0652 dabb 9cd1 123c
00000040: 0474 44bc 8692 02bb ea2d 0dbc b900 95bb
00000050: 3ffd 693b bd0c 4bbb 850c fa3b ef02 d039
00000060: fb76 913c 3e4e c4bb 5d30 323b 5d0e 303c
00000070: 1aab 74bc a16d 383c 9217 323c 2e44 cbbb
00000080: 1bee 6ebc 3dde ab3b a17c 0ebc 7a03 f6bb
00000090: a8b9 9fba 2017 093c ab6c 72bc d27d 153b
000000a0: 2692 9c3b b75c 5ebc 2fcd 0cbc c88e 83bc
000000b0: 510f e9bc 156f 7abb 6f26 043c 4952 3fba
000000c0: e649 95bb da8e bd3b 48cd 163c 0a1f 5cbc
000000d0: 13a7 e73c 0672 db3b c531 343a de34 93bc
000000e0: 647c 053c bc5c 693b 3d5e 363b 8f49 833c
000000f0: 638c 6cba 79ae 553c 1150 dcbb 6daf fe3a
00000100: d62e 8dbc d26d 003c db99 cebb e657 833b
00000110: 2597 95bc a5f6 303c 2b00 fa3b e534 53bc
00000120: 5807 41bc e404 d83a 7e2d ddbb cf2d 033c
00000130: 1f89 b23a c577 f5bb 14b8 aebb 8247 eaba
00000140: 2bfc 0a3b 5b6e 7abc d45d 4ebb 76e9 0b3c
00000150: c6a5 113d 91ad b5bc 788e 313b 9b63 b138
00000160: 32b1 08bc 2a56 b43b b7eb 7ebb 7722 533c
00000170: df69 4aba 1c70 dfbb 5867 49bb 8fbc a23c
00000180: 8020 0c3c f79a 023c 6347 343c c4b4 55bc
00000190: 2b7b 04bb 436d 0cbc cb8c febb d96c 2dbb
000001a0: e16a e4ba b779 353a 4bfb 5b3b 5467 62bb
000001b0: 0ead 4abb 768c 95ba 18b2 82bb cf45 a3bb
000001c0: 0f51 083c 9484 8fbb 1c71 073b 5ae1 9e3b
000001d0: 161a 79bb 6d1a 843b b976 2a3c 4fcb 58bb
000001e0: bc61 adbb 04e1 65bc 8336 2bbc 4ba1 87ba
000001f0: 260a 343a 7a79 893b b48c a5bb 7de0 debb

action_model._continuous_distribution.mu.weight f4 [1, 128]
0.0033714378 -0.024433134 -0.032472916 -0.017032756 0.02199623 0.012493335 -0.04301484 0.011230785
-0.023090772 -0.00076215854 -0.0124714235 0.01410946 0.021352496 -0.017553993 0.028121402 0.0006230928
0.010869584 -0.025714545 0.0014554111 -0.006406411 0.01838085 -0.005587477 -0.00054493634 0.01334824
0.03804496 0.02735197 -0.02041923 0.023628315 -0.009855425 0.0150156 0.004426661 0.018558703
0.016371947 0.010129405 -0.036312297 0.02692187 -0.04030396 -0.037197355 0.027401444 0.035886314
0.03458941 -0.015569276 -0.018567482 -0.016179312 0.011642479 0.0019657451 -0.013985187 -0.0045002974
-0.010893021 -0.00814584 0.01762354 -0.036565423 -0.022020685 0.0058783954 0.0053901062 0.023174403
0.022098886 -0.024514172 -0.01211535 0.017814456 0.027415428 0.015779613 0.021317152 -0.01490717
0.024770817 0.03835316 -0.010303537 0.023154795 0.0053528724 -0.014498387 0.015315829 0.029347219
-0.013512869 -0.038055252 -0.0027786558 -0.031771593 0.025875468 -0.044176888 -0.012014607 0.0007292312
0.005276984 0.015389336 -0.027833426 0.00055813504 -0.013277907 0.025317797 0.02838139 0.039898336
-0.021958403 0.016617235 0.0034681202 0.03751839 0.008953196 -0.024508432 0.0023937046 -0.0023011318
-0.04288776 -0.002405682 -0.017809585 0.0098755965 0.009707341 -0.011914837 0.009084394 0.012316642
-0.014189147 0.01799184 -0.02541528 -0.056130387 -0.008251716 -0.01967791 0.020164145 0.031056708
-0.003835473 -0.011592745 0.025174353 -0.021217257 -0.0023549977 0.0037533345 0.014021317 -0.016366629
-0.004003033 0.012837408 -0.0052523436 -0.023818003 -0.023916317 -0.024328794 -0.0046882704 -0.024706727
00000000: 57f3 5c3b ff27 c8bc 5202 05bd 4788 8bbc
00000010: 7031 b43c d8b0 4c3c 5430 30bd 5401 383c
00000020: dc28 bdbc 98cb 47ba f154 4cbc 5d2b 673c
00000030: 6eeb ae3c 64cd 8fbc db5e e63c 0d57 233a
00000040: 5716 323c 4fa7 d2bc 7ec3 be3a dfec d1bb
00000050: 7093 963c 2717 b7bb 0fda 0eba 94b2 5a3c
00000060: 08d5 1b3d 3d11 e03c 3b46 a7bc 2b90 c13c
00000070: a678 21bc fe03 763c 860d 913b 6c08 983c
00000080: 761e 863c cef5 253c 34bc 14bd 418b dc3c
00000090: c415 25bd 415c 18bd fe78 e03c 87fd 123d
000000a0: a0ad 0d3d 4716 7fbc d51a 98bc 7a8a 84bc
000000b0: 19c0 3e3c bbd3 003b 2022 65bc 3b77 93bb
000000c0: a478 32bc 2176 05bc 3e5f 903c a0c5 15bd
000000d0: b964 b4bc 8e9f c03b 7d9f b03b 3fd8 bd3c
000000e0: b908 b53c f2d1 c8bc 767f 46bc 9fef 913c
000000f0: 5296 e03c 3f44 813c 4fa1 ae3c 343d 74bc
00000100: 2bec ca3c 3418 1d3d 2bd0 28bc 20af bd3c
00000110: 2667 af3b a58a 6dbc 3eef 7a3c 9469 f03c
00000120: 1565 5dbc d3df 1bbd 1c1a 36bb ee22 02bd
00000130: caf8 d33c d3f2 34bd ead8 44bc e129 3f3a
00000140: 8dea ac3b 8e23 7c3c ed02 e4bc cf4f 123a
00000150: 948b 59bc 4567 cf3c 1780 e83c 706c 233d
00000160: 1ce2 b3bc de20 883c 6749 633b e2ac 193d
00000170: 6db0 123c e8c5 c8bc b3df 1c3b 96ce 16bb
00000180: 13ab 2fbd a6a8 1dbb 68e5 91bc 41cd 213c
00000190: 8a0b 1f3c 7336 43bc b6d6 143c becb 493c
000001a0: 9979 68bc a063 933c b533 d0bc fae8 65bd
000001b0: 3532 07bc 9133 a1bc 472f a53c a36a fe3c
000001c0: 8f5c 7bbb 7fef 3dbc 723a ce3c d0cf adbc
000001d0: 4e56 1abb 81fa 753b aab9 653c 4f13 86bc
000001e0: e02b 83bb fe53 523c da1b acbb f91d c3bc
000001f0: 27ec c3bc 2e4d c7bc 10a0 99bb c365 cabc

action_model._discrete_distribution.branches.0.weight f4 [1, 128]
0.0122925555 0.00913429 0.020264855 -0.006045861 0.016432742 0.0045749475 0.0074797184 0.006218681
-0.008714388 -0.0074417912 -0.0042785425 -0.013203065 -0.0053183637 -0.01254345 0.00472909 0.0065178494
-0.0067239576 -0.0039995844 0.003712939 -0.008569177 0.0015068338 0.013196525 -0.023149824 0.003771412
-0.015890848 0.0033647642 -0.0012446315 0.007081589 -0.0035598732 0.007974269 -1.0455669e-05 0.0094273565
-0.00020555146 0.017552407 -0.0073988396 -0.0009376099 0.004942195 0.00804327 -0.006554913 0.0014296917
-0.0050076824 -0.0022394517 -0.0028128922 -0.0062797526 -0.017973354 -0.017400296 0.00652482 -0.00038604447
0.008550839 0.016692316 -0.0005902888 -0.0039576124 -0.0005745551 -0.0014329472 0.0059813764 0.0021434592
-0.00029613703 -0.019198457 -0.0028074519 0.0016259777 -0.010440399 -0.0012106431 0.0057347384 0.0032073443
-0.012902262 -0.00017928374 0.0055958047 0.014047264 -0.0033910566 -0.0024514443 -0.0054259915 0.003571296
-0.0025402799 0.010162401 0.0018879082 -0.009105161 -0.0006326799 -0.005295605 0.025416633 -0.008721638
-0.0018674372 0.01884418 -0.003922147 -0.0032263089 -0.0046021915 -0.0049585295 0.004188744 0.0029234418
0.0033911434 -0.007615708 -0.029703071 -0.0111079095 0.0035565053 -0.0029963332 0.01142423 -0.0033441118
-0.0075486335 -0.0014033834 0.018929843 0.0037650813 -0.00084702484 -0.011751365 0.00754451 -0.018013682
-0.001519577 0.007025931 0.011290121 -0.0046063173 0.00055554777 0.011589839 -0.001123066 -0.007855428
-0.013016582 0.008582774 -0.0052372604 0.007878466 0.008572624 0.013269121 0.008206892 -0.010422795
0.028854636 0.009850557 -0.013519113 0.015561326 0.0011154757 0.0055328654 -0.010212378 0.012407487
00000000: b766 493c fda7 153c 7b02 a63c 5c1c c6bb
00000010: f59d 863c 71e9 953b 6d18 f53b 14c6 cb3b
00000020: cbc6 0ebc 45da f3bb 0433 8cbb ab51 58bc
00000030: ab45 aebb 0b83 4dbc 7bf6 9a3b af93 d53b
00000040: a554 dcbb f20e 83bb c854 733b bc65 0cbc
00000050: f480 c53a 3d36 583c b3a4 bdbc cb29 773b
00000060: 862d 82bc 6083 5c3b e722 a3ba ad0c e83b
00000070: c34c 69bb 82a6 023c c26a 2fb7 3375 1a3c
00000080: 4d89 57b9 11ca 8f3c f771 f2bb efc9 75ba
00000090: 23f2 a13b ebc7 033c 98ca d6bb 7e64 bb3a
000000a0: 7c17 a4bb c4c3 12bb 8058 38bb 62c6 cdbb
000000b0: db3c 93bc 118b 8ebc 28ce d53b 0366 cab9
000000c0: d118 0c3c 53be 883c 9cbd 1aba dcae 81bb
000000d0: bd9d 16ba bbd1 bbba 6cff c33b 4779 0c3b
000000e0: d742 9bb9 1546 9dbc 3afd 37bb c21e d53a
000000f0: 350e 2bbc 71ae 9eba 79ea bb3b 4f32 523b
00000100: 0264 53bc 1dfe 3bb9 035d b73b 7f26 663c
00000110: 7d3c 5ebb 69a8 20bb 84cc b1bb 680c 6a3b
00000120: d37a 26bb 3380 263c b073 f73a d02d 15bc
00000130: 6eda 25ba c186 adbb 8b36 d03c 33e5 0ebc
00000140: cbc4 f4ba 1c5f 9a3c 5b85 80bb 7b70 53bb
00000150: fbcd 96bb 297b a2bb bb41 893b 3797 3f3b
00000160: f23d 5e3b 308d f9bb db53 f3bc f3fd 35bc
00000170: 4214 693b 215e 44bb b22c 3b3c e328 5bbb
00000180: 875a f7bb bcf1 b7ba c212 9b3c 95bf 763b
00000190: e00a 5eba cc88 40bc f037 f73b 6e91 93bc
000001a0: 8b2c c7ba c839 e63b 33fa 383c 97f0 96bb
000001b0: 2ea2 113a 4fe3 3d3c d733 93ba 0eb4 00bc
000001c0: 8043 55bc c39e 0c3c 539d abbb ae14 013c
000001d0: 3174 0c3c ba66 593c 3376 063c 5fc4 2abc
000001e0: 8f60 ec3c 3b64 213c 457f 5dbc eff4 7e3c
000001f0: 2735 923a 0a4d b53b d151 27bc c648 4b3c

onnx::LSTM_116 f4 [1, 512, 128]
0.0817014 -0.010579257 0.08138816 0.035805438 -0.07031313 -0.09522989 0.015711725 -0.054864097
0.01692172 0.017455084 -0.0057484577 0.053403553 0.15454146 -0.13342467 0.13573653 -0.08154727
-0.113963224 0.09659125 -0.042969245 0.015487136 -0.13166086 0.14844778 0.12037526 0.010098754
-0.019944683 0.13978383 -0.116405316 0.08904426 0.061828867 -0.10468582 -0.05133121 -0.044597767
0.04367434 0.09955078 0.08640845 0.07506064 0.15435556 0.023314917 0.1451119 -0.12806645
-0.032228038 -0.018356072 -0.07113372 0.028465515 0.09458073 -0.10123306 0.080670685 0.12747765
-0.041690454 0.011796995 0.1048892 0.14886712 -0.016117224 -0.091771565 0.1188224 -0.029426707
-0.020634629 -0.13695101 0.11711916 -0.019863611 -0.09003342 -0.10774522 0.0990438 -0.12916462
-0.023597151 -0.13956475 0.057196185 0.02596494 -0.032529484 0.12008186 0.14804937 -0.12753949
-0.12079682 -0.12919866 -0.1468722 0.08671307 0.014472429 -0.09135088 -0.015283096 0.081035756
-0.040256172 -0.017528923 -0.11583001 0.09107386 0.047940545 -0.08323407 0.020234156 -0.09824407
-0.13242547 -0.09950592 0.009397801 0.046577256 0.14694646 -0.032396574 0.060055245 -0.09651347
0.01729847 -0.015908584 -0.10781064 -0.0002101985 0.13186209 0.07096006 0.057997413 -0.1034892
0.021661673 -0.08671757 -0.0058734706 -0.08578412 0.12299839 0.03958726 -0.14500281 0.03280211
-0.10123133 0.06653948 0.053234484 0.14187877 0.004250346 0.015222043 0.00034211797 -0.034789693
0.029286418 -0.07647065 -0.06795729 0.12388086 -0.12800719 0.08384945 -0.10091486 0.12679623
-0.09782696 -0.0038642194 0.06720195 -0.1087201 0.005637741 -0.13785388 0.020277256 0.023679513
-0.009060105 -0.15128276 -0.0036174424 -0.05928275 0.1447365 -0.1458248 -0.0244807 0.027231338
0.07179108 -0.05242928 -0.006052785 0.0029042775 0.041360386 -0.06008933 -0.05702128 0.045921918
0.13135834 -0.12039065 0.007806168 0.07559888 -0.055675097 0.0003794818 0.111863 -0.101547234
0.014805925 -0.12353919 -0.09900548 0.12423376 -0.09214328 -0.059073932 -0.057744432 -0.08183913
-0.0072720977 -0.10984682 -0.16547875 -0.097099505 -0.15657556 0.012052933 -0.12818968 0.04289088
-0.11900214 0.102562755 0.13547444 0.0138512775 -0.14571209 0.13135403 -0.029689318 0.08455524
0.15665717 0.012956102 -0.02704008 -0.08470316 0.09110162 -0.11691621 0.12758237 0.09008806
-0.09949262 0.011438048 -0.08300854 -0.07531898 -0.116617806 0.046432044 -0.045165375 -0.11830112
0.056297496 -0.07050842 0.010490306 -0.14895387 0.053492077 0.046135705 0.038946476 0.075084485
-0.02501059 -0.12577653 0.108475685 -0.09688751 0.08497648 -0.10267415 0.07348398 -0.0006670636
-0.01350442 0.05904882 0.040174484 -0.027519545 0.016766727 -0.10330076 0.10798739 -0.091546185
-0.13616654 -0.0009893947 0.06876312 0.025826912 0.057638995 -0.043771055 0.034065686 -0.052496072
-0.14659819 0.07369239 0.14233643 0.081159994 -0.0067314026 0.021529133 0.010844659 0.04016188
-0.025472865 0.13649529 -0.10723872 0.12606564 0.08903052 -0.030041898 0.12850747 0.07074657
-0.13540547 -0.08000094 0.022224234 0.12699904 -0.015047962 -0.09126802 0.1364824 0.113737
00000000: 1053 a73d 9f54 2dbc d6ae a63d b9a8 123d
00000010: 5500 90bd e307 c3bd e0b5 803c 2db9 60bd
00000020: 6b9f 8a3c f7fd 8e3c 8f5d bcbb afbd 5a3d
00000030: 1e40 1e3e 7aa0 08be 84fe 0a3e 4102 a7bd
00000040: 8d65 e9bd a2d1 c53d 8500 30bd c2bd 7d3c
00000050: 1bd2 06be b202 183e 4e87 f63d 3f75 253c
00000060: 0863 a3bc 7e23 0f3e e965 eebd d65c b63d
00000070: 4440 7d3d 8565 d6bd ad40 52bd 26ac 36bd
00000080: dde3 323d 48e1 cb3d eaf6 b03d 65b9 993d
00000090: 620f 1e3e edfe be3c 3798 143e da23 03be
000000a0: 8c01 04bd 795f 96bc 8eae 91bd 8330 e93c
000000b0: 8bb3 c13d 4753 cfbd ac36 a53d 8089 023e
000000c0: 9cc3 2abd 2f48 413c 26d0 d63d 9f70 183e
000000d0: 4508 84bc bbf2 bbbd 2959 f33d 4710 f1bc
000000e0: f409 a9bc e33c 0cbe 2cdc ef3d 03b9 a2bc
000000f0: 7163 b8bd 87a9 dcbd 7ad7 ca3d bb43 04be
00000100: d04e c1bc 10ea 0ebe 8c46 6a3d 6db4 d43c
00000110: a33d 05bd 7aed f53d 419a 173e b699 02be
00000120: 5364 f7bd a74c 04be aa65 16be 9f96 b13d
00000130: c41d 6d3c 2c16 bbbd f365 7abc 13f6 a53d
00000140: a8e3 24bd d198 8fbc 4938 edbd ef84 ba3d
00000150: 4e5d 443d a076 aabd 1ac2 a53c 3034 c9bd
00000160: 8b9a 07be c3c9 cbbd 3cf9 193c cbc7 3e3d
00000170: 2279 163e 45b2 04bd 7dfc 753d dba8 c5bd
00000180: 85b5 8d3c b852 82bc d3cb dcbd bb68 5cb9
00000190: db06 073e 8253 913d b28e 6d3d 25f2 d3bd
000001a0: d273 b13c fb98 b1bd 3e76 c0bb 96af afbd
000001b0: 94e6 fb3d 4026 223d 9e7b 14be 815b 063d
000001c0: 5f52 cfbd da45 883d 670c 5a3d ab48 113e
000001d0: 7d46 8b3b e065 793c 4c5e b339 a37f 0ebd
000001e0: 12ea ef3c a59c 9cbd 312d 8bbd 40b5 fd3d
000001f0: 5114 03be 43b9 ab3d 73ac cebd dfd6 013e
00000200: 8059 c8bd d83e 7dbb 2da1 893d a5a8 debd
00000210: cdbc b83b 9129 0dbe 7d1c a63c 8afb c13c
00000220: d670 14bc dee9 1abe 9d12 6dbb 78d2 72bd
00000230: ce35 143e 1953 15be c08b c8bc 4114 df3c
00000240: 3407 933d 16c0 56bd 7156 c6bb b155 3e3b
00000250: 8269 293d 3b20 76bd 258f 69bd 9f18 3c3d
00000260: cd82 063e 608f f6bd e2ca ff3b 96d3 9a3d
00000270: 920b 64bd 2ff5 c639 6e18 e53d fff7 cfbd
00000280: 8d94 723c 1d02 fdbd 63c3 cabd 456e fe3d
00000290: 9eb5 bcbd 82f7 71bd 6d85 6cbd 469b a7bd
000002a0: c74a eebb 5ff7 e0bd 4373 29be 1bdc c6bd
000002b0: 5855 20be aa79 453c 2844 03be 59ae 2f3d
000002c0: 65b7 f3bd 6c0c d23d d0b9 0a3e 78f0 623c
000002d0: 8d35 15be ac81 063e 0337 f3bc 4c2b ad3d
000002e0: bd6a 203e d545 543c 2883 ddbc da78 adbd
000002f0: 7c93 ba3d c471 efbd f4a4 023e 1780 b83d
00000300: c9c2 cbbd a766 3b3c 6200 aabd d640 9abd
00000310: 51d5 eebd 872f 3e3d 54ff 38bd dc47 f2bd
00000320: 3498 663d b866 90bd 88df 2b3c 5d87 18be
00000330: 821a 5b3d cbf8 3c3d 5786 1f3d e5c5 993d
00000340: 02e3 ccbc 90cb 00be 8028 de3d f56c c6bd
00000350: 2608 ae3d d346 d2bd c57e 963d e1dd 2eba
00000360: a541 5dbc 2ddd 713d 008e 243d ab70 e1bc
00000370: 605a 893c 598f d3bd 7e28 dd3d 917c bbbd
00000380: 3e6f 0bbe 94ae 81ba aed3 8c3d f692 d33c
00000390: de16 6c3d 4749 33bd 7688 0b3d 1f06 57bd
000003a0: d61d 16be 09ec 963d a4c0 113e 3637 a63d
000003b0: 1993 dcbb dd5d b03c ccad 313c c980 243d
000003c0: 78ac d0bc 6cc5 0b3e f99f dbbd 5a17 013e
000003d0: a255 b63d 6d1a f6bc 7697 033e 94e3 903d
000003e0: bba7 0abe 88d7 a3bd 990f b63c 090c 023e
000003f0: ba8b 76bc baea babd 0bc2 0b3e f2ee e83d

onnx::LSTM_117 f4 [1, 512, 128]
0.04557074 0.11942884 0.06699951 -0.10806788 0.098978736 -0.15683948 -0.11114582 0.017614366
-0.068006754 -0.15049131 -0.04504811 0.14730026 -0.09629528 0.046847366 -0.107470155 0.023612356
-0.15325959 -0.029789401 0.014056712 -0.077383175 0.0047897524 0.119325995 -0.119266815 0.14938132
-0.08018303 -0.051742658 -0.0067473436 -0.09175649 -0.13941845 -0.06684303 -0.114663415 0.10485666
-0.12939546 -0.08256694 -0.050137818 -0.11102494 0.13043794 0.11679423 -0.14552593 0.08162064
0.067635566 -0.102932476 -0.063418634 -0.066293746 -0.106671095 0.09773759 -0.08185251 -0.045282215
0.0031774412 -0.044815764 -0.033897597 -0.098593146 0.091066316 -0.026748383 -0.069089785 -0.08986961
0.043722026 -0.014185214 0.12029906 0.08212638 -0.050895397 -0.049666736 -0.02621259 -0.05002354
-0.044229973 0.06503747 -0.1280178 0.025561552 0.025156315 0.056345303 0.14976297 0.07272696
-0.10914309 0.083004974 0.106961936 -0.0017635968 0.11920542 -0.049534265 -0.14501797 0.14315172
0.06945934 -0.037599143 0.03097341 0.07823609 -0.098815285 0.01775275 0.08591638 -0.0558039
0.0008313821 0.11316887 0.09025892 0.006490397 -0.066508725 0.11338285 -0.15347388 -0.0948748
-0.120146364 0.077397965 0.1145176 0.07389208 0.13043521 -0.024051981 0.07039515 -0.08865479
-0.084070474 -0.019355694 -0.013534954 -0.059661128 0.10295492 -0.13625883 -0.02680712 0.11902854
0.051899698 0.09808728 0.1259668 0.008152616 0.16095397 -0.15215541 -0.054481577 0.017446911
-0.0326084 0.07812168 -0.034757372 0.050441395 0.014096999 0.15951334 -0.0086480845 0.08779864
0.06960568 -0.08042941 0.13998997 -0.03850658 -0.08662674 -0.13596798 -0.15042669 -0.020513793
0.016402915 -0.04136947 0.13170324 0.12834954 0.017998304 -0.08107512 0.07684368 -0.11959666
-0.04756791 0.1001148 0.10660792 0.09406645 -0.1302523 -0.14835681 0.13450928 0.11954662
0.04525278 0.07871779 0.07457639 -0.12680349 -0.16122295 0.016504344 -0.11154437 0.12162575
0.1353066 -0.10175724 -0.06356839 0.08515383 0.08837723 -0.12781475 -0.003064202 -0.07387374
0.07748067 0.06469746 -0.077139005 -0.06095838 -0.049055185 -0.020050969 -0.0018690557 0.05457725
0.08965967 -0.085690744 0.037649408 -0.052177012 -0.042126574 -0.0011154533 -0.053566586 0.049360674
0.09260687 -0.05436226 -0.1415258 0.018894836 -0.1438422 -0.036835037 0.014642232 0.0003126119
0.06891065 0.023448346 0.110995 0.1266041 -0.09936307 -0.15356866 0.103148036 0.1062028
-0.13295417 0.04211862 -0.0018169663 -0.11532951 -0.0077260807 -0.00046294255 0.02464608 -0.031983133
-0.041931853 -0.07342567 -0.10662112 -0.04338681 -0.037415776 -0.06382155 0.050106525 0.053961456
0.12516268 -0.14353551 -0.06200809 -0.10243329 0.019128112 0.05401959 0.13677451 0.031701844
-0.06433968 0.010106213 -0.12705737 0.034354888 0.073039435 0.054719634 -0.11589657 0.115248896
-0.041882753 0.113797784 -0.0375809 0.13983609 -0.035482008 -0.06553938 -0.11505838 -0.020367272
0.11171897 -0.081034504 0.041044522 0.06405338 0.14344369 -0.04411037 0.06762941 -0.12719671
-0.11485069 -0.019835677 0.09498465 -0.14411561 -0.069669195 -0.0433906 0.1071055 0.020075437
00000000: 62a8 3a3d 1c97 f43d 0a37 893d b152 ddbd
00000010: 5db5 ca3d 879a 20be 6ba0 e3bd 014c 903c
00000020: 2047 8bbd 651a 1abe 5e84 38bd e1d5 163e
00000030: 7636 c5bd 06e3 3f3d 5019 dcbd b36e c13c
00000040: 15f0 1cbe e708 f4bc 204e 663c 127b 9ebd
00000050: 5bf3 9c3b 3061 f43d 2942 f4bd 6bf7 183e
00000060: 0037 a4bd 1cf0 53bd d218 ddbb d4ea bbbd
00000070: b6c3 0ebe 00e5 88bd a7d4 eabd 17bf d63d
00000080: 3e80 04be db18 a9bd 505d 4dbd 0b61 e3bd
00000090: 8691 053e d031 ef3d c004 15be b928 a73d
000000a0: 8484 8a3d 43ce d2bd a1e1 81bd 04c5 87bd
000000b0: 6076 dabd a52a c83d 4aa2 a7bd d879 39bd
000000c0: 9e3c 503b bc90 37bd 35d8 0abd 34eb c9bd
000000d0: fa80 ba3d 6d1f dbbc f27e 8dbd 8f0d b8bd
000000e0: de15 333d 1a69 68bc 5b5f f63d e031 a83d
000000f0: b177 50bd 596f 4bbd c9bb d6bc 7ce5 4cbd
00000100: 7d2a 35bd 5d32 853d 1917 03be 7666 d13c
00000110: 9e14 ce3c 55ca 663d 775b 193e dff1 943d
00000120: 6a86 dfbd 83fe a93d dc0e db3d 7d28 e7ba
00000130: f921 f43d 71e4 4abd 977f 14be 5d96 123e
00000140: b340 8e3d 8f01 1abd f3bb fd3c 3e3a a03d
00000150: ab5f cabd 376e 913c edf4 af3d a192 64bd
00000160: 1cf1 593a 15c5 e73d abd9 b83d 65ad d43b
00000170: ba35 88bd 4535 e83d 4228 1dbe b84d c2bd
00000180: 4c0f f6bd d382 9e3d 3488 ea3d bb54 973d
00000190: cf90 053e a908 c5bc 552b 903d a490 b5bd
000001a0: 242d acbd d58f 9ebc b6c1 5dbc 3a5f 74bd
000001b0: 07da d23d 6f87 0bbe 9b9a dbbc 3cc5 f33d
000001c0: c794 543d fce1 c83d 71fd 003e 8d92 053c
000001d0: 1ed1 243e a1ce 1bbe 1328 5fbd d3ec 8e3c
000001e0: 6390 05bd 42fe 9f3d bf5d 0ebd a39b 4e3d
000001f0: 19f7 663c 7757 233e b2b0 0dbc c6cf b33d
00000200: 6c8d 8e3d 2db8 a4bd 8859 0f3e 13b9 1dbd
00000210: 5c69 b1bd 313b 0bbe 7409 1abe 8b0c a8bc
00000220: 685f 863c 0973 29bd 37dd 063e 106e 033e
00000230: 2e71 933c b60a a6bd 3860 9d3d 18ef f4bd
00000240: 92d6 42bd fd08 cd3d 4155 da3d e9a5 c03d
00000250: dc60 05be d9ea 17be cdbc 093e dcd4 f43d
00000260: fb5a 393d cb36 a13d 82bb 983d c6d8 01be
00000270: a117 25be 1e34 873c 6071 e4bd ec16 f93d
00000280: d08d 0a3e 1a66 d0bd 2530 82bd 2265 ae3d
00000290: 1fff b43d dfe1 02be c7d0 48bb 1e4b 97bd
000002a0: 2fae 9e3d 1a80 843d 0efb 9dbd 7faf 79bd
000002b0: 17ee 48bd ee41 a4bc 1afb f4ba 658c 5f3d
000002c0: 7d9f b73d a17e afbd 4436 1a3d 90b7 55bd
000002d0: ea8c 2cbd 6734 92ba a368 5bbd 6b2e 4a3d
000002e0: aca8 bd3d f6aa 5ebd 24ec 10be 58c9 9a3c
000002f0: 5f4b 13be 56e0 16bd f9e5 6f3c 0fe6 a339
00000300: 0721 8d3d bf16 c03c 5951 e33d 81a4 013e
00000310: de7e cbbd 1a41 1dbe 473f d33d db80 d93d
00000320: 2325 08be 9384 2c3d 4627 eeba e131 ecbd
00000330: 102b fdbb 19b7 f2b9 93e6 c93c bf00 03bd
00000340: bcc0 2bbd 3360 96bd 2c5c dabd 5eb6 31bd
00000350: 4941 19bd dfb4 82bd 803c 4d3d b006 5d3d
00000360: a52a 003e f9fa 12be 32fc 7dbd 8bc8 d1bd
00000370: 8fb2 9c3c a543 5d3d 9e0e 0c3e cbd9 013d
00000380: 86c4 83bd 8894 253c 541b 02be b6b7 0c3d
00000390: b395 953d b221 603d 2e5b edbd 9d07 ec3d
000003a0: 408d 2bbd d00e e93d 6eee 19bd 3131 0f3e
000003b0: 9555 11bd 8339 86bd baa3 ebbd 44d9 a6bc
000003c0: eacc e43d 6bf5 a5bd 4d1e 283d 6b2e 833d
000003d0: e7e2 123e 13ad 34bd 4a81 8a3d db3f 02be
000003e0: d736 ebbd 6e7e a2bc 5087 c23d 0b93 13be
000003f0: b9ae 8ebd 57ba 31bd 215a db3d 3e75 a43c

onnx::LSTM_118 f4 [1, 1024]
-0.0032566465 0.010396829 -0.006690243 -0.0027115787 0.0049158665 -0.020637697 -0.003974374 0.001526415
0.0155635625 0.01155624 -0.014677007 0.0030957423 0.019777346 -0.005198784 0.0019947093 0.00898056
0.005507976 0.0048753996 -0.013172395 0.014857777 -0.0026176202 -0.004286013 0.021410849 0.012639008
0.006427192 0.008200677 0.012148937 0.0052000233 0.021470852 0.023837866 -0.00029997132 0.0055689076
0.005723626 0.012946992 -0.005374703 -0.0006094507 0.0037796695 0.016029255 0.0017961808 0.00491676
0.00443142 0.00838847 0.0102892425 0.011140703 0.005658054 -0.010354585 0.012962712 -0.009348297
-0.008523373 -0.0049050422 -0.003169771 0.006191682 0.013356185 0.0002329648 0.009058863 0.006917522
-0.0077234474 0.0008653229 -0.00035839135 0.0012264389 -0.010097496 0.0037652652 -0.0040132436 0.011675819
0.013770163 -0.0071890554 0.007986975 -0.004185292 0.0027349084 -0.0005722881 -0.0028248667 -0.0028598558
-0.0035308495 0.011574355 0.0017765188 0.026132043 -0.00666219 -0.002061436 0.020801956 0.0015251546
0.011669992 0.008269627 0.0063957605 0.0054058745 -0.0057904697 0.015140819 0.01789134 -0.0008106154
0.022604482 8.954477e-05 0.0059020407 -0.0037126811 0.005720001 0.0025213163 -0.003979041 0.01182271
0.019747 -0.0077519245 -0.0045428122 0.011943109 0.0049137343 -0.0019596813 0.005789851 0.014485882
-0.0060978695 0.0031063068 0.00404798 0.02848724 -0.0053985757 0.019622952 0.002809956 0.012328264
-0.0040874775 -0.01410695 0.0024479157 -0.007157427 0.0069889585 -0.010139532 0.0062154387 -0.00053069793
0.00016878112 0.0070707025 0.008797888 0.008126667 0.00038612806 0.006911625 0.0028954279 0.0010087894
-0.011935345 0.004210589 -0.008029507 -0.0037701374 -0.004647823 -0.0059423493 -0.006221526 -0.009633903
-0.0009770148 0.009632709 -0.012844854 0.008257743 0.0056295497 -0.011062251 -0.0071859565 0.020058827
-0.0013277986 0.003608563 -0.012318648 0.0030473594 0.0010549801 -0.0028541007 0.013234872 -0.00045942137
0.0067717778 -0.005883601 0.014945243 0.00185267 0.009643122 0.007702886 -0.009664529 0.0043182736
0.00072550814 -0.0022199883 -0.007399253 -0.013351618 0.0058622146 0.014430161 -0.005309138 0.0045366557
0.017111586 0.010817033 0.012166868 0.014751737 -0.0067029363 -0.0066233603 -0.0015243519 0.00047505408
-0.005337745 0.001440857 -0.0075706104 0.00019910534 0.003045584 -0.003946484 0.0075345407 -0.014840212
0.002697962 0.0027859947 -0.0021488122 0.00025186944 0.025002846 -4.161863e-05 -0.004552787 0.008468624
0.0016031314 0.0043829093 0.0034482295 -0.003893875 0.0032327774 0.00059480953 -0.008254624 -0.0032951913
0.0052731186 0.0009283694 0.0065254793 0.0066869613 0.003241385 0.0018914446 0.017542649 0.009284001
0.008644632 0.020047814 0.0012094361 0.010228279 -0.009075262 0.012805009 0.009802408 0.0051924246
0.007031865 -0.0038310771 -0.0069262157 -0.010096915 0.005457457 0.006164969 -0.013082497 0.008170048
-0.01579718 0.003396888 0.0023714856 0.013773403 0.0043136617 0.0024753127 0.008738337 -0.0006973131
-0.009400695 0.0017911053 -0.004629412 0.0150224855 -0.009330901 0.0155010745 0.006194907 0.0017651387
-5.3091273e-05 -0.0046333196 0.0025011355 -0.0056992606 0.002285634 -0.010095792 -0.0036897014 -0.010458094
-0.0041785804 0.013228762 -0.0055453703 -0.017324427 -0.00955338 0.002569322 0.008194283 -0.00049646985
00000000: 766d 55bb 7657 2a3c d339 dbbb beb4 31bb
00000010: 4715 a13b 6310 a9bc 773b 82bb fd11 c83a
00000020: 50fe 7e3c 6256 3d3c d477 70bc f0e1 4a3b
00000030: 1a04 a23c 905a aabb abb9 023b 3323 133c
00000040: 407c b43b d1c1 9f3b 07d1 57bc 096e 733c
00000050: 618c 2bbb af71 8cbb ce65 af3c d813 4f3c
00000060: 329b d23b 225c 063c 560c 473c f564 aa3b
00000070: a4e3 af3c a147 c33c 7845 9db9 627b b63b
00000080: 418d bb3b 9f1f 543c 471e b0bb 8bc3 1fba
00000090: 55b4 773b c94f 833c d46d eb3a c61c a13b
000000a0: 7235 913b cb6f 093c 3694 283c 7f87 363c
000000b0: 3267 b93b 47a6 29bc 8e61 543c 9929 19bc
000000c0: 9ea5 0bbc 7aba a0bb efbb 4fbb 98e3 ca3b
000000d0: e6d3 5a3c 0348 7439 a06b 143c 61ac e23b
000000e0: f914 fdbb d6d6 623a 79e6 bbb9 76c0 a03a
000000f0: f86f 25bc abc2 763b 8781 83bb ef4b 3f3c
00000100: 409c 613c 2b92 ebbb cddb 023c c624 89bb
00000110: 263c 333b 9b05 16ba 6621 39bb 6b6c 3bbb
00000120: d365 67bb 5da2 3d3c 14da e83a de12 d63c
00000130: 804e dabb 2819 07bb dd68 aa3c b2e7 c73a
00000140: 7e33 3f3c 547d 073c 8793 d13b c323 b13b
00000150: fbbd bdbb 3311 783c dc90 923c 7b7f 54ba
00000160: 092d b93c fbc9 bb38 e865 c13b 7450 73bb
00000170: d96e bb3b ab3c 253b 9d62 82bb 0ab4 413c
00000180: 76c4 a13c db03 febb dfdb 94bb 08ad 433c
00000190: 6403 a13b ff6d 00bb cab8 bd3b 3156 6d3c
000001a0: a3d0 c7bb 2e93 4b3b eba4 843b 135e e93c
000001b0: 89e6 b0bb 50c0 a03c 3d27 383b 7dfc 493c
000001c0: 3ff0 85bb d620 67bc 366d 203b d988 eabb
000001d0: a203 e53b 4820 26bc e1aa cb3b 891e 0bba
000001e0: d6fa 3039 5ab1 e73b 0425 103c b625 053c
000001f0: 3b71 ca39 ea7a e23b 38c1 3d3b 5b39 843a
00000200: 778c 43bc fbf8 893b 318e 03bc 6914 77bb
00000210: c44c 98bb 0ab8 c2bb f1dd cbbb 85d7 1dbc
00000220: 2d0f 80ba 83d2 1d3c 3973 52bc 7c4b 073c
00000230: 1678 b83b 723e 35bc 2c78 ebbb 6952 a43c
00000240: 8709 aeba a47d 6c3b 28d4 49bc 35b6 473b
00000250: 4247 8a3a dd0b 3bbb 14d7 583c 7ede f0b9
00000260: cae5 dd3b 39cb c0bb e4dc 743c 4ad5 f23a
00000270: 2ffe 1d3c 7e68 fc3b f957 1ebc 4e80 8d3b
00000280: 0730 3e3a 397d 11bb 6f75 f2bb bfc0 5abc
00000290: d217 c03b 7b6c 6c3c 47f8 adbb 3aa8 943b
000002a0: 992d 8c3c ed39 313c 8b57 473c 45b1 713c
000002b0: 4ea4 dbbb c608 d9bb c3cc c7ba ae10 f939
000002c0: 40e8 aebb 23db bc3a e212 f8bb efc6 5039
000002d0: 6c98 473b 8251 81bb 4fe4 f63b 5c24 73bc
000002e0: 4bd0 303b 3c95 363b 16d3 0cbb 580d 8439
000002f0: c5d2 cc3c aa8f 2eb8 8c2f 95bb fcbf 0a3c
00000300: 2a20 d23a 829e 8f3b b1fb 613b 6230 7fbb
00000310: 01dd 533b feec 1b3a 673e 07bc 23f4 57bb
00000320: 20ca ac3b d15d 733a b0d3 d53b 4c1e db3b
00000330: 6b6d 543b 59ea f73a 9ab5 8f3c ec1b 183c
00000340: 37a2 0d3c 503b a43c f185 9e3a 8394 273c
00000350: 68b0 14bc 1acc 513c 479a 203c 3725 aa3b
00000360: 8f6b e63b cf12 7bbb 4ff5 e2bb 886d 25bc
00000370: 78d4 b23b 8203 ca3b f857 56bc aadb 053c
00000380: 1669 81bc 539e 5e3b ed6a 1b3b d7a9 613c
00000390: 9e59 8d3b db38 223b 3e2b 0f3c e4cb 36ba
000003a0: 5f05 1abc 85c3 ea3a 53b2 97bb df20 763c
000003b0: a3e0 18bc 38f8 7d3c a5fe ca3b 3a5c e73a
000003c0: 52ae 5eb8 1ad3 97bb 17ea 233b ddc0 babb
000003d0: 93ca 153b d268 25bc ebce 71bb 6d58 2bbc
000003e0: 79ec 88bb 73bd 583c f0b5 b5bb f5eb 8dbc
000003f0: c885 1cbc 1262 283b 5041 063c 8725 02ba
