Assets/ML-Agents/results/sshipMovMod2Test01/ShipMovementImitation/ShipMovementImitation-49959.onnx (onnx, 605703 bytes, 9 tensors)

network_body._body_endoder.seq_layers.0.weight f4 [128, 1]
00000000: eaa4 b9bd 43d9 34be 01d3 be3f fb66 b53f
00000010: 38e6 283f 7f3a 4fbe 3f15 453d 69a0 29bf
00000020: 6d24 1bbf 0be3 fa3d 72ac 0bc0 7738 653f
00000030: feb4 643f 1378 523f 793e dd3c bd74 06be
00000040: a81a ca3f 8ba6 463f 3e28 ecbf 3dd5 a5be
00000050: 2900 783f 73d5 863f a001 aebf 5bac 9b3f
00000060: b977 3abf fd40 3a3d 47cf 213f 02ed 993f
00000070: f588 a7bf fd11 fbbe 8bc8 833f f2ba 553e
00000080: 2a7b c2bf cb19 e23f 7103 a8be ab4d d93f
00000090: 669a 9dbf 81d5 75bf d253 143e 4931 7c3e
000000a0: 9b7b 6d3f 123d 813e cd5a 0ebf 5d92 f6bf
000000b0: a7be b33d e573 3c3f 59a4 e3be b8fd e9bf
000000c0: a083 973c 9fc2 bf3c 262e 9a3e 4e31 1b3f
000000d0: 3219 13bf 9e9d d33f 844e b3bf b81d cfbf
000000e0: e378 fc3e fab7 433f 4f5f 2a3f a23f 6e3f
000000f0: 53cb 213f 5381 873e 0e81 3dbf 02ed eabd
00000100: 991e 603f f6ff 52bd a6b2 d2bf 9ec1 11be
00000110: 1cad ec3f 7602 70bf e49b 6dbf 042f c4bf
00000120: 1a37 14bf 1de6 f93e ca41 873f 2598 31be
00000130: 1ee0 2ebf 030b 683f 9dfe aa3f efb6 dbbd
00000140: 180b c53e 4b97 afbe c101 0940 0188 c2bd
00000150: 9a09 1b3e ccc1 033f 1c45 fa3e c590 6e3f
00000160: c632 7d3f 6480 d03e 6f27 7bbd 677a 963c
00000170: 9b0e de3f 58a3 783f 0169 a0be f82e a03e
00000180: 24cc 093d 3457 ccbc a1d5 56bf 61dc 5f3f
00000190: e192 8b3e 7666 253f 937c 23be 0966 49bf
000001a0: db96 a8bf 922a 30bf 5281 533e b580 4d3f
000001b0: 5b7a f9be dbbd fe3e 3deb fa3e c598 0bbf
000001c0: c20a e0bd fc09 fdbe 6eb3 8fbf 278f 493f
000001d0: ccaf 32be d924 e6be d71d 0ebe 2028 d3bf
000001e0: d792 c6be 9eab 85be ea37 82bf 2bdf 763f
000001f0: 8cb7 d4be 0468 873f 2525 2dbe 014a aabf
-0.09064658 -0.17661004 1.4908143 1.4172052 0.65976286 -0.20237158 0.048115965 -0.6626039
-0.60602456 0.12250336 -2.1824002 0.89539284 0.8933867 0.8221447 0.027007328 -0.1313047
1.5789385 0.77597874 -1.8449781 -0.3238925 0.96875244 1.053389 -1.3594246 1.2161974
-0.7283893 0.045472134 0.63206905 1.2025454 -1.3088671 -0.4903716 1.0295576 0.20872095
-1.5193837 1.7664121 -0.32815126 1.6976827 -1.2312744 -0.96028906 0.144851 0.24628176
0.9276673 0.25241905 -0.556073 -1.9263417 0.087765984 0.7361434 -0.44461325 -1.8280554
0.01849538 0.023408232 0.30113333 0.6062211 -0.5746032 1.6532476 -1.4008336 -1.6180944
0.4931098 0.764526 0.6655168 0.93065846 0.63200873 0.26465854 -0.74025047 -0.11470987
0.8754669 -0.051513635 -1.6460769 -0.14234015 1.8490329 -0.93753755 -0.92815995 -1.5326848
-0.5789658 0.48808375 1.0566952 -0.17343195 -0.68310726 0.906418 1.3358952 -0.10728251
0.38485026 -0.34295115 2.140732 -0.09498597 0.15140381 0.51467586 0.4888085 0.9318965
0.989056 0.40722954 -0.061316904 0.018368913 1.7348207 0.9712424 -0.31330112 0.31285834
0.03364195 -0.024943925 -0.8391972 0.87445647 0.27260497 0.6460947 -0.1596549 -0.7867132
-1.3171037 -0.6881496 0.206548 0.80274516 -0.48726162 0.49754223 0.49007598 -0.5452998
-0.10939552 -0.4942168 -1.1226633 0.7873406 -0.17449874 -0.44949988 -0.1387857 -1.649662
-0.38783905 -0.26107496 -1.0173314 0.9643428 -0.41546285 1.0578618 -0.16908701 -1.3303834

network_body._body_endoder.seq_layers.0.bias f4 [128]
00000000: e1d8 a83a 06e4 a23b cf12 3abc 83d7 ef39
00000010: e6b9 1dba daff d3b9 5fed 783b fe05 c63a
00000020: dbe7 76bb 54e5 1ebb 9846 0c3c 3b21 46ba
00000030: b843 a4ba e021 153c 74f9 62ba 5fc0 c83b
00000040: 8554 86bb d51d 663b 51b9 9b3b 40dc af3b
00000050: f3a3 5b3b dd1e 31bc e7a2 233c 5959 f5ba
00000060: 6d25 0fbb 767f 08bc b44a 56bb f057 7a3b
00000070: b03d e93b 2ff7 1dbb 1049 c83b ff9e 163c
00000080: 2dc6 8fbb 7f19 cc3b 8612 823b b942 223c
00000090: 9545 813b 8985 2fbb ba9b a6ba a948 89ba
000000a0: 71e3 be3b a71c 023c 5600 2ab9 14c9 cf39
000000b0: 32ba 92bb e78f 953b f430 d538 bd68 c8ba
000000c0: 5eaf d4ba 0414 d73b 8b87 12bc 3812 e6bb
000000d0: 2073 d4ba 7788 3c3c 72b4 073b 3b14 ef3a
000000e0: eafe a73b a60c 97b9 d585 e83b 5aa7 1a3b
000000f0: 0bb3 353b 3058 c43b a05b cd3b 9607 203b
00000100: b653 033c 8596 863b 55ee a0bb df03 2a3b
00000110: 8004 37b8 8104 0b3b 0ce8 87ba 9a3b d8b9
00000120: 23dd 473b ce2b ecbb 75cb 0dbc c30f 5c3b
00000130: 0c0f 0c3b 781c 4db7 e568 973b 3cf8 16bc
00000140: f1a1 27bb 999e e6bb d093 fabb 6f1f dabb
00000150: aabc 8c3b bbb6 e7bb 8220 243c 14b3 f33b
00000160: 5e27 203c 402f 0f3c aba5 b5bb 93e9 2cbb
00000170: 4729 c03a a52a 0ebc 2c8a 893b e251 ea3b
00000180: d397 a7ba a321 b73b aaf2 1dba d0ca 06bc
00000190: 0eaf 5fbb f527 00bc 1633 d0bb 3e85 20ba
000001a0: 9890 b7bb dbcf 14bc c264 be39 5488 0b3c
000001b0: 66b7 88bb 1ae0 b33b a88b c9bb d3af 6b3b
000001c0: d4e0 26bb 6da7 763b 7f3b 4e3b ed52 6f3b
000001d0: 5ffd 243b 7247 51bb c088 48bb 7aa3 843a
000001e0: 7896 b93a 8ff7 b4ba ffa3 deba 7cfe 58bb
000001f0: 360f 6bba 1036 51bb 5b64 1a3b 204c 9338
0.0012882018 0.00497103 -0.011357023 0.000457462 -0.0006016776 -0.0004043568 0.003798328 0.0015107987
-0.0037674818 -0.0024245577 0.008561753 -0.00075580523 -0.0012532389 0.009102315 -0.0008658387 0.006126448
-0.004099431 0.0035112996 0.004752316 0.005366832 0.003351447 -0.010810581 0.009987569 -0.0018718644
-0.0021842376 -0.00833117 -0.0032698335 0.0038199387 0.0071179494 -0.0024103632 0.0061122254 0.009193181
-0.004387638 0.0062286253 0.0039694933 0.009903603 0.0039450624 -0.0026782474 -0.0012711205 -0.0010473925
0.005825453 0.007941402 -0.00016212589 0.00039631932 -0.0044777626 0.0045642736 0.0001016575 -0.0015290004
-0.001622658 0.0065636653 -0.008943449 -0.007021215 -0.0016208626 0.011507145 0.002070692 0.0018240282
0.0051268237 -0.00028810388 0.007096032 0.0023598284 0.0027725126 0.005991958 0.006267026 0.0024418584
0.008015564 0.004107299 -0.004911224 0.0025942249 -4.363479e-05 0.0021212401 -0.0010368838 -0.00041243137
0.0030496798 -0.0072073704 -0.008654465 0.003357873 0.0021371273 -1.2225581e-05 0.0046206587 -0.009214457
-0.0025578702 -0.0070379493 -0.007647015 -0.006656579 0.0042949514 -0.0070713437 0.010017516 0.0074371193
0.009775011 0.008739293 -0.005543431 -0.0026384338 0.0014660739 -0.008677159 0.0041973796 0.0071508745
-0.0012786336 0.0055887266 -0.00060252345 -0.008227065 -0.003413144 -0.0078220265 -0.006353746 -0.000612337
-0.0056019537 -0.00908276 0.00036314694 0.00851639 -0.0041722534 0.0054893615 -0.0061506815 0.0035962954
-0.0025463598 0.0037636415 0.0031468568 0.0036517933 0.0025175435 -0.0031933454 -0.0030599087 0.0010119521
0.0014159223 -0.0013806688 -0.001698613 -0.003311067 -0.0008966805 -0.0031923093 0.0023558352 7.0236856e-05

network_body._body_endoder.seq_layers.2.weight f4 [128, 128]
00000000: 5156 bfbc d384 b23d 32c8 293e ad3a 14bc
00000010: 7f38 70bd 1d44 d23c d89e fdbd 64fd 3cbd
00000020: 7476 8dbd b647 1d3c 8904 c63d c138 bf3c
00000030: e277 a23d 703a 2d3d 5f6a cc3d 6358 6f3d
00000040: 6664 1c3d 6c51 d6bc 9325 003d f854 3bbd
00000050: 72f5 bc3c 4a3e c6ba edeb 173e 46ef 1abb
00000060: eef8 dcbc 0146 83bb 937e e23d 2f6e 2ebe
00000070: 8f9c 113e 43db 8bbc 8981 4f3c 2042 053e
00000080: 5045 1bbd 9adf d63c db0b d7bc e5fa 123e
00000090: c1f6 fdbb 9c03 1c3e 131d a73b 52ea ab3d
000000a0: 8557 0fbe c15e 7dbb 6bce 013e 1225 5b3d
000000b0: 2ee4 27bb 964a b33a 0b42 c03d 4a96 bfbd
000000c0: 884e 16bd 2125 383b 131e 023e a75b f83d
000000d0: 1ca4 ce3b 5f98 343d 2f9f 8fbd 94e8 03be
000000e0: 6599 323e b5af d1bc 653e 903e 31f1 a03c
000000f0: 221d 8cba 8eef 1f3e 6559 433d 44ec c73d
00000100: d3bf a4bd bffb b0bd d81a 71bb ef12 adbd
00000110: 9a72 ca3d 414a f4bc f9e9 95bc 2bb9 473d
00000120: 64f1 173d 406a ea3c 558c 143d ff9b a8ba
00000130: a840 e13d 9330 24bd 0dd2 a8bd 9b4a a83d
00000140: b49d debc c6ea 8a3d aeb8 733d 031d 25bd
00000150: 6dcb 76bc 3858 933d 9824 fbbd 54fe d33c
00000160: c4cd d23d c31b 1d3e 1732 8bbd 95eb aabd
00000170: ef1b f23d 2886 d03d 2592 bbbd 50ac 6cbc
00000180: d118 003e 40bb da3d 397c b6bc 8823 fcbc
00000190: ce0d 3e3d c08c d53d 701d 83bd 5230 da3d
000001a0: 2c81 b8bd 3570 8a3c 6ef5 1b3a 858c 30be
000001b0: 81e6 ddbc 353e a6bd ab57 c5ba 1033 d13b
000001c0: 4390 80bd 128a fd3d 1349 b23d e33a 01bd
000001d0: 9484 a2bd 2b66 86bd e874 053e d290 55be
000001e0: 0501 32bd 42bb 663d 1bb5 dfba 4ffd 393d
000001f0: ebad 263e 8ac8 a43d cc53 f0bc a29b 48bd
00000200: b964 18bd bbb7 2f3d c184 013e b172 18bd
00000210: f2fd 46bd d6d6 8abd 3a81 9fbd 1178 0d3c
00000220: c8de fcbc ac7c c43d 3b2d 84bd c787 f5bc
00000230: 06a3 7c3d afe2 fdbc 1ea8 63bd 6874 533e
00000240: 1c6a 783d bf6a a9bc 19e5 d2bd 8935 093d
00000250: 03e9 e53b c575 dbbc c5a1 993d 958f 5d3b
00000260: 158f cbbc 8d00 b53d 6a2f bf3c 06b6 6f3d
00000270: b61a b83d 5e97 d63d a889 ad3d 68b5 243d
00000280: a0f7 393e b81a bcbd 4ef5 51be 37a1 43be
00000290: 4f68 713d 7c23 a73d ca58 9b3d e84e d8bc
000002a0: 993b 033c e421 9c3b 6830 123b e6b9 fa3c
000002b0: 97e8 1abd c38c 1d3d 7a51 41bd af7c 4f3d
000002c0: 227b c33d 2f9a 973d f4d6 d83d 5afb 22ba
000002d0: adce c93c a9bd 79bd c120 44bd 8a13 4ebd
000002e0: c80d b33c 709f 5dbe 55dd cf3d fdc6 a93d
000002f0: 69b1 b9bd 1067 e73c 2ac2 2a3b 7319 4e3d
00000300: 8a8a 8e3d 31f6 0c3d cc04 babc 582b 51bc
00000310: aa6d 583d 9064 ad3c 2aa2 a43d 8694 ee3d
00000320: 59a2 af3c c477 e9bd c2be a73d 0ea3 0c3e
00000330: bd75 3bbd 2e6e b93d 4243 c83c b405 173d
00000340: dfac 853d decd 883d ae82 48bd bb80 9fbd
00000350: 52de 063e f851 b93d c9b0 4bbd e082 20bc
00000360: ab2e d3b9 1850 91bd e7cb 623d 9ea6 283d
00000370: ab82 1fbd 7d5e 1d3e dcf0 9c3c b094 7e3d
00000380: d0df 173d 27f7 8f3e 9614 29bd c65e e73c
00000390: 6e56 a23d e5de 003e c899 523d 1100 5b3d
000003a0: fdc4 323d 25f8 f03d 29bc 16be b77c 19bd
000003b0: fc38 6bbe ae07 26be 9af4 14be 976c 11bd
000003c0: 5ae0 11bd 3134 e63d 5c73 36bd 705c bd3d
000003d0: d17c 13be e34f bb3b 3b5d d7bd fe73 e63d
000003e0: 172a 22be 1803 eabd 88b2 fc3d 7b7f d8bc
000003f0: 276a ffbb 255d e6bd 142e bbbc 011c e23c
-0.023356589 0.087167405 0.16580275 -0.0090471925 -0.05864763 0.025667245 -0.12383813 -0.04614009
-0.06907359 0.009599617 0.09668834 0.023342492 0.07933022 0.04229206 0.09981226 0.0584339
0.038181685 -0.026161872 0.031285834 -0.04573533 0.023066256 -0.0015124765 0.14836092 -0.0023641153
-0.026974168 -0.004006148 0.11059298 -0.17034219 0.14219879 -0.017072326 0.012665161 0.13013506
-0.0379079 0.026229668 -0.02625077 0.14353521 -0.0077503626 0.15235752 0.0050999015 0.083943024
-0.1399823 -0.0038661214 0.12676398 0.05350215 -0.0025618183 0.0013678845 0.09387597 -0.09354837
-0.036695987 0.0028098302 0.12706785 0.12126856 0.0063061845 0.044090625 -0.07012784 -0.1288169
0.17441328 -0.025596479 0.28172603 0.019646259 -0.0010689835 0.15618727 0.047692675 0.09761861
-0.080444 -0.08641767 -0.0036789682 -0.08450877 0.0988514 -0.029820563 -0.018300043 0.048760574
0.037095442 0.028615117 0.036266644 -0.0012863873 0.1099866 -0.040085386 -0.08243189 0.08217355
-0.027174808 0.06783061 0.059502296 -0.04031087 -0.015063149 0.07194561 -0.12262839 0.025878109
0.10293153 0.15342622 -0.06796663 -0.08345715 0.11821734 0.10181838 -0.09158734 -0.014445379
0.12509467 0.10680246 -0.02227603 -0.030778661 0.046399884 0.104272366 -0.06402099 0.106537476
-0.090090126 0.016899208 0.00059493526 -0.17241104 -0.027087452 -0.08117334 -0.0015056034 0.006384261
-0.06277516 0.123798504 0.08705344 -0.0315503 -0.079354435 -0.06562456 0.13032877 -0.20856026
-0.043458004 0.056330927 -0.0017067523 0.04540759 0.16277282 0.08046062 -0.029336832 -0.048976548
-0.03720543 0.04289983 0.12648298 -0.037218753 -0.048582025 -0.06779258 -0.0778832 0.008634583
-0.03086795 0.09594092 -0.064539395 -0.02997197 0.06167891 -0.03099188 -0.05558025 0.20649874
0.06064807 -0.020680783 -0.10297603 0.03349832 0.0070163026 -0.026789555 0.07501558 0.0033807505
-0.0248485 0.08837996 0.023338038 0.0585232 0.0898947 0.1047809 0.084735215 0.040212065
0.18160868 -0.09184784 -0.20503733 -0.19104467 0.058937367 0.08161065 0.075852945 -0.026404813
0.008009815 0.0047647823 0.0022306684 0.030606221 -0.03781947 0.03846432 -0.047196843 0.050656017
0.0954497 0.07402455 0.10587874 -0.0006217264 0.024634684 -0.06097189 -0.0478828 -0.050311603
0.021857157 -0.21642852 0.101496376 0.08289907 -0.090670414 0.028247386 0.0026055672 0.05031724
0.06960018 0.034414474 -0.022707365 -0.012766682 0.05283896 0.021166116 0.08038743 0.11649422
0.021439718 -0.113997966 0.08190681 0.13734075 -0.04576658 0.09054218 0.024446134 0.036870673
0.06527113 0.06679891 -0.04895275 -0.07788225 0.13170746 0.090488374 -0.049729142 -0.009796828
-0.00040279826 -0.07095355 0.055370238 0.041174524 -0.038942974 0.15368076 0.01915782 0.06215352
0.03707868 0.2811825 -0.041279398 0.028243434 0.079266414 0.12585028 0.05141619 0.05346686
0.043644894 0.1176608 -0.14720215 -0.037472453 -0.22970957 -0.16213867 -0.14546433 -0.03550395
-0.03561435 0.112404235 -0.04454361 0.09246147 -0.14403082 0.0057163103 -0.10515829 0.112525925
-0.15836369 -0.11426371 0.1233874 -0.026427975 -0.007794637 -0.11248235 -0.02284912 0.027601244

network_body._body_endoder.seq_layers.2.bias f4 [128]
00000000: d3a7 433b 2c34 67bb 7071 fbbb d777 b73a
00000010: e5c9 9fbb 4de3 013b b30b a43b ba6a 50b8
00000020: b558 cfba 2d05 b5bb fe5b 303b eb6e e539
00000030: da68 203c b8e5 14bb f4ca d33b 9e59 3fba
00000040: 41d0 023b 689f 8abb 7c13 c7ba f910 96bb
00000050: 9cac 3bbb 1854 a23a 35a4 963b ef92 353c
00000060: 433e b33a def6 043b 8cdf b2bb 5b8e 663b
00000070: d86b b73b 5e42 923b 81a6 8b3a 2e48 57bc
00000080: d87c 36bb 86f0 99bb 962a 20bc 4371 1abb
00000090: c239 a5ba 76f2 243b 4d18 c3bb fa89 393c
000000a0: 560a 08bc 14d6 25bc 40c4 943a 2da1 af3a
000000b0: 74d9 f2bb a77d 233c d1e8 c9bb 2aa5 2a3a
000000c0: 34e2 fb3b 92ac 423c 4205 b9ba d5e2 bfba
000000d0: 8650 02bb c5b7 973a 997f 0ebb 28e6 0bbc
000000e0: a4ee 363b bfe2 92b8 82c4 56bb 83ad 2cbb
000000f0: 8ef3 d83b e670 81b9 62e7 c73b affc 9139
00000100: 362c 01bb 97b6 233b df45 a53b 142f 1cba
00000110: cf5e 9fbb 7837 203a d1e0 b5bb f8e4 6db7
00000120: e3b7 27ba 9526 71bb a515 04bc d213 05bc
00000130: ee85 223b d080 c4ba 928c e2ba 0374 3dbc
00000140: de18 5fbb a629 c8b9 f9cb c43b cda3 98bb
00000150: 1f0e a63b 94b1 e2bb d668 953b 481c 7d3b
00000160: fe7f 97bb c733 dd3b acbc 22bb 341f 2f3a
00000170: b92c 70ba b405 a0ba 885b 753b 56d0 0b3a
00000180: fed3 8fbb a3c2 733b 03c7 d63b b18f 14ba
00000190: e9c3 99b8 255f e03a 4924 0d3c b3dd 233c
000001a0: edd1 efbb e34c a9ba ab4f 4a3b 6c95 61bb
000001b0: ae76 99bb 5136 72bb 65bc fdbb 5535 323c
000001c0: 3706 35bc c426 20b7 ea81 35bc 658d 033c
000001d0: 8d34 c93b 61b1 8dbb 32f7 3cbb 12f8 c93b
000001e0: 5ad1 e4ba fd7e 8bbb 2034 ce3b e435 e7bb
000001f0: 25d3 e13b 9843 283b 7ca9 88bb 403b d238
0.002985467 -0.00352789 -0.007673435 0.0013997507 -0.0048763626 0.001981932 0.0050062775 -4.969046e-05
-0.0015819283 -0.0055242986 0.00269103 0.00043760924 0.009790624 -0.002271993 0.006463403 -0.0007299426
0.0019960555 -0.0042304285 -0.0015188302 -0.00457966 -0.0028636819 0.0012384681 0.0045972117 0.011082395
0.0013675172 0.0020288746 -0.005458778 0.0035180065 0.005597573 0.004463478 0.001065448 -0.013139768
-0.0027845409 -0.004697862 -0.009775778 -0.0023566044 -0.0012605714 0.0025168932 -0.0059538246 0.0113244
-0.0083032455 -0.010121841 0.0011349991 0.0013399475 -0.0074111763 0.009978688 -0.006161787 0.0006509597
0.0076868776 0.011881964 -0.0014115947 -0.0014639745 -0.0019884421 0.0011575153 -0.0021743535 -0.00853876
0.0027913237 -7.004057e-05 -0.0032770936 -0.0026348538 0.006620831 -0.00024688913 0.006100581 0.0002784482
-0.001971019 0.0024980658 0.0050437297 -0.0005957943 -0.004863597 0.0006111781 -0.005550482 -1.4179612e-05
-0.00063979457 -0.0036796678 -0.008061801 -0.008122401 0.0024799067 -0.0014992002 -0.0017284325 -0.011563304
-0.0034041922 -0.00038178003 0.0060057607 -0.0046581984 0.0050676013 -0.0069181416 0.0045596166 0.0038621593
-0.004623412 0.006750557 -0.0024831695 0.000668037 -0.00091619376 -0.0012208731 0.003743859 0.00053334737
-0.004389285 0.003719487 0.0065544858 -0.00056671636 -7.3320996e-05 0.0017118199 0.008614608 0.010001588
-0.0073187263 -0.0012916591 0.003087024 -0.0034421338 -0.004683337 -0.0036958645 -0.0077434056 0.010876973
-0.011048845 -9.545769e-06 -0.011078337 0.008029317 0.0061402977 -0.0043241237 -0.0028833863 0.0061636055
-0.0017457411 -0.0042570815 0.006292835 -0.007055985 0.0068916255 0.0025675055 -0.0041705947 0.000100246165

action_model._continuous_distribution.mu.weight f4 [1, 128]
00000000: dcf8 db3b f21a 48bc 7e94 03bd 49f0 66bc
00000010: 2fbc 7b3c 6c51 c13c c014 15bd d475 443c
00000020: 96cb 7c3b c0c0 623a dedf 69bc f16d 183b
00000030: f45f 823c 10c9 4ebc 763e 9b3c b150 713b
00000040: 7e32 5d3c 9059 e3bc e8d0 d2bb 578c f4bb
00000050: 62ac 913c a551 61bc 502b e13a b176 60ba
00000060: fbaf 043d 6720 9f3c c810 8aba 4832 803c
00000070: 9c3f 66bc 1db1 023c 145f bdba b98b 853c
00000080: 9c3f 5d3c ccc5 3c3c cfde cebc 2df0 223d
00000090: bea1 1fbd 2017 bebc e1eb e63c f530 943c
000000a0: b2e5 a23b b994 1abc 1573 a5bc 4b99 b53b
000000b0: e64b aabb 88bb df3b abdb 9bbc a59b 84bb
000000c0: 70a4 bebc 7717 b8bb 7440 913c db4b f6bc
000000d0: edd1 b1bc 928e 3a3c 65c6 6fba 327b c53c
000000e0: 55eb 893c caa0 99bc 7e20 3dbc 0401 f83b
000000f0: 0e68 0b3c 3498 683c 46db 993c 20af 17bc
00000100: d2f4 b63b 44d4 ec3c bfa8 e5bb d208 a23c
00000110: d523 0a3c 7088 40bc fcd3 023c def4 df3c
00000120: 14a4 f8bb 966c a2bc 7914 eb3a a528 bbbc
00000130: 3bdd c13c 3199 42bd 5535 b6ba 914a c1bb
00000140: 096d da3b 43c1 003c 0745 38bc 073b 4dba
00000150: b725 9cbc ed42 ec3b 1b7e c53c 329e f03c
00000160: 49dd 99bc fef3 733c 7bb2 abbb 0a44 153d
00000170: fbae 583c 2bb2 e3bc 7787 9abb 98cd 8fb9
00000180: 0d70 bfbc 7f68 ddbb fb88 57bc 336c 063c
00000190: f1f1 7f3c a459 19bc db5a 523c b56c 623c
000001a0: 7ce4 86bc dd02 273b 27e8 a6bc 3480 46bd
000001b0: 17d4 b0bc b8a4 87bb 2bab ba3c 2930 c93c
000001c0: 6367 91ba 5d40 8bbc fefe dc3c ca65 97bc
000001d0: f430 04bc bcbb 813b c995 663c dc18 20bc
000001e0: 84a5 dbbb c9dd 95ba 8b3c 173b a720 70bc
000001f0: add4 aabc 2973 5bbc 0bab f53a 6804 cebc
0.006713016 -0.0122134555 -0.032124035 -0.014095374 0.015364691 0.023598395 -0.036396742 0.011990983
0.0038573495 0.0008649938 -0.0142745655 0.002325889 0.015914895 -0.012621179 0.018950682 0.0036821777
0.013500808 -0.027752668 -0.006433595 -0.007463019 0.017782394 -0.013752376 0.0017179046 -0.0008562608
0.03239439 0.01942463 -0.0010533566 0.015648976 -0.014053252 0.007976797 -0.0014447891 0.016301977
0.013503935 0.011521768 -0.025252728 0.03977983 -0.03897261 -0.023204386 0.028188648 0.01808975
0.0049712295 -0.009434872 -0.020196477 0.0055419556 -0.005197036 0.0068277754 -0.019025644 -0.0040468746
-0.02327177 -0.0056180316 0.017730929 -0.030065468 -0.021706546 0.0113865305 -0.00091466896 0.024106596
0.016835848 -0.018753428 -0.011543391 0.0075684804 0.008508695 0.014196444 0.018781316 -0.009258062
0.005583384 0.02890981 -0.0070086415 0.019779596 0.008431395 -0.011751279 0.007985111 0.027338441
-0.007587919 -0.019827168 0.0017935178 -0.02284653 0.023665061 -0.047509376 -0.0013901392 -0.0058987816
0.00666583 0.007858577 -0.011246926 -0.0007828925 -0.019060953 0.0072101266 0.024107983 0.029372308
-0.018782275 0.014889715 -0.0052397824 0.03644184 0.013225312 -0.027794918 -0.0047158557 -0.00027428265
-0.02336886 -0.0067568417 -0.013155217 0.008204508 0.015621648 -0.009359751 0.012839044 0.013819863
-0.016466372 0.0025483884 -0.02037437 -0.048462108 -0.021585507 -0.004139509 0.022786697 0.024559097
-0.0011093434 -0.016998464 0.026977059 -0.018481154 -0.008068312 0.0039591473 0.0140737975 -0.009771552
-0.0067030806 -0.0011433895 0.0023076858 -0.014656222 -0.020853365 -0.013394156 0.0018742991 -0.025148585

action_model._discrete_distribution.branches.0.weight f4 [1, 128]
00000000: b766 493c fda7 153c 7b02 a63c 5c1c c6bb
00000010: f59d 863c 71e9 953b 6d18 f53b 14c6 cb3b
00000020: cbc6 0ebc 45da f3bb 0433 8cbb ab51 58bc
00000030: ab45 aebb 0b83 4dbc 7bf6 9a3b af93 d53b
00000040: a554 dcbb f20e 83bb c854 733b bc65 0cbc
00000050: f480 c53a 3d36 583c b3a4 bdbc cb29 773b
00000060: 862d 82bc 6083 5c3b e722 a3ba ad0c e83b
00000070: c34c 69bb 82a6 023c c26a 2fb7 3375 1a3c
00000080: 4d89 57b9 11ca 8f3c f771 f2bb efc9 75ba
00000090: 23f2 a13b ebc7 033c 98ca d6bb 7e64 bb3a
000000a0: 7c17 a4bb c4c3 12bb 8058 38bb 62c6 cdbb
000000b0: db3c 93bc 118b 8ebc 28ce d53b 0366 cab9
000000c0: d118 0c3c 53be 883c 9cbd 1aba dcae 81bb
000000d0: bd9d 16ba bbd1 bbba 6cff c33b 4779 0c3b
000000e0: d742 9bb9 1546 9dbc 3afd 37bb c21e d53a
000000f0: 350e 2bbc 71ae 9eba 79ea bb3b 4f32 523b
00000100: 0264 53bc 1dfe 3bb9 035d b73b 7f26 663c
00000110: 7d3c 5ebb 69a8 20bb 84cc b1bb 680c 6a3b
00000120: d37a 26bb 3380 263c b073 f73a d02d 15bc
00000130: 6eda 25ba c186 adbb 8b36 d03c 33e5 0ebc
00000140: cbc4 f4ba 1c5f 9a3c 5b85 80bb 7b70 53bb
00000150: fbcd 96bb 297b a2bb bb41 893b 3797 3f3b
00000160: f23d 5e3b 308d f9bb db53 f3bc f3fd 35bc
00000170: 4214 693b 215e 44bb b22c 3b3c e328 5bbb
00000180: 875a f7bb bcf1 b7ba c212 9b3c 95bf 763b
00000190: e00a 5eba cc88 40bc f037 f73b 6e91 93bc
000001a0: 8b2c c7ba c839 e63b 33fa 383c 97f0 96bb
000001b0: 2ea2 113a 4fe3 3d3c d733 93ba 0eb4 00bc
000001c0: 8043 55bc c39e 0c3c 539d abbb ae14 013c
000001d0: 3174 0c3c ba66 593c 3376 063c 5fc4 2abc
000001e0: 8f60 ec3c 3b64 213c 457f 5dbc eff4 7e3c
000001f0: 2735 923a 0a4d b53b d151 27bc c648 4b3c
0.0122925555 0.00913429 0.020264855 -0.006045861 0.016432742 0.0045749475 0.0074797184 0.006218681
-0.008714388 -0.0074417912 -0.0042785425 -0.013203065 -0.0053183637 -0.01254345 0.00472909 0.0065178494
-0.0067239576 -0.0039995844 0.003712939 -0.008569177 0.0015068338 0.013196525 -0.023149824 0.003771412
-0.015890848 0.0033647642 -0.0012446315 0.007081589 -0.0035598732 0.007974269 -1.0455669e-05 0.0094273565
-0.00020555146 0.017552407 -0.0073988396 -0.0009376099 0.004942195 0.00804327 -0.006554913 0.0014296917
-0.0050076824 -0.0022394517 -0.0028128922 -0.0062797526 -0.017973354 -0.017400296 0.00652482 -0.00038604447
0.008550839 0.016692316 -0.0005902888 -0.0039576124 -0.0005745551 -0.0014329472 0.0059813764 0.0021434592
-0.00029613703 -0.019198457 -0.0028074519 0.0016259777 -0.010440399 -0.0012106431 0.0057347384 0.0032073443
-0.012902262 -0.00017928374 0.0055958047 0.014047264 -0.0033910566 -0.0024514443 -0.0054259915 0.003571296
-0.0025402799 0.010162401 0.0018879082 -0.009105161 -0.0006326799 -0.005295605 0.025416633 -0.008721638
-0.0018674372 0.01884418 -0.003922147 -0.0032263089 -0.0046021915 -0.0049585295 0.004188744 0.0029234418
0.0033911434 -0.007615708 -0.029703071 -0.0111079095 0.0035565053 -0.0029963332 0.01142423 -0.0033441118
-0.0075486335 -0.0014033834 0.018929843 0.0037650813 -0.00084702484 -0.011751365 0.00754451 -0.018013682
-0.001519577 0.007025931 0.011290121 -0.0046063173 0.00055554777 0.011589839 -0.001123066 -0.007855428
-0.013016582 0.008582774 -0.0052372604 0.007878466 0.008572624 0.013269121 0.008206892 -0.010422795
0.028854636 0.009850557 -0.013519113 0.015561326 0.0011154757 0.0055328654 -0.010212378 0.012407487

onnx::LSTM_116 f4 [1, 512, 128]
00000000: b0d3 ab3d cc5d 0dbc e66d a63d 0c0a 003d
00000010: fe26 a1bd d72d bfbd 7787 153c 5d4e 59bd
00000020: c090 7c3c 6281 0e3c da2a 6fbb ac23 493d
00000030: 5e7d 203e e8e4 0ebe 1054 023e 5bc0 a0bd
00000040: fc67 efbd 2c06 c43d 7b93 27bd 3a3d 6c3c
00000050: a77c 0cbe 8f6c 193e 8b27 f23d 2d69 dc3b
00000060: b142 b0bc bca4 0e3e 2c2f f9bd 9e66 a13d
00000070: a187 7a3d e2de d6bd 68fc 74bd 6bbb 52bd
00000080: 1c96 373d 5689 b93d f885 ae3d 6507 8a3d
00000090: 15e4 1f3e db7e b33c 661e 123e 3149 03be
000000a0: 717b f5bc ee0c e8bc 5154 9ebd baee fb3c
000000b0: 77da b93d 30bd cabd 8573 903d 54e9 043e
000000c0: acfb 24bd be95 463c 57e3 d63d d322 1a3e
000000d0: 5b91 b5bc c42d b8bd 645d f73d 47f3 f4bc
000000e0: 008d babc 4b71 13be bc72 f63d cc19 b5bc
000000f0: 9ea7 b3bd d91c d8bd 5580 bd3d 758f 08be
00000100: d195 e7bc c762 0bbe c929 733d 3547 e63c
00000110: 599f 16bd 1336 fa3d aaaf 113e e460 05be
00000120: 7314 f4bd f045 08be be8e 14be 4b0d aa3d
00000130: 6591 863c e61f b7bd a8b7 61bc a468 9c3d
00000140: 7cfb 1abd 8884 c3bc 5899 fdbd 2dd0 ae3d
00000150: 49b1 3c3d f9c1 adbd 1340 b83c 79a6 c7bd
00000160: 0316 10be 795a c6bd 43bf 3d3c 0ff8 463d
00000170: 85a5 093e b0a9 f7bc 820f 7e3d 7d8d d2bd
00000180: a878 fc3b 7af4 9dbc 3e5f edbd b8aa 0abc
00000190: 74a3 093e a50a 8e3d 33cc 753d c81e e7bd
000001a0: efd1 4a3c 9b1c bdbd a258 92bb 9c96 b9bd
000001b0: 6ce3 ef3d 8c59 293d 99d3 15be c5a9 093d
000001c0: 1cd8 ddbd 9a39 8b3d c783 413d e82f 133e
000001d0: 296d a33b 019c 783c 3844 fc3b 8422 15bd
000001e0: 23ea 003d fcd6 98bd d7d7 89bd fd86 ff3d
000001f0: 32fd 00be ce47 b03d bdb9 c9bd 24ea 033e
00000200: 70c9 d0bd 8f55 99bb ddae 8b3d 2539 dcbd
00000210: 0509 613b dfb8 0dbe 4d1a bb3c 74ba b33c
00000220: 21f8 79bc 20c9 14be a0d7 19bc 5836 65bd
00000230: 8134 133e aa02 14be e2a9 bdbc 8c32 bf3c
00000240: df4e 973d 48a3 52bd 7990 fabb 158a 90ba
00000250: 8c36 2a3d 0a08 80bd 2e74 87bd 9ba6 303d
00000260: 256d 043e bd47 f6bd 71dd 283b 0ba8 aa3d
00000270: fe15 82bd 4101 6bbb 81c3 e83d ded5 d0bd
00000280: a77a 673c 87c9 fcbd c5d1 d1bd 5acc f63d
00000290: 046f d7bd 2e3c 81bd 57b1 75bd 080d a2bd
000002a0: 979b 13bc 226f dbbd 584c 27be 0973 cebd
000002b0: b74a 20be 28f6 083c c5fa 00be 62cd 2d3d
000002c0: b77f fcbd 2410 ca3d 266c 063e 50ae 273c
000002d0: a71e 08be 1eb6 053e 640e efbc 6dbd ac3d
000002e0: f7d3 1b3e af50 993c a787 01bd 3b3a b3bd
000002f0: af54 b13d 3b68 f7bd 535e 093e 3728 b93d
00000300: a442 cabd 42e6 063c 6e94 adbd 32b2 9cbd
00000310: 1552 f5bd ece8 2d3d feea 32bd 7db8 fabd
00000320: 74d7 673d f38d 95bd 20f5 1d3c 7ef5 1bbe
00000330: bac6 4b3d 49c9 2a3d 3548 1d3d 75a1 963d
00000340: 4db3 d1bc 490d f3bd fa36 e23d fd5c c2bd
00000350: e237 b63d 5fe3 c8bd 60ba 8c3d 46ba 98bb
00000360: 8825 36bc 69f2 673d 2ad9 1f3d 7ddf 06bd
00000370: 086b b53c 8fca d2bd c2f1 d43d b16a adbd
00000380: df73 0abe df65 afbb e6c6 983d 7b22 e63c
00000390: 17a7 5e3d 2a25 44bd d17b f93c b6f2 58bd
000003a0: 32a5 11be d17e a53d e838 0b3e c4a6 ac3d
000003b0: d7dc 14bc 736e ab3c f4d0 e53b 20aa 003d
000003c0: 5c7d bdbc 8e5d 093e 6c0c d4bd 9a3a fc3d
000003d0: 8c03 b23d cc51 0abd 2792 053e fac3 893d
000003e0: a940 0ebe 6c1b a4bd 6f68 9f3c 7894 fd3d
000003f0: 7099 91bc d905 c5bd 4562 073e 9331 de3d
0.083899856 -0.00862832 0.0812643 0.03125958 -0.07868765 -0.09334915 0.009126536 -0.05305325
0.01541537 0.008697839 -0.0036494047 0.049106285 0.15672824 -0.13954508 0.1272738 -0.07849189
-0.11689755 0.0957149 -0.040912133 0.014418894 -0.13719426 0.14982818 0.118239485 0.006726405
-0.021516176 0.13930029 -0.121672004 0.07880901 0.061164502 -0.1049173 -0.059811026 -0.051448267
0.04482089 0.09059398 0.08521646 0.06739692 0.1561435 0.021911075 0.14269409 -0.12820889
-0.029966088 -0.028326478 -0.07730926 0.030753482 0.09074872 -0.09899366 0.070532836 0.12979633
-0.040279076 0.012120662 0.104925804 0.15052347 -0.022164037 -0.08993104 0.1207836 -0.02990116
-0.022772312 -0.14398687 0.120336026 -0.022107027 -0.08772205 -0.10552377 0.09252993 -0.13335975
-0.02826968 -0.136119 0.05936602 0.028110126 -0.03677306 0.12217345 0.14227167 -0.13025242
-0.11917963 -0.13307929 -0.14507577 0.08303317 0.016426751 -0.08941631 -0.013776697 0.07637146
-0.03783749 -0.023866907 -0.123827636 0.085358 0.04606751 -0.08484263 0.02249149 -0.09748549
-0.14070897 -0.09685225 0.011581245 0.04857641 0.13442047 -0.03023228 0.06202651 -0.10280893
0.007704813 -0.019281615 -0.11590432 -0.008463554 0.13441259 0.06935624 0.060009193 -0.11285168
0.012379154 -0.09233972 -0.0044661323 -0.090619296 0.11713299 0.041345164 -0.146315 0.03360917
-0.10832235 0.06798096 0.047244813 0.14373744 0.004987378 0.015173913 0.007698562 -0.03640987
0.03147329 -0.0746288 -0.06730621 0.12476919 -0.12596586 0.08607446 -0.0984988 0.12882286
-0.10194671 -0.004679389 0.06820462 -0.10753087 0.0034337651 -0.13840054 0.02283969 0.021939494
-0.015256912 -0.14529848 -0.009389788 -0.05596003 0.14375497 -0.14454141 -0.023152296 0.023339532
0.0738809 -0.05142525 -0.007646617 -0.001102748 0.041555926 -0.06251533 -0.066139564 0.043127637
0.1293226 -0.12025402 0.0025766755 0.08332833 -0.06351851 -0.0035858902 0.113654144 -0.10197042
0.014128364 -0.12343126 -0.102450885 0.12050696 -0.105192214 -0.063103065 -0.059983578 -0.07912642
-0.0090092635 -0.10714556 -0.16337717 -0.10080535 -0.15653501 0.0083594695 -0.12595661 0.042432196
-0.12329047 0.0986636 0.13127193 0.01023443 -0.13292943 0.13057753 -0.029181667 0.084345676
0.15217577 0.01871523 -0.03162351 -0.08751341 0.0865873 -0.12080427 0.13414888 0.090408735
-0.09875992 0.008233609 -0.08475576 -0.076511756 -0.119785465 0.04245846 -0.043681137 -0.122422196
0.056601956 -0.07302465 0.009640962 -0.15230367 0.049750067 0.041695867 0.03839894 0.07355014
-0.025598193 -0.11867768 0.11045642 -0.09490392 0.088973776 -0.098089926 0.06871486 -0.0046608774
-0.011117347 0.056627665 0.039025463 -0.03292798 0.022145763 -0.10292541 0.10397674 -0.084676154
-0.13520764 -0.00535272 0.07459812 0.028092613 0.054358568 -0.047887005 0.030454548 -0.052965842
-0.14223173 0.08080829 0.13595927 0.084302455 -0.009085855 0.02092669 0.0070134345 0.031412244
-0.023131065 0.13414595 -0.10353932 0.12315865 0.08692083 -0.033769414 0.13044034 0.06726833
-0.13891853 -0.08013043 0.019458978 0.12381834 -0.01777336 -0.09620256 0.1322108 0.10849299

onnx::LSTM_117 f4 [1, 512, 128]
00000000: 2c3a 4d3d 4cb8 e33d 1d50 853d 2f2f f8bd
00000010: 4270 d03d 3fc0 1dbe a50e d6bd afec 633c
00000020: 2ff2 c2bd 77a2 1dbe 0ce5 46bd 8e9e 103e
00000030: 4b6d c8bd 6336 393d da7a c2bd 9885 ea3c
00000040: 9df0 14be 0e38 d0bc 9564 4a3c bce5 97bd
00000050: 7277 f63b 6195 f13d 5326 fbbd 3624 203e
00000060: ea1d 98bd c380 45bd dd69 993b 46b3 cbbd
00000070: 92b4 06be 258f 84bd 06c0 e0bd 8000 d03d
00000080: 62d0 00be 24ab 86bd 9cda 50bd 26f6 d5bd
00000090: bc1d 023e a97e fb3d 930c 14be 6e6e bf3d
000000a0: 33c7 b13d dcb3 cbbd 769e 87bd df08 5dbd
000000b0: 3e66 efbd 4cec f33d 9bf1 a1bd f728 5abd
000000c0: 90ec 50ba 852d 42bd 511a fabc 021f cabd
000000d0: aa74 b13d 4ff5 d4bc e948 84bd e4a9 b6bd
000000e0: dfcb 383d 1ab3 203c 922f ed3d 4adf b13d
000000f0: e459 81bd 4736 3ebd f67e 1ebd 02ed 36bd
00000100: 0430 debc 9feb 903d 81b4 04be 76b6 003d
00000110: dd22 093d c9ed 743d 1bb0 1b3e 26d7 c33d
00000120: 42d4 fbbd dd3d c63d bd5b d83d e84b dc3b
00000130: 7154 fa3d 59f5 34bd 0e86 0cbe f773 163e
00000140: 5174 863d 881d 40bd 78a4 203d ec5f 9f3d
00000150: e058 cfbd 8899 cbbb 4ed7 963d a179 5bbd
00000160: 974f a039 350e ef3d 92c8 c13d ba7a 313c
00000170: f6a2 95bd 865b f63d f264 1cbe a022 aabd
00000180: 4819 ffbd 1888 853d 930b cc3d 6216 8f3d
00000190: a5e8 fa3d d92c d7bc e328 873d b9a2 bdbd
000001a0: 85d3 b3bd 240f e1bb c0ea 84bc 249e 61bd
000001b0: 1980 cb3d cec0 f8bd 23ad 43bd 36ed ec3d
000001c0: 55fa 453d 5d94 ae3d 1415 093e 3c35 853b
000001d0: c5c4 1c3e 3c9a 18be a5d2 30bd 82f6 2a3c
000001e0: ea89 ecbc 2fba 7e3d 0574 f9bc e68f 1f3d
000001f0: 1f75 2b3c 5831 153e 5875 88bb 9113 c83d
00000200: 9c97 883d b631 a3bd 9107 183e b50f 1bbd
00000210: 1c80 bfbd 857a 0ebe 35e9 18be 36ed 59bc
00000220: e2e4 8b3c 30b4 04bd 841f 043e f05f 073e
00000230: 3a2a bc3c 1e29 b1bd 33e2 a93d a9e1 e9bd
00000240: 6de5 2dbd c0b9 bd3d 2b5d e33d f794 b23d
00000250: 4903 0ebe 8be1 15be f0f9 103e 6b6b 043e
00000260: 0a24 6b3d 5d1e 8d3d 428d 7a3d 980d 09be
00000270: 8916 1ebe 1a61 a33c 40e0 debd b9c8 003e
00000280: dd57 043e c1f9 bfbd 9f98 77bd 3d0d a63d
00000290: 9623 c33d 79aa 01be b268 c2bb b611 85bd
000002a0: c7ec bb3d fc9e 5f3d 131f 90bd 44c4 97bd
000002b0: b52d 3abd 158b adbc 6984 9d3a 3de6 443d
000002c0: 4550 d73d 33cb a2bd 1326 2d3d ba8a 5cbd
000002d0: a247 16bd 9e75 08ba 1e92 44bd 1773 393d
000002e0: 7041 b93d fee8 70bd e864 09be 4bac ca3c
000002f0: 8f29 02be e8ed 37bd bd31 673c fed3 f4ba
00000300: 4ee6 933d 541b eb3c 585c d43d a788 f73d
00000310: 6b75 c6bd f80d 21be 52e6 be3d 4d6c db3d
00000320: 526e 0ebe 851e 233d bd8c a4bb 30dd 03be
00000330: 035b 58bc 7bb2 02bc aa22 6e3c 8576 20bd
00000340: 186c 0dbd 7eaf 83bd 9a18 debd 14ce 48bd
00000350: d0d4 10bd 1b34 40bd 5e63 523d cc0c 823d
00000360: 6a14 083e f671 1abe d1a3 63bd 1aad e4bd
00000370: 2aba e03c 47eb 353d ff95 103e 076a 1f3d
00000380: 0f6e 9cbd 6a5c 763c 8fbf 0abe 7dbe 303d
00000390: 3677 8f3d ad58 753d 1f23 e4bd eb12 f93d
000003a0: f358 2dbd 63c4 de3d 42c4 edbc 370a 023e
000003b0: 79f7 fabc 89dd a7bd 39ff fcbd 395f 88bc
000003c0: 1541 f33d 986f abbd 3213 3c3d 2751 803d
000003d0: 3a38 0c3e 7b5b 10bd b701 953d 8b01 f5bd
000003e0: 6f28 fbbd a44d 46bc d1db bf3d ba8a 17be
000003f0: 61cd 87bd 09e0 34bd 1114 d23d fb6b d23c
0.050104305 0.11119136 0.06509421 -0.121183746 0.101776615 -0.15405367 -0.10452012 0.01391141
-0.09518849 -0.15394007 -0.04855828 0.14122984 -0.09786471 0.045217883 -0.09496088 0.028628156
-0.14544912 -0.025417354 0.012353082 -0.07416865 0.007521563 0.1179607 -0.12263169 0.15638813
-0.07427581 -0.0482185 0.0046818093 -0.09946303 -0.1315482 -0.06472615 -0.109741256 0.10156345
-0.12579492 -0.06575611 -0.050989732 -0.1044734 0.12706655 0.12280018 -0.14457922 0.09347235
0.08680572 -0.09946415 -0.06622021 -0.05396354 -0.11689423 0.119103044 -0.07907411 -0.053261723
-0.0007969821 -0.047406692 -0.030530127 -0.098691955 0.0866483 -0.025995879 -0.06459219 -0.08919123
0.0451163 0.009808326 0.11581339 0.08685167 -0.063159734 -0.04643848 -0.038695298 -0.044659622
-0.027122505 0.07076191 -0.12959482 0.03142401 0.033480514 0.059797082 0.15203898 0.09562521
-0.12296344 0.09679768 0.10564373 0.006722916 0.12223137 -0.044179294 -0.13723013 0.14692675
0.06565154 -0.046903163 0.03921935 0.077819675 -0.101243734 -0.0062133707 0.07365285 -0.05358279
0.00030576877 0.11672632 0.09462084 0.010832483 -0.07306473 0.120291755 -0.15272883 -0.083073854
-0.12455994 0.065200984 0.09963145 0.06986691 0.12251405 -0.026266502 0.065995954 -0.092595525
-0.087805785 -0.00686826 -0.016225219 -0.055082455 0.09936542 -0.121461496 -0.047772538 0.11568682
0.04833444 0.08524392 0.13386947 0.004065184 0.15309437 -0.14902586 -0.043169636 0.010434749
-0.028874356 0.062189277 -0.03045083 0.03895559 0.010464936 0.14569604 -0.004164379 0.09769357
0.06669542 -0.07968466 0.14846636 -0.037856776 -0.09350607 -0.13913925 -0.14932711 -0.013301184
0.017076913 -0.032398403 0.12902647 0.13220191 0.022969354 -0.086504206 0.08295097 -0.114199944
-0.042455126 0.092639446 0.11101755 0.08719819 -0.1386844 -0.14636819 0.14157844 0.12931602
0.057407416 0.06890557 0.06116987 -0.13384092 -0.15438284 0.019943763 -0.10882616 0.1257657
0.12924142 -0.09373809 -0.060448285 0.08107994 0.09528272 -0.12662686 -0.005932891 -0.06497519
0.09176021 0.05459498 -0.07037177 -0.074104816 -0.045453746 -0.021184484 0.0012017611 0.048071135
0.10513357 -0.079489134 0.04227264 -0.053843237 -0.036689408 -0.00052055146 -0.04799091 0.045275774
0.09045684 -0.05881595 -0.13417399 0.024740359 -0.12711166 -0.04490462 0.01411098 -0.0018678901
0.072216615 0.028699555 0.10369176 0.12086611 -0.096903645 -0.15727985 0.09321274 0.10714016
-0.13909271 0.039824028 -0.00502166 -0.12877345 -0.013205293 -0.007977123 0.014534632 -0.03917553
-0.034526914 -0.06429957 -0.10844536 -0.049024656 -0.035359204 -0.04692469 0.051364295 0.06350097
0.13289037 -0.15082535 -0.05557615 -0.11165829 0.02743252 0.04441383 0.14119719 0.038919475
-0.076381795 0.015036682 -0.13549636 0.043150414 0.070051596 0.05989902 -0.11139511 0.121618114
-0.042321157 0.108773015 -0.029024247 0.12699209 -0.030635582 -0.08196551 -0.12353367 -0.016646968
0.11877648 -0.08370894 0.045916744 0.062654786 0.13693324 -0.035243493 0.07275718 -0.11963185
-0.122635715 -0.012103472 0.093680985 -0.14799014 -0.0663097 -0.04415897 0.102577336 0.025686255

onnx::LSTM_118 f4 [1, 1024]
00000000: 27c7 93ba 489e a33b 0440 6fba 3cc6 13ba
00000010: 0705 3d3b ff0a 04bc 8cce 313b 6e69 923b
00000020: 56ba f2bb 8b7e 253b 0137 0dbc 2530 81ba
00000030: 7ca0 a93b 3843 fa3a 60f4 133b 6c9b 123a
00000040: ad8f fd3a ec21 143c 8d60 aeba ac06 f53b
00000050: 9133 d9ba 67a7 6fba 2d30 9a3b 6a76 62bb
00000060: 0a7d 89bb 6519 f03a 9ed9 6aba d637 28bb
00000070: 84d1 8cbb 747c 163c 1e77 38bb f996 103a
00000080: d735 72bb 104d fe3b 3811 d9bb f51f fa3b
00000090: f4b7 203b 5fe8 383b a267 7c3b c500 783b
000000a0: ecc0 87ba 3d92 2ebb 83ce 6f3c dc25 e0bb
000000b0: 7ddf c23a 9724 4bbb fe66 123c 911f 90bb
000000c0: 989d 23ba 44be 1ebc e181 7cbb c2b1 73ba
000000d0: 7e0d 933b 0fee 6a3c 8f71 d13a 1b6b e03b
000000e0: 4dad dbbb 2582 22bc 929f ceba ddb5 77b9
000000f0: 04b8 41bc 4cea 6abb ffaf fdbb dd0a 303b
00000100: 17db 6dbb 5285 51bb a0ac 263b f7f5 ac3b
00000110: 4a4d 0b3c b41a 8bba 2a22 d6bb 2744 03bc
00000120: d574 91bb 9301 d6ba 9508 bc3a 6ab8 9f3c
00000130: d150 a5ba d696 b3ba a04a d43a 8492 70ba
00000140: e14b a33b 717f 083c 4a8f f8bb c298 853a
00000150: 96f6 a6bb 88a0 033c 2b3f 253c d5b9 42bb
00000160: aecf 933b f5ed a23b d8dd 48b9 1d9d e63a
00000170: a578 bfb9 da61 89bb 02bd 0abb d152 5c3b
00000180: 6d7b 143c 44b6 dfba 0dbe 71bc 6ba0 813a
00000190: 73ca e43b 8124 0ebb f54d 0f3c c04d b53b
000001a0: 8780 3ebb 6d6c 9d3a 5e52 ee3a 00f0 a43c
000001b0: 2117 1e3b 4261 f83b 1ec7 023b 8d54 083b
000001c0: 5cce a7bb 7f23 92ba 794e b13b 7391 a53b
000001d0: 1e1b 2f3b 7f84 3bbc 29bc 993a 769b c0b7
000001e0: 4deb fcba bea8 a93a 93a9 1a3a c4a3 8d3b
000001f0: 3c75 98b8 7c9a 17bb 9b9b 73ba 5577 5bbc
00000200: 295f cebb 512d 54b9 075c 9ab9 b23a cfbb
00000210: ff9e 483a 4135 0fba ca15 50bb d06d 08bb
00000220: fdcb 7439 369f fbba a8d5 183b f979 9dbb
00000230: c9e9 ac3a 7f6f 0ebc 1a8e 33ba a5e8 4a3a
00000240: 2078 e13b 7749 813b 062a 0cbb cd58 2f39
00000250: 6d11 3f3a f2a9 ca3b e571 983a 53cb 8ebb
00000260: 7ef9 8ebb c20a 53bb 2f7b 88bb a8c7 3dbb
00000270: 68ca cebb 5a8c 263b a206 f2bb 2013 61bb
00000280: 30e2 b63a 244d 66ba 3bfb fdbb 18f1 4c3b
00000290: 3771 1d3b d70e 043c 1b42 8c3b f3b6 273b
000002a0: 930d 09bc 502c 8d3a 92d7 893c 236b b63a
000002b0: 96cf 1eba 205e c3b9 7c43 263a 34ea 45bb
000002c0: 278f 0d3b 1450 ed3a 3783 e6bb bb53 80bb
000002d0: 36e2 4abb bc7f 07ba 94cc 743b 6368 1bba
000002e0: 8862 5e3b 97ff 5bbb 5d8f bdbb 79e4 05ba
000002f0: 0e53 b9bb 5807 0a39 6438 f3bb 75a1 1a3c
00000300: 6f82 253a 7906 4cba 17a4 df3b b890 a03b
00000310: 78cf c43b d5b8 b43a ddd7 35bb aedf 2abb
00000320: 91a6 3e3b ec4c 0a3a de71 05ba 5766 a2ba
00000330: 936e bbba 54b7 8eb9 9605 173a 57f6 9aba
00000340: 96de 8a3a 2028 013c f19c 92ba 6b09 af3b
00000350: cbe5 c7bb 21cd 5cbb bade d03a 1c92 f9b9
00000360: 0e04 bb39 b4bc 843b 9e34 e8b8 9624 beba
00000370: f232 9fbb bd98 e2bb 2648 28bb bce2 41ba
00000380: b72c 65bc 98d9 53bb 6562 34bb aa22 393b
00000390: f1b4 883b 161c 223b 798e d13a 683e 91bb
000003a0: e8bb a5bb 5a6d 8fba 0356 8a39 0c36 d93b
000003b0: 1471 eab9 31e7 10bc 834a 813b 9b3e f0bb
000003c0: f64a 8fbb 69c5 f83a 54fc 1c3b 3707 9f3b
000003d0: ad75 903b 2b1f 35bc b360 c2bb c71f d2ba
000003e0: d58c a5bb 86f2 663b 2d06 2d3c a30e 963a
000003f0: 8784 ccba 56e6 02bc 5335 0a3b ec20 4fbb
-0.0011274562 0.004993234 -0.00091266655 -0.0005637144 0.0028842108 -0.008059262 0.0027131168 0.0044681346
-0.007407467 0.0025252427 -0.008619071 -0.0009856267 0.005176602 0.0019093519 0.0022576079 0.00055926177
0.0019345187 0.009041291 -0.0013303921 0.007477602 -0.0016571154 -0.00091420714 0.00470545 -0.0034555444
-0.004195814 0.0018318115 -0.0008958819 -0.0025668046 -0.004297437 0.009184945 -0.0028147171 0.0005515661
-0.003695836 0.0077606514 -0.006624367 0.007633204 0.0024523707 0.0028214676 0.0038513918 0.0037842256
-0.0010357178 -0.0026637458 0.014636639 -0.0068404507 0.001486763 -0.003099715 0.008935688 -0.0043982943
-0.000624144 -0.009688918 -0.0038529562 -0.00092962023 0.0044876924 0.014338984 0.0015979278 0.0068487055
-0.0067040087 -0.009918724 -0.0015764108 -0.00023623505 -0.011823658 -0.0035845218 -0.0077419276 0.0026861944
-0.0036293918 -0.0031970334 0.0025432482 0.0052783447 0.008502314 -0.0010612817 -0.0065348344 -0.008011854
-0.0044389763 -0.0016327373 0.0014345819 0.019497115 -0.0012612586 -0.0013701569 0.0016196556 -0.0009177106
0.0049834107 0.008331166 -0.0075854408 0.001019262 -0.0050953133 0.008033879 0.010085861 -0.0029712815
0.0045108413 0.0049722143 -0.0001915613 0.0017594431 -0.00036520246 -0.004192573 -0.0021169786 0.0033618698
0.00906263 -0.0017067869 -0.014754784 0.0009889727 0.0069821416 -0.0021689238 0.008746614 0.00553295
-0.0029068307 0.0012010463 0.0018182506 0.020133972 0.0024122673 0.0075799534 0.001995511 0.002080235
-0.0051210355 -0.0011149495 0.005410966 0.0050527393 0.0026719044 -0.011445164 0.001172905 -2.2960576e-05
-0.0019296199 0.0012943966 0.00058999023 0.004322501 -7.2697614e-05 -0.0023132851 -0.00092929014 -0.01339515
-0.006297965 -0.00020234777 -0.00029441735 -0.0063241357 0.0007653087 -0.00054629525 -0.0031751269 -0.0020817406
0.00023345645 -0.0019197229 0.0023320708 -0.0048058 0.0013192232 -0.008693575 -0.0006849483 0.0007740355
0.006880775 0.0039455253 -0.0021387353 0.00016722381 0.00072886684 0.00618481 0.0011630623 -0.004357734
-0.004363238 -0.0032202457 -0.0041650753 -0.0028958116 -0.00631075 0.0025413246 -0.0073860446 -0.0034343675
0.0013952907 -0.00087852986 -0.0077508963 0.0031271633 0.002402378 0.008060179 0.0042803413 0.0025591224
-0.008365053 0.0010770652 0.016826425 0.0013917427 -0.00060581544 -0.00037263427 0.00063424534 -0.003019941
0.0021600218 0.001810553 -0.007034685 -0.0039162314 -0.0030957586 -0.0005168875 0.0037353383 -0.00059283356
0.003393324 -0.0033569091 -0.0057849125 -0.00051075924 -0.005655653 0.00013163441 -0.007422494 0.009437908
0.00063136866 -0.0007782947 0.006824981 0.0049000643 0.0060061775 0.0013787994 -0.0027747073 -0.0026073265
0.002909098 0.00052757445 -0.0005090515 -0.0012390119 -0.0014299921 -0.0002722094 0.0005761025 -0.0011822683
0.00105949 0.007883102 -0.0011185688 0.005341699 -0.0061003915 -0.0033691602 0.0015935518 -0.0004760184
0.0003567044 0.0040508155 -0.00011072423 -0.0014506753 -0.004858368 -0.0069151805 -0.002567777 -0.0007396152
-0.013987712 -0.003232574 -0.0027524468 0.002824942 0.0041719605 0.0024735979 0.0015987895 -0.0044324882
-0.0050578006 -0.0010942623 0.00026385495 0.0066287573 -0.00044716208 -0.008844183 0.00394565 -0.007331682
-0.0043729497 0.0018979731 0.002395411 0.004853155 0.0044085593 -0.011054794 -0.0059319376 -0.0016031199
-0.005052189 0.003523977 0.010560554 0.0011448454 -0.0015603461 -0.007989487 0.0021088913 -0.0031605316
