Assets/ML-Agents/results/sshipMovMod2Test01/ShipMovementImitation/ShipMovementImitation-99983.onnx (onnx, 605703 bytes, 9 tensors)

network_body._body_endoder.seq_layers.0.weight f4 [128, 1]
-0.08888042 -0.17439076 1.493348 1.4132923 0.65540844 -0.20073566 0.05656119 -0.6612475
-0.6042618 0.1178656 -2.1796587 0.89157057 0.89445406 0.8216867 0.03232664 -0.13058105
1.5825766 0.7767075 -1.8445603 -0.32134387 0.96898097 1.0544186 -1.360744 1.210814
-0.7278445 0.045357727 0.6357055 1.2011381 -1.3082728 -0.48793578 1.0266926 0.20634532
-1.5221087 1.7663976 -0.3294978 1.6946062 -1.2313209 -0.96182007 0.1489806 0.23825762
0.9221559 0.25394654 -0.55889136 -1.9245801 0.08892077 0.73833746 -0.44456828 -1.8286966
0.016975712 0.024748236 0.30459398 0.6122231 -0.5761604 1.653791 -1.3997862 -1.6149832
0.49415287 0.76905864 0.6685719 0.92897826 0.6323858 0.26603228 -0.74110365 -0.11337525
0.8749918 -0.049942788 -1.6465528 -0.14102016 1.8501062 -0.9363945 -0.93134785 -1.5338202
-0.57752526 0.48906985 1.0576835 -0.175237 -0.68386114 0.90641063 1.3324426 -0.10863731
0.38124067 -0.3468523 2.1399126 -0.09322303 0.15149386 0.5130797 0.4867591 0.93146116
0.9893361 0.41021684 -0.06394318 0.016505558 1.7340165 0.9717208 -0.30969393 0.31064925
0.03440961 -0.021716662 -0.84039485 0.87148356 0.2720091 0.6500611 -0.1605489 -0.78519124
-1.3159969 -0.6897607 0.20561755 0.80160916 -0.48694384 0.4936188 0.49291274 -0.5482095
-0.108041875 -0.49188772 -1.1235721 0.78362703 -0.17542236 -0.45054772 -0.13673225 -1.6490254
-0.38744572 -0.26153132 -1.017216 0.967604 -0.4153634 1.0581827 -0.17077626 -1.3312719
00000000: f006 b6bd 7e93 32be 0726 bf3f c3e6 b43f
00000010: d9c8 273f a68d 4dbe b5ac 673d 8447 29bf
00000020: e7b0 1abf 8563 f13d 877f 0bc0 f83d 643f
00000030: f1fa 643f 0f5a 523f f068 043d 0ab7 05be
00000040: df91 ca3f 4dd6 463f 8d1a ecbf 2f87 a4be
00000050: 230f 783f 30f7 863f dc2c aebf f4fb 9a3f
00000060: 0454 3abf 06c9 393d 98bd 223f e5be 993f
00000070: 7c75 a7bf b8d2 f9be aa6a 833f 304c 533e
00000080: 75d4 c2bf 5119 e23f f0b3 a8be dbe8 d83f
00000090: ec9b 9dbf d739 76bf 5f8e 183e cef9 733e
000000a0: 6912 6c3f 4805 823e 8113 0fbf a458 f6bf
000000b0: 181c b63d af03 3d3f 749e e3be bb12 eabf
000000c0: a610 8b3c d0bc ca3c bef3 9b3e a7ba 1c3f
000000d0: 3f7f 13bf 6caf d33f 322c b3bf c5b7 cebf
000000e0: 9b01 fd3e 07e1 443f 8727 2b3f 85d1 6d3f
000000f0: 09e4 213f 6235 883e f8b8 3dbf 4831 e8bd
00000100: 76ff 5f3f cf90 4cbd 3ec2 d2bf 9767 10be
00000110: 48d0 ec3f 8db7 6fbf d06c 6ebf 3854 c4bf
00000120: b2d8 13bf 5d67 fa3e 2c62 873f 5471 33be
00000130: 8611 2fbf 870a 683f 7b8d aa3f 3d7d debd
00000140: fa31 c33e a096 b1be 54f4 0840 b7eb bebd
00000150: 3521 1b3e 3159 033f 7d38 f93e 3d74 6e3f
00000160: 2145 7d3f f107 d23e a4f4 82bd aa36 873c
00000170: 41f4 dd3f b2c2 783f 3490 9ebe 6b0d 9f3e
00000180: 17f1 0c3d 24e7 b1bc 1e24 57bf 8c19 5f3f
00000190: c744 8b3e 676a 263f ee66 24be 4b02 49bf
000001a0: 9672 a8bf 2894 30bf 688d 523e 4236 4d3f
000001b0: b450 f9be 9abb fc3e 0f5f fc3e 7557 0cbf
000001c0: 0f45 ddbd b5d8 fbbe 36d1 8fbf c89b 483f
000001d0: eba1 33be 31ae e6be 8a03 0cbe 4413 d3bf
000001e0: 495f c6be 6fe7 85be 2234 82bf e5b4 773f
000001f0: 83aa d4be 8872 873f f9df 2ebe 1e67 aabf

network_body._body_endoder.seq_layers.0.bias f4 [128]
-0.006774355 -0.0018449269 -0.009566802 -0.009330329 -0.014802974 0.0025190597 0.0008276387 -0.004551027
-0.00859207 -0.010994097 0.008107437 -0.00027264562 0.0032778925 0.008973387 0.0018363904 -0.0049102614
0.002823633 -0.0045027235 0.00893607 -0.00068792596 0.002507318 -0.008106202 0.00633561 -0.004982147
-0.005503824 -0.0074135927 0.0062454864 -0.0035040188 0.0030588883 8.732088e-05 0.011807507 0.010572627
-0.0021326034 0.004324122 0.003497992 -0.0024240848 0.0038591402 -0.00030747667 0.007543441 -0.0076244143
-0.0010223921 0.010706352 0.0071948273 0.0030702609 0.0072285794 0.006542839 -0.0028026744 -0.002280633
-0.0064666923 0.0008472582 -0.004008552 -0.00025380705 0.004160671 0.005499353 0.0021916074 -0.0035862452
0.0040179263 0.0066889455 -0.00030429027 -0.008891981 -0.0029645027 -0.0046344716 0.0038691105 0.0042184065
0.003203921 0.009207835 -0.0046361815 -0.0021850066 -0.0022544772 -0.0014876253 0.0009771686 -0.008545248
-0.00782348 -0.0020657799 0.0014055182 0.006417134 0.005481357 0.0056829955 -0.0009216153 -0.014948424
-0.0010240412 7.019113e-05 -0.017289642 -0.010814486 0.0040982887 -0.0032074945 0.006819651 0.008391867
0.011153445 0.0039873295 -0.012355619 0.0038728167 0.0029321425 -0.0071834726 -0.0048295446 0.0061032604
-0.0026995048 0.0018484505 -0.0040567 -0.009913971 -0.0079461 -0.0026941453 -0.010173121 -0.0068022567
-0.0053534065 -0.007326532 0.0011209446 0.012895542 -2.5657655e-05 -0.00064011203 0.0009257731 0.00608527
-0.00361736 -0.0017770397 0.0012672875 -0.0031321691 -0.0069614393 -0.00038161463 -0.0034617297 0.0020549907
0.003133621 0.0065927054 -0.0023059503 0.010622758 0.0029955902 8.443832e-05 0.0020722572 0.0010229815
00000000: 69fb ddbb 79d1 f1ba 13be 1cbc 3cde 18bc
00000010: 2c88 72bc cf16 253b e5f5 583a c820 95bb
00000020: c1c5 0cbc 9620 34bc 0ed5 043c e0f1 8eb9
00000030: e9d1 563b 1d05 133c 09b3 f03a 42e6 a0bb
00000040: b30c 393b 958b 93bb 9868 123c ee55 34ba
00000050: d151 243b e0cf 04bc f39a cf3b 4741 a3bb
00000060: 6c59 b4bb b9ed f2bb f0a6 cc3b aea3 65bb
00000070: a177 483b 0a20 b738 4674 413c d038 2d3c
00000080: 26c3 0bbb 5db1 8d3b 913e 653b 65dd 1ebb
00000090: a1e9 7c3b d234 a1b9 f82e f73b 39d6 f9bb
000000a0: c901 86ba b269 2f3c 96c2 eb3b 6e36 493b
000000b0: b8dd ec3b 5065 d63b 13ad 37bb ac76 15bb
000000c0: 8ce6 d3bb 891a 5e3a 2c5a 83bb 6811 85b9
000000d0: 3d56 883b eb33 b43b 12a1 0f3b 3607 6bbb
000000e0: cfa8 833b f12e db3b 2689 9fb9 acaf 11bc
000000f0: 1a48 42bb c4dc 97bb e790 7d3b 8f3a 8a3b
00000100: e0f8 513b 76dc 163c 1ceb 97bb 5432 0fbb
00000110: dabf 13bb 6cfc c2ba 5614 803a 5e01 0cbc
00000120: 0e2e 00bc 0962 07bb 5d39 b83a d246 d23b
00000130: f59c b33b 6c38 ba3b 8e98 71ba 3cea 74bc
00000140: 1f39 86ba 9333 9338 02a3 8dbc 3e2f 31bc
00000150: f04a 863b d434 52bb 6177 df3b 0b7e 093c
00000160: f0bc 363c 25a8 823b 396f 4abc 15cf 7d3b
00000170: 3029 403b 5663 ebbb 2841 9ebb dcfd c73b
00000180: 2dea 30bb b547 f23a 11ee 84bb 356e 22bc
00000190: 5c30 02bc 4290 30bb 29ad 26bc 77e5 debb
000001a0: a16b afbb 6813 f0bb a9ec 923a d347 533c
000001b0: 653b d7b7 31cd 27ba 95af 723a f266 c73b
000001c0: 3b11 6dbb 8feb e8ba 1d1b a63a 1445 4dbb
000001d0: c91c e4bb 7313 c8b9 30de 62bb 06ad 063b
000001e0: 705d 4d3b 9f07 d83b 6d1f 17bb 140b 2e3c
000001f0: aa51 443b 7a14 b138 b5ce 073b 9015 863a

network_body._body_endoder.seq_layers.2.weight f4 [128, 128]
-0.024166716 0.08633772 0.16942297 -0.005447803 -0.054925825 0.024822975 -0.119227864 -0.04713422
-0.07004055 0.013961553 0.09569512 0.026984755 0.08296005 0.04592977 0.103975415 0.05757482
0.041803762 -0.022501282 0.030274117 -0.046600357 0.026696429 0.002100082 0.14731926 0.0012377759
-0.02796855 0.0005424875 0.114321336 -0.1667287 0.14116223 -0.018013809 0.016283223 0.13425253
-0.038930822 0.02985439 -0.027144773 0.14715734 -0.008790131 0.15131885 0.009327937 0.08793294
-0.13634656 0.00016230666 0.1257893 0.05250117 0.0019440525 0.00505654 0.092952326 -0.094556406
-0.03325016 0.006537047 0.13110557 0.12501934 0.0053289863 0.04771757 -0.07115595 -0.12983586
0.17820269 -0.02193035 0.28541973 0.023276225 0.0026523888 0.16024624 0.04667432 0.09674808
-0.07680618 -0.08739515 -0.004695142 -0.085343525 0.102487154 -0.030855032 -0.01933459 0.047739476
0.03613541 0.032422986 0.03986976 -0.0021552998 0.10897661 -0.036444146 -0.078820534 0.081340015
-0.023275273 0.06694281 0.06315989 -0.04113009 -0.010783466 0.07572539 -0.11881816 0.029488256
0.106548555 0.15731145 -0.06886723 -0.07985713 0.121845104 0.10543932 -0.09244004 -0.010416878
0.12918212 0.10530499 -0.023300761 -0.027133176 0.050486736 0.10800213 -0.06485414 0.10553019
-0.09111909 0.015905669 0.0047225975 -0.1687607 -0.02801895 -0.07736461 0.0022975316 0.0054186555
-0.0635907 0.12285679 0.086009 -0.027877875 -0.080193415 -0.06654315 0.12951078 -0.20957771
-0.044352733 0.05548686 -0.0027379177 0.049035575 0.16186115 0.084085375 -0.030203618 -0.050011095
-0.036171608 0.04385121 0.12412121 -0.03958699 -0.05133686 -0.06687005 -0.07958345 0.009462187
-0.030044248 0.09406507 -0.06370766 -0.03253964 0.059125688 -0.03360599 -0.057146132 0.20753542
0.058287133 -0.023337452 -0.10213456 0.03434413 0.004500303 -0.029243425 0.07586523 0.0009725302
-0.024015598 0.08705734 0.020581724 0.056100756 0.09074455 0.10560409 0.08224446 0.03771768
0.18245809 -0.094205655 -0.2041901 -0.19341853 0.059786953 0.08245725 0.07385731 -0.028997017
0.0054588146 0.002096604 0.0030552456 0.03144484 -0.039397012 0.035767704 -0.046374265 0.05149613
0.094074845 0.07215482 0.10309979 -0.003410157 0.02546199 -0.063347295 -0.047031693 -0.049465988
0.018981272 -0.21907988 0.0987528 0.080355674 -0.09343747 0.02547873 0.0034437862 0.051356565
0.06701394 0.035543047 -0.021859877 -0.011767713 0.050475314 0.022012737 0.08123162 0.11734051
0.022259897 -0.11684349 0.07945798 0.13833177 -0.044936173 0.0879895 0.02205518 0.03794842
0.06240239 0.0676424 -0.051338535 -0.07684073 0.12963362 0.08765548 -0.052630715 -0.012330357
-0.0029229932 -0.073884085 0.05647303 0.039399534 -0.04130286 0.15118954 0.019990327 0.059274666
0.035729516 0.28231388 -0.04043799 0.025684575 0.07650311 0.12310878 0.052361533 0.054304823
0.044493344 0.11849101 -0.14963952 -0.040108718 -0.2288869 -0.16503453 -0.14831105 -0.034677148
-0.034587055 0.11322447 -0.043692533 0.0898024 -0.14308369 0.006533619 -0.10415174 0.11337033
-0.15753984 -0.113385715 0.124231614 -0.028936837 -0.0069667506 -0.11494202 -0.021882517 0.028450517
00000000: 47f9 c5bc d5d1 b03d 377d 2d3e 7c83 b2bb
00000010: e7f9 60bd 8d59 cb3c bd2d f4bd d00f 41bd
00000020: 6b71 8fbd ffbe 643c cefb c33d 220f dd3c
00000030: f5e6 a93d db20 3c3d 10f1 d43d 93d3 6b3d
00000040: 6c3a 2b3d 9c54 b8bc 6d01 f83c 04e0 3ebd
00000050: 78b2 da3c 88a1 093b dcda 163e de3c a23a
00000060: 4d1e e5bc b835 0e3a 4e21 ea3d eeba 2abe
00000070: d58c 103e b291 93bc 6564 853c 7f79 093e
00000080: ed75 1fbd 3291 f43c b75e debc 6ab0 163e
00000090: 7b04 10bc 54f3 1a3e 34d4 183c 2f16 b43d
000000a0: 6f9e 0bbe dd30 2a39 e9ce 003e 780b 573d
000000b0: 94cf fe3a 55b1 a53b ca5d be3d caa6 c1bd
000000c0: 5231 08bd ba34 d63b 8a40 063e 1205 003e
000000d0: c79e ae3b 8073 433d 36ba 91bd b1f3 04be
000000e0: c47a 363e 47a7 b3bc 8922 923e c8ad be3c
000000f0: b3d3 2d3b 9717 243e 922d 3f3d db23 c63d
00000100: 8f4c 9dbd 3afc b2bd b5d9 99bb 96c8 aebd
00000110: c9e4 d13d b1c3 fcbc 9363 9ebc 788a 433d
00000120: b902 143d f7cd 043d 794e 233d ee3f 0dbb
00000130: 212f df3d 7546 15bd a96c a1bd 9895 a63d
00000140: c9ab bebc 5019 893d f959 813d 0678 28bd
00000150: 22ad 30bc ea15 9b3d ef56 f3bd 5b91 f13c
00000160: 2136 da3d 4116 213e 430a 8dbd 238c a3bd
00000170: ed89 f93d 92f0 d73d 3451 bdbd 8eab 2abc
00000180: 5148 043e 25aa d73d 3de1 bebc 6546 debc
00000190: 2ecb 4e3d 3930 dd3d 3fd2 84bd 3620 d83d
000001a0: a59c babd 9b4c 823c 05c0 9a3b 9bcf 2cbe
000001b0: ff87 e5bc 5671 9ebd 2f92 163b fa8e b13b
000001c0: d73b 82bd 579c fb3d 7d25 b03d 2460 e4bc
000001d0: 723c a4bd c647 88bd 799e 043e 8a9b 56be
000001e0: 36ab 35bd 3146 633d a36e 33bb 87d9 483d
000001f0: eebe 253e f434 ac3d 946d f7bc 6fd8 4cbd
00000200: ae28 14bd 549d 333d 4333 fe3d f825 22bd
00000210: 9946 52bd 2af3 88bd a6fc a2bd 4a07 1b3c
00000220: 5b1f f6bc 30a5 c03d 2979 82bd 4948 05bd
00000230: c72d 723d 6fa6 09bd 1012 6abd 2a84 543e
00000240: 7dbe 6e3d 2f2e bfbc ed2b d1bd 6eac 0c3d
00000250: 4777 933b e88f efbc 3b5f 9b3d 66f1 7e3a
00000260: 5cbc c4bc 1e4b b23d 019b a83c e8c9 653d
00000270: 47d8 b93d f546 d83d c96f a83d db7d 1a3d
00000280: 4bd6 3a3e e5ee c0bd 3617 51be 820f 46be
00000290: 2ae3 743d 59df a83d 8042 973d 278b edbc
000002a0: dbdf b23b 2e67 093b 843a 483b 4ecc 003d
000002b0: c35e 21bd 2881 123d f1f2 3dbd 9bed 523d
000002c0: 50aa c03d e8c5 933d fc25 d33d f17c 5fbb
000002d0: aa95 d03c 3abc 81bd 4ea4 40bd d99c 4abd
000002e0: 9d7e 9b3c 7a56 60be e83e ca3d 8491 a43d
000002f0: 255c bfbd c5b8 d03c 25b1 613b 435b 523d
00000300: 9b3e 893d 9695 113d 7c13 b3bc 5ecd 40bc
00000310: 34bf 4e3d 0e54 b43c c35c a63d 3950 f03d
00000320: 635a b63c a44b efbd deba a23d d8a6 0d3e
00000330: fe0e 38bd d733 b43d 11ad b43c cd6f 1b3d
00000340: a699 7f3d 1988 8a3d 5b48 52bd ac5e 9dbd
00000350: adbe 043e b784 b33d 4e93 57bd 4405 4abc
00000360: b08f 3fbb 8a50 97bd 4450 673d 6861 213d
00000370: 302d 29bd 6ed1 1a3e c1c2 a33c fec9 723d
00000380: 1d59 123d 728b 903e 4ea2 25bd 7568 d23c
00000390: aaad 9c3d 7520 fc3d 0c79 563d bc6e 5e3d
000003a0: a73e 363d 6aab f23d 1a3b 19be 0a49 24bd
000003b0: 5461 6abe d0fe 28be dade 17be a009 0ebd
000003c0: 28ab 0dbd 3be2 e73d f1f6 32bd 52ea b73d
000003d0: 8884 12be f817 d63b 824d d5bd b42e e83d
000003e0: 2052 21be c536 e8bd 256d fe3d f20c edbc
000003f0: 5749 e4bb b966 ebbd f742 b3bc 0f11 e93c

network_body._body_endoder.seq_layers.2.bias f4 [128]
0.0065647764 -0.00939145 -0.0061348835 0.006610086 -0.01634873 0.0014447928 -0.0039345985 -0.0042529786
0.0001317264 0.0006363105 0.005987023 -0.008295986 0.00025037173 -0.0068670935 -0.00016372217 0.005879581
-0.0057468736 -0.0031625715 -0.009334664 -0.006710387 0.005022332 -0.00045257635 0.0010382318 0.0029567992
0.012500105 -0.007101923 0.0017528025 0.010091489 -0.0101662185 0.00907344 0.0145274745 -0.0039324285
-0.010298434 0.003065801 -0.0073697544 0.00042202653 0.0009570406 0.008108527 -0.0056290226 0.0024788862
-0.005718839 -0.0017572598 -0.009421628 -0.005268043 -0.03092135 -0.0003686337 0.00157739 -0.0011840598
-0.0021133292 0.008685347 0.004308446 -0.0113646 0.010406376 0.0056032888 -0.00538115 -0.0109278355
0.0063493256 -0.0015815058 -4.8773414e-05 0.0057523823 0.002431942 0.005746793 0.0022845957 0.001440023
-0.01113011 0.0040235487 0.002310185 7.018358e-05 -0.01454894 0.009106381 0.007288922 0.0012842604
-0.009625645 -0.00050075876 -0.011072084 0.0032024558 0.0038040637 -0.0030918622 -0.0046800845 -0.010041013
6.238061e-05 -0.009976856 0.0012444451 0.0063481345 0.0277374 -0.016465833 0.0025739316 0.0018941204
-0.0048107654 0.0038926671 -0.0067320615 0.008868139 -0.0006458727 -0.003852856 0.0012669148 0.017790005
0.006737676 0.014244346 0.0069424678 -0.0088433 -0.0015157155 -0.006383128 -0.0040144054 0.0053092106
-0.009114868 -0.00080716057 0.0035709862 -0.0026728732 -0.0005881555 -0.0043165213 -0.004598354 0.0030156747
-5.9455804e-05 0.00013739872 0.0023754998 0.008198126 0.0010912282 0.004843735 0.0026922766 0.0029982952
0.00021660418 -0.009465491 -0.00874534 -0.0029036782 0.0025621662 0.00062904076 0.0012298696 -0.00047279487
00000000: 561d d73b 99de 19bc 2207 c9bb 6c99 d83b
00000010: c6ed 85bc 345f bd3a ceed 80bb 925c 8bbb
00000020: 0920 0a39 13ce 263a ca2e c43b e3eb 07bc
00000030: 5344 8339 5b05 e1bb d6ac 2bb9 80a9 c03b
00000040: 4550 bcbb 2543 4fbb 6bf0 18bc cee2 dbbb
00000050: 6092 a43b c547 edb9 4715 883a dcc6 413b
00000060: 3ecd 4c3c 40b7 e8bb 4bbe e53a c656 253c
00000070: 3690 26bc c4a8 143c a504 6e3c 9adb 80bb
00000080: c3ba 28bc 9beb 483b fb7d f1bb 7143 dd39
00000090: e8e1 7a3a a1d9 043c aa73 b8bb cf74 223b
000000a0: 1965 bbbb db53 e6ba 2c5d 1abc 8c9f acbb
000000b0: c54e fdbc 2d45 c1b9 6dc0 ce3a 7432 9bba
000000c0: c87f 0abb fc4c 0e3c dd2d 8d3b 9632 3abc
000000d0: 817f 2a3c cb9b b73b 5c54 b0bb aa0a 33bc
000000e0: 010e d03b 874a cfba 0e92 4cb8 7b7e bc3b
000000f0: 3761 1f3b 984f bc3b 28b9 153b 27bf bc3a
00000100: 115b 36bc f9d7 833b 7966 173b 862f 9338
00000110: ad5e 6ebc ee32 153c e9d7 ee3b a154 a83a
00000120: e2b4 1dbc 5a45 03ba b067 35bc 4be0 513b
00000130: 994d 793b d7a0 4abb 655b 99bb 1083 24bc
00000140: 56d2 8238 f875 23bc a61c a33a 0304 d03b
00000150: 8b39 e33c 5be3 86bc 68af 283b 2244 f83a
00000160: a0a3 9dbb 1e1c 7f3b a098 dcbb ac4b 113c
00000170: c84f 29ba 3380 7cbb 9b0e a63a 58bc 913c
00000180: b9c7 dc3b 1e61 693c a47d e33b 7de3 10bc
00000190: f9aa c6ba 8f29 d1bb 468b 83bb e3f8 ad3b
000001a0: 8756 15bc a197 53ba 3507 6a3b 5f2b 2fbb
000001b0: 732e 1aba 9b71 8dbb caad 96bb a0a2 453b
000001c0: 2f60 79b8 b012 1039 46ae 1b3b 6f51 063c
000001d0: 8b07 8f3a 32b8 9e3b e870 303b 0c7f 443b
000001e0: 3e20 6339 2615 1bbc 9d48 0fbc a34b 3ebb
000001f0: 04ea 273b 36e6 243a 9333 a13a 74e1 f7b9

action_model._continuous_distribution.mu.weight f4 [1, 128]
0.004067546 -0.01052978 -0.030081756 -0.016633209 0.017873226 0.019561797 -0.038675442 0.008462564
0.0047026966 0.0022183086 -0.00615241 0.0048117563 0.01815318 -0.007858486 0.021627044 -0.0017027918
0.011545115 -0.02387062 -0.001951966 -0.0038244748 0.014802055 -0.0076508843 -0.002921184 0.010182932
0.038007725 0.024614763 -0.010063471 0.015479385 -0.019365057 0.012094762 3.1850705e-06 0.015220481
0.016816953 0.0040306016 -0.023172224 0.030466247 -0.04138343 -0.030114867 0.026843145 0.014376374
0.0072847023 -0.010733764 -0.018075185 -0.0049581695 0.0020304746 0.0052912086 -0.019762134 -0.0012783881
-0.0161507 -0.0041643917 0.011143889 -0.026153877 -0.024306007 0.008354453 -0.00072749594 0.023125235
0.019538427 -0.017184626 -0.015336215 0.005709786 0.011396996 0.012916323 0.019351738 -0.0107299965
0.0027024308 0.032518864 -0.0019067825 0.02056101 -0.0005558376 -0.014930452 0.0115035875 0.026205884
-0.00203094 -0.026946986 -0.00080197037 -0.02610407 0.022148846 -0.04740242 -0.0030794584 -0.005411345
0.0021461044 0.0062028505 -0.016524741 -0.000782433 -0.0115362005 0.015463217 0.022788588 0.02780124
-0.023267874 0.014047876 -0.008843588 0.03469355 0.012082856 -0.027218178 -0.0019875665 -0.005768993
-0.025745116 -0.005730587 -0.010406138 0.0073163463 0.00993294 -0.0077716187 0.012552991 0.010529406
-0.015757343 0.0032933997 -0.01344601 -0.05062609 -0.013787903 -0.010157481 0.02751629 0.022780705
-0.00030520503 -0.01488264 0.022005484 -0.012694891 -0.001113693 0.0033834646 0.0068733874 -0.0073072338
-0.0067847883 0.0037560978 0.00081923563 -0.017091941 -0.020189278 -0.007394268 -0.0016791932 -0.029886227
00000000: 0d49 853b 1985 2cbc 046e f6bc 5e42 88bc
00000010: df6a 923c 1040 a03c 246a 1ebd 91a6 0a3c
00000020: 1419 9a3b 0b61 113b 289a c9bb f0ab 9d3b
00000030: fab5 943c e1c0 00bc 332b b13c 3630 dfba
00000040: b927 3d3c 528c c3bc 1cd9 ffba 0aa4 7abb
00000050: 5284 723c 45b4 fabb 5671 3fbb 50d6 263c
00000060: fdad 1b3d e6a4 c93c 42e1 24bc 3f9d 7d3c
00000070: 78a3 9ebc 1c29 463c 18bf 5536 535f 793c
00000080: b5c3 893c 2313 843b add3 bdbc 5a94 f93c
00000090: ac81 29bd 74b3 f6bc 28e6 db3c e28a 6b3c
000000a0: 83b4 ee3b abdc 2fbc 6912 94bc 2478 a2bb
000000b0: b611 053b e061 ad3b 33e4 a1bc 968f a7ba
000000c0: 794e 84bc 7375 88bb dc94 363c a840 d6bc
000000d0: 641d c7bc 1ee1 083c 6db5 3eba 2271 bd3c
000000e0: 0d0f a03c c6c6 8cbc bf44 7bbc 2819 bb3b
000000f0: 77ba 3a3c fc9e 533c 8987 9e3c decc 2fbc
00000100: 441b 313b 8032 053d 01ed f9ba 906f a83c
00000110: a1b5 11ba db9e 74bc 8b79 3c3c b9ad d63c
00000120: 8519 05bb edbf dcbc 523b 52ba 34d8 d5bc
00000130: 7f71 b53c 0a29 42bd bdd0 49bb a751 b1bb
00000140: a8a5 0c3b 4841 cb3b e55e 87bc 311c 4dba
00000150: 5502 3dbc 6f59 7d3c 22af ba3c 6dbf e33c
00000160: 459c bebc 1029 663c b2e4 10bc d31a 0e3d
00000170: 2cf7 453c a8f8 debc d541 02bb d209 bdbb
00000180: 6ce7 d2bc a6c7 bbbb 827e 2abc f6bd ef3b
00000190: c5bd 223c 10a9 febb 0fab 4d3c 8883 2c3c
000001a0: 8b15 81bc 14d6 573b a74c 5cbc 4e5d 4fbd
000001b0: a8e6 61bc 906b 26bc d869 e13c 9a9e ba3c
000001c0: ed03 a0b9 51d6 73bc d844 b43c 3bfe 4fbc
000001d0: 56f9 91ba 1ebd 5d3b 273a e13b 8571 efbb
000001e0: ee52 debb dd28 763b f9c1 563a 6604 8cbc
000001f0: fc63 a5bc 9e4b f2bb 6018 dcba f6d3 f4bc

action_model._discrete_distribution.branches.0.weight f4 [1, 128]
0.0122925555 0.00913429 0.020264855 -0.006045861 0.016432742 0.0045749475 0.0074797184 0.006218681
-0.008714388 -0.0074417912 -0.0042785425 -0.013203065 -0.0053183637 -0.01254345 0.00472909 0.0065178494
-0.0067239576 -0.0039995844 0.003712939 -0.008569177 0.0015068338 0.013196525 -0.023149824 0.003771412
-0.015890848 0.0033647642 -0.0012446315 0.007081589 -0.0035598732 0.007974269 -1.0455669e-05 0.0094273565
-0.00020555146 0.017552407 -0.0073988396 -0.0009376099 0.004942195 0.00804327 -0.006554913 0.0014296917
-0.0050076824 -0.0022394517 -0.0028128922 -0.0062797526 -0.017973354 -0.017400296 0.00652482 -0.00038604447
0.008550839 0.016692316 -0.0005902888 -0.0039576124 -0.0005745551 -0.0014329472 0.0059813764 0.0021434592
-0.00029613703 -0.019198457 -0.0028074519 0.0016259777 -0.010440399 -0.0012106431 0.0057347384 0.0032073443
-0.012902262 -0.00017928374 0.0055958047 0.014047264 -0.0033910566 -0.0024514443 -0.0054259915 0.003571296
-0.0025402799 0.010162401 0.0018879082 -0.009105161 -0.0006326799 -0.005295605 0.025416633 -0.008721638
-0.0018674372 0.01884418 -0.003922147 -0.0032263089 -0.0046021915 -0.0049585295 0.004188744 0.0029234418
0.0033911434 -0.007615708 -0.029703071 -0.0111079095 0.0035565053 -0.0029963332 0.01142423 -0.0033441118
-0.0075486335 -0.0014033834 0.018929843 0.0037650813 -0.00084702484 -0.011751365 0.00754451 -0.018013682
-0.001519577 0.007025931 0.011290121 -0.0046063173 0.00055554777 0.011589839 -0.001123066 -0.007855428
-0.013016582 0.008582774 -0.0052372604 0.007878466 0.008572624 0.013269121 0.008206892 -0.010422795
0.028854636 0.009850557 -0.013519113 0.015561326 0.0011154757 0.0055328654 -0.010212378 0.012407487
00000000: b766 493c fda7 153c 7b02 a63c 5c1c c6bb
00000010: f59d 863c 71e9 953b 6d18 f53b 14c6 cb3b
00000020: cbc6 0ebc 45da f3bb 0433 8cbb ab51 58bc
00000030: ab45 aebb 0b83 4dbc 7bf6 9a3b af93 d53b
00000040: a554 dcbb f20e 83bb c854 733b bc65 0cbc
00000050: f480 c53a 3d36 583c b3a4 bdbc cb29 773b
00000060: 862d 82bc 6083 5c3b e722 a3ba ad0c e83b
00000070: c34c 69bb 82a6 023c c26a 2fb7 3375 1a3c
00000080: 4d89 57b9 11ca 8f3c f771 f2bb efc9 75ba
00000090: 23f2 a13b ebc7 033c 98ca d6bb 7e64 bb3a
000000a0: 7c17 a4bb c4c3 12bb 8058 38bb 62c6 cdbb
000000b0: db3c 93bc 118b 8ebc 28ce d53b 0366 cab9
000000c0: d118 0c3c 53be 883c 9cbd 1aba dcae 81bb
000000d0: bd9d 16ba bbd1 bbba 6cff c33b 4779 0c3b
000000e0: d742 9bb9 1546 9dbc 3afd 37bb c21e d53a
000000f0: 350e 2bbc 71ae 9eba 79ea bb3b 4f32 523b
00000100: 0264 53bc 1dfe 3bb9 035d b73b 7f26 663c
00000110: 7d3c 5ebb 69a8 20bb 84cc b1bb 680c 6a3b
00000120: d37a 26bb 3380 263c b073 f73a d02d 15bc
00000130: 6eda 25ba c186 adbb 8b36 d03c 33e5 0ebc
00000140: cbc4 f4ba 1c5f 9a3c 5b85 80bb 7b70 53bb
00000150: fbcd 96bb 297b a2bb bb41 893b 3797 3f3b
00000160: f23d 5e3b 308d f9bb db53 f3bc f3fd 35bc
00000170: 4214 693b 215e 44bb b22c 3b3c e328 5bbb
00000180: 875a f7bb bcf1 b7ba c212 9b3c 95bf 763b
00000190: e00a 5eba cc88 40bc f037 f73b 6e91 93bc
000001a0: 8b2c c7ba c839 e63b 33fa 383c 97f0 96bb
000001b0: 2ea2 113a 4fe3 3d3c d733 93ba 0eb4 00bc
000001c0: 8043 55bc c39e 0c3c 539d abbb ae14 013c
000001d0: 3174 0c3c ba66 593c 3376 063c 5fc4 2abc
000001e0: 8f60 ec3c 3b64 213c 457f 5dbc eff4 7e3c
000001f0: 2735 923a 0a4d b53b d151 27bc c648 4b3c

onnx::LSTM_116 f4 [1, 512, 128]
0.082879856 -0.009133943 0.08133465 0.03636139 -0.07250465 -0.09371876 0.014842868 -0.05345462
0.019218074 0.013109557 -0.0041390182 0.048523333 0.1561622 -0.13620575 0.13236822 -0.07975164
-0.11754795 0.09561742 -0.04137187 0.01801875 -0.13206758 0.149672 0.119346835 0.012717369
-0.017257804 0.13937558 -0.114829436 0.086675495 0.06103835 -0.100359455 -0.05398987 -0.048559856
0.044571064 0.09345741 0.08637098 0.07378645 0.15570748 0.02553589 0.14745142 -0.12729144
-0.030438337 -0.025125017 -0.07341458 0.03014113 0.09388356 -0.099542655 0.0760634 0.12923594
-0.037955698 0.017607214 0.109787986 0.14976229 -0.01725555 -0.09026705 0.12035483 -0.029858187
-0.01662334 -0.13853137 0.11897062 -0.02223037 -0.08833848 -0.10611351 0.09834979 -0.1288884
-0.02449251 -0.13728614 0.058846626 0.027485752 -0.032681793 0.12159756 0.14625144 -0.12581484
-0.119703315 -0.12883325 -0.14549395 0.088052236 0.018909449 -0.08975642 -0.014160198 0.079471916
-0.038793713 -0.02146883 -0.11838491 0.0894748 0.05439558 -0.084320046 0.021807414 -0.09474186
-0.13603002 -0.097744025 0.010923051 0.04821552 0.1422877 -0.030878749 0.061749026 -0.09737044
0.011247789 -0.014784495 -0.111551695 -0.0012639922 0.13359675 0.075115986 0.059488535 -0.10868259
0.01579002 -0.09064447 -0.004488765 -0.086035125 0.121910065 0.04079193 -0.14241552 0.032413863
-0.10203153 0.06753396 0.05214318 0.14317414 0.00484267 0.019644294 0.0052208793 -0.033079233
0.03088759 -0.07510429 -0.06775115 0.1238108 -0.12645312 0.08536536 -0.099186696 0.12837096
-0.10180999 -0.0026914782 0.069345586 -0.10311966 0.0069054617 -0.13638438 0.022197997 0.0242554
-0.015675586 -0.14828782 -0.0069570323 -0.053525396 0.14610939 -0.14305475 -0.020868076 0.023377126
0.07961826 -0.051637486 -0.005265939 -0.0010817657 0.042419594 -0.059978176 -0.06267134 0.04303852
0.1277675 -0.12014803 0.0028632584 0.080519624 -0.054087356 -0.004026021 0.112960935 -0.099649586
0.015760783 -0.121642955 -0.10238978 0.12088746 -0.09740866 -0.0630024 -0.06013381 -0.07904876
-0.008336461 -0.10608434 -0.16555487 -0.100280285 -0.1564772 0.008701157 -0.12367554 0.044612914
-0.123163566 0.09821886 0.13107996 0.010228784 -0.1337724 0.13248092 -0.02726848 0.08567371
0.15190862 0.017556317 -0.031364597 -0.08772464 0.08737774 -0.11906793 0.1307313 0.090347625
-0.09865192 0.010633654 -0.08252201 -0.074642316 -0.11981423 0.043205593 -0.04201275 -0.12260651
0.05852449 -0.073483646 0.011162815 -0.15232927 0.049619503 0.041951925 0.040354192 0.07405185
-0.024371224 -0.11969926 0.11448895 -0.09489255 0.08461926 -0.0986594 0.069619164 -0.0047153467
-0.009920332 0.056220707 0.041399427 -0.027791744 0.022835486 -0.10158348 0.1076308 -0.08468572
-0.13322663 -0.0045363544 0.07314374 0.027402222 0.054369085 -0.04793816 0.031117031 -0.049073696
-0.14121656 0.0794831 0.14282803 0.08472881 -0.005838801 0.023067208 0.006734805 0.044392996
-0.02168464 0.13676271 -0.10604192 0.12329525 0.08909393 -0.033882134 0.12965213 0.06731498
-0.13862483 -0.079269625 0.01914987 0.12328859 -0.016659375 -0.09511971 0.13301428 0.1106597
00000000: eabc a93d 89a6 15bc c892 a63d aeef 143d
00000010: 517d 94bd 9fef bfbd 802f 733c 3bf3 5abd
00000020: 396f 9d3c 78c9 563c 9aa0 87bb 67c0 463d
00000030: fce8 1f3e 8579 0bbe 898b 073e d454 a3bd
00000040: fbbc f0bd 11d3 c33d 8d75 29bd 0f9c 933c
00000050: b93c 07be 9e43 193e 1d6c f43d 835c 503c
00000060: 3d60 8dbc 79b8 0e3e b22b ebbd ec82 b13d
00000070: 5903 7a3d 4289 cdbd 7b24 5dbd b3e6 46bd
00000080: 2690 363d 9966 bf3d 45e3 b03d 5a1d 973d
00000090: c871 1f3e a530 d13c 81fd 163e b058 02be
000000a0: d259 f9bc fbd2 cdbc 625a 96bd 88ea f63c
000000b0: 0646 c03d 05dd cbbd 21c7 9b3d 6d56 043e
000000c0: 6f77 1bbd 013d 903c 86d8 e03d 495b 193e
000000d0: 835b 8dbc eedd b8bd 987c f63d 2899 f4bc
000000e0: ac2d 88bc 2bdb 0dbe dea6 f33d 771c b6bc
000000f0: ceea b4bd 0a52 d9bd 9d6b c93d 52fb 03be
00000100: 84a4 c8bc bd94 0cbe 2909 713d cd29 e13c
00000110: 58dd 05bd 2408 f93d f0c2 153e 9bd5 00be
00000120: 0327 f5bd ddec 03be 5efc 14be bb54 b43d
00000130: fde7 9a3c 37d2 b7bd 2d00 68bc 2cc2 a23d
00000140: 28e6 1ebd 66df afbc ca73 f2bd 903e b73d
00000150: e6cd 5e3d fdaf acbd 76a5 b23c 0508 c2bd
00000160: 744b 0bbe 052e c8bd 99f6 323c a37d 453d
00000170: deb3 113e 6ef5 fcbc 8cec 7c3d 276a c7bd
00000180: a548 383c ab3a 72bc 3775 e4bd 8aac a5ba
00000190: 96cd 083e 69d6 993d 40aa 733d fa94 debd
000001a0: 125a 813c cfa3 b9bd 7d16 93bb 2f33 b0bd
000001b0: fcab f93d 7015 273d 60d5 11be 66c4 043d
000001c0: e8f5 d0bd 3f4f 8a3d 1694 553d 3e9c 123e
000001d0: 43af 9e3b 12ed a03c e913 ab3b 177e 07bd
000001e0: f907 fd3c 47d0 99bd 1dc1 8abd 8490 fd3d
000001f0: ed7c 01be 09d4 ae3d 6522 cbbd ad73 033e
00000200: c281 d0bd 8363 30bb 0f05 8e3d 6630 d3bd
00000210: 3647 e23b 59a8 0bbe 93d8 b53c 43b3 c63c
00000220: 166a 80bc c3d8 17be d1f7 e3bb 723d 5bbd
00000230: b39d 153e f27c 12be 87f3 aabc 6381 bf3c
00000240: e60e a33d d481 53bd e68d acbb 09ca 8dba
00000250: 2bc0 2d3d adab 75bd d559 80bd 2949 303d
00000260: 7cd5 023e 2c10 f6bd 81a5 3b3b 79e7 a43d
00000270: b48a 5dbd b6ec 83bb 1058 e73d 1515 ccbd
00000280: c21c 813c f11f f9bd bcb1 d1bd d893 f73d
00000290: 317e c7bd 6707 81bd df4e 76bd 51e4 a1bd
000002a0: a795 08bc bf42 d9bd 3787 29be c05f cdbd
000002b0: 8f3b 20be 4c8f 0e3c 9a49 fdbd 08bc 363d
000002c0: 2e3d fcbd f826 c93d d339 063e a196 273c
000002d0: a2fb 08be 14a9 073e 2662 dfbc b375 af3d
000002e0: ef8d 1b3e 44d2 8f3c 2a78 00bd faa8 b3bd
000002f0: 1af3 b23d e3d9 f3bd 6dde 053e 2d08 b93d
00000300: 050a cabd c738 2e3c 4d01 a9bd 12de 98bd
00000310: 2a61 f5bd 59f8 303d 9015 2cbd 1f19 fbbd
00000320: 60b7 6f3d 987e 96bd 3de4 363c 34fc 1bbe
00000330: d23d 4b3d c8d5 2b3d 704a 253d 7fa8 973d
00000340: 29a6 c7bc e324 f5bd 2f79 ea3d 0657 c2bd
00000350: dd4c ad3d f10d cabd 7e94 8e3d 3283 9abb
00000360: e388 22bc af47 663d 7292 293d 83ab e3bc
00000370: 7c11 bb3c 000b d0bd 896d dc3d b56f adbd
00000380: 906c 08be b3a5 94bb 63cc 953d a07a e03c
00000390: 1eb2 5e3d ce5a 44bd 25e9 fe3c 8001 49bd
000003a0: 139b 10be 09c8 a23d 8341 123e 4c86 ad3d
000003b0: 6a53 bfbb 71f7 bc3c a4af dc3b 6ed5 353d
000003c0: fca3 b1bc 860b 0c3e 822c d9bd 3882 fc3d
000003d0: e176 b63d fec7 0abd 87c3 043e 70dc 893d
000003e0: abf3 0dbe 1d58 a2bd 30e0 9c3c ba7e fc3d
000003f0: 3e79 88bc 1fce c2bd e534 083e 8ea1 e23d

onnx::LSTM_117 f4 [1, 512, 128]
0.047208 0.118403934 0.06431248 -0.114672765 0.10255195 -0.1587747 -0.11083131 0.014054752
-0.07884197 -0.15425001 -0.043087244 0.1471662 -0.09955646 0.046463665 -0.10262478 0.022079693
-0.14781667 -0.025525669 0.009123666 -0.07300141 0.00786056 0.11815583 -0.12347441 0.14672403
-0.07626743 -0.048213232 -0.0019933898 -0.09009476 -0.1314042 -0.06711499 -0.11524782 0.104043975
-0.12601912 -0.079053916 -0.05410072 -0.10666501 0.126567 0.11492963 -0.14924517 0.08614277
0.07208088 -0.098771416 -0.067666024 -0.0620934 -0.10751806 0.10722112 -0.080207154 -0.045247834
-0.00158601 -0.0482407 -0.033147812 -0.09493046 0.08692092 -0.029115288 -0.06559667 -0.08897905
0.046019893 -0.0019294609 0.11673973 0.08252173 -0.06667766 -0.045698076 -0.029762302 -0.049413204
-0.036064286 0.06865311 -0.12606841 0.029729353 0.03137082 0.05493911 0.1532485 0.082256384
-0.11474791 0.084126934 0.10806879 0.010198401 0.122350365 -0.044932745 -0.13897815 0.14794993
0.065342456 -0.04762583 0.03181825 0.08025285 -0.09546566 0.010204092 0.0774252 -0.058219686
-0.001864833 0.11592395 0.090811715 0.010772032 -0.071730755 0.11865561 -0.15558867 -0.09346394
-0.12117946 0.06922121 0.105085604 0.06927853 0.12785214 -0.027103622 0.06634666 -0.09253113
-0.089383915 -0.01603425 -0.013810922 -0.055145126 0.10768255 -0.1263075 -0.033105355 0.11543381
0.047749553 0.09323202 0.12414999 0.0045705014 0.16143945 -0.14759563 -0.048459616 0.014181274
-0.028451882 0.07307717 -0.04103536 0.04519865 0.011493086 0.14979877 -0.008413646 0.09028959
0.06866947 -0.0835931 0.14454947 -0.039184928 -0.09024661 -0.14034952 -0.15069972 -0.0148956105
0.01199578 -0.035450775 0.12655188 0.1308189 0.020703144 -0.08788071 0.08033844 -0.11501242
-0.046437114 0.09425407 0.106913455 0.08896179 -0.13377866 -0.14901455 0.14025454 0.1253818
0.05259071 0.07287556 0.067820214 -0.13144392 -0.15246916 0.019769263 -0.10679293 0.12435916
0.1301788 -0.096309744 -0.064605445 0.07982706 0.09345704 -0.123884134 -0.012274326 -0.06320989
0.09137284 0.056413274 -0.069866225 -0.06967784 -0.04458591 -0.020972064 0.0010460999 0.048775546
0.09935637 -0.081158884 0.042330716 -0.058185834 -0.035946317 0.0026414187 -0.049898367 0.049629617
0.09225827 -0.0589462 -0.13619731 0.021213118 -0.13115758 -0.041903708 0.015027112 -0.0011956776
0.073010854 0.027398132 0.105113596 0.12199153 -0.09496959 -0.15417592 0.09840079 0.107111804
-0.13952044 0.041709457 -0.0050468673 -0.13008294 -0.011120577 -0.00645564 0.018234443 -0.036833573
-0.03633446 -0.063014135 -0.10799718 -0.047234815 -0.041861467 -0.052621827 0.05378512 0.06314608
0.13011824 -0.14609046 -0.053181 -0.107618585 0.025962934 0.04540117 0.1405662 0.037457217
-0.07326941 0.011841439 -0.13833384 0.043624505 0.07284019 0.05817528 -0.111159444 0.12044796
-0.04413726 0.11156467 -0.03811007 0.12895834 -0.03336585 -0.08173577 -0.12048529 -0.014398069
0.116645254 -0.083422594 0.046480108 0.06026779 0.13918985 -0.039885182 0.07242696 -0.12058515
-0.12060903 -0.015751781 0.09112159 -0.14876011 -0.065168165 -0.043629803 0.104517 0.024480453
00000000: 2d5d 413d c37d f23d 43b6 833d 8ed9 eabd
00000010: c206 d23d d695 22be 87fb e2bd e745 663c
00000020: e677 a1bd b7f3 1dbe 407c 30bd bdb2 163e
00000030: 42e4 cbbd af50 3e3d f12c d2bd 79e0 b43c
00000040: 415d 17be 351b d1bc 6e7b 153c c381 95bd
00000050: 94c9 003c affb f13d 27e0 fcbd d33e 163e
00000060: 1932 9cbd 3d7b 45bd 88a3 02bb 9a83 b8bd
00000070: d38e 06be 9573 89bd 0d07 ecbd 0215 d53d
00000080: 280b 01be 05e7 a1bd b798 5dbd 2f73 dabd
00000090: c89a 013e 3a60 eb3d bad3 18be 9f6b b03d
000000a0: 249f 933d ab48 cabd 7c94 8abd a655 7ebd
000000b0: 6e32 dcbd bf96 db3d a643 a4bd cb55 39bd
000000c0: aae1 cfba 0a98 45bd 00c6 07bd e76a c2bd
000000d0: 9803 b23d 2f83 eebc 8c57 86bd a63a b6bd
000000e0: 5b7f 3c3d f7e5 fcba 3d15 ef3d 2701 a93d
000000f0: 4c8e 88bd e82d 3bbd 12d0 f3bc 8065 4abd
00000100: 25b8 13bd 009a 8c3d 1418 01be f98a f33c
00000110: b07e 003d d507 613d 2ded 1c3e 0976 a83d
00000120: f400 ebbd be4a ac3d 2b53 dd3d 3217 273c
00000130: d492 fa3d 660b 38bd 4a50 0ebe 3080 173e
00000140: 44d2 853d 4d13 43bd da53 023d 9b5b a43d
00000150: 8083 c3bd 102f 273c 1a91 9e3d c477 6ebd
00000160: 696d f4ba 8969 ed3d 7efb b93d 2d7d 303c
00000170: 93e7 92bd b601 f33d a352 1fbe 066a bfbd
00000180: f02c f8bd dac3 8d3d 1f37 d73d e7e1 8d3d
00000190: aceb 023e 6a08 debc c2e0 873d f680 bdbd
000001a0: ea0e b7bd 425a 83bc 3547 62bc dbdf 61bd
000001b0: ab88 dc3d c156 01be 7b99 07bd 9068 ec3d
000001c0: 0995 433d 6ef0 be3d 5a42 fe3d 25c4 953b
000001d0: 6250 253e 4f23 17be 977d 46bd 9358 683c
000001e0: ec13 e9bc 7ca9 953d b214 28bd 3822 393d
000001f0: 7f4d 3c3c d964 193e 64d9 09bc c0e9 b83d
00000200: 94a2 8c3d dc32 abbd c704 143e 6080 20bd
00000210: 37d3 b8bd c9b7 0fbe 0751 1abe b80c 74bc
00000220: f389 443c d534 11bd d196 013e 64f5 053e
00000230: a499 a93c cdfa b3bd 7b88 a43d a28b ebbd
00000240: d834 3ebd 4708 c13d 71f5 da3d 9931 b63d
00000250: 46fd 08be 4597 18be e39e 0f3e 1664 003e
00000260: 5b69 573d c83f 953d 53e5 8a3d 3c99 06be
00000270: e020 1cbe 26f3 a13c 40b6 dabd 04b0 fe3d
00000280: 974d 053e 0b3e c5bd dc4f 84bd 5f7c a33d
00000290: 6866 bf3d f7b6 fdbd 411a 49bc 3074 81bd
000002a0: af21 bb3d 9b11 673d 0616 8fbd 41b3 8ebd
000002b0: b79f 36bd 9bcd abbc 4a1d 893a dec8 473d
000002c0: 5a7b cb3d a136 a6bd f962 2d3d 4554 6ebd
000002d0: 723c 13bd a71b 2d3b 3b62 4cbd 6d48 4b3d
000002e0: e7f1 bc3d 9271 71bd 4f77 0bbe 22c7 ad3c
000002f0: 2c4e 06be 39a3 2bbd 4734 763c 48b8 9cba
00000300: b786 953d 0c72 e03c cc45 d73d b2d6 f93d
00000310: 6b7f c2bd 4be0 1dbe 5a86 c93d 6f5d db3d
00000320: 72de 0ebe 89d7 2a3d 3160 a5bb 7634 05be
00000330: 1533 36bc d589 d3bb 6660 953c cdde 16bd
00000340: 71d3 14bd 8e0d 81bd a02d ddbd 4b79 41bd
00000350: ee76 2bbd fc89 57bd c94d 5c3d bb52 813d
00000360: b73d 053e bd98 15be 52d4 59bd 2267 dcbd
00000370: 38b0 d43c 94f6 393d 96f0 0f3e bd6c 193d
00000380: 460e 96bd 9802 423c 63a7 0dbe 9caf 323d
00000390: 3d2d 953d 3449 6e3d 90a7 e3bd 6cad f63d
000003a0: 46c9 34bd 057c e43d 4e19 1cbd a80d 043e
000003b0: a1aa 08bd 1565 a7bd fec0 f6bd e1e5 6bbc
000003c0: b5e3 ee3d 77d9 aabd ed61 3e3d 5cdb 763d
000003d0: c987 0e3e a55e 23bd 9654 943d 59f5 f6bd
000003e0: de01 f7bd e109 81bc f59d ba3d 9254 18be
000003f0: e376 85bd 2ab5 32bd 020d d63d 3b8b c83c

onnx::LSTM_118 f4 [1, 1024]
-0.001895918 0.0065315124 -0.0062582763 0.0019957286 -0.0025169505 -0.014030984 0.001071522 0.0065797893
-0.00063052966 0.0073057655 -0.014358943 -0.0007000349 0.011146092 -0.010503851 0.003886595 -0.0027723843
0.0025964961 0.008202603 -0.010825758 0.010100172 -0.004680569 -0.0045889257 0.016301006 -0.00013306839
0.0010001557 0.0035193353 0.0066460636 -0.0020173541 0.015678326 0.01205412 -0.0065019554 -0.0013594668
-0.007360208 0.009773561 -0.0094642695 -0.00036327445 -0.001877182 0.007330376 0.0017870612 -0.0013339662
-0.002601805 0.0065589393 0.008223114 -0.0051764287 -0.0003261204 -0.005965227 0.0108236 -0.01290749
-0.0046954863 -0.007295405 -0.0073170606 0.0008069762 0.009560344 0.009926978 0.001199963 0.0062140645
-0.008992826 -0.005160256 0.0013440538 -0.0030872233 -0.005444567 -0.003202784 -0.0064003384 -0.0019470991
-0.0061256047 -0.0049845558 0.00033416733 0.003921735 0.009547831 -0.0022283513 -0.0053135045 -0.006795473
-0.013245776 0.006456239 -0.009015393 0.017086038 -0.0023636979 -6.319264e-05 0.011308797 0.0017431753
0.012228874 0.0010696596 -0.0002292204 0.0074359765 -0.00668703 0.013238716 0.014670249 -0.003050493
0.013417511 -0.0032878548 0.0031216957 -0.0050820224 0.0051234816 -0.00035741346 -0.003132525 0.004752297
0.007608888 -0.005128154 -0.0135339 0.0057474542 0.0028723085 -0.004836643 0.005226528 0.01663489
-0.0022682827 -0.0009554862 0.0009978908 0.025910322 -0.0073728524 0.010567547 -3.9936083e-05 0.009802248
-0.0044202222 -0.007371291 0.0013461504 -0.000940319 0.008314027 -0.009242572 0.0019531181 -0.007000879
0.0017329078 0.0056660683 0.0033255878 0.009326936 -0.002837055 -0.0026240984 -0.0009908417 -0.0046453346
-0.009143702 0.0018584334 -0.0059716254 -0.0006313415 0.0018246467 -0.0032508625 -0.0052115126 -0.0013285058
0.003910722 0.0028370249 -0.0062987176 -0.0054464824 0.0012716815 -0.01925052 -0.002014254 0.005883956
0.0007211696 0.005172548 -0.009548736 0.0028228005 -0.002833479 -0.0017471611 0.010819833 -0.006523714
0.0027116407 -0.0021502005 0.0024552552 7.783211e-06 0.0025380298 -0.0014105405 -0.016980607 -0.00042268581
0.0021640747 -0.0009765987 -0.01121095 -0.008047932 0.0022718387 0.010173857 0.0034969647 0.00012863548
0.003461358 0.0069581517 0.013511706 -0.002244829 -0.004522105 -0.002286101 0.0017523464 -0.0051897196
-0.0008546255 0.00289246 -0.011073541 -0.0044648605 -0.00034289315 -0.0030650776 0.00078712427 -0.010961246
0.00178681 -0.0018444787 -0.0023343347 -0.0012381156 -0.00045476286 0.001007726 -0.006034056 0.009089133
-0.0034924683 0.0032110296 0.006275569 0.0025576353 0.0054968293 -0.00219321 -0.0041367295 -0.004680653
-0.0021970647 -0.0026737084 -0.0014400383 -0.00046808124 8.577354e-05 -0.00095793593 0.0005682443 0.0061567747
0.0017389193 0.010980796 -0.0027215942 0.0088831 -0.0134070655 0.004330726 0.000176843 -2.0777969e-05
0.005392127 -0.002251786 -0.0017380884 -0.006778717 0.000972476 -0.0019690196 -0.007728005 0.0003622818
-0.011335712 -0.0015165707 -0.0025118587 0.0037761827 0.001240071 -0.00045233715 0.002303718 -0.0021445716
-0.0062215705 -0.0012959597 -0.0026713032 0.012571373 -0.011148244 -0.007963235 0.004498624 -0.004105038
-0.0009481413 -0.0011082005 0.0011788598 -0.0046468712 0.0042852126 -0.009835788 -0.010564138 -0.006068431
-0.0032984389 0.003709269 0.006245845 -0.0052761654 -0.008601661 -0.01084992 0.0056874948 -0.002999698
00000000: 7480 f8ba 4c06 d63b 3a12 cdbb c5ca 023b
00000010: 6cf3 24bb 36e2 65bc 5072 8c3a 469b d73b
00000020: 214a 25ba 3465 ef3b c641 6bbc 8c82 37ba
00000030: 199e 363c 5818 2cbc 3eb6 7e3b e4b0 35bb
00000040: fa29 2a3b 3664 063c 855e 31bc 317b 253c
00000050: 755f 99bb b35e 96bb b089 853c 4688 0bb9
00000060: a817 833a a6a4 663b 39c7 d93b 9635 04bb
00000070: d56f 803c a57e 453c 5b0e d5bb 2330 b2ba
00000080: e62d f1bb 4921 203c 0610 1bbc df75 beb9
00000090: c70b f6ba a733 f03b d33b ea3a 7ad8 aeba
000000a0: 0b83 2abb 5fec d63b 3dba 063c 089f a9bb
000000b0: 24fb aab9 f377 c3bb 7855 313c f079 53bc
000000c0: 98dc 99bb 4b0e efbb f4c3 efbb 428b 533a
000000d0: fda2 1c3c c3a4 223c 1448 9d3a 5a9f cb3b
000000e0: a556 13bc 5d17 a9bb f62a b03a 0353 4abb
000000f0: 5768 b2bb cde5 51bb eeb9 d1bb ce35 ffba
00000100: 4cb9 c8bb 7c55 a3bb 2e33 af39 e681 803b
00000110: 816e 1c3c 8809 12bb e81c aebb 8fac debb
00000120: d004 59bc dc8e d33b 4db5 13bc 05f8 8b3c
00000130: 45e8 1abb 4a86 84b8 8848 393c 427b e43a
00000140: 9d5b 483c d233 8c3a e25a 70b9 7ea9 f33b
00000150: e01e dbbb 33e7 583c 7c5b 703c c8ea 47bb
00000160: 1fd5 5b3c 0d79 57bb 5d95 4c3b 1887 a6bb
00000170: e1e2 a73b 3963 bbb9 0c4b 4dbb 28b9 9b3b
00000180: fb53 f93b 130a a8bb 4abd 5dbc 2455 bc3b
00000190: 573d 3c3b b47c 9ebb 4b43 ab3b e545 883c
000001a0: 78a7 14bb 9879 7aba a9cb 823a e241 d43c
000001b0: f897 f1bb 8123 2d3c 0b81 27b8 9c99 203c
000001c0: 83d7 90bb df8a f1bb 5071 b03a bd7f 76ba
000001d0: 8f37 083c 286e 17bc c5ff ff3a a167 e5bb
000001e0: bd22 e33a 6daa b93b 1bf2 593b 01d0 183c
000001f0: e2ed 39bb 11f9 2bbb 21df 81ba e437 98bb
00000200: 77cf 15bc ad96 f33a a0ad c3bb 9c80 25ba
00000210: fc28 ef3a 6c0c 55bb 56c5 aabb 4221 aeba
00000220: 8425 803b 61ed 393b 7965 cebb 6878 b2bb
00000230: 8dae a63a 44b3 9dbc 9301 04bb 33ce c03b
00000240: df0c 3d3a 7a7e a93b 4d72 1cbc bcfe 383b
00000250: e4b1 39bb 0001 e5ba ab45 313c e1c4 d5bb
00000260: c8b5 313b 61ea 0cbb 59e8 203b a394 0237
00000270: 1355 263b e3e1 b8ba ea1a 8bbc ee9b ddb9
00000280: 26d3 0d3b 3701 80ba 22ae 37bc 79db 03bc
00000290: 21e3 143b 40b0 263c 552d 653b 53e2 0639
000002a0: f3d7 623b 3501 e43b 3460 5d3c fb1d 13bb
000002b0: 2b2e 94bb 69d2 15bb fdae e53a 860e aabb
000002c0: f208 60ba 6d8f 3d3b cc6d 35bc f74d 92bb
000002d0: 57c6 b3b9 78df 48bb 0457 4e3a cc96 33bc
000002e0: 6533 ea3a 6fc2 f1ba a3fb 18bb 4448 a2ba
000002f0: 3d6d eeb9 ac15 843a 55b9 c5bb 96ea 143c
00000300: e5e1 64bb 2370 523b 4aa3 cd3b 009e 273b
00000310: bf1e b43b f5bb 0fbb 678d 87bb 2a60 99bb
00000320: a1fc 0fbb 6239 2fbb abbf bcba cd68 f5b9
00000330: 52e1 b338 fe1d 7bba 3bf6 143a c5be c93b
00000340: 73ec e33a cce8 333c c65c 32bb 6c8a 113c
00000350: 4fa9 5bbc c3e8 8d3b ee6e 3939 594c aeb7
00000360: 71b0 b03b b392 13bb 92d0 e3ba 0020 debb
00000370: c2ed 7e3a ab0a 01bb 343b fdbb a4f0 bd39
00000380: 6cb9 39bc abc7 c6ba ff9d 24bb d579 773b
00000390: e189 a23a aa27 edb9 f9f9 163b f18b 0cbb
000003a0: 51de cbbb 31dd a9ba 0811 2fbb 29f8 4d3c
000003b0: 20a7 36bc 3a78 02bc 3169 933b 8e83 86bb
000003c0: b08c 78ba 0a41 91ba f983 9a3a c844 98bb
000003d0: f86a 8c3b 4926 21bc 3515 2dbc b0d9 c6bb
000003e0: 9f2a 58bb 3517 733b f2a9 cc3b afe3 acbb
000003f0: fbed 0cbc ddc3 31bc 2a5e ba3b 9596 44bb
