Assets/ML-Agents/results/sshipMovMod1Test-1/My Behavior/checkpoint.pt (torch, 428514 bytes, 33 tensors)

network_body._body_endoder.seq_layers.0.weight f4 [128, 1]
0.42660663 -0.12758665 -0.2449347 -1.1871631 -0.14556389 -1.3975908 0.077270366 -0.4773318
-0.9348287 2.4676654 1.5044041 0.34712106 -0.49305803 0.88362384 -0.6968818 -0.769987
1.2357961 0.32675752 0.8528248 0.17461695 0.15380134 1.115506 0.38327253 1.3088827
0.39389992 -0.92208135 -0.20267874 1.0411124 -0.5089256 0.09230251 1.2968857 0.076920606
-0.20018876 -0.24803032 1.1381463 0.87864393 -2.0881448 -0.7591407 -0.55259115 -0.58978885
-0.0135552045 1.1057873 -1.609656 -0.5501683 1.313819 -0.71283805 -1.9214251 -0.03638266
-0.56418127 1.1962671 -0.3273611 0.9665389 -0.83559513 0.72048384 0.41209194 -0.49166945
-0.3580298 -2.1475773 0.9184046 1.2045147 -1.0831714 0.98501366 -0.53346115 0.81919414
-0.7170937 0.6803828 -1.0016421 0.5360586 -1.3847252 0.47541708 0.3381603 -0.32549298
-0.5480073 -1.3525988 0.14780195 0.25436345 0.8199563 -0.051425148 2.8205678 -1.4817309
0.78693056 -1.1244904 -0.5602813 -1.0799865 0.48594084 1.3430667 0.21884035 -1.6169387
0.66901207 0.17678319 0.9978067 -0.84936666 -0.6727668 1.7594252 -0.2042043 1.4198779
-0.60719085 0.8853481 0.30028066 1.6959171 0.63284504 -0.45552704 -1.8854266 -1.1556009
-0.8641542 1.7004461 -0.19584003 2.3191257 0.99878955 1.335347 -0.35498002 -0.2388856
-1.690892 1.5894389 0.085646324 0.3805445 1.6933506 -0.13792749 -0.37706414 -0.3578361
0.6467836 -0.50540787 0.40888345 1.0908244 0.8475687 0.30002385 0.60696876 -0.72409946
00000000: 2f6c da3e 13a6 02be 29d0 7abe f6f4 97bf
00000010: b30e 15be 41e4 b2bf ed3f 9e3d d564 f4be
00000020: ef50 6fbf 3bee 1d40 5090 c03f dab9 b13e
00000030: 1a72 fcbe 2c35 623f d866 32bf de1d 45bf
00000040: 912e 9e3f c34c a73e ba52 5a3f c9ce 323e
00000050: 197e 1d3e e7c8 8e3f 4c3c c43e 7889 a73f
00000060: 40ad c93e 860d 6cbf 048b 4fbe 2c43 853f
00000070: f348 02bf 1909 bd3d 5a00 a63f 8d88 9d3d
00000080: 48fe 4cbe a9fb 7dbe c7ae 913f cfee 603f
00000090: 2aa4 05c0 0b57 42bf 9d76 0dbf 67fc 16bf
000000a0: a616 5ebc 708a 8d3f 3509 cebf d4d7 0cbf
000000b0: 392b a83f 8e7c 36bf 42f1 f5bf fc05 15bd
000000c0: 2f6e 10bf 481f 993f e09b a7be 186f 773f
000000d0: 90e9 55bf a171 383f b7fd d23e 19bc fbbe
000000e0: af4f b7be e871 09c0 901c 6b3f 8a2d 9a3f
000000f0: 5ca5 8abf db29 7c3f e990 08bf b5b6 513f
00000100: 7493 37bf 912d 2e3f cf35 80bf 233b 093f
00000110: ad3e b1bf de69 f33e 5923 ad3e 04a7 a6be
00000120: 354a 0cbf f521 adbf 6559 173e ed3b 823e
00000130: a8e8 513f 2da3 52bd 2f84 3440 5ca9 bdbf
00000140: 4874 493f 4def 8fbf 986e 0fbf ff3c 8abf
00000150: 3dcd f83e 9ce9 ab3f af17 603e d9f7 cebf
00000160: 6044 2b3f a706 353e 4370 7f3f 1870 59bf
00000170: 723a 2cbf d834 e13f ef1a 51be 8fbe b53f
00000180: dc70 1bbf 2ca6 623f 63be 993e d013 d93f
00000190: 2202 223f d73a e9be a955 f1bf bbea 93bf
000001a0: 3639 5dbf 38a8 d93f 4a8a 48be 8e6c 1440
000001b0: acb0 7f3f a7ec aa3f f1bf b5be 6d9e 74be
000001c0: 266f d8bf bc72 cb3f 5767 af3d bbd6 c23e
000001d0: b6bf d83f dd3c 0dbe 8d0e c1be 4b36 b7be
000001e0: 9c93 253f 6962 01bf 2c59 d13e 22a0 8b3f
000001f0: 43fa 583f ba9c 993e 4e62 1b3f 955e 39bf

network_body._body_endoder.seq_layers.0.bias f4 [128]
0.0026068597 -0.0005596537 -0.0006551027 -0.00094274135 0.0001330791 -0.0012430729 -0.0027252184 -0.006067699
-0.0005671058 0.0012250385 0.0015918349 0.00035488314 0.00030553347 -4.9459504e-06 -0.0010267008 -0.0040074177
-0.0037673921 -0.0071576354 -0.00039715716 0.00238712 -0.0025133789 0.00047445076 -0.0018977965 -0.003053527
0.0010212163 3.0501256e-05 -0.00043965806 0.0006175077 -0.0007974339 -0.0012354975 0.000631182 -0.0008908246
-0.005345219 -0.0019231997 -0.001219259 0.0019753727 -0.00039220165 -0.0013081529 -0.00025011145 -0.00077159907
-4.4620574e-06 -0.0017744924 -0.00034927798 -0.0016092608 0.0013041736 -0.0019545376 -0.0010609595 -0.007982625
-8.464296e-05 -0.0015190553 0.00030691372 -0.0055004656 -0.0009358029 -0.0017568093 -0.0051264893 -0.00017492016
-0.00036062906 -0.000366461 -0.0025927068 -0.0029433297 -0.0010268409 0.0014578534 -0.0004943247 0.0013330942
-0.00025029067 -0.0024193944 -0.0020290816 0.0019082818 -0.0005231838 0.0020511404 -0.0027965521 -0.0005629167
-0.005245291 0.00018495442 -0.0011883144 -0.0024397199 0.0015890186 0.00078877824 0.00064928946 -0.0034560093
0.0011221365 -0.0021219663 0.0004536116 -0.00013881968 -6.322152e-05 -0.0020051564 0.0018039364 -0.0046798713
0.001255622 -0.007012517 0.00085473293 -0.0011881335 -0.00012158865 -0.0064026685 1.17752315e-05 -0.0016012681
-0.0015385462 -0.004820748 -0.002385629 -0.0002611013 0.0012716503 -0.00044341804 -0.000114415016 -0.00094793434
-0.00032394973 0.0012902106 5.7179357e-05 -0.00019960792 -0.0021606123 0.0010458695 -0.0010206985 0.00071115117
-0.0009868062 0.00042571942 0.00089649373 -0.0024177663 -0.0014649457 -0.00089055137 -0.0016629521 -0.00029895734
-0.0018956834 -0.001871386 -0.001226275 0.0011801252 -0.003245272 0.0028674568 -0.00504094 -0.004202242
00000000: d9d7 2a3b b9b5 12ba 33bb 2bba 4d22 77ba
00000010: 268b 0b39 9bee a2ba 9499 32bb 8cd3 c6bb
00000020: d3a9 14ba 7991 a03a 1ea5 d03a 9c0f ba39
00000030: 0230 a039 64f5 a5b6 5d92 86ba a850 83bb
00000040: 5ae6 76bb 998a eabb 8839 d0b9 3a71 1c3b
00000050: 80b7 24bb b4bf f839 7cbf f8ba af1d 48bb
00000060: 55da 853a f3dc ff37 e881 e6b9 3ee0 213a
00000070: e20a 51ba 6bf0 a1ba e875 253a 3a86 69ba
00000080: f226 afbb e013 fcba 8bcf 9fba 4175 013b
00000090: 6aa0 cdb9 5476 abba 6421 83b9 2345 4aba
000000a0: c8b8 95b6 1696 e8ba 4c1f b7b9 d5ed d2ba
000000b0: cef0 aa3a b317 00bb e50f 8bba 8ec9 02bc
000000c0: 5882 b1b8 0a1b c7ba 43e9 a039 403d b4bb
000000d0: ab50 75ba bd44 e6ba 1cfc a7bb c66a 37b9
000000e0: d012 bdb9 9021 c0b9 67ea 29bb e1e4 40bb
000000f0: 1097 86ba 7115 bf3a 9295 01ba 38bb ae3a
00000100: 7239 83b9 b48e 1ebb 57fa 04bb 501f fa3a
00000110: 4526 09ba 6d6c 063b 5c46 37bb b390 13ba
00000120: b1e0 abbb 53f0 4139 37c1 9bba b5e3 1fbb
00000130: 9e46 d03a 03c6 4e3a 1435 2a3a 377e 62bb
00000140: a714 933a b010 0bbb b8d2 ed39 2090 11b9
00000150: cc95 84b8 f168 03bb 1072 ec3a 9b59 99bb
00000160: af93 a43a 42c9 e5bb 2810 603a 25bb 9bba
00000170: 69fd feb8 7acd d1bb 3c8e 4537 a4e1 d1ba
00000180: 0ba9 c9ba 5ef7 9dbb 3758 1cbb 6ce4 88b9
00000190: 81ad a63a 907a e8b9 18f2 efb8 cc7e 78ba
000001a0: ccd7 a9b9 491c a93a ded3 6f38 d84d 51b9
000001b0: 0f99 0dbb 8f15 893a f5c8 85ba 8c6c 3a3a
000001c0: b957 81ba 1833 df39 ad02 6b3a 6373 1ebb
000001d0: 6c03 c0ba e473 69ba 6af7 d9ba 60bd 9cb9
000001e0: 9478 f8ba 4b49 f5ba f6ba a0ba 6eae 9a3a
000001f0: a1ae 54bb f1eb 3b3b 782e a5bb f6b2 89bb

network_body._body_endoder.seq_layers.2.weight f4 [128, 128]
0.08126969 -0.08909266 -0.16667151 0.118881725 0.110021375 -0.08681064 -0.15826145 -0.03006038
-0.034488186 -0.06718697 -0.028073872 -0.0565749 0.03837231 -0.084649675 -0.045007132 0.02196155
0.026892409 0.021995887 -0.056357242 0.0830318 0.07363321 0.018298753 -0.1287628 -0.069492534
-0.026721366 -0.007767635 0.03537411 -0.0454552 -0.10218638 0.07452861 0.035483338 -0.062067717
-0.011578053 0.094562285 0.058310088 0.15563703 -0.039181877 0.06437368 -0.11531236 -0.03592344
-0.05294323 -0.099522114 0.061897986 0.1394304 -0.27378255 0.16969746 -0.035492584 0.0060098167
-0.029742302 0.12307819 0.033723403 -0.0146827735 0.032395776 0.013007748 0.03858751 0.10524952
-0.122205354 -0.06795141 0.058125846 -0.0152573 -0.06854742 0.102837935 -0.006595802 0.057927534
-0.1510032 -0.21012999 0.0027843162 -0.12280189 0.11521334 0.078122795 0.17691623 -0.023624336
-0.08649195 -0.0045629954 -0.14962658 -0.10379902 -0.06530277 0.041696828 0.075437725 -0.08312513
-0.018016769 -0.0931189 0.024590561 0.07120648 -0.09385227 -0.089523956 -0.010962413 -0.036261484
0.041498367 -0.013374574 0.050786622 0.127382 -0.06323939 -0.1662609 -0.09693927 -0.28521904
-0.13630892 0.05690876 0.09250509 0.04939148 0.14764851 -0.0374373 0.03331551 0.09778076
-0.0589533 0.050702084 -0.02962304 0.035349894 -0.2228779 -0.12390139 -0.15391351 0.0058428748
0.04584952 -0.22200194 0.019200884 0.050343264 -0.0030458644 0.07968479 0.07808596 -0.018766072
-0.087388605 0.032192055 -0.041914497 0.024361664 0.046341956 -0.18412493 0.08801796 -0.022230998
0.004779239 0.012079851 -0.03123748 -0.22382297 -0.18137568 0.05057705 -0.069431625 -0.059934124
0.031859256 0.0032579156 0.024809025 0.030417956 0.085045226 0.07955698 0.09941027 0.056713678
-0.08413712 0.0033309094 -0.06918403 0.019663608 0.02178411 -0.07116823 -0.0825265 0.026565455
-0.03434548 -0.037436604 -0.029995184 -0.08255579 0.071110874 -0.0049725464 -0.025573306 0.07250033
0.17099108 -0.038667623 0.028782904 0.07777876 0.006318401 0.1558094 0.10549267 -0.028905386
-0.0799561 0.11414303 -0.10094278 -0.13188358 0.110013105 0.060597703 -0.079177156 0.12600832
0.006118764 0.036757663 0.028117353 0.14072053 -0.07124443 -0.12798579 -0.041669697 -0.09392859
0.07088665 0.069997266 0.067673996 0.1198899 -0.031204917 -0.013520132 -0.00551099 -0.048259784
-0.07766417 0.0016135225 -0.08292621 0.07531019 0.07088326 -0.0017059058 -0.011722836 -0.006692556
0.12662533 0.08047609 0.06288902 -0.047347922 0.013253341 -0.07958588 -0.09641859 0.12076362
0.00018471101 -0.06793568 -0.055530824 0.013188221 -0.026864318 -0.028675232 0.051958982 0.12265184
-0.012490961 0.16977485 -0.0276066 -0.059013996 -0.095012635 -0.123038575 0.14123604 0.009146259
-0.013762288 -0.11247158 0.047720224 -0.11095234 0.045554895 -0.1346928 -0.19846381 -0.045476478
-0.013953291 0.073695645 -0.032261614 -0.107517175 0.047082894 0.027806524 0.04664167 -0.17099068
0.09325214 0.017021563 -0.02086896 0.028936066 0.041914575 0.075799495 0.019860072 0.044246733
0.08865138 -0.09239161 -0.025782188 -0.0695195 0.05769533 0.1415663 0.06927134 0.030574685
00000000: b970 a63d 3676 b6bd f0ab 2abe 4378 f33d
00000010: e352 e13d c7c9 b1bd 4a0f 22be 3041 f6bc
00000020: 7c43 0dbd 5299 89bd 2dfb e5bc 15bb 67bd
00000030: 492c 1d3d cf5c adbd 6659 38bd b5e8 b33c
00000040: 784d dc3c b830 b43c dad6 66bd 940c aa3d
00000050: 02cd 963d 44e7 953c 65da 03be 1a52 8ebd
00000060: c4e6 dabc a587 febb 71e4 103d 3b2f 3abd
00000070: 1847 d1bd 75a2 983d fa56 113d b83a 7ebd
00000080: e0b1 3dbc dfa9 c13d 8fd6 6e3d 505f 1f3e
00000090: 2d7d 20bd 59d6 833d e328 ecbd 7524 13bd
000000a0: 00db 58bd 40d2 cbbd be88 7d3d d8c6 0e3e
000000b0: 3a2d 8cbe 2cc5 2d3e ac60 11bd ffed c43b
000000c0: 21a6 f3bc 6b10 fc3d 8d21 0a3d 0490 70bc
000000d0: 6fb1 043d 731e 553c f00d 1e3d 0f8d d73d
000000e0: cd46 fabd 1c2a 8bbd 5e15 6e3d c1f9 79bc
000000f0: 9762 8cbd b29c d23d 9921 d8bb 6c45 6d3d
00000100: 95a0 1abe 512c 57be 1379 363b 8f7f fbbd
00000110: f9f4 eb3d d8fe 9f3d 8729 353e d387 c1bc
00000120: b122 b1bd 2e85 95bb b637 19be 9594 d4bd
00000130: 75bd 85bd 4bca 2a3d 187f 9a3d 823d aabd
00000140: e797 93bc 1fb5 bebd 2572 c93c b4d4 913d
00000150: 9e35 c0bd 5658 b7bd b19b 33bc ec86 14bd
00000160: 31fa 293d 0721 5bbc a205 503d 6d70 023e
00000170: a783 81bd 4c40 2abe 1988 c6bd 3b08 92be
00000180: 9194 0bbe 2919 693d 4f73 bd3d b84e 4a3d
00000190: 2c31 173e db57 19bd d875 083d 4741 c83d
000001a0: 0479 71bd fdac 4f3d 05ac f2bc 0dcb 103d
000001b0: 1b3a 64be 03c0 fdbd 819b 1dbe 9675 bf3b
000001c0: b5cc 3b3d 7a54 63be 2c4b 9d3c bd34 4e3d
000001d0: 209d 47bb c731 a33d 88eb 9f3d 4ebb 99bc
000001e0: ccf8 b2bd d1db 033d 89ae 2bbd 1d92 c73c
000001f0: 10d1 3d3d 3f8b 3cbe c342 b43d c81d b6bc
00000200: 2a9b 9c3b 91ea 453c bee5 ffbc d931 65be
00000210: 8cba 39be e129 4f3d 2b32 8ebd 7c7d 75bd
00000220: da7e 023d c182 553b 4c3c cb3c 142f f93c
00000230: 312c ae3d c5ee a23d 9d97 cb3d 9a4c 683d
00000240: 1550 acbd 634b 5a3b 5bb0 8dbd 9315 a13c
00000250: 9774 b23c a6c0 91bd a703 a9bd cc9f d93c
00000260: d9ad 0cbd 2057 19bd 76b8 f5bc 0313 a9bd
00000270: 94a2 913d bef0 a2bb 1c7f d1bc 0e7b 943d
00000280: 4918 2f3e f161 1ebd 20ca eb3c 784a 9f3d
00000290: 970a cf3b 808c 1f3e 8a0c d83d fdca ecbc
000002a0: 06c0 a3bd d2c3 e93d 17bb cebd 7d0c 07be
000002b0: 8d4e e13d 4c35 783d a227 a2bd 5308 013e
000002c0: ea7f c83b 348f 163d 5d56 e63c 0b19 103e
000002d0: 9ae8 91bd b50e 03be d8ad 2abd a25d c0bd
000002e0: 052d 913d ba5a 8f3d aa98 8a3d d688 f53d
000002f0: 74a1 ffbc 8b83 5dbc 8995 b4bb 0dac 45bd
00000300: 640e 9fbd d57c d33a 37d5 a9bd 3b3c 9a3d
00000310: 3e2b 913d b398 dfba 2311 40bc 3b4d dbbb
00000320: 12aa 013e a6d0 a43d f5cb 803d e5ef 41bd
00000330: 8b24 593c ecfd a2bd 1c77 c5bd eb52 f73d
00000340: fcae 4139 dd21 8bbd 4a74 63bd 6813 583c
00000350: 8f12 dcbc 52e8 eabc f1d2 543d e330 fb3d
00000360: e3a6 4cbc 75d9 2d3e 3d27 e2bc a9b8 71bd
00000370: fc95 c2bd a6fb fbbd 2ea0 103e 31da 153c
00000380: 387b 61bc 8057 e6bd 4876 433d fb3a e3bd
00000390: c597 3a3d e9ec 09be 193a 4bbe 8b45 3abd
000003a0: 589c 64bc beed 963d c124 04bd f731 dcbd
000003b0: fed9 403d 82ca e33c 560b 3f3d 2e18 2fbe
000003c0: fafa be3d ce70 8b3c 62f5 aabc 540b ed3c
000003d0: 9eae 2b3d c43c 9b3d 97b1 a23c 103c 353d
000003e0: db8e b53d d037 bdbd 2b35 d3bc 3d60 8ebd
000003f0: f051 6c3d c2f6 103e 22de 8d3d c377 fa3c

network_body._body_endoder.seq_layers.2.bias f4 [128]
0.009872495 -0.0055307504 -0.0010388942 0.0005229634 -6.852698e-05 -0.0022375155 -0.00097525865 0.0005274058
7.488356e-05 -0.00015190538 -0.0012537243 0.0045822384 -0.001116952 0.0020842697 0.005168511 -0.0031586967
-0.0016279758 -8.6000975e-05 -0.0071947984 -0.00972145 -0.006586042 -0.0008798791 -0.00083454355 0.005218881
-0.00040807342 -0.00082026573 -0.0032046994 0.0021636535 -0.0070344177 -0.00022733725 0.0035427997 -4.722439e-05
-0.00070335175 0.0031131818 0.00018616623 -0.00077339873 0.0017979393 -0.0002506615 -0.00035614165 -0.0006252615
-0.0006239725 -0.00014317875 0.0020411317 -0.001373827 -0.001519132 0.00012558755 -0.0002844045 -0.004205725
0.0034905865 0.0074613723 -0.0012151962 -0.0009093587 -0.0011691381 -0.0071054813 -9.826738e-05 0.0014721166
0.007665055 -0.004487493 0.000112847505 -0.0005600294 -0.0004884466 0.0004768277 -0.00077653077 4.3708947e-05
-0.0032965164 -0.00033834417 -0.00020277235 0.00028870246 0.0010676903 0.004134011 -4.0545267e-05 -0.00037614012
6.4748005e-05 -0.00018507721 -0.001544151 -0.0041043684 0.008791942 0.0055923215 -0.0030129233 0.0018274696
-0.00093642843 -0.00010912519 -0.0008123979 0.0052124932 0.0022026582 -0.0026372995 0.0054824525 -0.0044860323
-0.009429073 -6.624053e-05 -0.00044363 -0.0005642779 -0.00044761045 -7.03469e-05 -0.000634724 0.008508659
-0.00036314575 -0.0020139844 -0.0012783203 -0.00019488271 -0.00071369094 -0.00081344973 -0.0033445144 0.0013695734
-4.5562767e-05 0.0032454045 -0.00053362845 -4.741976e-05 0.00010178997 -0.000113204245 -0.0016212282 0.0024701685
-0.0035945643 0.00042667103 -1.5187092e-05 0.00017482218 8.680986e-05 0.00031304976 -0.0018136866 0.004283969
-0.002069789 0.0012330235 -0.0056981207 -0.00083465065 0.0043700626 0.0015295969 -0.003259189 -0.002562646
00000000: 3fc0 213c 4c3b b5bb 812b 88ba 7b17 093a
00000010: 24b6 8fb8 48a3 12bb 80a8 7fba 9b41 0a3a
00000020: ce0a 9d38 ca48 1fb9 0254 a4ba 9a26 963b
00000030: b166 92ba 3e98 083b 9d5c a93b 2302 4fbb
00000040: ce61 d5ba 6c5b b4b8 58c2 ebbb b746 1fbc
00000050: bacf d7bb b0a7 66ba 45c5 5aba 2603 ab3b
00000060: b0f2 d5b9 1a07 57ba ef05 52bb 15cc 0d3b
00000070: f980 e6bb 6161 6eb9 512e 683b cd12 46b8
00000080: 2361 38ba 8606 4c3b 9e35 4339 e9bd 4aba
00000090: d5a8 eb3a 386b 83b9 86b8 bab9 97e8 23ba
000000a0: 1692 23ba 4122 16b9 82c4 053b fc11 b4ba
000000b0: 9d1d c7ba 27b0 0339 201c 95b9 2ed0 89bb
000000c0: 53c2 643b 877e f43b 3847 9fba 0862 6eba
000000d0: c43d 99ba 19d5 e8bb e614 ceb8 09f4 c03a
000000e0: 242b fb3b d20b 93bb 8ba8 ec38 f0ce 12ba
000000f0: 190b 00ba bbfe f939 1990 4bba 2054 3738
00000100: 5e0a 58bb c963 b1b9 4a9f 54b9 fd5c 9739
00000110: bef1 8b3a 9976 873b 260f 2ab8 ac34 c5b9
00000120: 52c9 8738 4911 42b9 1c65 caba f07d 86bb
00000130: 140c 103c cb3f b73b 7774 45bb b487 ef3a
00000140: a67a 75ba 24da e4b8 1af7 54ba 90cd aa3b
00000150: 795a 103b 8bd6 2cbb 25a6 b33b 91ff 92bb
00000160: 667c 1abc 9dea 8ab8 0397 e8b9 0dec 13ba
00000170: 42ad eab9 3487 93b8 9b63 26ba e767 0b3c
00000180: 9964 beb9 0dfd 03bb 508d a7ba 6e59 4cb9
00000190: fd16 3bba b03d 55ba a42f 5bbb 4283 b33a
000001a0: a61a 3fb8 dab0 543b 33e3 0bba 94e4 46b8
000001b0: 1378 d538 1168 edb8 647f d4ba 8de2 213b
000001c0: c892 6bbb d1b2 df39 10cc 7eb7 7950 3739
000001d0: b00d b638 d420 a439 39b9 edba 8960 8c3b
000001e0: 4ca5 07bb 679d a13a 4db7 babb 75cc 5aba
000001f0: be32 8f3b c17c c83a 1e98 55bb 11f2 27bb

action_model._continuous_distribution.mu.weight f4 [1, 128]
-0.008359973 0.0061767763 0.006584038 -0.04454285 0.03576874 0.012974159 0.006919121 -0.020072097
-0.004718539 -0.007116146 0.006386927 -0.012096468 0.0030514756 -0.013404174 -0.0011384343 0.0017410576
0.002165649 -0.0009651356 -2.2684997e-05 0.0025089502 0.0039547207 0.0047767954 0.0052512465 -0.0064735035
0.030427245 0.02661037 0.0014315154 -0.04021085 -0.0011506005 -0.013099663 0.0016691136 0.025119059
0.018232778 -0.016560055 -0.027847642 0.010655633 -0.015050599 -0.009086281 0.013804369 0.0097617665
0.015313482 -0.021720706 -0.015364173 0.015814174 0.026222626 -0.010955695 -0.0074923704 -0.004784421
-0.006452865 -0.030100703 -0.00027537352 0.0072511435 0.00747383 0.029756445 0.020882607 -0.0046385657
-0.045918226 0.016777022 -0.007553531 0.005647986 -0.002456081 -0.03235988 0.02158151 -0.017803818
0.00047168724 -0.006463088 -0.010222688 -0.005053967 -0.0015652882 -0.01002215 -0.02572177 -0.0076412475
-0.020805722 -0.010474618 0.014226678 0.00021077837 -0.007127352 -0.0019215988 0.0083257435 -0.016173499
0.002028776 -0.014509569 0.008062247 -0.014150269 -0.030119209 0.006919245 -0.033119906 0.0016787505
0.0034243315 -0.018182082 0.03071492 0.008288919 0.020449052 -0.035883214 0.0064909784 -0.023789814
-0.005864468 0.010651215 0.00020743236 -0.007258161 0.013501611 0.015385544 0.017652638 -0.021838674
-0.024240354 -0.00765972 -0.0053792004 -0.010715683 -0.0120672295 -0.021783344 0.0013341749 -0.01119448
0.009613419 -0.021359127 0.028681599 -0.00859047 -0.0093056355 -0.020169811 0.009227216 -0.030665148
-0.0013453502 -0.019677993 6.678363e-05 0.031766035 -0.01914449 -0.032595545 0.032664802 0.04508976
00000000: 45f8 08bc 8e66 ca3b eabe d73b 9072 36bd
00000010: 3e82 123d 9191 543c cbb9 e23b 3d6e a4bc
00000020: f99d 9abb 8f2e e9bb 6d49 d13b 4430 46bc
00000030: 44fb 473b 2e9d 5bbc 8437 95ba 3334 e43a
00000040: 90ed 0d3b 2701 7dba a94b beb7 336d 243b
00000050: 9a96 813b aa86 9c3b a612 ac3b af1f d4bb
00000060: 8f42 f93c fefd d93c b0a1 bb3a 22b4 24bd
00000070: bfcf 96ba f89f 56bc 29c6 da3a 7cc6 cd3c
00000080: e85c 953c f4a8 87bc bd20 e4bc f794 2e3c
00000090: ca96 76bc a0de 14bc b82b 623c d1ef 1f3c
000000a0: 66e5 7a3c 9fef b1bc 03ba 7bbc ba8c 813c
000000b0: d5d0 d63c 847f 33bc 8f82 f5bb a2c6 9cbb
000000c0: 8e72 d3bb c095 f6bc 0260 90b9 009b ed3b
000000d0: 08e7 f43b cac3 f33c 0012 ab3c 1cff 97bb
000000e0: c014 3cbd f76f 893c 9c83 f7bb be12 b93b
000000f0: 34f6 20bb cb8b 04bd b5cb b03c 50d9 91bc
00000100: ca4c f739 50c8 d3bb 107d 27bc bf9b a5bb
00000110: 5b2a cdba f233 24bc 76b6 d2bc 6e63 fabb
00000120: c370 aabc bb9d 2bbc 0317 693c 6304 5d39
00000130: 908c e9bb 28de fbba b368 083c 497e 84bc
00000140: 37f5 043b 8bb9 6dbc 8417 043c 88d6 67bc
00000150: 8fbc f6bc d5ba e23b bda8 07bd 8509 dc3a
00000160: c06a 603b 97f2 94bc db9d fb3c 3fce 073c
00000170: c584 a73c 47fa 12bd 46b2 d43b dbe2 c2bc
00000180: b92a c0bb 6f82 2e3c 3382 5939 ded5 edbb
00000190: dc35 5d3c a613 7c3c 449c 903c 05e7 b2bc
000001a0: b593 c6bc 63fe fabb 0144 b0bb d590 2fbc
000001b0: a1b5 45bc fc72 b2bc 7bdf ae3a 0d69 37bc
000001c0: 9a81 1d3c 56f9 aebc acf5 ea3c 0bbf 0cbc
000001d0: aa76 18bc 293b a5bc c02d 173c 7a35 fbbc
000001e0: 7656 b0ba be33 a1bc 300e 8c38 1a1d 023d
000001f0: e8d4 9cbc e882 05bd 87cb 053d 0ab0 383d

action_model._discrete_distribution.branches.0.weight f4 [1, 128]
0.001431918 -0.0013808602 -0.0020530294 0.022098541 -0.014912895 -0.0042244396 -0.01252102 -0.015363363
-0.011968571 -0.004955532 0.020280173 -0.0037192912 -0.004514716 -0.0051898044 0.0012692332 -0.016221521
0.013490981 0.0072981953 -0.014142414 0.011789789 0.0052138893 0.010845683 0.0028205013 -0.0020965866
0.011202492 -0.0029862807 0.0048069675 -0.0051308908 0.0024388416 -0.0031387117 -0.010094048 -0.0013273171
0.0065400475 0.0035763723 -0.0024549735 0.016027441 -0.001201151 0.0063220556 0.006136581 -0.0038458616
-0.00417368 0.007115327 -0.013059973 -0.00420736 0.0068441317 -0.012160487 0.009871481 -0.009726444
-0.0037600778 0.00062320393 0.004244059 -0.012480354 -0.005369259 0.005399521 -0.0023641705 0.002669253
-0.00156454 0.004144373 -0.0008621512 -0.012805076 -0.01533852 -0.009639853 0.0015374118 0.0133506125
0.0072332076 0.014804107 0.011872828 -0.00074909057 0.0115984315 -0.0019537867 0.010671591 -0.002414252
0.0029257957 -0.006055973 0.0009771902 -0.007795623 0.009151434 -0.0072855316 -0.0016351205 -0.0009148861
-0.004901557 0.0048717363 -0.005921692 -0.01468315 -0.008520988 -0.011041372 0.00057716965 -0.00046583192
-0.0028558995 0.0020630676 0.01761028 -0.0069567733 -0.0071363235 -0.005641673 0.014823335 0.0016637485
-0.015409718 -0.011797463 -0.0059633995 0.0069351876 0.0035354726 0.0054707085 -0.011850744 -0.010290407
-0.00080815697 0.011956777 0.015191674 0.0016930869 0.0040026912 -0.0010115574 0.004522961 -0.005603188
0.017139051 -0.005899356 -0.00040791044 -0.0154174315 -0.0080587445 0.0090692025 0.0008642818 0.0071529793
0.0076628136 -0.012628928 -0.014150265 0.0061346157 -0.0068920623 0.014743224 0.010242097 -0.008794988
00000000: 32af bb3a fbfd b4ba 1e8c 06bb 0008 b53c
00000010: 3755 74bc 2b6d 8abb f724 4dbc 9db6 7bbc
00000020: d317 44bc 0462 a2bb 9b22 a63c 5abf 73bb
00000030: 2ff0 93bb 3c0f aabb 665c a63a ffe2 84bc
00000040: 4709 5d3c b325 ef3b 95b5 67bc f629 413c
00000050: 46d9 aa3b 17b2 313c 29d8 383b e366 09bb
00000060: a88a 373c 7ab5 43bb c483 9d3b 0821 a8bb
00000070: f9d4 1f3b d8b2 4dbb 8261 25bc 5ff9 adba
00000080: e54d d63b 9261 6a3b 9fe3 20bb fb4b 833c
00000090: f16f 9dba 3f29 cf3b 5f15 c93b da0a 7cbb
000000a0: 5ec3 88bb b027 e93b 7ff9 55bc e5dd 89bb
000000b0: bd44 e03b c73c 47bc febb 213c aa5b 1fbc
000000c0: a36b 76bb 825e 233a bf11 8b3b 667a 4cbc
000000d0: 9cf0 afbb 77ee b03b 33f0 1abb a2ee 2e3b
000000e0: 4011 cdba 85cd 873b fd01 62ba 62cc 51bc
000000f0: 6a4e 7bbc 79f0 1dbc fb82 c93a 87bc 5a3c
00000100: 8b04 ed3b ed8c 723c 4086 423c 9e5e 44ba
00000110: 5907 3e3c 1a0b 00bb e6d7 2e3c 6d38 1ebb
00000120: b5be 3f3b 2f71 c6bb 1015 803a 6d72 ffbb
00000130: e5ef 153c 78bb eebb 8a51 d6ba f8d4 6fba
00000140: 3e9d a0bb 16a3 9f3b c10a c2bb 9891 70bc
00000150: 9d9b 0bbc dfe6 34bc 334d 173a e73a f4b9
00000160: 0b2a 3bbb 8834 073b 6f43 903c a5f5 e3bb
00000170: d2d7 e9bb c9dd b8bb 93dd 723c 2312 da3a
00000180: 0b79 7cbc 254a 41bc 9f68 c3bb 9240 e33b
00000190: 63b3 673b a143 b33b 9f29 42bc 1899 28bc
000001a0: 7fda 53ba 5ce6 433c 80e6 783c 92ea dd3a
000001b0: 0229 833b 3c96 84ba 5935 943b f39a b7bb
000001c0: 3267 8c3c 634f c1bb d0dc d5b9 6599 7cbc
000001d0: d308 04bc fe96 143c f890 623a 8a63 ea3b
000001e0: 5718 fb3b 90e9 4ebc 83d6 67bc e304 c93b
000001f0: cfd6 e1bb 908d 713c 78ce 273c da18 10bc

exp_avg f4 [128, 1]
-0.00013997423 0.0012397366 0.0018005992 0.0008886579 -0.002516443 -0.00026465367 0.00034326134 0.00020053801
0.0014830845 -0.0001785153 -0.00020007927 -0.00029119043 -0.0019142911 -0.00018831469 0.0018500119 0.00021196605
0.00012522953 1.9588415e-06 -0.00019164804 -0.00015137256 0.00059338973 -0.00014255683 7.3660296e-05 1.0014608e-05
-0.0001911764 -0.0027904264 0.0034633065 -0.00015959566 -0.00048894377 0.00041110071 -0.0002046397 -3.8052458e-06
0.0002466379 0.00012539244 0.00025527386 -8.934707e-05 -0.0045827767 -0.00075449893 0.0034583746 0.0019914685
-0.0015215281 0.00061290903 -0.0025980403 -0.00038870634 -0.00051654107 -0.00072828296 -0.0010632831 -7.0576766e-06
0.0008730432 0.00046761654 -0.0012278452 5.58851e-05 -0.0013541442 0.0006461412 1.5562524e-05 -0.0009002946
0.004538577 -0.001543103 0.00018098226 7.6219556e-05 -0.0010412952 -0.0002334861 0.0027974937 -0.00050015555
0.0019970108 0.00020678325 -0.0013195722 -0.00045656503 0.0024589861 -0.00031023638 0.00059044734 0.0028107672
0.00040950516 0.00061826856 0.00028140307 0.0006346913 -0.0008182823 -0.00014753375 -0.0002764079 -0.0007541742
-0.00028480135 0.0005844155 -0.0010500686 -0.0007552734 -0.00013564085 0.00019301244 -6.678381e-05 -0.00027824577
-0.00036279223 0.00011587575 -0.0002519865 -0.0005640568 -0.0038317007 5.4746746e-05 -0.0017534072 0.00042100932
0.00026690878 0.000153828 0.0004920319 -8.8954446e-05 6.1153496e-06 0.002913635 0.001844743 0.00077641854
0.002146813 -0.00034648276 -0.0034186363 -3.206629e-06 0.00023813457 -0.00046129565 -0.0012540228 -0.0014528802
0.0014561467 -8.208291e-05 -7.703327e-05 0.0002731484 0.00038154802 0.002594998 0.0010422082 0.004436359
0.0007295114 0.00018698953 0.00025641744 -0.0002544141 0.00017653387 -0.00011184774 7.235565e-05 -0.00010945101
00000000: 0cc6 12b9 a87e a23a 1502 ec3a d2f4 683a
00000010: e8ea 24bb 37c1 8ab9 c2f7 b339 8347 5239
00000020: 0f64 c23a d62f 3bb9 5fcc 51b9 ebaa 98b9
00000030: f3e8 faba 5776 45b9 197c f23a 3443 5e39
00000040: 0c50 0339 a474 0336 21f5 48b9 c3b9 1eb9
00000050: b68d 1b3a 4f7b 15b9 127a 9a38 6a04 2837
00000060: 8676 48b9 96df 36bb a4f8 623b 2259 27b9
00000070: 762c 00ba 0189 d739 8d94 56b9 a05d 7fb6
00000080: 2e4f 8139 c77b 0339 47d6 8539 d85f bbb8
00000090: 1e2b 96bb 91c9 45ba e6a5 623b 4c83 023b
000000a0: 036e c7ba a1ab 203a e243 2abb 48cb cbb9
000000b0: 7c68 07ba 3eea 3eba dc5d 8bba fbd0 ecb6
000000c0: f0dc 643a 6e2a f539 a6ef a0ba 2b66 6a38
000000d0: 8a7d b1ba cd61 293a 448c 8237 bf01 6cba
000000e0: 58b8 943b f241 caba 0ec6 3d39 10d8 9f38
000000f0: 127c 88ba f3d3 74b9 2856 373b df1c 03ba
00000100: 48e0 023b f5d3 5839 7ff5 acba 1f5f efb9
00000110: f126 213b 39a7 a2b9 40c8 1a3a d934 383b
00000120: dab2 d639 4d13 223a 4889 9339 6a61 263a
00000130: ff81 56ba 4ab3 1ab9 d7ea 90b9 c6b3 45ba
00000140: 6451 95b9 7633 193a 75a2 89ba 8afd 45ba
00000150: d03a 0eb9 6263 4a39 490e 8cb8 84e1 91b9
00000160: 2635 beb9 5202 f338 0e1d 84b9 36dd 13ba
00000170: 451d 7bbb df9f 6538 95d2 e5ba eaba dc39
00000180: e4ef 8b39 e44c 2139 b4fb 003a 0e8d bab8
00000190: 7432 cd36 aff2 3e3b 4ecb f13a 9188 4b3a
000001a0: 8cb1 0c3b 21a8 b5b9 330b 60bb 7731 57b6
000001b0: c3b3 7939 0eda f1b9 065e a4ba 926e beba
000001c0: 2ddc be3a ed23 acb8 ec8c a1b8 5c35 8f39
000001d0: 820a c839 d810 2a3b b49a 883a e05e 913b
000001e0: ae3c 3f3a 9f12 4439 c46f 8639 e262 85b9
000001f0: f31b 3939 cc8f eab8 a5bd 9738 1089 e5b8

exp_avg_sq f4 [128, 1]
1.6600922e-07 2.75562e-05 5.9888236e-05 1.3044047e-05 9.5411146e-05 5.621777e-07 1.0245518e-06 1.9790266e-06
3.8339196e-05 2.234227e-07 3.083452e-07 5.6175213e-07 5.1302613e-05 2.8840776e-07 6.011604e-05 2.0610348e-06
5.6699186e-08 7.4138993e-09 3.9763626e-07 1.9374549e-07 1.9520453e-06 1.6351055e-07 2.3882262e-08 1.1016434e-09
2.4485843e-07 0.00012971813 0.00020553815 1.8513228e-07 2.917021e-06 1.0886569e-06 3.2866234e-07 1.7214596e-07
9.992792e-07 9.681827e-07 4.744636e-07 7.9269114e-08 0.00030056702 6.681711e-06 0.0002125942 7.14956e-05
3.445043e-05 2.4611873e-06 0.000107038046 1.925273e-06 1.6404871e-06 6.3871357e-06 1.1008691e-05 2.954633e-07
1.3320788e-05 1.5887183e-06 1.9526204e-05 5.582645e-08 3.0591833e-05 3.2533956e-06 7.508244e-09 1.4308667e-05
0.0003540842 3.1420142e-05 1.8657514e-07 1.8475271e-08 1.6803215e-05 3.1138597e-07 0.00014136102 1.950808e-06
6.975074e-05 3.5489117e-07 2.0676105e-05 1.5615595e-06 0.000111398294 6.3955946e-07 2.7693668e-06 0.00013010873
2.1066237e-06 1.1312898e-05 8.1228933e-07 2.391408e-06 5.433787e-06 2.5312926e-07 7.7134763e-07 6.6082384e-06
7.8445134e-07 6.2256076e-06 1.7977514e-05 5.5271844e-06 1.5336724e-07 2.1612237e-07 5.7244936e-08 2.9775092e-07
9.741367e-07 3.9891134e-08 5.7943294e-07 7.660809e-06 0.00022088921 1.0643442e-08 4.279645e-05 1.374767e-06
2.0249286e-06 9.427834e-08 1.7335572e-06 1.2138104e-07 2.4628168e-08 0.00014200917 5.6550914e-05 1.2056072e-05
8.5756146e-05 1.0092241e-06 0.0001894941 3.105382e-08 3.8797813e-07 1.599578e-06 1.5051374e-05 2.5810854e-05
3.37289e-05 1.1080873e-07 3.9022626e-07 6.4632565e-07 1.0442585e-06 0.00010249226 1.46396105e-05 0.00034693207
3.895412e-06 6.9443416e-07 3.2383343e-07 4.752121e-07 1.529649e-07 6.499699e-08 6.933513e-08 5.4675075e-07
00000000: 4440 3234 7d28 e737 8130 7b38 c1d7 5a37
00000010: 7817 c838 8fe8 1635 5583 8935 6bcf 0436
00000020: 66ce 2038 f7e5 6f34 a48a a534 50cb 1635
00000030: c32d 5738 76d6 9a34 1b25 7c38 4f50 0a36
00000040: 6a85 7333 59bd fe31 b67a d534 5b08 5034
00000050: e2ff 0236 7091 2f34 a625 cd32 a268 9730
00000060: 1675 8334 f204 0839 ba85 5739 c6c8 4634
00000070: 0ac2 4336 f71d 9235 0273 b034 1fd7 3834
00000080: f91e 8635 81f2 8135 c8b9 fe34 a83a aa33
00000090: 6c95 9d39 7633 e036 d2eb 5e39 e8ef 9538
000000a0: de7e 1038 e02a 2536 9d79 e038 f033 0136
000000b0: b52e dc35 1451 d636 f8b1 3837 2ba0 9e34
000000c0: 597c 5f37 f23b d535 34cc a337 d5c5 6f33
000000d0: bb4f 0038 e954 5a36 9bfd 0032 420f 7037
000000e0: 60a4 b939 1fc9 0338 6255 4834 8db3 9e32
000000f0: a1f4 8c37 902c a734 4f3a 1439 a0ea 0236
00000100: 2547 9238 df87 be34 9971 ad37 c796 d135
00000110: 819e e938 31ae 2b35 5cd9 3936 cc6d 0839
00000120: 855f 0d36 87cc 3d37 190c 5a35 147c 2036
00000130: e053 b636 d2e5 8734 9b0e 4f35 56bc dd36
00000140: 1693 5235 90e5 d036 6bce 9637 2776 b936
00000150: 44ad 2434 440f 6834 79dd 7533 93da 9f34
00000160: 15bf 8235 c454 2b33 548a 1b35 ed86 0037
00000170: 7f9e 6739 5ada 3632 5780 3338 a284 b835
00000180: 02e4 0736 1176 ca33 92ac e835 f754 0234
00000190: ea8d d332 4ce8 1439 1531 6d38 6f44 4a37
000001a0: fbd7 b338 ad74 8735 efb2 4639 0960 0533
000001b0: 4f4b d034 15b1 d635 2985 7c37 6384 d837
000001c0: 2178 0d38 bef5 ed33 4a80 d134 297f 2d35
000001d0: 7328 8c35 1df1 d638 a69c 7537 6fe4 b539
000001e0: 56b5 8236 2769 3a35 54db ad34 a720 ff34
000001f0: ac3e 2434 7994 8b33 64e5 9433 6dc4 1235

exp_avg f4 [128]
-5.3946806e-06 -2.625435e-05 -4.4979555e-05 -6.849061e-06 4.932955e-05 9.554131e-06 -4.035917e-05 -3.5146102e-05
-1.9005603e-05 -1.4054481e-05 -4.859947e-06 -2.3734094e-05 8.738021e-06 -6.3268335e-06 -3.7102684e-05 -1.7136814e-05
1.8851726e-05 -3.24148e-06 -3.359833e-06 -1.3347525e-06 -4.616723e-06 8.75517e-06 1.5226832e-06 -9.325841e-06
-9.318439e-06 5.216934e-05 -3.2524094e-05 -1.0825315e-05 2.4226594e-05 1.34928305e-05 -1.814647e-05 3.2260054e-06
1.1682628e-06 -3.836799e-07 -2.3956592e-05 -1.2959483e-05 7.667919e-05 2.9555771e-05 -4.8327893e-05 -4.2590727e-05
2.2917642e-05 1.6027502e-06 4.86294e-05 5.0148933e-06 -3.6701058e-05 6.8426634e-06 1.6079253e-05 -2.3202963e-06
-4.960002e-06 1.9625004e-06 2.299377e-05 -1.7751096e-05 9.274789e-06 8.591992e-06 9.1753054e-07 3.0993637e-05
-4.3204396e-05 3.1419033e-05 1.565986e-05 2.0260079e-05 2.3542367e-05 -1.7842605e-05 -4.442981e-05 -1.5498543e-05
-2.7793936e-05 -6.989151e-06 8.1649e-06 -2.2783523e-05 -3.32681e-05 -5.3139597e-06 7.978941e-06 -4.8730228e-05
-1.4536076e-05 5.1600173e-06 1.9799701e-05 1.5803156e-05 -8.088503e-06 5.1929565e-06 2.4381197e-05 1.9272302e-06
7.607998e-06 -1.0721181e-05 6.8592344e-06 2.5531172e-05 -7.615119e-06 -1.1763959e-05 -4.9762766e-06 1.1635002e-05
-4.545997e-06 -1.5238569e-05 -1.69827e-05 1.761855e-05 6.0360224e-05 -1.0219655e-05 2.6769616e-05 -6.5928243e-06
-3.0653532e-06 9.65547e-06 1.8940364e-05 8.155935e-06 -3.736758e-06 -3.2066408e-05 -2.798016e-05 -1.8405619e-05
-3.4154345e-05 -2.4316758e-05 5.0830615e-05 -2.5229167e-05 -1.5525347e-05 -2.0678776e-06 -1.7519251e-06 1.6961922e-05
-1.8794746e-05 4.407445e-06 -2.5072906e-05 2.2639133e-06 -2.0599427e-06 -5.754773e-05 -3.1352465e-07 -5.8546146e-05
-6.718112e-07 8.188821e-06 1.4996268e-05 -7.921966e-06 -1.840322e-06 -3.7346538e-06 -2.0021198e-05 -9.586832e-06
00000000: f403 b5b6 ca3c dcb7 6ea8 3cb8 fcd0 e5b6
00000010: 33e7 4e38 ae4a 2037 5447 29b8 d769 13b8
00000020: 396e 9fb7 89cb 6bb7 a012 a3b6 9418 c7b7
00000030: 8499 1237 164b d4b6 b49e 1bb8 07c1 8fb7
00000040: c623 9e37 3488 59b6 7e79 61b6 bf25 b3b5
00000050: 59e9 9ab6 2be3 1237 ff5e cc35 2f76 1cb7
00000060: 6456 1cb7 67d0 5a38 7b6a 08b8 609e 35b7
00000070: 373a cb37 445f 6237 3f39 98b7 5a7e 5836
00000080: 34cd 9c35 90fc cdb4 64f6 c8b7 8e6c 59b7
00000090: d4ce a038 89ee f737 aeb3 4ab8 72a3 32b8
000000a0: 433f c037 141e d735 6cf7 4b38 9b45 a836
000000b0: 76ef 19b8 089a e536 efe1 8637 63b6 1bb6
000000c0: 186e a6b6 80b3 0336 bfe2 c037 30e8 94b7
000000d0: ea9a 1b37 5326 1037 384c 7635 2aff 0138
000000e0: 5e36 35b8 eec7 0338 4b5d 8337 30f4 a937
000000f0: d97c c537 b4ac 95b7 255a 3ab8 de02 82b7
00000100: 0627 e9b7 5a84 eab6 fafb 0837 3e1f bfb7
00000110: 5a89 0bb8 914e b2b6 4add 0537 af63 4cb8
00000120: f9df 73b7 3624 ad36 8917 a637 0591 8437
00000130: dbb3 07b7 283f ae36 3986 cc37 9055 0136
00000140: 3548 ff36 1fdf 33b7 6028 e636 c62b d637
00000150: 6085 ffb6 d25d 45b7 e4f9 a6b6 f433 4337
00000160: d189 98b6 28a9 7fb7 1276 8eb7 8ccb 9337
00000170: 4c2b 7d38 1675 2bb7 508f e037 ee37 ddb6
00000180: 5eb6 4db6 eefd 2137 1fe2 9e37 79d5 0837
00000190: 03c5 7ab6 0b7f 06b8 f0b6 eab7 c465 9ab7
000001a0: f340 0fb8 d7fb cbb7 f532 5538 39a3 d3b7
000001b0: 6e3c 82b7 dec5 0ab6 b023 ebb5 7349 8e37
000001c0: 69a9 9db7 aae3 9336 a853 d2b7 bced 1736
000001d0: 8c3d 0ab6 685f 71b8 8052 a8b4 728f 75b8
000001e0: 8456 34b5 b862 0937 7b98 7b37 96e8 04b7
000001f0: fc00 f7b5 dda0 7ab6 32f3 a7b7 21d7 20b7

exp_avg_sq f4 [128]
6.210802e-10 2.3145175e-08 4.854064e-08 9.86159e-09 7.628956e-08 4.720624e-10 1.184891e-09 1.9284e-09
3.0779788e-08 8.282618e-10 1.0813649e-09 1.9433477e-09 4.1051123e-08 9.634061e-10 4.7570346e-08 1.6284487e-09
2.0434873e-10 5.0180686e-11 1.3614975e-09 5.4203164e-10 5.860475e-09 7.9341944e-10 1.3237188e-10 3.9167027e-11
7.375564e-10 1.0421415e-07 1.6748058e-07 6.407496e-10 2.4011877e-09 2.9669736e-09 1.0973819e-09 3.9075296e-10
8.380637e-10 8.14641e-10 2.0158586e-09 2.1244999e-10 2.4063232e-07 5.064705e-09 1.700877e-07 5.693e-08
2.6143496e-08 8.243355e-09 8.4407176e-08 1.5344855e-09 5.6210046e-09 5.0769646e-09 8.824372e-09 4.9044424e-10
1.0487603e-08 5.7749747e-09 1.4864506e-08 2.9086336e-10 2.5144525e-08 1.0619847e-08 4.7757052e-11 1.131717e-08
2.852863e-07 2.4685727e-08 5.7375327e-10 1.6110839e-10 1.392782e-08 1.1377019e-09 1.1274244e-07 6.9631123e-09
5.459254e-08 1.3380888e-09 1.7111152e-08 5.168284e-09 9.009848e-08 2.4648774e-09 9.053211e-09 1.02968976e-07
1.5488849e-09 9.041213e-09 2.4944753e-09 8.317517e-09 1.9149848e-08 2.6583394e-10 3.1161682e-09 5.6355427e-09
3.2352068e-09 4.526082e-09 1.4267724e-08 4.148101e-09 5.7231686e-10 9.711083e-10 1.6956654e-10 2.4053698e-10
3.459334e-09 2.9012145e-10 2.0454312e-09 6.4161516e-09 1.7667425e-07 8.701221e-11 3.421928e-08 4.7808655e-09
1.8140828e-09 3.876293e-10 5.829781e-09 6.5595473e-10 7.337862e-11 1.1314981e-07 4.4765056e-08 9.947139e-09
6.844967e-08 3.034184e-09 1.5280904e-07 2.1626402e-10 1.685378e-09 5.927897e-09 1.1623062e-08 2.0778229e-08
2.6580274e-08 4.1734977e-10 1.0899996e-09 2.1584294e-09 3.8752317e-09 8.042903e-08 1.144871e-08 2.7902368e-07
1.3454428e-08 5.44774e-10 1.0807367e-09 1.6387974e-09 5.8696475e-10 2.0153172e-10 5.081151e-10 5.9680466e-10
00000000: a2b8 2a30 c7d0 c632 007b 5033 bb6b 2932
00000010: a1d4 a333 70c2 0130 a5d9 a230 c684 0431
00000020: bc32 0433 beab 6330 259f 9430 bc8b 0531
00000030: 3050 3033 d768 8430 2650 4c33 f2cf df30
00000040: 0eaf 602f 6eb2 5c2e 6f1f bb30 16fe 1430
00000050: 495d c931 ee17 5a30 5f8b 112f 2742 2c2e
00000060: ebbc 4a30 56cc df33 b6d4 3334 bf20 3030
00000070: 2402 2531 8de3 4b31 b1d2 9630 97d1 d62f
00000080: 7d5d 6630 44ed 5f30 5c87 0a31 5b97 692f
00000090: 4130 8134 9e05 ae31 5aa1 3634 3283 7433
000000a0: 2892 e032 a99e 0d32 5643 b533 e9e5 d230
000000b0: e122 c131 7471 ae31 009a 1732 f2cf 0630
000000c0: f72c 3432 376d c631 ca5e 7f32 61e7 9f2f
000000d0: 65fd d732 9572 3632 a909 522e 716d 4232
000000e0: 7329 9934 7d0c d432 4cb6 1d30 fb23 312f
000000f0: 3347 6f32 545d 9c30 d01c f233 2f40 ef31
00000100: 2279 6a33 d0e7 b730 d2fb 9232 b594 b131
00000110: 2a7c c133 9562 2931 7188 1b32 cb1f dd33
00000120: 8be0 d430 ad53 1b32 466b 2b31 d4e4 0e32
00000130: f67e a432 cd24 922f 3624 5631 c2a2 c131
00000140: 5c52 5e31 d783 9b31 1d1e 7532 1587 8e31
00000150: 3851 1d30 d677 8530 bd70 3a2f 923c 842f
00000160: 3fb9 6d31 f77e 9f2f 9b8f 0c31 1175 dc31
00000170: d9b3 3d34 8557 bf2e 7ff8 1233 f044 a431
00000180: 5d53 f930 f919 d52f 4c4f c831 b64e 3430
00000190: 7e5c a12e c4fc f233 b343 4033 fbe3 2a32
000001a0: 9bfe 9233 ee81 5031 d413 2434 e9c8 6d2f
000001b0: f7a2 e730 55ae cb31 c4ae 4732 cf7b b232
000001c0: a452 e432 c270 e52f f4ce 9530 7e53 1431
000001d0: e626 8531 54b8 ac33 f6af 4432 b9cc 9534
000001e0: 3325 6732 10bf 1530 0b89 9430 0f3c e130
000001f0: f957 2130 2396 5d2f 6cab 0b30 650c 2430

exp_avg f4 [128, 128]
6.585038e-07 1.1330803e-07 1.0239694e-07 3.6805568e-07 1.2813729e-07 5.0084327e-07 1.5185893e-07 -6.143864e-09
2.1477308e-07 4.837615e-06 2.755514e-06 5.5207937e-07 2.6888983e-08 1.462239e-06 8.2626684e-08 1.0536996e-07
2.1632509e-06 4.8632353e-07 1.3977583e-06 3.981587e-07 3.3586298e-07 1.9419151e-06 5.7839185e-07 2.3066402e-06
6.0819514e-07 2.1040614e-07 1.2371845e-07 1.7867828e-06 2.4706651e-08 2.0646455e-07 2.314311e-06 1.6500088e-07
1.0090571e-07 9.494261e-08 1.970563e-06 1.4622733e-06 9.760188e-07 1.1386692e-07 3.3545803e-08 4.1186013e-08
-4.7288395e-09 1.9025855e-06 6.4166034e-07 2.7216856e-08 2.354609e-06 8.670031e-08 8.5312877e-07 -3.774896e-08
3.7400014e-08 2.0910477e-06 6.143671e-08 1.5883018e-06 1.5598289e-07 1.1259049e-06 5.936956e-07 2.5407417e-08
4.3927457e-08 1.0204203e-06 1.516574e-06 2.1058597e-06 3.0381534e-07 1.6768221e-06 2.8311206e-08 1.3412057e-06
9.579503e-08 1.0442526e-06 2.4943938e-07 8.161675e-07 4.941967e-07 7.2353174e-07 5.2455937e-07 5.7382977e-08
9.365976e-09 4.7659796e-07 3.3436208e-07 4.52747e-07 1.3449228e-06 2.8294622e-08 5.6412023e-06 5.4658267e-07
1.2767596e-06 3.2423486e-07 3.899345e-08 3.056557e-07 7.2498574e-07 2.3894343e-06 4.451424e-07 6.3272273e-07
1.0486981e-06 3.42705e-07 1.6994491e-06 1.6324748e-07 7.65242e-08 3.2261041e-06 1.2614316e-07 2.5532695e-06
4.3571163e-08 1.4342932e-06 4.927637e-07 3.146683e-06 9.790808e-07 2.245406e-08 8.2993665e-07 3.4798632e-07
1.7435104e-07 3.16448e-06 1.2904809e-07 4.4851213e-06 1.6788047e-06 2.3995237e-06 4.1941803e-08 1.1336874e-07
6.9320413e-07 2.9267978e-06 1.9880721e-07 5.712114e-07 3.1280367e-06 1.18018704e-07 3.1261834e-08 4.419121e-08
9.853386e-07 1.9265826e-08 6.1324437e-07 1.8939827e-06 1.3662143e-06 5.245297e-07 8.9035893e-07 8.06308e-08
-5.8756714e-06 -1.09146356e-07 -4.2310256e-07 -2.7633303e-06 -1.7500338e-07 -3.4083996e-06 -8.448928e-07 -8.6925354e-07
-2.042108e-06 -3.6310972e-05 -2.161017e-05 -4.751781e-06 -9.415337e-07 -1.2387398e-05 -1.4137213e-06 -1.5850981e-06
-1.754988e-05 -4.413946e-06 -1.1936501e-05 -2.3459165e-06 -2.005407e-06 -1.5796706e-05 -5.241951e-06 -1.8626726e-05
-5.40693e-06 -2.0127143e-06 -3.2769964e-07 -1.4696937e-05 -9.726238e-07 -1.0856254e-06 -1.8486631e-05 -8.5642665e-07
-2.9452997e-07 -4.2357271e-07 -1.6113328e-05 -1.2328769e-05 -5.6994727e-06 -1.57458e-06 -1.0704525e-06 -1.1543365e-06
6.477242e-08 -1.563324e-05 -4.0887053e-06 -1.0605548e-06 -1.8746063e-05 -1.4521972e-06 -5.1262446e-06 1.6208945e-07
-1.0983355e-06 -1.6974976e-05 -5.991914e-07 -1.354618e-05 -1.7747986e-06 -1.0014076e-05 -5.616024e-06 -9.369264e-07
-6.534783e-07 -5.9053914e-06 -1.2878905e-05 -1.709473e-05 -2.4614167e-06 -1.3879633e-05 -1.0253638e-06 -1.1462469e-05
-1.4683721e-06 -9.431227e-06 -2.2245868e-06 -7.407407e-06 -3.3670087e-06 -6.5549298e-06 -4.6089885e-06 -5.875595e-07
-1.0341475e-06 -3.270129e-06 -1.9271795e-06 -3.4501504e-06 -1.1476497e-05 9.655806e-08 -4.175446e-05 -3.6654205e-06
-1.0995076e-05 -2.5737656e-06 -1.0942166e-06 -2.4564506e-06 -6.684893e-06 -1.915486e-05 -2.976806e-06 -4.1000158e-06
-9.2967e-06 -2.3079922e-06 -1.4063136e-05 -1.8107187e-06 -1.3611739e-06 -2.5385812e-05 -3.3716503e-07 -2.03105e-05
-1.1921242e-06 -1.2377284e-05 -4.089006e-06 -2.4489811e-05 -8.779029e-06 -8.537912e-07 -5.003442e-06 -2.6696496e-06
-1.8511464e-06 -2.4569308e-05 -3.1655009e-07 -3.4001692e-05 -1.40530365e-05 -1.9068195e-05 -6.4617154e-07 -4.2099606e-07
-4.3499876e-06 -2.2884415e-05 -9.946003e-07 -5.199043e-06 -2.4438536e-05 -1.4075783e-07 -6.84988e-07 -6.532997e-07
-8.955313e-06 -9.571205e-07 -5.6046683e-06 -1.5435937e-05 -1.183828e-05 -4.1209046e-06 -8.357049e-06 -1.4672166e-06
00000000: 09c4 3035 c053 f333 50e5 db33 3099 c534
00000010: 1c96 0934 b071 0635 aa0e 2334 001a d3b1
00000020: 609c 6634 cc52 a236 5feb 3836 9b32 1435
00000030: 80f9 e632 2642 c435 8070 b133 c047 e233
00000040: 5e2c 1136 e68b 0235 9c9a bb35 84c2 d534
00000050: a850 b434 d951 0236 c942 1b35 c7cb 1a36
00000060: da42 2335 00ec 6134 78d7 0434 64d1 ef35
00000070: 803a d432 8bb0 5d34 8f4f 1b36 192b 3134
00000080: 80b1 d833 40e3 cb33 043e 0436 5443 c435
00000090: c0ff 8235 0087 f433 0014 1033 80e4 3033
000000a0: 507b a2b1 575c ff35 903e 2c35 80ca e932
000000b0: e003 1e36 0030 ba33 9002 6535 6c21 22b3
000000c0: c0a1 2033 ed53 0c36 30ef 8333 a22d d535
000000d0: 407c 2734 cc1d 9735 735e 1f35 803f da32
000000e0: c0aa 3c33 60f5 8835 168d cb35 6552 0d36
000000f0: 101c a334 2b0f e135 0031 f332 7a03 b435
00000100: e0b7 cd33 3f28 8c35 b0ea 8534 9b16 5b35
00000110: f0a8 0435 b938 4235 72cf 0c35 4075 7633
00000120: 00e8 2032 20df ff34 6082 b334 1311 f334
00000130: 3283 b435 880c f332 8f49 bd36 e0b8 1235
00000140: 205d ab35 8012 ae34 c079 2733 0019 a434
00000150: a49c 4235 2b5a 2036 e8fb ee34 60d8 2935
00000160: fec0 8c35 04fd b734 a018 e435 2049 2f34
00000170: a055 a433 0c80 5836 f871 0734 d658 2b36
00000180: 0023 3b33 f081 c035 7746 0435 9a2b 5336
00000190: f668 8335 00e1 c032 d0c8 5e35 e0d2 ba34
000001a0: 4035 3b34 5a5d 5436 7890 0a34 e67e 9636
000001b0: 4a53 e135 8107 2136 8023 3433 2075 f333
000001c0: a014 3a35 016a 4436 b677 5534 5955 1935
000001d0: 43eb 5136 7871 fd33 c044 0633 c0cc 3d33
000001e0: fa3f 8435 007e a532 d59d 2435 c034 fe35
000001f0: c45e b735 68cd 0c35 0001 6f35 4027 ad33
00000200: a227 c5b6 d863 eab3 c626 e3b4 a771 39b6
00000210: 90e8 3bb4 dcbb 64b6 97cc 62b5 a656 69b5
00000220: 260b 09b6 9c4c 18b8 7d47 b5b7 7d71 9fb6
00000230: b4bd 7cb5 78d3 4fb7 18bf bdb5 8ebf d4b5
00000240: 1538 93b7 821b 94b6 e242 48b7 8a6e 1db6
00000250: a194 06b6 2b83 84b7 04e4 afb6 9740 9cb7
00000260: 2d6d b5b6 2b12 07b6 b2ee afb4 dd92 76b7
00000270: 198b 82b5 ceb5 91b5 bd13 9bb7 31e5 65b5
00000280: e41f 9eb4 6467 e3b4 1c2b 87b7 a9d7 4eb7
00000290: 193e bfb6 2856 d3b5 78ac 8fb5 b3ee 9ab5
000002a0: 0419 8b33 2124 83b7 b631 89b6 6358 8eb5
000002b0: dd40 9db7 1ee9 c2b5 1b02 acb6 cf0a 2e34
000002c0: 856a 93b5 7c65 8eb7 1fd8 20b5 6644 63b7
000002d0: 9e35 eeb5 2102 28b7 4771 bcb6 1881 7bb5
000002e0: b06a 2fb5 ed26 c6b6 7a12 58b7 a766 8fb7
000002f0: d12e 25b6 92dc 68b7 3b9f 89b5 ee4e 40b7
00000300: e214 c5b5 d03a 1eb7 1c4a 15b6 248d f8b6
00000310: c5f4 61b6 6bf2 dbb6 e9a6 9ab6 c8b8 1db5
00000320: 0acd 8ab5 6374 5bb6 b154 01b6 2289 67b6
00000330: 2e8b 40b7 5b5b cf33 8321 2fb8 72fb 75b6
00000340: 7e77 38b7 f5b8 2cb6 ffdc 92b5 80d9 24b6
00000350: cb4e e0b6 c0ae a0b7 23c5 47b6 de92 89b6
00000360: 06f9 1bb7 01e3 1ab6 b6f0 6bb7 d207 f3b5
00000370: 94b1 b6b5 9ef3 d4b7 9c03 b5b4 7760 aab7
00000380: 1301 a0b5 08a8 4fb7 4b34 89b6 786f cdb7
00000390: a449 13b7 1630 65b5 3de3 a7b6 3b28 33b6
000003a0: e874 f8b5 301a ceb7 50f2 a9b4 0a9d 0eb8
000003b0: 55c5 6bb7 a3f4 9fb7 9274 2db5 4205 e2b4
000003c0: 1cf6 91b6 e8f7 bfb7 357e 85b5 7073 aeb6
000003d0: 5b01 cdb7 3823 17b4 04e0 37b5 6a5e 2fb5
000003e0: c73e 16b7 6976 80b5 bc0f bcb6 6c7c 81b7
000003f0: 079d 46b7 4d46 8ab6 4135 0cb7 2eed c4b5

exp_avg_sq f4 [128, 128]
7.387908e-13 1.0066286e-11 4.108662e-11 1.010101e-09 1.3575547e-11 1.4016697e-09 1.4859769e-13 1.619457e-10
6.2386435e-10 1.6987637e-11 6.2013315e-12 5.579522e-13 1.7171173e-10 2.2785393e-12 3.4527148e-10 4.234213e-10
4.2021876e-12 5.1406416e-13 2.1411922e-12 2.506556e-13 2.2674772e-13 3.47858e-12 6.387022e-13 4.6837425e-12
6.6175196e-13 6.070183e-10 2.7604405e-11 3.0576386e-12 1.8382554e-10 1.6266058e-13 4.627617e-12 1.469735e-13
2.7772607e-11 4.2739666e-11 3.5920594e-12 2.258612e-12 3.135018e-09 4.109575e-10 2.1602846e-10 2.4646324e-10
4.712309e-14 3.4045002e-12 1.8604378e-09 2.1526542e-10 4.749444e-12 3.6222148e-10 2.6548816e-09 5.791971e-13
2.254063e-10 3.9499233e-12 7.487673e-11 2.64653e-12 4.9814014e-10 1.6088073e-12 7.0222186e-13 1.7082838e-10
8.965202e-11 3.316521e-09 2.4295258e-12 4.0101932e-12 8.401525e-10 2.7662855e-12 2.013344e-10 2.0016994e-12
3.656396e-10 1.4658807e-12 7.1779316e-10 1.0231531e-12 1.3750756e-09 8.602888e-13 5.392847e-13 7.383292e-11
2.1349546e-10 1.3127727e-09 2.1842058e-13 3.770663e-13 2.0057792e-12 1.2034978e-12 2.2457161e-11 1.5774341e-09
1.8704832e-12 9.0619745e-10 2.2213276e-10 8.3519147e-10 8.8559206e-13 4.929742e-12 3.1609448e-13 1.8815152e-09
1.4349081e-12 2.5834093e-13 2.8300396e-12 5.152254e-10 3.2163136e-10 8.3981485e-12 2.817768e-11 5.5028764e-12
2.6182406e-10 2.2710748e-12 4.6272166e-13 7.869663e-12 1.313791e-12 1.4628322e-10 2.5544775e-09 9.560899e-10
5.324974e-10 7.915366e-12 2.5737561e-11 1.4877379e-11 2.8195573e-12 4.9039666e-12 8.8401265e-11 3.9105906e-11
2.0537094e-09 6.9110204e-12 1.560915e-13 6.305827e-13 7.819854e-12 1.2026143e-11 9.988145e-11 8.956075e-11
1.3539427e-12 1.8152523e-10 6.957459e-13 3.3366363e-12 2.1071632e-12 4.6214757e-13 1.2220126e-12 3.750604e-10
1.6588386e-10 1.1467592e-10 4.566017e-10 1.085275e-08 1.5383979e-10 1.5026762e-08 3.3535655e-12 1.7765734e-09
6.720169e-09 5.659873e-09 2.0985065e-09 1.08715946e-10 1.8696027e-09 7.2139356e-10 3.73819e-09 4.584355e-09
1.4155502e-09 9.566332e-11 6.718396e-10 2.4658242e-11 1.817851e-11 1.151656e-09 1.34346e-10 1.5906838e-09
1.4103886e-10 6.538597e-09 3.0912076e-10 1.0030317e-09 2.005437e-09 5.0773435e-12 1.5586277e-09 3.2082353e-12
3.187107e-10 4.782849e-10 1.1976375e-09 7.1295847e-10 3.352247e-08 4.446042e-09 2.347762e-09 2.6760079e-09
4.934813e-13 1.1305039e-09 1.9918271e-08 2.3456819e-09 1.5990351e-09 3.9244292e-09 2.8402049e-08 6.738907e-12
2.4494216e-09 1.3237423e-09 8.244546e-10 8.633608e-10 5.376745e-09 4.776701e-10 1.5576626e-10 1.861141e-09
9.840718e-10 3.546145e-08 7.7886597e-10 1.3442322e-09 9.035366e-09 8.9678787e-10 2.1908664e-09 6.193264e-10
3.955346e-09 4.2572812e-10 7.7287785e-09 2.6351807e-10 1.4742441e-08 2.0680443e-10 1.0289799e-10 8.12811e-10
2.3338156e-09 1.4078537e-08 1.6430851e-11 5.657617e-11 6.203741e-10 1.3301735e-11 7.397428e-09 1.6912162e-08
5.71287e-10 9.7472315e-09 2.411153e-09 8.979771e-09 2.1599261e-10 1.6702187e-09 4.123425e-11 2.015987e-08
4.120046e-10 2.5242895e-11 9.2064967e-10 5.561916e-09 3.4828895e-09 2.8754503e-09 3.1543496e-10 1.8672532e-09
2.8453042e-09 7.239726e-10 8.033558e-11 2.6700824e-09 3.6811829e-10 1.5968787e-09 2.7327733e-08 1.0271589e-08
5.7421663e-09 2.6823073e-09 2.884664e-10 4.9945914e-09 9.214466e-10 1.6521973e-09 9.717751e-10 4.345516e-10
2.1988981e-08 2.343376e-09 4.370303e-12 1.311062e-10 2.6587677e-09 1.3697243e-10 1.0971836e-09 9.830426e-10
3.8436085e-10 1.9852109e-09 1.520153e-10 1.1012541e-09 6.629253e-10 8.038681e-11 3.3810868e-10 4.06704e-09
00000000: 7df3 4f2b 8616 312d 6cb3 342e c5d3 8a30
00000010: d4d2 6e2d dea4 c030 5e4e 272a aa0f 322f
00000020: 8d7c 2b30 c26c 952d a130 da2c b10c 1d2b
00000030: 8ecc 3c2f 8456 202c a4d0 bd2f 40c7 e82f
00000040: f1d9 932c 3ab2 102b 4aac 162c 471b 8d2a
00000050: 954b 7f2a 87c8 742c 58c7 332b 67cb a42c
00000060: 4144 3a2b 1edb 2630 98cf f22d 8529 572c
00000070: 4a1e 4a2f b823 372a ded1 a22c 3a7a 252a
00000080: 5a4a f42d 96f8 3b2e cac4 7c2c 89ef 1e2c
00000090: d26f 5731 20ed e12f 9b86 6d2f 9e7e 872f
000000a0: 3939 5429 0692 6f2c 56b2 ff30 d4af 6c2f
000000b0: 301b a72c 2422 c72f 2c71 3631 8d07 232b
000000c0: 3cd6 772f bff9 8a2c daa7 a42e a53b 3a2c
000000d0: 7fed 0830 646b e22b 6ba8 452b ead3 3b2f
000000e0: 9a25 c52e dbe8 6331 72f6 2a2c 9c18 8d2c
000000f0: 7af0 6630 f8a8 422c 985e 5d2f 69db 0c2c
00000100: 3303 c92f eb4d ce2b 344e 4530 fafe 8f2b
00000110: 2cfd bc30 5726 722b 8fcb 172b 3d5c a22e
00000120: a1bd 6a2f 156d b430 72eb 752a fb44 d42a
00000130: e824 0d2c 9460 a92b 0889 c52d 07cd d830
00000140: a19f 032c fa17 7930 d03c 742f 6093 6530
00000150: a245 792b 2b73 ad2c 04f2 b12a f74b 0131
00000160: 03f2 c92b da6e 912a 7625 472c c49f 0d30
00000170: 97d1 b02f e6bd 132d 7fda f72d 819d c12c
00000180: 76f0 8f2f 0cd0 1f2c 9c3e 022b d071 0a2d
00000190: 4fe6 b82b 11d7 202f d88a 2f31 6c67 8330
000001a0: 2c5f 1230 a43f 0b2d d663 e22d e1dc 822d
000001b0: a168 462c 018b ac2c 7d65 c22e 56fd 2b2e
000001c0: 3d21 0d31 f028 f32c 50be 2f2a 467e 312b
000001d0: 7e91 092d ef90 532d 42a4 db2e 38f2 c42e
000001e0: ed8c be2b cf96 472f c7d5 432b 7fcb 6a2c
000001f0: 4747 142c 3e15 022b a5fb ab2b 0f31 ce2f
00000200: 2864 362f ce2c fc2e fa04 fb2f e672 3a32
00000210: 0d26 292f 3314 8132 77fc 6b2c 9f2b f430
00000220: 3be7 e631 c578 c231 5135 1031 a311 ef2e
00000230: 667a 0031 8f4b 4630 7871 8031 6a84 9d31
00000240: 3f8d c230 a95d d22e 82ac 3830 6de5 d82d
00000250: 5ee6 9f2d 4b48 9e30 0ab7 132f 369f da30
00000260: e912 1b2f 1caa e031 e1f0 a92f 0adb 8930
00000270: 05d0 0931 a5a4 b22c 5637 d630 6ec2 612c
00000280: 8b36 af2f 4f78 0330 209a a430 fef9 4330
00000290: 58fa 0f33 cdc3 9831 4456 2131 d4e4 3731
000002a0: 13e7 0a2b 1260 9b30 be18 ab32 ac31 2131
000002b0: 0cc5 db30 a5d7 8631 c4f8 f332 ae1a ed2c
000002c0: ae52 2831 0bef b530 d69f 6230 9e51 6d30
000002d0: 59be b831 0c4d 0330 4e44 2b2f 14cb ff30
000002e0: f33f 8730 474e 1833 d217 5630 f7bf b830
000002f0: f639 1b32 d681 7630 218e 1631 393d 2a30
00000300: 97e7 8731 e80b ea2f 87c7 0432 dfde 902f
00000310: f145 7d32 4662 632f 6b46 e22e 7d6c 5f30
00000320: eb60 2031 0fde 7132 fd86 902d 1bd3 782e
00000330: f286 2a30 b001 6a2d 772c fe31 3d46 9132
00000340: c008 1d30 c774 2732 74b1 2531 7345 1a32
00000350: 847c 6d2f 998d e530 a359 352e 062c ad32
00000360: 7e80 e22f f209 de2d f610 7d30 211b bf31
00000370: a457 6f31 7599 4531 8669 ad2f 1151 0031
00000380: 1f87 4331 0b01 4730 e9a8 b02e 967c 3731
00000390: 0b60 ca2f 2d79 db30 52be ea32 ed76 3032
000003a0: a14c c531 a653 3831 0996 9e2f e49c ab31
000003b0: 0a49 7d30 8613 e330 4c8f 8530 b3e5 ee2f
000003c0: 48e2 bc32 1b09 2131 31c4 992c 1d27 102f
000003d0: 89b5 3631 509a 162f b7cb 9630 bd1b 8730
000003e0: fb4d d32f 336c 0831 8124 272f ef5a 9730
000003f0: 3939 3630 c0c5 b02e 91e0 b92f 10be 8b31
