results/TurnTest0/My Behavior.onnx (onnx, 79361 bytes, 5 tensors)

network_body._body_endoder.seq_layers.0.weight f4 [128, 10]
00000000: 8ca3 873e d371 54bd fbd3 ce3e 8ed0 113e
00000010: c5c6 983c bfed afbe 0138 e33e e2f0 9b3e
00000020: 16d6 193e c299 aabb 5063 d8bd 1301 e1bc
00000030: f036 823e 65ed 4e3b 073c eebe bd29 d83e
00000040: 1878 333e acd3 0c3e 2e98 5ebe b439 59be
00000050: 0928 14bf 2073 8b3d 2853 eebd 3708 d23e
00000060: 68cf 8abd 4d49 a0bd 0d95 eabe 64bd 013f
00000070: 3f64 b0bc 4b8e aabd b4af 9a3e 8aef ccbe
00000080: 4db5 3d3e de40 053e 8dce cdbd 2d45 b93e
00000090: 14d5 d33e c644 0fbe ec78 f8be 2372 29be
000000a0: 7fb6 90be 2f98 e63e 2afd 7abd 9e45 3d3e
000000b0: 4398 83be e35a 8e3e f6f2 34bd 3438 153e
000000c0: 0f28 b2be da15 2f3d 61c7 413e 2f02 2abf
000000d0: 8370 a8be 7b38 733c c3f6 a8be 0f23 2ebf
000000e0: 1310 c03e 29ca bbbd 4e31 1cbf 0d37 7bbd
000000f0: e1cb 9cbe 3f58 febd 4e48 05bd ea86 e03d
00000100: 2c1c b1be bd35 ac3e 30b2 2dbc 0dd8 d23e
00000110: 7e23 53be 7527 9e3e 9ff7 8bbe 5839 b93d
00000120: fa47 c23e 9f45 84be 72e4 bdbe 7740 acbe
00000130: 356d bbbe 15e3 edbe 384a ca3e c1fc 40be
00000140: 8c3a ebbe 1f4b e4be b495 b4bd 933a e03e
00000150: 396d d7be ccd9 2abe c309 75bd 35bf 513e
00000160: 5d1a 333e 3374 4dbd 291c 353e faf2 3f3e
00000170: a1f1 163e 9ad4 17bd cc54 8c3c 7b3f 2cbf
00000180: f382 babd d2ef 0e3f cc27 4c3e 801c 393e
00000190: 14ed 33bf 5d3f a13e f223 003f fb47 fc3d
000001a0: 00fe 013c 7b91 65bd 95eb 323e 6f8c a73e
000001b0: 4cce aabe a0b9 9bbe 4e0d cdbe c0cc 823e
000001c0: 1460 043e 5fc2 cabe e769 1fbe f2ec c43d
000001d0: b001 7ebd ee9e fb3d 40a3 26bf 1b95 14bd
000001e0: 7179 a53d 757b 363e de43 cb3e 9b67 0ebd
000001f0: b3b7 193f 7427 b1be da47 45be de0e 66bd
00000200: d768 47be 4916 debe a323 a9bd 33d3 ddbd
00000210: 6547 8f3e 95cf 59bd 9a8f cb3e 357e 8fbd
00000220: 6304 013e 5f0f c1be 8dd0 2cbf 8f66 a43e
00000230: 2e75 e63c bece af3c 1530 32be b77f 803e
00000240: 40cb 45be c278 8d3e 75d8 eabb 8273 2a3e
00000250: ec07 fa3e e78d 7fbe c08b 66be 8a33 f4bd
00000260: 05df 813e 3a95 63bf d48b 42be 1688 8dbd
00000270: 6891 33bf cade f1bc 282c 08be fc00 e03e
00000280: b6ca 4f3e 9a45 ccbd 2979 96bd 40f4 c53d
00000290: a293 be3d a665 e7bd b87e 0c3e 7405 a33e
000002a0: 6429 e33e 0624 6e3e 8d04 ecbe d493 523e
000002b0: 9d5f 8e3e 734b d7be 42e3 e33e 0c15 a03c
000002c0: dada 69be 0b45 003e 3ded 67bf dcd3 8d3e
000002d0: 4222 ce3e c3c3 50bd 9444 16bf f1fe 033e
000002e0: b2f7 4a3e 5980 ca3e c929 ddbe 864b c23d
000002f0: 09b4 09bf e8f5 d5be b415 5f3f ca0c 97be
00000300: 2ade 7ebd 369f 6b3e d8ee a3be 0194 9abe
00000310: d015 55be bb8d 083e e79a bd3e 2eb2 dcbc
00000320: a701 723e 1b8c 0fbe 6b3b 8d3e 4e2d bf3e
00000330: 887f 0d3f d11f e23d e973 52be c3d4 943e
00000340: 4f85 1b3e 5001 23bf 9605 ab3d e147 2b3e
00000350: 4e9d 4e3e fcad 3f3f 74d9 9fbe 5b3a 953e
00000360: 0f45 e13e b88e d93e 1a89 e1be 8747 debe
00000370: 8ab0 74be ae26 043e 5511 0c3e 6f30 82bb
00000380: 2e00 75be 8d84 0bbf 4398 a1bd caed b13e
00000390: d772 04be f81d 8cbe c06d 8abe b746 ce3e
000003a0: 20bd 123f aead ca3e f801 05bf 171a 943d
000003b0: c9fc 093f 7950 143d 327a 7e3e 1fca fdbe
000003c0: 7e18 88bd ddb7 fd3d f2b3 3fbd 6fca 95bd
000003d0: b13e 59bf 22c9 743c 566f 62be 4c4c 1ebe
000003e0: d0f3 483c 47b3 0abe e091 e6be 7456 173e
000003f0: 5500 5a3d 651a a6be 8f1d f4bd 2182 8cb9
0.26491964 -0.051866364 0.40396103 0.14239714 0.018649468 -0.34361073 0.44378665 0.30457217
0.15023074 -0.0052063176 -0.10565817 -0.027466333 0.2543254 0.0031574604 -0.46530172 0.42219344
0.17526281 0.13752621 -0.2173774 -0.21213418 -0.5787359 0.06809068 -0.116369545 0.41021892
-0.06777841 -0.07826481 -0.45816842 0.5067961 -0.021532176 -0.083279215 0.30212176 -0.40026504
0.18526192 0.13013026 -0.10049162 0.3618559 0.41373503 -0.13991079 -0.48529756 -0.16547446
-0.28264233 0.45037982 -0.061276592 0.18483588 -0.25702104 0.27803716 -0.044177018 0.14572221
-0.34796187 0.04274545 0.18923713 -0.6640958 -0.3289834 0.014845009 -0.33000764 -0.68022245
0.37512264 -0.09169418 -0.61012733 -0.061331797 -0.30624297 -0.12419175 -0.03253966 0.10963233
-0.34591806 0.3363475 -0.010601565 0.4118046 -0.20619008 0.30889478 -0.27337357 0.090441406
0.3794554 -0.25834367 -0.37088352 -0.33642933 -0.36606756 -0.46462312 0.3950975 -0.18846418
-0.45943105 -0.44588563 -0.08817616 0.4379469 -0.42075518 -0.16684645 -0.059823763 0.20483096
0.17490526 -0.050159644 0.17686523 0.18745032 0.14740612 -0.037067987 0.017130278 -0.67284364
-0.09107008 0.55834687 0.19937056 0.18077278 -0.7028363 0.31493655 0.5005485 0.12318417
0.0079340935 -0.056046944 0.1747268 0.3272433 -0.33360517 -0.30415058 -0.40049213 0.25546837
0.12927276 -0.39601418 -0.15567742 0.09615506 -0.062013328 0.12286173 -0.6509285 -0.03627501
0.08079804 0.17820533 0.39700216 -0.034766775 0.6004593 -0.34600413 -0.1926569 -0.056166522
-0.19473587 -0.43376377 -0.0825875 -0.10831299 0.27984157 -0.05317648 0.39757997 -0.07006494
0.1259933 -0.3770704 -0.67505723 0.32109496 0.028132048 0.021460887 -0.17401154 0.2509744
-0.19315815 0.27631193 -0.007166917 0.16645625 0.4883417 -0.24956475 -0.22514248 -0.11923893
0.25365463 -0.88899577 -0.18998653 -0.06910722 -0.7014375 -0.02952518 -0.13298094 0.4375075
0.20292172 -0.09974213 -0.07347328 0.096657276 0.093055025 -0.11298685 0.13720214 0.31840098
0.44367516 0.2325593 -0.46097222 0.20564204 0.27807322 -0.4204975 0.4450932 0.019541286
-0.22837391 0.12526338 -0.9059637 0.27700698 0.40260512 -0.050967943 -0.5869839 0.12890221
0.19821051 0.39551046 -0.43195942 0.09487061 -0.53790337 -0.41789174 0.8714249 -0.29501945
-0.06222359 0.23009953 -0.3201816 -0.30191043 -0.20809102 0.13335316 0.37032244 -0.026940431
0.23633443 -0.1401829 0.27584395 0.37339252 0.5527272 0.11041225 -0.20552029 0.29068574
0.15187572 -0.6367388 0.08350675 0.16726638 0.20177194 0.74874854 -0.3122059 0.29146084
0.43998 0.42491698 -0.44049913 -0.43413946 -0.2389547 0.1290538 0.13678487 -0.003973059
-0.2392585 -0.5449913 -0.0789037 0.3475173 -0.12934433 -0.27366614 -0.27036858 0.40288326
0.5731983 0.39585632 -0.5195613 0.07231539 0.53901345 0.036209557 0.24851301 -0.4956827
-0.066452965 0.12388585 -0.04680247 -0.07314002 -0.84861284 0.014940532 -0.22112784 -0.15458792
0.012265161 -0.13544951 -0.4503317 0.14779073 0.053222973 -0.32442012 -0.119197 -0.00026799834

network_body._body_endoder.seq_layers.0.bias f4 [128]
00000000: 0000 0000 0000 0000 0000 0000 0000 0000
00000010: 0000 0000 0000 0000 0000 0000 0000 0000
00000020: 0000 0000 0000 0000 0000 0000 0000 0000
00000030: 0000 0000 0000 0000 0000 0000 0000 0000
00000040: 0000 0000 0000 0000 0000 0000 0000 0000
00000050: 0000 0000 0000 0000 0000 0000 0000 0000
00000060: 0000 0000 0000 0000 0000 0000 0000 0000
00000070: 0000 0000 0000 0000 0000 0000 0000 0000
00000080: 0000 0000 0000 0000 0000 0000 0000 0000
00000090: 0000 0000 0000 0000 0000 0000 0000 0000
000000a0: 0000 0000 0000 0000 0000 0000 0000 0000
000000b0: 0000 0000 0000 0000 0000 0000 0000 0000
000000c0: 0000 0000 0000 0000 0000 0000 0000 0000
000000d0: 0000 0000 0000 0000 0000 0000 0000 0000
000000e0: 0000 0000 0000 0000 0000 0000 0000 0000
000000f0: 0000 0000 0000 0000 0000 0000 0000 0000
00000100: 0000 0000 0000 0000 0000 0000 0000 0000
00000110: 0000 0000 0000 0000 0000 0000 0000 0000
00000120: 0000 0000 0000 0000 0000 0000 0000 0000
00000130: 0000 0000 0000 0000 0000 0000 0000 0000
00000140: 0000 0000 0000 0000 0000 0000 0000 0000
00000150: 0000 0000 0000 0000 0000 0000 0000 0000
00000160: 0000 0000 0000 0000 0000 0000 0000 0000
00000170: 0000 0000 0000 0000 0000 0000 0000 0000
00000180: 0000 0000 0000 0000 0000 0000 0000 0000
00000190: 0000 0000 0000 0000 0000 0000 0000 0000
000001a0: 0000 0000 0000 0000 0000 0000 0000 0000
000001b0: 0000 0000 0000 0000 0000 0000 0000 0000
000001c0: 0000 0000 0000 0000 0000 0000 0000 0000
000001d0: 0000 0000 0000 0000 0000 0000 0000 0000
000001e0: 0000 0000 0000 0000 0000 0000 0000 0000
000001f0: 0000 0000 0000 0000 0000 0000 0000 0000
0.0 0.0 0.0 0.0 0.0 0.0 0.0 0.0
0.0 0.0 0.0 0.0 0.0 0.0 0.0 0.0
0.0 0.0 0.0 0.0 0.0 0.0 0.0 0.0
0.0 0.0 0.0 0.0 0.0 0.0 0.0 0.0
0.0 0.0 0.0 0.0 0.0 0.0 0.0 0.0
0.0 0.0 0.0 0.0 0.0 0.0 0.0 0.0
0.0 0.0 0.0 0.0 0.0 0.0 0.0 0.0
0.0 0.0 0.0 0.0 0.0 0.0 0.0 0.0
0.0 0.0 0.0 0.0 0.0 0.0 0.0 0.0
0.0 0.0 0.0 0.0 0.0 0.0 0.0 0.0
0.0 0.0 0.0 0.0 0.0 0.0 0.0 0.0
0.0 0.0 0.0 0.0 0.0 0.0 0.0 0.0
0.0 0.0 0.0 0.0 0.0 0.0 0.0 0.0
0.0 0.0 0.0 0.0 0.0 0.0 0.0 0.0
0.0 0.0 0.0 0.0 0.0 0.0 0.0 0.0
0.0 0.0 0.0 0.0 0.0 0.0 0.0 0.0

network_body._body_endoder.seq_layers.2.weight f4 [128, 128]
00000000: b3dd 71bd cfeb 063d bedb 493d 3fbc 963c
00000010: 8cbb 92bd 3c01 643c 65e6 4f3d 52a7 203e
00000020: 6147 80bc 6445 723e e2bc 6f3b 2354 11bd
00000030: 107a c7bd f5e4 85bd 8869 74be 5655 c13c
00000040: 5232 60bd ed6f d4bd b48d c7bd a5ad 49bb
00000050: d1e0 b13c 32b0 57be cf3c 29bd e8ef 2abc
00000060: 85a0 693a 3a2f 583d adae 2b3d 232a 2fbd
00000070: 326c 283e fb78 8d3d d35e cc3d ddd0 fcbd
00000080: 5cc6 083e 2efe 94bd 5bee 2bbe d2f0 8d3d
00000090: a853 a9bc d8b6 42bd 6486 4d3d 208e 30bd
000000a0: 1299 f3bd e7f1 a73d 60fe 07bd 87a9 853d
000000b0: 71b8 313e 0751 27bd 21c1 9ebd cc38 b33d
000000c0: fdeb d8bd 0e79 77bc e1bf c4bd c417 4fbd
000000d0: e8d9 273e 627a a0bd 15ce 2fbd d5c9 1a3d
000000e0: a823 a83c 0699 02be b3f5 06bc 245c 213e
000000f0: 5670 15bd bf6c c83d ed9c 8cbc 8dfa 093e
00000100: 3391 dbbc 4fd4 e2bc c2f2 1b3c d246 4c3d
00000110: 0107 d63c 8671 363d 62e2 1cbe fbb0 ebbb
00000120: 39e9 2dbd 4ee5 dd3d 4447 99bd b45b e3ba
00000130: d340 883d 803c 96bd 6398 333e e879 753d
00000140: 0b4c 1a3b 9a1b 99bd 7ea5 f43c 69ae 3ebe
00000150: f915 953d 60dd 753d c0b3 7f3d 8888 4cbd
00000160: a377 30bd 47c4 8bbd c787 7a3d 936b b93c
00000170: 5515 ec3d 19ad 12be 3059 823d 194b 3cbd
00000180: 7519 913d 9e00 a4bd c2ba c33d 6c3a 673d
00000190: 7f53 e6bc 2bde 563d 3c1e 12bb 6381 56bb
000001a0: 9036 4e3e d5cd 333c 6fe9 02be 6467 a9bc
000001b0: 0157 933b 08f1 44bd b26d 4a3c 57d2 0f3e
000001c0: fa1e 42bd 0925 f33c af0e b4bc 8667 24bc
000001d0: 8c70 82bd c001 a63d fbd4 473d f74d b93d
000001e0: b5e5 f6b9 d422 423d 2ae8 ac3c d206 71bd
000001f0: a492 2b3a dcf0 9abc e297 c03c 67d2 df3c
00000200: fcda ed3d 457e 22bd 4fa5 0abc 6cd6 27bc
00000210: 2913 993c e476 093e 1ed9 1cbe 8386 dd3c
00000220: 4a15 ec3c fafa a63b 0a87 f33d 0440 c6bd
00000230: fab8 3abd ea09 833c edf1 c0bd b47d 3e3d
00000240: a581 e8bd c120 f13d 86b0 a1bd 07cf abbb
00000250: a000 cd3b 5831 71bd cf53 273e 56f8 c2bd
00000260: 35db 97bd c3d6 cd3d 0590 ec3d 5451 b63d
00000270: 3a3c 363b 9705 873d 8443 ad3d b52f 22bd
00000280: 9a2f e13c 384e a1bb 4722 16bc 5820 a7bd
00000290: f832 a93d 516c d63b daed 59ba 53f4 1bbe
000002a0: 73af 0c3e 2460 f5bd a41a b4bc a877 e13b
000002b0: ed63 17bd 839d 46ba 40ff 523e 4e51 03be
000002c0: 765c 4cbe fbe7 fa3d e49f f93d 56cf 413d
000002d0: 9294 833b ee2f c23c dc02 ea3c de1b 0dbc
000002e0: bd57 81bd 6361 a4bd a5ef 2c3d ffd0 743d
000002f0: 3065 33be 7e19 32be fcff 50bd 5c0c 773d
00000300: 99b8 a13c 335a 1f3c 080c f5bc ae56 dd3c
00000310: fff5 a1bc 6d96 043d adb6 5f3c 4220 98bc
00000320: 970b 093c 5040 0c3e 8128 2f3c 7ec4 98ba
00000330: 60af e3bb 6757 92ba 2415 f33b af4e 77bd
00000340: a13c 02bc c41f 05be 59d6 3dbd b569 883d
00000350: 36db 34be fd03 913d 37c3 97bc f1d8 153d
00000360: 288a 343e 81ad 673d 25bf 4a3d b25a 53bd
00000370: 8818 0a3c 4043 c43d 7818 04be f119 3c39
00000380: 63ac 8c3d 4087 163e 3b2a 443d a60b c3bd
00000390: 5a21 2abc 290b 423c 7d3b c53d aa63 823d
000003a0: 00c5 043d 0ce3 a03b 45c0 0bbe 2ea8 19be
000003b0: 1549 83bd 6598 643d 9d85 9ebd 8440 2fbd
000003c0: 055c cd3c ca82 e9bd 5b97 56be eac5 6a3e
000003d0: 0f94 143e 87a1 5abd 3bec 6b3d ee63 df3d
000003e0: 716a d0bd ded7 cb3d d0ff 0f3d 1f51 43bd
000003f0: 609a 26bd 4371 653a 70d0 28be 37ba 093e
-0.05904932 0.03293973 0.049281828 0.01840031 -0.07164678 0.01391631 0.05075683 0.15688828
-0.015659036 0.23659283 0.0036581089 -0.03548063 -0.097400784 -0.06537811 -0.23868382 0.023600262
-0.05473549 -0.10372911 -0.097438246 -0.0030773666 0.021713646 -0.21063307 -0.041317757 -0.010433175
0.0008912164 0.052779414 0.04191463 -0.042764794 0.16447523 0.06907841 0.09979024 -0.12344525
0.13356918 -0.072750434 -0.16790144 0.069306985 -0.020669773 -0.047537655 0.050176993 -0.04310429
-0.1189443 0.08200436 -0.033201575 0.065264754 0.17355515 -0.040848758 -0.0775168 0.087510675
-0.10591886 -0.015104545 -0.096069105 -0.050559774 0.16391718 -0.07835843 -0.042921145 0.03779014
0.020524815 -0.12753686 -0.00823729 0.15757805 -0.036484085 0.09786367 -0.017164672 0.13474484
-0.026802635 -0.027689127 0.009518327 0.049872227 0.026126387 0.044541858 -0.15320733 -0.0071927286
-0.042458747 0.10834752 -0.07484296 -0.0017346055 0.06652989 -0.07335758 0.175386 0.059930712
0.002354386 -0.07475968 0.02986407 -0.1862122 0.072795816 0.060025573 0.062427282 -0.049934894
-0.043082844 -0.06824546 0.061164644 0.022634303 0.11527506 -0.14323844 0.063646674 -0.045970056
0.07084934 -0.0800793 0.095571056 0.0564522 -0.028115986 0.05245797 -0.0022295853 -0.003273093
0.20138001 0.010974367 -0.1278436 -0.020679183 0.0044964557 -0.048081428 0.012355255 0.14045082
-0.047392823 0.029680746 -0.021979658 -0.010034448 -0.06369123 0.081058025 0.0487871 0.09048074
-0.0004709192 0.047396496 0.021106798 -0.058844395 0.00065449835 -0.018913679 0.023509923 0.027322007
0.116140336 -0.0396712 -0.008462264 -0.010243993 0.018685894 0.1342426 -0.15317199 0.02704168
0.028818745 0.0050958367 0.11890991 -0.09680179 -0.045586564 0.015995938 -0.09421144 0.0465066
-0.11352853 0.117738254 -0.07894997 -0.0052431854 0.006256178 -0.05888495 0.16340564 -0.095200226
-0.07414857 0.10050728 0.11550907 0.08902231 0.0027806894 0.06592863 0.08460143 -0.03959628
0.027488519 -0.0049226545 -0.009163446 -0.08160466 0.08261675 0.006543674 -0.0008313336 -0.15229921
0.13738804 -0.11981228 -0.02198536 0.006880719 -0.03696053 -0.00075765717 0.20605183 -0.12823984
-0.19957146 0.12251278 0.121887 0.04731687 0.0040155137 0.023704495 0.028565817 -0.008612601
-0.06315563 -0.080263875 0.04222073 0.059769627 -0.17519069 -0.17392537 -0.051025376 0.06031452
0.019741343 0.009726095 -0.029912964 0.027018871 -0.01977062 0.03237002 0.013654393 -0.01857007
0.00836458 0.13696408 0.010690809 -0.0011655239 -0.0069483966 -0.0011164964 0.0074182916 -0.060377773
-0.007949025 -0.13000399 -0.046346996 0.06660787 -0.17661747 0.07080839 -0.018525703 0.036583845
0.17630827 0.05656195 0.049498696 -0.051600166 0.0084287 0.095831394 -0.12899959 0.00017938741
0.06868818 0.14700031 0.047891837 -0.09523706 -0.010383928 0.011843481 0.09630487 0.06366666
0.032414436 0.0049098786 -0.13647564 -0.15005562 -0.06410424 0.055809397 -0.077403285 -0.042786136
0.025068292 -0.11401899 -0.20956175 0.2292706 0.14509605 -0.0533767 0.057598334 0.10907732
-0.10176552 0.09953283 0.03515607 -0.047684785 -0.040674567 0.0008752534 -0.16485763 0.13449942

action_model._continuous_distribution.mu.weight f4 [1, 128]
00000000: 4777 c03c d646 9b3c 67fc ec3c a78d a8bb
00000010: 3bfa 803c 970b c53b 7c6a 2b3d 7516 b8bc
00000020: 909c 103c 4f2b e13c 2d53 23bc 11b3 813c
00000030: fd1b fa3b cf75 a8bb aa1a 40b9 e5e7 e73b
00000040: 0bb6 443c 2ded c7bb b7f4 c73b 8fd6 1c3d
00000050: 47c7 7ebc 7f6a 7cbc 7b3d 6ebc a5ca 35bc
00000060: 0ab4 eb3b e91f 14bc 2230 febb 1adc d13b
00000070: a278 6f3b 9d60 4fbc e226 29bc 8e49 c2bb
00000080: 8d55 ecbb 2a34 cdbb bcf6 a53c 108b ff3b
00000090: 9bcb 86bc f31f 763c 9225 4dbc 5858 d13c
000000a0: ece4 943c c5b2 523c 6031 003c b53e 1cbc
000000b0: 8fec 6a3b 195c 30bb 4b61 55bd 533c 503b
000000c0: a99e 0d3c b03f d23c 3163 bc3c b049 de3a
000000d0: 142d 2abc 6e08 25bc 271a 2fbc 3f28 9938
000000e0: 987f 77bc 60ea 69bb bf59 f0bc 353a 16bd
000000f0: df23 2e3c 8712 acbc 37b1 dd3b ab50 05bc
00000100: 2d34 9f3c 980e 783b 70a0 52bb 5780 d6bc
00000110: e587 b83c 7c25 82bc 15fa ec3c 2f87 923c
00000120: 1506 e33c 49da b93c 3758 3d3b a004 b8bb
00000130: 274c 413b df96 3e3c bb24 093b 3ff5 a3bb
00000140: 5550 3e3c 6771 07bc 3108 bf3c c813 863c
00000150: b865 82bb 6610 483c 87db 16bd 0b0e ce3b
00000160: ddb4 1dbd 814f c6bc ed15 5a3b 2327 2abd
00000170: d732 0dbd 5af9 b1bc 3b61 49ba 60f4 24bc
00000180: 4bb0 323c 843a 0f3c 4bea bbbc 8cc0 acbc
00000190: 6741 55bd 4c37 133d 6671 843c 8767 51bc
000001a0: 0a8b e4bb f6af c0bc 7310 bebc 48d1 8d3c
000001b0: 7666 a4bb 6bde 893c 0757 3abc 8a1f f93a
000001c0: f096 8fbc c6ce 10bc 565c a1bc 052e a93c
000001d0: 718d adbc bb11 cb3c a6ad 8c3c 7b3e 813b
000001e0: c313 c1bc 5cea 8dbb 73dd 053c 2cc4 0fbd
000001f0: cd32 e93c c6ba c23c 34cc 0fbc 1082 71bc
0.023494376 0.018954676 0.028928949 -0.0051438394 0.01574432 0.0060133445 0.0418496 -0.022471646
0.00882639 0.027486471 -0.009968561 0.015832456 0.007632731 -0.005140997 -0.0001832048 0.0070772045
0.012006293 -0.0061012716 0.0061021703 0.038290557 -0.015550441 -0.01540625 -0.014541025 -0.0110956775
0.007193093 -0.009040811 -0.0077572027 0.006404412 0.0036540409 -0.012657312 -0.010324212 -0.0059291786
-0.007212347 -0.006262322 0.020259254 0.00779856 -0.016454509 0.015022266 -0.0125211645 0.02555482
0.018175565 0.012860005 0.007824272 -0.009536435 0.0035846566 -0.0026910363 -0.05209474 0.0031774237
0.008643785 0.025665134 0.022996517 0.0016959216 -0.010386724 -0.010072811 -0.010687388 7.303105e-05
-0.015106104 -0.0035692677 -0.02933967 -0.036676604 0.0106286695 -0.021004928 0.0067655104 -0.0081369085
0.019434059 0.0037850495 -0.0032139085 -0.026184244 0.022525737 -0.015887015 0.028927842 0.017886726
0.027712861 0.022687094 0.0028891691 -0.0056157857 0.0029494853 0.01163265 0.0020926434 -0.005003601
0.011615832 -0.008266783 0.023319336 0.016366854 -0.003979411 0.012210941 -0.03683045 0.006288295
-0.038502563 -0.024207832 0.003327723 -0.04154123 -0.034472313 -0.021725345 -0.000768203 -0.010068029
0.010906289 0.008741979 -0.022938868 -0.021087907 -0.052064326 0.035941407 0.016167354 -0.0127810305
-0.0069745826 -0.023521405 -0.023201203 0.017311707 -0.005017097 0.01682969 -0.011373288 0.0019006592
-0.017528027 -0.008838361 -0.01969735 0.020651827 -0.021185609 0.024788728 0.017172646 0.003944216
-0.023568993 -0.0043309163 0.008170473 -0.035099193 0.028466607 0.023770701 -0.008776713 -0.014740482

action_model._discrete_distribution.branches.0.weight f4 [1, 128]
00000000: 0dc0 5b3b 7269 fcba 1e25 80bb ebb5 89bc
00000010: 300c 593c d4db 41bc d391 673b 603a 053c
00000020: ef90 673c 9b59 333c 7435 beb9 40fa ab3a
00000030: 3493 a9bb a711 db3b 6a36 383a 35e7 4b3c
00000040: 6502 79bc 83ec 3dbc bc09 803c f996 953a
00000050: 311b 3b3c de5f 303b afce dbbb 5439 bc3a
00000060: 5e15 b039 6f97 4b3c fccb bd3b fdbc 0b3c
00000070: 795f 093b 938f a3bb 7e51 a5bb 4220 eebb
00000080: 7a6f c1bb 8c47 0a3c ad2b e8bb 2b32 fdbb
00000090: 9847 30bc 982d 7e3c 4b3b 143c e8d2 d0ba
000000a0: a58b a0ba fc2a 853c ae72 abbb f6eb c6bb
000000b0: e798 01bc 9648 a93a 7421 803a a19b b5bb
000000c0: 3f10 4ebb dfa1 b5bb bb75 1c3c eba5 feba
000000d0: 83ad 54bc caa3 58bb 8dc2 03bc 123e c3bb
000000e0: 327b 1d3b 77d5 4bbc 02d8 4e3c dbf3 a839
000000f0: 9165 803a 33d9 ecbb 8232 49bc c15c 4abc
00000100: 600a ce39 2512 8e3b 134e 3dbb cfda 053c
00000110: 6f6e 843b 4597 b2bb 5b78 48bb ba22 c93b
00000120: 8775 d83a 90d4 59bb 7cba 03bb 6fb8 4a3b
00000130: 0836 d0bb 0d69 83bb d5f3 8f3b 27dd 9e3a
00000140: c2dd 9f39 97da f33a c837 53bb 9104 203c
00000150: 0961 16bb 236e dfbb c355 d33b d70b 423a
00000160: 51c6 8cbc dd83 3a3c 6373 3f3b c15a 84bb
00000170: dd2a 9cbc 88c8 85bb c200 d5bb f60a b93b
00000180: 04a3 243c b87c 7dbc 258e 6b3b 7c7f 113c
00000190: cd1c 403c 9e9b 8dbb f741 c1bb 28c0 14bb
000001a0: 5098 6c3b 2a9a 60bb 2ead 9cbb b20b 5e3b
000001b0: 45d4 c13a 8dbc 893a e902 93ba 4b19 223b
000001c0: e875 5ebb e0ef faba edca 7f3c 57da 793c
000001d0: 4adb 553b 7f87 4cbc a2b5 013c 0037 3abc
000001e0: 8d0c 9cbb ccf6 c4bb 38d5 5dbc d0e5 8c3c
000001f0: 5de1 afbb 17c4 423c 2b28 8b3b 8bfc 45ba
0.003353122 -0.0019257499 -0.0039106747 -0.016810378 0.013247535 -0.011832196 0.003533472 0.0081315935
0.014133676 0.010946657 -0.0003627945 0.0013120845 -0.0051750187 0.006685454 0.00070271513 0.012445261
-0.015198325 -0.011592033 0.015629642 0.0011412791 0.011420057 0.002691261 -0.006707988 0.0014360347
0.00033585256 0.012426241 0.005792139 0.008528945 0.0020961447 -0.0049914806 -0.005045115 -0.007267029
-0.0059031816 0.00843991 -0.0070852847 -0.0077269278 -0.010759257 0.0155138 0.00904734 -0.0015931996
-0.0012248649 0.016255848 -0.0052321767 -0.006070609 -0.00790999 0.0012915309 0.0009775595 -0.005542234
-0.003144279 -0.005542978 0.0095495535 -0.001942811 -0.012980822 -0.003305661 -0.00804199 -0.005958327
0.002402973 -0.012441031 0.012624742 0.00032225144 0.0009795894 -0.0072280406 -0.012280108 -0.012351216
0.00039299112 0.004335659 -0.0028885647 0.008169844 0.004041485 -0.0054501616 -0.0030589316 0.006138173
0.0016514518 -0.003323827 -0.0020100167 0.0030932685 -0.0063540973 -0.0040103258 0.0043930807 0.0012120352
0.00030492066 0.0018604574 -0.0032229293 0.009766714 -0.002294602 -0.0068185492 0.0064494326 0.0007402277
-0.017184408 0.011383978 0.0029213063 -0.004039139 -0.019063408 -0.004082743 -0.0065003345 0.0056470586
0.010048632 -0.01547163 0.003594288 0.008880492 0.011725617 -0.0043215295 -0.005897756 -0.0022697542
0.0036101528 -0.0034271576 -0.004781387 0.0033881483 0.0014787993 0.0010508463 -0.0011216077 0.0024734314
-0.003394479 -0.0019144975 0.015612346 0.01524981 0.0032631927 -0.012483477 0.00791684 -0.011365652
-0.0047622384 -0.006010866 -0.013539605 0.017199427 -0.0053674416 0.011887572 0.0042467318 -0.00075525854
