Assets/ML-Agents/results/sshipMovMod1Test-1/My Behavior.onnx (onnx, 75174 bytes, 6 tensors)

network_body._body_endoder.seq_layers.0.weight f4 [128, 1]
0	0x3eda6c2f	0.42660663
1	0xbe02a613	-0.12758665
2	0xbe7ad029	-0.2449347
3	0xbf97f4f6	-1.1871631
4	0xbe150eb3	-0.14556389
5	0xbfb2e441	-1.3975908
6	0x3d9e3fed	0.077270366
7	0xbef464d5	-0.4773318
8	0xbf6f50ef	-0.9348287
9	0x401dee3b	2.4676654
10	0x3fc09050	1.5044041
11	0x3eb1b9da	0.34712106
12	0xbefc721a	-0.49305803
13	0x3f62352c	0.88362384
14	0xbf3266d8	-0.6968818
15	0xbf451dde	-0.769987
16	0x3f9e2e91	1.2357961
17	0x3ea74cc3	0.32675752
18	0x3f5a52ba	0.8528248
19	0x3e32cec9	0.17461695
20	0x3e1d7e19	0.15380134
21	0x3f8ec8e7	1.115506
22	0x3ec43c4c	0.38327253
23	0x3fa78978	1.3088827
24	0x3ec9ad40	0.39389992
25	0xbf6c0d86	-0.92208135
26	0xbe4f8b04	-0.20267874
27	0x3f85432c	1.0411124
28	0xbf0248f3	-0.5089256
29	0x3dbd0919	0.09230251
30	0x3fa6005a	1.2968857
31	0x3d9d888d	0.076920606
32	0xbe4cfe48	-0.20018876
33	0xbe7dfba9	-0.24803032
34	0x3f91aec7	1.1381463
35	0x3f60eecf	0.87864393
36	0xc005a42a	-2.0881448
37	0xbf42570b	-0.7591407
38	0xbf0d769d	-0.55259115
39	0xbf16fc67	-0.58978885
40	0xbc5e16a6	-0.0135552045
41	0x3f8d8a70	1.1057873
42	0xbfce0935	-1.609656
43	0xbf0cd7d4	-0.5501683
44	0x3fa82b39	1.313819
45	0xbf367c8e	-0.71283805
46	0xbff5f142	-1.9214251
47	0xbd1505fc	-0.03638266
48	0xbf106e2f	-0.56418127
49	0x3f991f48	1.1962671
50	0xbea79be0	-0.3273611
51	0x3f776f18	0.9665389
52	0xbf55e990	-0.83559513
53	0x3f3871a1	0.72048384
54	0x3ed2fdb7	0.41209194
55	0xbefbbc19	-0.49166945
56	0xbeb74faf	-0.3580298
57	0xc00971e8	-2.1475773
58	0x3f6b1c90	0.9184046
59	0x3f9a2d8a	1.2045147
60	0xbf8aa55c	-1.0831714
61	0x3f7c29db	0.98501366
62	0xbf0890e9	-0.53346115
63	0x3f51b6b5	0.81919414
64	0xbf379374	-0.7170937
65	0x3f2e2d91	0.6803828
66	0xbf8035cf	-1.0016421
67	0x3f093b23	0.5360586
68	0xbfb13ead	-1.3847252
69	0x3ef369de	0.47541708
70	0x3ead2359	0.3381603
71	0xbea6a704	-0.32549298
72	0xbf0c4a35	-0.5480073
73	0xbfad21f5	-1.3525988
74	0x3e175965	0.14780195
75	0x3e823bed	0.25436345
76	0x3f51e8a8	0.8199563
77	0xbd52a32d	-0.051425148
78	0x4034842f	2.8205678
79	0xbfbda95c	-1.4817309
80	0x3f497448	0.78693056
81	0xbf8fef4d	-1.1244904
82	0xbf0f6e98	-0.5602813
83	0xbf8a3cff	-1.0799865
84	0x3ef8cd3d	0.48594084
85	0x3fabe99c	1.3430667
86	0x3e6017af	0.21884035
87	0xbfcef7d9	-1.6169387
88	0x3f2b4460	0.66901207
89	0x3e3506a7	0.17678319
90	0x3f7f7043	0.9978067
91	0xbf597018	-0.84936666
92	0xbf2c3a72	-0.6727668
93	0x3fe134d8	1.7594252
94	0xbe511aef	-0.2042043
95	0x3fb5be8f	1.4198779
96	0xbf1b70dc	-0.60719085
97	0x3f62a62c	0.8853481
98	0x3e99be63	0.30028066
99	0x3fd913d0	1.6959171
100	0x3f220222	0.63284504
101	0xbee93ad7	-0.45552704
102	0xbff155a9	-1.8854266
103	0xbf93eabb	-1.1556009
104	0xbf5d3936	-0.8641542
105	0x3fd9a838	1.7004461
106	0xbe488a4a	-0.19584003
107	0x40146c8e	2.3191257
108	0x3f7fb0ac	0.99878955
109	0x3faaeca7	1.335347
110	0xbeb5bff1	-0.35498002
111	0xbe749e6d	-0.2388856
112	0xbfd86f26	-1.690892
113	0x3fcb72bc	1.5894389
114	0x3daf6757	0.085646324
115	0x3ec2d6bb	0.3805445
116	0x3fd8bfb6	1.6933506
117	0xbe0d3cdd	-0.13792749
118	0xbec10e8d	-0.37706414
119	0xbeb7364b	-0.3578361
120	0x3f25939c	0.6467836
121	0xbf016269	-0.50540787
122	0x3ed1592c	0.40888345
123	0x3f8ba022	1.0908244
124	0x3f58fa43	0.8475687
125	0x3e999cba	0.30002385
126	0x3f1b624e	0.60696876
127	0xbf395e95	-0.72409946

network_body._body_endoder.seq_layers.0.bias f4 [128]
0	0x3b2ad7d9	0.0026068597
1	0xba12b5b9	-0.0005596537
2	0xba2bbb33	-0.0006551027
3	0xba77224d	-0.00094274135
4	0x390b8b26	0.0001330791
5	0xbaa2ee9b	-0.0012430729
6	0xbb329994	-0.0027252184
7	0xbbc6d38c	-0.006067699
8	0xba14a9d3	-0.0005671058
9	0x3aa09179	0.0012250385
10	0x3ad0a51e	0.0015918349
11	0x39ba0f9c	0.00035488314
12	0x39a03002	0.00030553347
13	0xb6a5f564	-4.9459504e-06
14	0xba86925d	-0.0010267008
15	0xbb8350a8	-0.0040074177
16	0xbb76e65a	-0.0037673921
17	0xbbea8a99	-0.0071576354
18	0xb9d03988	-0.00039715716
19	0x3b1c713a	0.00238712
20	0xbb24b780	-0.0025133789
21	0x39f8bfb4	0.00047445076
22	0xbaf8bf7c	-0.0018977965
23	0xbb481daf	-0.003053527
24	0x3a85da55	0.0010212163
25	0x37ffdcf3	3.0501256e-05
26	0xb9e681e8	-0.00043965806
27	0x3a21e03e	0.0006175077
28	0xba510ae2	-0.0007974339
29	0xbaa1f06b	-0.0012354975
30	0x3a2575e8	0.000631182
31	0xba69863a	-0.0008908246
32	0xbbaf26f2	-0.005345219
33	0xbafc13e0	-0.0019231997
34	0xba9fcf8b	-0.001219259
35	0x3b017541	0.0019753727
36	0xb9cda06a	-0.00039220165
37	0xbaab7654	-0.0013081529
38	0xb9832164	-0.00025011145
39	0xba4a4523	-0.00077159907
40	0xb695b8c8	-4.4620574e-06
41	0xbae89616	-0.0017744924
42	0xb9b71f4c	-0.00034927798
43	0xbad2edd5	-0.0016092608
44	0x3aaaf0ce	0.0013041736
45	0xbb0017b3	-0.0019545376
46	0xba8b0fe5	-0.0010609595
47	0xbc02c98e	-0.007982625
48	0xb8b18258	-8.464296e-05
49	0xbac71b0a	-0.0015190553
50	0x39a0e943	0.00030691372
51	0xbbb43d40	-0.0055004656
52	0xba7550ab	-0.0009358029
53	0xbae644bd	-0.0017568093
54	0xbba7fc1c	-0.0051264893
55	0xb9376ac6	-0.00017492016
56	0xb9bd12d0	-0.00036062906
57	0xb9c02190	-0.000366461
58	0xbb29ea67	-0.0025927068
59	0xbb40e4e1	-0.0029433297
60	0xba869710	-0.0010268409
61	0x3abf1571	0.0014578534
62	0xba019592	-0.0004943247
63	0x3aaebb38	0.0013330942
64	0xb9833972	-0.00025029067
65	0xbb1e8eb4	-0.0024193944
66	0xbb04fa57	-0.0020290816
67	0x3afa1f50	0.0019082818
68	0xba092645	-0.0005231838
69	0x3b066c6d	0.0020511404
70	0xbb37465c	-0.0027965521
71	0xba1390b3	-0.0005629167
72	0xbbabe0b1	-0.005245291
73	0x3941f053	0.00018495442
74	0xba9bc137	-0.0011883144
75	0xbb1fe3b5	-0.0024397199
76	0x3ad0469e	0.0015890186
77	0x3a4ec603	0.00078877824
78	0x3a2a3514	0.00064928946
79	0xbb627e37	-0.0034560093
80	0x3a9314a7	0.0011221365
81	0xbb0b10b0	-0.0021219663
82	0x39edd2b8	0.0004536116
83	0xb9119020	-0.00013881968
84	0xb88495cc	-6.322152e-05
85	0xbb0368f1	-0.0020051564
86	0x3aec7210	0.0018039364
87	0xbb99599b	-0.0046798713
88	0x3aa493af	0.001255622
89	0xbbe5c942	-0.007012517
90	0x3a601028	0.00085473293
91	0xba9bbb25	-0.0011881335
92	0xb8fefd69	-0.00012158865
93	0xbbd1cd7a	-0.0064026685
94	0x37458e3c	1.17752315e-05
95	0xbad1e1a4	-0.0016012681
96	0xbac9a90b	-0.0015385462
97	0xbb9df75e	-0.004820748
98	0xbb1c5837	-0.002385629
99	0xb988e46c	-0.0002611013
100	0x3aa6ad81	0.0012716503
101	0xb9e87a90	-0.00044341804
102	0xb8eff218	-0.000114415016
103	0xba787ecc	-0.00094793434
104	0xb9a9d7cc	-0.00032394973
105	0x3aa91c49	0.0012902106
106	0x386fd3de	5.7179357e-05
107	0xb9514dd8	-0.00019960792
108	0xbb0d990f	-0.0021606123
109	0x3a89158f	0.0010458695
110	0xba85c8f5	-0.0010206985
111	0x3a3a6c8c	0.00071115117
112	0xba8157b9	-0.0009868062
113	0x39df3318	0.00042571942
114	0x3a6b02ad	0.00089649373
115	0xbb1e7363	-0.0024177663
116	0xbac0036c	-0.0014649457
117	0xba6973e4	-0.00089055137
118	0xbad9f76a	-0.0016629521
119	0xb99cbd60	-0.00029895734
120	0xbaf87894	-0.0018956834
121	0xbaf5494b	-0.001871386
122	0xbaa0baf6	-0.001226275
123	0x3a9aae6e	0.0011801252
124	0xbb54aea1	-0.003245272
125	0x3b3bebf1	0.0028674568
126	0xbba52e78	-0.00504094
127	0xbb89b2f6	-0.004202242

network_body._body_endoder.seq_layers.2.weight f4 [128, 128]
0	0x3da670b9	0.08126969
1	0xbdb67636	-0.08909266
2	0xbe2aabf0	-0.16667151
3	0x3df37843	0.118881725
4	0x3de152e3	0.110021375
5	0xbdb1c9c7	-0.08681064
6	0xbe220f4a	-0.15826145
7	0xbcf64130	-0.03006038
8	0xbd0d437c	-0.034488186
9	0xbd899952	-0.06718697
10	0xbce5fb2d	-0.028073872
11	0xbd67bb15	-0.0565749
12	0x3d1d2c49	0.03837231
13	0xbdad5ccf	-0.084649675
14	0xbd385966	-0.045007132
15	0x3cb3e8b5	0.02196155
16	0x3cdc4d78	0.026892409
17	0x3cb430b8	0.021995887
18	0xbd66d6da	-0.056357242
19	0x3daa0c94	0.0830318
20	0x3d96cd02	0.07363321
21	0x3c95e744	0.018298753
22	0xbe03da65	-0.1287628
23	0xbd8e521a	-0.069492534
24	0xbcdae6c4	-0.026721366
25	0xbbfe87a5	-0.007767635
26	0x3d10e471	0.03537411
27	0xbd3a2f3b	-0.0454552
28	0xbdd14718	-0.10218638
29	0x3d98a275	0.07452861
30	0x3d1156fa	0.035483338
31	0xbd7e3ab8	-0.062067717
32	0xbc3db1e0	-0.011578053
33	0x3dc1a9df	0.094562285
34	0x3d6ed68f	0.058310088
35	0x3e1f5f50	0.15563703
36	0xbd207d2d	-0.039181877
37	0x3d83d659	0.06437368
38	0xbdec28e3	-0.11531236
39	0xbd132475	-0.03592344
40	0xbd58db00	-0.05294323
41	0xbdcbd240	-0.099522114
42	0x3d7d88be	0.061897986
43	0x3e0ec6d8	0.1394304
44	0xbe8c2d3a	-0.27378255
45	0x3e2dc52c	0.16969746
46	0xbd1160ac	-0.035492584
47	0x3bc4edff	0.0060098167
48	0xbcf3a621	-0.029742302
49	0x3dfc106b	0.12307819
50	0x3d0a218d	0.033723403
51	0xbc709004	-0.0146827735
52	0x3d04b16f	0.032395776
53	0x3c551e73	0.013007748
54	0x3d1e0df0	0.03858751
55	0x3dd78d0f	0.10524952
56	0xbdfa46cd	-0.122205354
57	0xbd8b2a1c	-0.06795141
58	0x3d6e155e	0.058125846
59	0xbc79f9c1	-0.0152573
60	0xbd8c6297	-0.06854742
61	0x3dd29cb2	0.102837935
62	0xbbd82199	-0.006595802
63	0x3d6d456c	0.057927534
64	0xbe1aa095	-0.1510032
65	0xbe572c51	-0.21012999
66	0x3b367913	0.0027843162
67	0xbdfb7f8f	-0.12280189
68	0x3debf4f9	0.11521334
69	0x3d9ffed8	0.078122795
70	0x3e352987	0.17691623
71	0xbcc187d3	-0.023624336
72	0xbdb122b1	-0.08649195
73	0xbb95852e	-0.0045629954
74	0xbe1937b6	-0.14962658
75	0xbdd49495	-0.10379902
76	0xbd85bd75	-0.06530277
77	0x3d2aca4b	0.041696828
78	0x3d9a7f18	0.075437725
79	0xbdaa3d82	-0.08312513
80	0xbc9397e7	-0.018016769
81	0xbdbeb51f	-0.0931189
82	0x3cc97225	0.024590561
83	0x3d91d4b4	0.07120648
84	0xbdc0359e	-0.09385227
85	0xbdb75856	-0.089523956
86	0xbc339bb1	-0.010962413
87	0xbd1486ec	-0.036261484
88	0x3d29fa31	0.041498367
89	0xbc5b2107	-0.013374574
90	0x3d5005a2	0.050786622
91	0x3e02706d	0.127382
92	0xbd8183a7	-0.06323939
93	0xbe2a404c	-0.1662609
94	0xbdc68819	-0.09693927
95	0xbe92083b	-0.28521904
96	0xbe0b9491	-0.13630892
97	0x3d691929	0.05690876
98	0x3dbd734f	0.09250509
99	0x3d4a4eb8	0.04939148
100	0x3e17312c	0.14764851
101	0xbd1957db	-0.0374373
102	0x3d0875d8	0.03331551
103	0x3dc84147	0.09778076
104	0xbd717904	-0.0589533
105	0x3d4facfd	0.050702084
106	0xbcf2ac05	-0.02962304
107	0x3d10cb0d	0.035349894
108	0xbe643a1b	-0.2228779
109	0xbdfdc003	-0.12390139
110	0xbe1d9b81	-0.15391351
111	0x3bbf7596	0.0058428748
112	0x3d3bccb5	0.04584952
113	0xbe63547a	-0.22200194
114	0x3c9d4b2c	0.019200884
115	0x3d4e34bd	0.050343264
116	0xbb479d20	-0.0030458644
117	0x3da331c7	0.07968479
118	0x3d9feb88	0.07808596
119	0xbc99bb4e	-0.018766072
120	0xbdb2f8cc	-0.087388605
121	0x3d03dbd1	0.032192055
122	0xbd2bae89	-0.041914497
123	0x3cc7921d	0.024361664
124	0x3d3dd110	0.046341956
125	0xbe3c8b3f	-0.18412493
126	0x3db442c3	0.08801796
127	0xbcb61dc8	-0.022230998
128	0x3b9c9b2a	0.004779239
129	0x3c45ea91	0.012079851
130	0xbcffe5be	-0.03123748
131	0xbe6531d9	-0.22382297
132	0xbe39ba8c	-0.18137568
133	0x3d4f29e1	0.05057705
134	0xbd8e322b	-0.069431625
135	0xbd757d7c	-0.059934124
136	0x3d027eda	0.031859256
137	0x3b5582c1	0.0032579156
138	0x3ccb3c4c	0.024809025
139	0x3cf92f14	0.030417956
140	0x3dae2c31	0.085045226
141	0x3da2eec5	0.07955698
142	0x3dcb979d	0.09941027
143	0x3d684c9a	0.056713678
144	0xbdac5015	-0.08413712
145	0x3b5a4b63	0.0033309094
146	0xbd8db05b	-0.06918403
147	0x3ca11593	0.019663608
148	0x3cb27497	0.02178411
149	0xbd91c0a6	-0.07116823
150	0xbda903a7	-0.0825265
151	0x3cd99fcc	0.026565455
152	0xbd0cadd9	-0.03434548
153	0xbd195720	-0.037436604
154	0xbcf5b876	-0.029995184
155	0xbda91303	-0.08255579
156	0x3d91a294	0.071110874
157	0xbba2f0be	-0.0049725464
158	0xbcd17f1c	-0.025573306
159	0x3d947b0e	0.07250033
160	0x3e2f1849	0.17099108
161	0xbd1e61f1	-0.038667623
162	0x3cebca20	0.028782904
163	0x3d9f4a78	0.07777876
164	0x3bcf0a97	0.006318401
165	0x3e1f8c80	0.1558094
166	0x3dd80c8a	0.10549267
167	0xbceccafd	-0.028905386
168	0xbda3c006	-0.0799561
169	0x3de9c3d2	0.11414303
170	0xbdcebb17	-0.10094278
171	0xbe070c7d	-0.13188358
172	0x3de14e8d	0.110013105
173	0x3d78354c	0.060597703
174	0xbda227a2	-0.079177156
175	0x3e010853	0.12600832
176	0x3bc87fea	0.006118764
177	0x3d168f34	0.036757663
178	0x3ce6565d	0.028117353
179	0x3e10190b	0.14072053
180	0xbd91e89a	-0.07124443
181	0xbe030eb5	-0.12798579
182	0xbd2aadd8	-0.041669697
183	0xbdc05da2	-0.09392859
184	0x3d912d05	0.07088665
185	0x3d8f5aba	0.069997266
186	0x3d8a98aa	0.067673996
187	0x3df588d6	0.1198899
188	0xbcffa174	-0.031204917
189	0xbc5d838b	-0.013520132
190	0xbbb49589	-0.00551099
191	0xbd45ac0d	-0.048259784
192	0xbd9f0e64	-0.07766417
193	0x3ad37cd5	0.0016135225
194	0xbda9d537	-0.08292621
195	0x3d9a3c3b	0.07531019
196	0x3d912b3e	0.07088326
197	0xbadf98b3	-0.0017059058
198	0xbc401123	-0.011722836
199	0xbbdb4d3b	-0.006692556
200	0x3e01aa12	0.12662533
201	0x3da4d0a6	0.08047609
202	0x3d80cbf5	0.06288902
203	0xbd41efe5	-0.047347922
204	0x3c59248b	0.013253341
205	0xbda2fdec	-0.07958588
206	0xbdc5771c	-0.09641859
207	0x3df752eb	0.12076362
208	0x3941aefc	0.00018471101
209	0xbd8b21dd	-0.06793568
210	0xbd63744a	-0.055530824
211	0x3c581368	0.013188221
212	0xbcdc128f	-0.026864318
213	0xbceae852	-0.028675232
214	0x3d54d2f1	0.051958982
215	0x3dfb30e3	0.12265184
216	0xbc4ca6e3	-0.012490961
217	0x3e2dd975	0.16977485
218	0xbce2273d	-0.0276066
219	0xbd71b8a9	-0.059013996
220	0xbdc295fc	-0.095012635
221	0xbdfbfba6	-0.123038575
222	0x3e10a02e	0.14123604
223	0x3c15da31	0.009146259
224	0xbc617b38	-0.013762288
225	0xbde65780	-0.11247158
226	0x3d437648	0.047720224
227	0xbde33afb	-0.11095234
228	0x3d3a97c5	0.045554895
229	0xbe09ece9	-0.1346928
230	0xbe4b3a19	-0.19846381
231	0xbd3a458b	-0.045476478
232	0xbc649c58	-0.013953291
233	0x3d96edbe	0.073695645
234	0xbd0424c1	-0.032261614
235	0xbddc31f7	-0.107517175
236	0x3d40d9fe	0.047082894
237	0x3ce3ca82	0.027806524
238	0x3d3f0b56	0.04664167
239	0xbe2f182e	-0.17099068
240	0x3dbefafa	0.09325214
241	0x3c8b70ce	0.017021563
242	0xbcaaf562	-0.02086896
243	0x3ced0b54	0.028936066
244	0x3d2bae9e	0.041914575
245	0x3d9b3cc4	0.075799495
246	0x3ca2b197	0.019860072
247	0x3d353c10	0.044246733
248	0x3db58edb	0.08865138
249	0xbdbd37d0	-0.09239161
250	0xbcd3352b	-0.025782188
251	0xbd8e603d	-0.0695195
252	0x3d6c51f0	0.05769533
253	0x3e10f6c2	0.1415663
254	0x3d8dde22	0.06927134
255	0x3cfa77c3	0.030574685

network_body._body_endoder.seq_layers.2.bias f4 [128]
0	0x3c21c03f	0.009872495
1	0xbbb53b4c	-0.0055307504
2	0xba882b81	-0.0010388942
3	0x3a09177b	0.0005229634
4	0xb88fb624	-6.852698e-05
5	0xbb12a348	-0.0022375155
6	0xba7fa880	-0.00097525865
7	0x3a0a419b	0.0005274058
8	0x389d0ace	7.488356e-05
9	0xb91f48ca	-0.00015190538
10	0xbaa45402	-0.0012537243
11	0x3b96269a	0.0045822384
12	0xba9266b1	-0.001116952
13	0x3b08983e	0.0020842697
14	0x3ba95c9d	0.005168511
15	0xbb4f0223	-0.0031586967
16	0xbad561ce	-0.0016279758
17	0xb8b45b6c	-8.6000975e-05
18	0xbbebc258	-0.0071947984
19	0xbc1f46b7	-0.00972145
20	0xbbd7cfba	-0.006586042
21	0xba66a7b0	-0.0008798791
22	0xba5ac545	-0.00083454355
23	0x3bab0326	0.005218881
24	0xb9d5f2b0	-0.00040807342
25	0xba57071a	-0.00082026573
26	0xbb5205ef	-0.0032046994
27	0x3b0dcc15	0.0021636535
28	0xbbe680f9	-0.0070344177
29	0xb96e6161	-0.00022733725
30	0x3b682e51	0.0035427997
31	0xb84612cd	-4.722439e-05
32	0xba386123	-0.00070335175
33	0x3b4c0686	0.0031131818
34	0x3943359e	0.00018616623
35	0xba4abde9	-0.00077339873
36	0x3aeba8d5	0.0017979393
37	0xb9836b38	-0.0002506615
38	0xb9bab886	-0.00035614165
39	0xba23e897	-0.0006252615
40	0xba239216	-0.0006239725
41	0xb9162241	-0.00014317875
42	0x3b05c482	0.0020411317
43	0xbab411fc	-0.001373827
44	0xbac71d9d	-0.001519132
45	0x3903b027	0.00012558755
46	0xb9951c20	-0.0002844045
47	0xbb89d02e	-0.004205725
48	0x3b64c253	0.0034905865
49	0x3bf47e87	0.0074613723
50	0xba9f4738	-0.0012151962
51	0xba6e6208	-0.0009093587
52	0xba993dc4	-0.0011691381
53	0xbbe8d519	-0.0071054813
54	0xb8ce14e6	-9.826738e-05
55	0x3ac0f409	0.0014721166
56	0x3bfb2b24	0.007665055
57	0xbb930bd2	-0.004487493
58	0x38eca88b	0.000112847505
59	0xba12cef0	-0.0005600294
60	0xba000b19	-0.0004884466
61	0x39f9febb	0.0004768277
62	0xba4b9019	-0.00077653077
63	0x38375420	4.3708947e-05
64	0xbb580a5e	-0.0032965164
65	0xb9b163c9	-0.00033834417
66	0xb9549f4a	-0.00020277235
67	0x39975cfd	0.00028870246
68	0x3a8bf1be	0.0010676903
69	0x3b877699	0.004134011
70	0xb82a0f26	-4.0545267e-05
71	0xb9c534ac	-0.00037614012
72	0x3887c952	6.4748005e-05
73	0xb9421149	-0.00018507721
74	0xbaca651c	-0.001544151
75	0xbb867df0	-0.0041043684
76	0x3c100c14	0.008791942
77	0x3bb73fcb	0.0055923215
78	0xbb457477	-0.0030129233
79	0x3aef87b4	0.0018274696
80	0xba757aa6	-0.00093642843
81	0xb8e4da24	-0.00010912519
82	0xba54f71a	-0.0008123979
83	0x3baacd90	0.0052124932
84	0x3b105a79	0.0022026582
85	0xbb2cd68b	-0.0026372995
86	0x3bb3a625	0.0054824525
87	0xbb92ff91	-0.0044860323
88	0xbc1a7c66	-0.009429073
89	0xb88aea9d	-6.624053e-05
90	0xb9e89703	-0.00044363
91	0xba13ec0d	-0.0005642779
92	0xb9eaad42	-0.00044761045
93	0xb8938734	-7.03469e-05
94	0xba26639b	-0.000634724
95	0x3c0b67e7	0.008508659
96	0xb9be6499	-0.00036314575
97	0xbb03fd0d	-0.0020139844
98	0xbaa78d50	-0.0012783203
99	0xb94c596e	-0.00019488271
100	0xba3b16fd	-0.00071369094
101	0xba553db0	-0.00081344973
102	0xbb5b2fa4	-0.0033445144
103	0x3ab38342	0.0013695734
104	0xb83f1aa6	-4.5562767e-05
105	0x3b54b0da	0.0032454045
106	0xba0be333	-0.00053362845
107	0xb846e494	-4.741976e-05
108	0x38d57813	0.00010178997
109	0xb8ed6811	-0.000113204245
110	0xbad47f64	-0.0016212282
111	0x3b21e28d	0.0024701685
112	0xbb6b92c8	-0.0035945643
113	0x39dfb2d1	0.00042667103
114	0xb77ecc10	-1.5187092e-05
115	0x39375079	0.00017482218
116	0x38b60db0	8.680986e-05
117	0x39a420d4	0.00031304976
118	0xbaedb939	-0.0018136866
119	0x3b8c6089	0.004283969
120	0xbb07a54c	-0.002069789
121	0x3aa19d67	0.0012330235
122	0xbbbab74d	-0.0056981207
123	0xba5acc75	-0.00083465065
124	0x3b8f32be	0.0043700626
125	0x3ac87cc1	0.0015295969
126	0xbb55981e	-0.003259189
127	0xbb27f211	-0.002562646

action_model._continuous_distribution.mu.weight f4 [1, 128]
0	0xbc08f845	-0.008359973
1	0x3bca668e	0.0061767763
2	0x3bd7beea	0.006584038
3	0xbd367290	-0.04454285
4	0x3d12823e	0.03576874
5	0x3c549191	0.012974159
6	0x3be2b9cb	0.006919121
7	0xbca46e3d	-0.020072097
8	0xbb9a9df9	-0.004718539
9	0xbbe92e8f	-0.007116146
10	0x3bd1496d	0.006386927
11	0xbc463044	-0.012096468
12	0x3b47fb44	0.0030514756
13	0xbc5b9d2e	-0.013404174
14	0xba953784	-0.0011384343
15	0x3ae43433	0.0017410576
16	0x3b0ded90	0.002165649
17	0xba7d0127	-0.0009651356
18	0xb7be4ba9	-2.2684997e-05
19	0x3b246d33	0.0025089502
20	0x3b81969a	0.0039547207
21	0x3b9c86aa	0.0047767954
22	0x3bac12a6	0.0052512465
23	0xbbd41faf	-0.0064735035
24	0x3cf9428f	0.030427245
25	0x3cd9fdfe	0.02661037
26	0x3abba1b0	0.0014315154
27	0xbd24b422	-0.04021085
28	0xba96cfbf	-0.0011506005
29	0xbc569ff8	-0.013099663
30	0x3adac629	0.0016691136
31	0x3ccdc67c	0.025119059
32	0x3c955ce8	0.018232778
33	0xbc87a8f4	-0.016560055
34	0xbce420bd	-0.027847642
35	0x3c2e94f7	0.010655633
36	0xbc7696ca	-0.015050599
37	0xbc14dea0	-0.009086281
38	0x3c622bb8	0.013804369
39	0x3c1fefd1	0.0097617665
40	0x3c7ae566	0.015313482
41	0xbcb1ef9f	-0.021720706
42	0xbc7bba03	-0.015364173
43	0x3c818cba	0.015814174
44	0x3cd6d0d5	0.026222626
45	0xbc337f84	-0.010955695
46	0xbbf5828f	-0.0074923704
47	0xbb9cc6a2	-0.004784421
48	0xbbd3728e	-0.006452865
49	0xbcf695c0	-0.030100703
50	0xb9906002	-0.00027537352
51	0x3bed9b00	0.0072511435
52	0x3bf4e708	0.00747383
53	0x3cf3c3ca	0.029756445
54	0x3cab1200	0.020882607
55	0xbb97ff1c	-0.0046385657
56	0xbd3c14c0	-0.045918226
57	0x3c896ff7	0.016777022
58	0xbbf7839c	-0.007553531
59	0x3bb912be	0.005647986
60	0xbb20f634	-0.002456081
61	0xbd048bcb	-0.03235988
62	0x3cb0cbb5	0.02158151
63	0xbc91d950	-0.017803818
64	0x39f74cca	0.00047168724
65	0xbbd3c850	-0.006463088
66	0xbc277d10	-0.010222688
67	0xbba59bbf	-0.005053967
68	0xbacd2a5b	-0.0015652882
69	0xbc2433f2	-0.01002215
70	0xbcd2b676	-0.02572177
71	0xbbfa636e	-0.0076412475
72	0xbcaa70c3	-0.020805722
73	0xbc2b9dbb	-0.010474618
74	0x3c691703	0.014226678
75	0x395d0463	0.00021077837
76	0xbbe98c90	-0.007127352
77	0xbafbde28	-0.0019215988
78	0x3c0868b3	0.0083257435
79	0xbc847e49	-0.016173499
80	0x3b04f537	0.002028776
81	0xbc6db98b	-0.014509569
82	0x3c041784	0.008062247
83	0xbc67d688	-0.014150269
84	0xbcf6bc8f	-0.030119209
85	0x3be2bad5	0.006919245
86	0xbd07a8bd	-0.033119906
87	0x3adc0985	0.0016787505
88	0x3b606ac0	0.0034243315
89	0xbc94f297	-0.018182082
90	0x3cfb9ddb	0.03071492
91	0x3c07ce3f	0.008288919
92	0x3ca784c5	0.020449052
93	0xbd12fa47	-0.035883214
94	0x3bd4b246	0.0064909784
95	0xbcc2e2db	-0.023789814
96	0xbbc02ab9	-0.005864468
97	0x3c2e826f	0.010651215
98	0x39598233	0.00020743236
99	0xbbedd5de	-0.007258161
100	0x3c5d35dc	0.013501611
101	0x3c7c13a6	0.015385544
102	0x3c909c44	0.017652638
103	0xbcb2e705	-0.021838674
104	0xbcc693b5	-0.024240354
105	0xbbfafe63	-0.00765972
106	0xbbb04401	-0.0053792004
107	0xbc2f90d5	-0.010715683
108	0xbc45b5a1	-0.0120672295
109	0xbcb272fc	-0.021783344
110	0x3aaedf7b	0.0013341749
111	0xbc37690d	-0.01119448
112	0x3c1d819a	0.009613419
113	0xbcaef956	-0.021359127
114	0x3ceaf5ac	0.028681599
115	0xbc0cbf0b	-0.00859047
116	0xbc1876aa	-0.0093056355
117	0xbca53b29	-0.020169811
118	0x3c172dc0	0.009227216
119	0xbcfb357a	-0.030665148
120	0xbab05676	-0.0013453502
121	0xbca133be	-0.019677993
122	0x388c0e30	6.678363e-05
123	0x3d021d1a	0.031766035
124	0xbc9cd4e8	-0.01914449
125	0xbd0582e8	-0.032595545
126	0x3d05cb87	0.032664802
127	0x3d38b00a	0.04508976

action_model._discrete_distribution.branches.0.weight f4 [1, 128]
0	0x3abbaf32	0.001431918
1	0xbab4fdfb	-0.0013808602
2	0xbb068c1e	-0.0020530294
3	0x3cb50800	0.022098541
4	0xbc745537	-0.014912895
5	0xbb8a6d2b	-0.0042244396
6	0xbc4d24f7	-0.01252102
7	0xbc7bb69d	-0.015363363
8	0xbc4417d3	-0.011968571
9	0xbba26204	-0.004955532
10	0x3ca6229b	0.020280173
11	0xbb73bf5a	-0.0037192912
12	0xbb93f02f	-0.004514716
13	0xbbaa0f3c	-0.0051898044
14	0x3aa65c66	0.0012692332
15	0xbc84e2ff	-0.016221521
16	0x3c5d0947	0.013490981
17	0x3bef25b3	0.0072981953
18	0xbc67b595	-0.014142414
19	0x3c4129f6	0.011789789
20	0x3baad946	0.0052138893
21	0x3c31b217	0.010845683
22	0x3b38d829	0.0028205013
23	0xbb0966e3	-0.0020965866
24	0x3c378aa8	0.011202492
25	0xbb43b57a	-0.0029862807
26	0x3b9d83c4	0.0048069675
27	0xbba82108	-0.0051308908
28	0x3b1fd4f9	0.0024388416
29	0xbb4db2d8	-0.0031387117
30	0xbc256182	-0.010094048
31	0xbaadf95f	-0.0013273171
32	0x3bd64de5	0.0065400475
33	0x3b6a6192	0.0035763723
34	0xbb20e39f	-0.0024549735
35	0x3c834bfb	0.016027441
36	0xba9d6ff1	-0.001201151
37	0x3bcf293f	0.0063220556
38	0x3bc9155f	0.006136581
39	0xbb7c0ada	-0.0038458616
40	0xbb88c35e	-0.00417368
41	0x3be927b0	0.007115327
42	0xbc55f97f	-0.013059973
43	0xbb89dde5	-0.00420736
44	0x3be044bd	0.0068441317
45	0xbc473cc7	-0.012160487
46	0x3c21bbfe	0.009871481
47	0xbc1f5baa	-0.009726444
48	0xbb766ba3	-0.0037600778
49	0x3a235e82	0.00062320393
50	0x3b8b11bf	0.004244059
51	0xbc4c7a66	-0.012480354
52	0xbbaff09c	-0.005369259
53	0x3bb0ee77	0.005399521
54	0xbb1af033	-0.0023641705
55	0x3b2eeea2	0.002669253
56	0xbacd1140	-0.00156454
57	0x3b87cd85	0.004144373
58	0xba6201fd	-0.0008621512
59	0xbc51cc62	-0.012805076
60	0xbc7b4e6a	-0.01533852
61	0xbc1df079	-0.009639853
62	0x3ac982fb	0.0015374118
63	0x3c5abc87	0.0133506125
64	0x3bed048b	0.0072332076
65	0x3c728ced	0.014804107
66	0x3c428640	0.011872828
67	0xba445e9e	-0.00074909057
68	0x3c3e0759	0.0115984315
69	0xbb000b1a	-0.0019537867
70	0x3c2ed7e6	0.010671591
71	0xbb1e386d	-0.002414252
72	0x3b3fbeb5	0.0029257957
73	0xbbc6712f	-0.006055973
74	0x3a801510	0.0009771902
75	0xbbff726d	-0.007795623
76	0x3c15efe5	0.009151434
77	0xbbeebb78	-0.0072855316
78	0xbad6518a	-0.0016351205
79	0xba6fd4f8	-0.0009148861
80	0xbba09d3e	-0.004901557
81	0x3b9fa316	0.0048717363
82	0xbbc20ac1	-0.005921692
83	0xbc709198	-0.01468315
84	0xbc0b9b9d	-0.008520988
85	0xbc34e6df	-0.011041372
86	0x3a174d33	0.00057716965
87	0xb9f43ae7	-0.00046583192
88	0xbb3b2a0b	-0.0028558995
89	0x3b073488	0.0020630676
90	0x3c90436f	0.01761028
91	0xbbe3f5a5	-0.0069567733
92	0xbbe9d7d2	-0.0071363235
93	0xbbb8ddc9	-0.005641673
94	0x3c72dd93	0.014823335
95	0x3ada1223	0.0016637485
96	0xbc7c790b	-0.015409718
97	0xbc414a25	-0.011797463
98	0xbbc3689f	-0.0059633995
99	0x3be34092	0.0069351876
100	0x3b67b363	0.0035354726
101	0x3bb343a1	0.0054707085
102	0xbc42299f	-0.011850744
103	0xbc289918	-0.010290407
104	0xba53da7f	-0.00080815697
105	0x3c43e65c	0.011956777
106	0x3c78e680	0.015191674
107	0x3addea92	0.0016930869
108	0x3b832902	0.0040026912
109	0xba84963c	-0.0010115574
110	0x3b943559	0.004522961
111	0xbbb79af3	-0.005603188
112	0x3c8c6732	0.017139051
113	0xbbc14f63	-0.005899356
114	0xb9d5dcd0	-0.00040791044
115	0xbc7c9965	-0.0154174315
116	0xbc0408d3	-0.0080587445
117	0x3c1496fe	0.0090692025
118	0x3a6290f8	0.0008642818
119	0x3bea638a	0.0071529793
120	0x3bfb1857	0.0076628136
121	0xbc4ee990	-0.012628928
122	0xbc67d683	-0.014150265
123	0x3bc904e3	0.0061346157
124	0xbbe1d6cf	-0.0068920623
125	0x3c718d90	0.014743224
126	0x3c27ce78	0.010242097
127	0xbc1018da	-0.008794988
