Assets/ML-Agents/results/sshipMovMod2Test00/ShipMovementImitation/ShipMovementImitation-76350.onnx (onnx, 605703 bytes, 9 tensors)

network_body._body_endoder.seq_layers.0.weight f4 [128, 1]
00000000: 470f 57bf d2e0 ac3f aa72 be3e 123e e03e
00000010: 4fce fcbf b1dd eb3f 296a 163f 089e 743f
00000020: 6660 0bbe ca6c dabf 7a34 27bf 51a2 683f
00000030: 21d4 1abf 7f25 1dbf 9248 1abf 1cc5 bdbe
00000040: f621 513f 7a18 0fbf 1d55 20bf 527b 26bd
00000050: bf51 093e 70ff ac3e 9217 8bbf aed4 6c3d
00000060: fe1c 723f 7fc9 9abe 1155 33bf 34ef b03f
00000070: ee1c a5bf ebda bfbf b417 01c0 a97f 46bc
00000080: 3f50 ad3f 121e 97be 709f 3dbe 8c3c 12be
00000090: 1dfd 23bf ef2e b6bc 9c65 0abf 8fc3 60bf
000000a0: f740 c0be 71a4 273f d04f 823f 4273 133f
000000b0: 8c8f a23f f968 7bbf 461a ecbe 699a 293f
000000c0: aabe 893f 6c6b 393f 92ed adbe fb9c 9c3f
000000d0: 380b 733f f471 55be e8f3 15bf a1ff d93f
000000e0: f790 bd3e 5f0e 04bf 3902 edbe c948 43c0
000000f0: b98f a63d 9aed e83e 1653 b73e 69c8 9a3f
00000100: 01d9 cc3f 6eaf 333e 3271 cd3d 244e 463f
00000110: 1ff4 9a3f 6216 f7be 4a85 cc3e 01da 143d
00000120: 515a 3c3f 74d2 55bf af62 70bc 6e57 d03c
00000130: 75b8 8c3f 41cb 2d3f db90 a3bf 4255 edbe
00000140: ac5a f93e ec8c 1b40 804b 1740 aeec 49be
00000150: 106f a6be 0d87 2c3f 132a c43e 5a50 74bf
00000160: 8a3a 39bf 9a20 2b3f 9319 d4bf 34b9 c43f
00000170: e782 c83e b2b9 d53e f883 4e3f 134c 52bf
00000180: 2cc2 1bbf 3f43 133c 26bc 07bf fc17 54be
00000190: c724 e2be 9400 a0bf 97ef 26bf 3521 d3be
000001a0: f64f 823e bc6c 383f 2eec d83e a6d2 97bf
000001b0: e439 72bf f6c3 62be 0806 7abf 3dfc 31be
000001c0: 3042 063f 12bb 9ebf ec6a 6abc 2db9 cf3f
000001d0: f460 4ebe dc11 e4be 8d71 8abe 4b93 863f
000001e0: 3c87 c7bf f46b a9bf 56f9 58bf 13a2 b03f
000001f0: e12e 5dbe b96c 4fbf 9f81 a23f d154 cb3f
-0.84007686 1.350611 0.37196857 0.43797356 -1.975046 1.842703 0.5875574 0.95553637
-0.13610992 -1.706445 -0.6531445 0.90872675 -0.60479933 -0.6138534 -0.60266984 -0.37064445
0.81692445 -0.55896723 -0.6262987 -0.04064495 0.1341009 0.33788633 -1.0866568 0.057820015
0.9457549 -0.30231854 -0.70051676 1.3822999 -1.2899454 -1.4988683 -2.0170717 -0.0121153975
1.3540114 -0.2951513 -0.18517852 -0.1428091 -0.64058095 -0.022239177 -0.54061294 -0.877984
-0.37549564 0.6548529 1.0180607 0.57597744 1.2700057 -0.9820705 -0.46113795 0.66251236
1.0761311 0.7242954 -0.33970314 1.2235407 0.94938993 -0.20844251 -0.58575296 1.7031137
0.37024662 -0.5158443 -0.46290758 -3.0513175 0.08132882 0.45493776 0.35805577 1.209241
1.6003724 0.1754739 0.10031356 0.77462983 1.210575 -0.48259264 0.3994544 0.036340717
0.7357531 -0.8352425 -0.0146719655 0.025432315 1.0993792 0.67888266 -1.2778581 -0.4635411
0.4870199 2.4304762 2.3639832 -0.19719192 -0.3250661 0.6739357 0.3831335 -0.95435107
-0.7235495 0.6684662 -1.6570305 1.536902 0.3916237 0.41743237 0.8067012 -0.8214733
-0.6084316 0.008988201 -0.53021467 -0.20712274 -0.44168684 -1.2500176 -0.65209335 -0.41236272
0.2545163 0.72040915 0.4236769 -1.186116 -0.94619584 -0.22145066 -0.9766545 -0.17381378
0.52444744 -1.2400839 -0.014307719 1.6228386 -0.20154172 -0.44544876 -0.27039757 1.05137
-1.5588145 -1.323607 -0.84755456 1.3799461 -0.21599914 -0.8102527 1.2695807 1.5885259

network_body._body_endoder.seq_layers.0.bias f4 [128]
00000000: a54d bf3b 9fb4 003c 0836 37bc 646d 10bc
00000010: 7c83 05bc 3594 633c 2fee 9c3a 913b 14bc
00000020: 565e 34bc c3ae 803c d796 b23b b429 c4bb
00000030: 4a33 013c e08b 5bbc cdeb 27bb b7f4 b5ba
00000040: ca34 7839 6607 033c 5307 da3b 8f97 233b
00000050: aa17 19bb 093e 4abb b0c5 4e3c b080 3ebc
00000060: 52e8 113a 514e f9b9 3736 183c 06c5 fdbb
00000070: cd8d 503c 5eb0 f3bb 1e63 ea3b 589c d2ba
00000080: 0f08 8dbb 2001 3bbc d04c 16bb 01fe 7c39
00000090: d452 6e3a 3041 913b ad34 69bb 9507 e63a
000000a0: 503c 18bc dbac 44bc 4b13 0fbc ca6e 973b
000000b0: 885c d1b7 61d2 23bb bb83 ccbb 30ff 893b
000000c0: e673 953b a440 10bc 9a74 dab9 3f93 bfbb
000000d0: 4111 0439 1b68 c7bb 4762 dd3b 8e58 2e3a
000000e0: 73a5 8bbb 0fee db3a df49 6fbb f1c4 b23b
000000f0: 5ab0 623b 172b 7ebb f752 583b 046a fbbb
00000100: 6ef5 4b3b 962c d6bb 113b 4bbb 710a 6d39
00000110: 0722 a6ba d2dc 233c 64fa 97bb 990a 17bc
00000120: 10b7 21bc 0381 073c 4601 08bb 52b3 5b3a
00000130: c848 5d3b ec2b 5e3b 01a5 89ba 6f55 cebb
00000140: c111 7c3b b681 02ba be23 a1bb b5da 29bb
00000150: 3b24 023b bc86 553a 678d 09ba 6d04 8abb
00000160: dc11 083b 945c f439 1899 1b3c 89fe a8bb
00000170: d8c5 d1bb e123 493b 51da f1bb 84ad daba
00000180: 704b 85bb c56d 803b 11e8 043c e024 05bc
00000190: da0f c5bb d4e4 a63b 6f7b 15bc 673f 483b
000001a0: 2731 07bc f74d 5bbb 0254 f23b 9753 2fbb
000001b0: c21e b1bb 4b72 9abb 3476 66bc 64e2 32bb
000001c0: 4e2a eb3b 5037 9e3b a445 233b ca50 853b
000001d0: a55f c23b db1a 02bc 40ad d93b eba4 c3bb
000001e0: 46dd 07bc bd84 663b f41c f1bb 2ba4 62bb
000001f0: 1088 023c 2e2b 6e3b 4ef1 c7ba 2a54 a7bb
0.0058381134 0.007855563 -0.011182316 -0.008815143 -0.008149024 0.013890316 0.001197284 -0.009047405
-0.01100882 0.015708333 0.0054501104 -0.0059864167 0.007885763 -0.013400048 -0.0025622726 -0.0013882135
0.00023670789 0.007997369 0.006653705 0.0024962162 -0.0023360052 -0.003085973 0.012620375 -0.011627361
0.00055659295 -0.0004755133 0.00929027 -0.0077444343 0.01272912 -0.007436796 0.007152929 -0.0016068323
-0.004303939 -0.011413842 -0.0022933967 0.00024127217 0.0009091322 0.00443282 -0.0035584376 0.0017549867
-0.009291723 -0.012004103 -0.008732627 0.0046213614 -2.495783e-05 -0.0024997222 -0.0062412894 0.004211329
0.0045609353 -0.008804474 -0.00041667075 -0.0058464105 0.00012594929 -0.0060854084 0.0067561003 0.0006650769
-0.0042616664 0.0016779321 -0.0036512536 0.005455606 0.0034589977 -0.0038783008 0.0033008435 -0.00767255
0.003112163 -0.006536077 -0.0031010548 0.00022605971 -0.0012674936 0.010001378 -0.004638003 -0.009218835
-0.009870306 0.008270505 -0.0020752712 0.0008380908 0.0033765305 0.0033900691 -0.0010501446 -0.0062968056
0.003846273 -0.0004978435 -0.004917591 -0.0025917713 0.001985802 0.0008145382 -0.0005247206 -0.0042119534
0.0020762598 0.00046608283 0.00949695 -0.005157296 -0.0064017586 0.0030691552 -0.0073807617 -0.0016683792
-0.0040678307 0.0039193355 0.00811197 -0.0081264675 -0.0060138525 0.0050931964 -0.009123667 0.003055537
-0.008251465 -0.0033463219 0.0073952684 -0.0026752704 -0.005405278 -0.004713332 -0.014066268 -0.0027295584
0.007176674 0.004828371 0.0024913335 0.0040684687 0.005931812 -0.007940973 0.0066429675 -0.0059705875
-0.008292502 0.0035174333 -0.007358188 -0.0034582715 0.00796701 0.0036341655 -0.001525441 -0.0051064687

network_body._body_endoder.seq_layers.2.weight f4 [128, 128]
00000000: 84b3 8abd e601 9a3c 98e2 fcbc ba56 dabc
00000010: 64e1 1dbe 38dc 883c 3c7f 74bd 7e7b fa3d
00000020: ae0b c6bd 4e95 2abe 46fc d8bd 2282 3dbd
00000030: d3e2 a5bd 8f2c 8abd da3a bd3d a2f3 83bd
00000040: 321a 8cbc 27e5 583d 11ec 333e 0325 e2bd
00000050: 03cf 24bd 418c 03bd 79d1 ed3d cc2e 033e
00000060: b195 613d 87ea ddbc eed0 a73d 3b8d afbd
00000070: 71b7 3f3d 925a b3bd 6e80 14be 8cfe 103e
00000080: 6017 04bd 595e a4bd 121f e8bc 16a0 4f3e
00000090: e091 54bc 730f 953d 90c1 a03d 878f c3bd
000000a0: a60b 7e3d 9557 fc3d 8e06 f3bd dbe1 8cbd
000000b0: 0a7b 86bd 2840 843c 87a1 06bc 2021 033d
000000c0: cf3a a83d 431f 1abc d4e7 be3d f163 2fbd
000000d0: e6ab cebd d990 283e bc98 cfbc 8266 743d
000000e0: 8eda 123e 78bd 2c3d 6e95 c4bd e997 3d3d
000000f0: d387 1ebd b55c 6bbd 7f03 d2bc bb68 7b3b
00000100: 656c 40bd 6924 67bd 21c2 d43b b879 493d
00000110: e1d8 653b ccb8 2ebd 5bea 333d 2116 a1bd
00000120: 4c62 323e d2bb b03c 8946 2dbd 946a c1bd
00000130: 31b6 b13c b5dc dbbd a9a6 5fbc 9069 4abe
00000140: ac27 b93d 41da 033d beee 2cbe 4655 0d3e
00000150: 5d6d 5e3a 89b8 d6bb d4ee 863d a308 063d
00000160: 57a2 eb3d 0a26 eebc a09e cfbd b721 383e
00000170: 18bf 143e 7fe4 023d 8fbf 60bd f736 4f3c
00000180: db97 8a3e 0494 bfbd a580 e83c ecd9 f2bd
00000190: ec31 1a3e 5d93 443c e868 a3bd 8d61 6b3c
000001a0: 959b 35bd c6bb 74bd 7a3e 30bb 603f 723d
000001b0: e747 7c3d 5130 0a3e 7128 a9bd d9bb 57bd
000001c0: dda0 7abd e12b efbd 7f00 05bc 24c1 13be
000001d0: 7299 93bd b659 9d3d 85b5 593d 4716 f9bc
000001e0: a593 b1bb 0e88 4ebd e6bf 26bd 5bea b63d
000001f0: af7f 87bb ab16 6e3d b5f6 fabd dc1d e2bd
00000200: 6d80 2c3e 4aaf ba3d f0da c83d 5440 e13d
00000210: 4b6f c53d 1dd8 ddbc d15c 1fbd 1b1e f43c
00000220: f5bc b63c 4755 ffbd cf6e 0dbe 8d06 f6bc
00000230: 51d0 66be 50fa 233e 25ae 9bbd 4a3e 283d
00000240: 4c39 30be 48c3 4b3d ee2a 813d 9c9d 823c
00000250: 9309 2c3e 47dc 113d e534 383d 0958 36bd
00000260: ef86 c43d b127 cc3d 5feb 543d e805 553d
00000270: 5c0e 9a3c 1e1c 2239 e371 a1bd e501 e4bc
00000280: 147f 043e 68d4 6e3d 932e 923d 85e5 15be
00000290: 4341 cd3b 1959 413d 01fb d3b9 dbb0 00bd
000002a0: 55c0 b3bc 72f4 c93d e135 453c d85c 37bc
000002b0: 66f5 afbd bfb7 273c c412 a73d 31ad c7bc
000002c0: cc3b b53d f073 cfbd 0b67 cdbd c4c3 4fbc
000002d0: 2b3a 6ebc 3fad d73a f4b8 73bd 6329 debc
000002e0: 1533 86bd a4db 30bd 7432 223d aad5 03bd
000002f0: d1c4 5ebe 1cff 1b3e 6251 4b3e 70f5 9dbc
00000300: 094f 15be a599 f53b 2137 5ebc b5c1 4cbd
00000310: 28b1 1bbd 1b61 053d 9216 4dbc ab53 b3bd
00000320: 707e 133d 3e6f 533e baad b2bb 1eca c0bc
00000330: 267d 893d a9de 913d 8bb9 133e 502d 473d
00000340: c1bf edb8 017b 27be 24a1 c1bd d25b 9dbb
00000350: f549 13bc 8d0f 16be db7b 22bd a0e8 473e
00000360: 3655 9dbd ab15 d43d bf89 c7bd 2e16 c9bc
00000370: 5539 a83d 6dd2 0dbd 0ea4 983d 8917 12bd
00000380: 0e6c fabd 81cf cbbd deeb 00bd 3356 b43d
00000390: 9137 033d 2e87 2a3d e9cc 1bbd ad2f ddbd
000003a0: 76e7 a2bd e9c2 b7bd 2b04 c6bc 8de4 54be
000003b0: b9fa 57bd 3437 5abc 38f5 96bb 0aa5 eabb
000003c0: e7ec a9bc b58b 39bd 3d86 8bbd fe95 74bd
000003d0: 14a9 adbd a390 d6bd b776 b4bd 7093 0a3d
000003e0: aa30 c33d 00ce c5bd e181 91bc cec6 823d
000003f0: 3e68 8d3c c9d0 28bd a961 babc 3203 133e
-0.06772521 0.018799733 -0.030869767 -0.026652683 -0.15418011 0.016706571 -0.059691653 0.122305855
-0.096701965 -0.16658518 -0.10594992 -0.046266682 -0.08099904 -0.0674678 0.09239741 -0.06442954
-0.017102335 0.05295291 0.17570521 -0.11042216 -0.040236484 -0.03211618 0.11612219 0.1281082
0.055074397 -0.02708937 0.08194147 -0.085718594 0.046805803 -0.08757509 -0.14502117 0.14159602
-0.032248855 -0.08025808 -0.028335128 0.20275912 -0.012974232 0.07278337 0.07849419 -0.0954886
0.062022828 0.123213924 -0.118664846 -0.06879016 -0.065664366 0.016143873 -0.008217222 0.032014012
0.08214342 -0.009406867 0.093215615 -0.04281992 -0.10091381 0.16461505 -0.025341384 0.05966807
0.14341184 0.04217288 -0.09598814 0.04628745 -0.03870375 -0.05746146 -0.025636433 0.0038361985
-0.046978373 -0.056431208 0.0064928685 0.049188346 0.0035071897 -0.042656705 0.04392467 -0.07865549
0.1742031 0.021573935 -0.042303596 -0.09444156 0.021693321 -0.10735456 -0.013650575 -0.19766831
0.0904077 0.032190565 -0.16887948 0.1380206 0.00084849243 -0.00655276 0.065885216 0.03272308
0.11505573 -0.029070873 -0.10137677 0.17981611 0.14526021 0.031956192 -0.054870185 0.012647382
0.27068982 -0.093544036 0.028381655 -0.118579715 0.15058106 0.011998025 -0.07978994 0.01436652
-0.044337828 -0.059749387 -0.0026892708 0.05914247 0.06159201 0.13494994 -0.08259667 -0.05266938
-0.061188567 -0.11678291 -0.008117794 -0.14429146 -0.07207002 0.07683127 0.053151626 -0.03040613
-0.005419212 -0.05042272 -0.040710352 0.089314185 -0.004135094 0.058127087 -0.12254087 -0.110408515
0.16845866 0.09115465 0.09807384 0.10998598 0.09640368 -0.02708059 -0.038906876 0.029799512
0.022306899 -0.12467437 -0.13811801 -0.03003242 -0.22540404 0.16013455 -0.07601575 0.04107503
-0.17209357 0.04974678 0.06307016 0.015944295 0.16800527 0.035610463 0.04497232 -0.04451755
0.09596049 0.09968508 0.05198228 0.052007586 0.018805675 0.00015459998 -0.0788305 -0.027832935
0.12939101 0.058308035 0.071377896 -0.14638336 0.0062638833 0.04720411 -0.0004043207 -0.031418663
-0.021942297 0.09861077 0.0120367715 -0.011191569 -0.08591728 0.01023668 0.08157876 -0.024374576
0.08849296 -0.10129535 -0.100294195 -0.0126809515 -0.0145402355 0.001645483 -0.059502557 -0.027119344
-0.06552712 -0.043178216 0.039598897 -0.032186188 -0.21754767 0.15234035 0.19855264 -0.019282073
-0.14580931 0.0074951225 -0.013562948 -0.04998942 -0.038010746 0.03256331 -0.012517588 -0.08756193
0.036009252 0.20647904 -0.0054528387 -0.023533877 0.06713323 0.07122547 0.14426248 0.048627198
-0.000113367576 -0.16355516 -0.09454563 -0.0048022056 -0.008989801 -0.1465437 -0.0396689 0.19522333
-0.07682268 0.10355695 -0.0974307 -0.024546709 0.0821406 -0.034624506 0.07453166 -0.035666976
-0.12227641 -0.099516876 -0.03147494 0.08805504 0.032035414 0.041632824 -0.038037214 -0.10800109
-0.07954304 -0.08972723 -0.02417191 -0.2079031 -0.052729342 -0.0133188255 -0.004606869 -0.0071607875
-0.020742847 -0.04529925 -0.06812713 -0.059713356 -0.08479515 -0.10476806 -0.088117056 0.033832014
0.09530766 -0.09658432 -0.017762126 0.06385575 0.01726162 -0.041214738 -0.022751646 0.14356688

network_body._body_endoder.seq_layers.2.bias f4 [128]
00000000: e61e 3fbc c129 09bc c493 1abb 4a9a 5abc
00000010: ded7 b33b 3097 84bb 82be 8bbb 151a b3bb
00000020: c0be d33b 1153 4abc a997 82bc c8cc 7b3b
00000030: d82b cb3a 2da3 dfba 57d2 95bb 8a6e 6e3c
00000040: e380 48bb 26c2 a0bb c434 bdba c894 8b3b
00000050: bc73 4538 a9a5 80bc 0023 0fbc 484c fb3a
00000060: b0bd 2a3c 88d5 a43b 97b3 f23a 8e73 ac3a
00000070: 2677 513b ca61 953b a44d 243c dfef 993a
00000080: 6be0 933a 6918 9b3b 3b43 23bc 633a 433c
00000090: c60d 10bc 70fc c6ba a21d 133c ceaf f43b
000000a0: 29a8 2b3a c17e 993b d698 8bbb 9803 ba3b
000000b0: 5468 33bc 2263 6abb 5453 e1b9 04fb cdbb
000000c0: 5828 653b 22b3 153b aedf b53a 9c8a 7abb
000000d0: 09c5 b53b c0d1 4bbc 9971 13ba 1bb0 6cb9
000000e0: ff82 68bc 68ab 2e3c a7b3 4fbc 1e34 b13b
000000f0: 632d 6ebc 1fd6 b13b a1ff a4bb f473 003a
00000100: 9bde 85bb 5d88 22bc 196d 9b3a 4d7c 10bb
00000110: 185f 643b 116f 79bc e95c 29bb 0e9a b03b
00000120: 8a24 85ba 81ae b9bb 3306 963b 01f4 e7bb
00000130: aa73 923c 0b68 033c b11b b4ba 0aaf d4bb
00000140: 888a aebb 3fb0 6a3b c601 073b 7a63 3abb
00000150: 159d ef3b ff02 ffba 6210 743b 1c77 9ebb
00000160: aefc 8d39 bdac dd3b 555f 863a 024f 233a
00000170: 73b4 68bb 646e 133b 05c7 0a3b 30b9 9d3b
00000180: 69da b83c e164 093c eaa4 bf3a 7581 14bb
00000190: 2858 3f3b 607d 63ba 30d7 29ba 167d 85bc
000001a0: ab95 99bc 43bd 11bc 2fb2 fdba 1534 dcbb
000001b0: 9a72 16bc 59f4 0b3c c0a7 3b3b 8306 cdbb
000001c0: 3746 4fbb 2182 36bc 24ab 5cbc da0c 16bb
000001d0: 79bb c33b f440 953b 2f91 8339 7aa2 793c
000001e0: 40f8 b539 739b 29bc c489 e63b 8ec0 e83a
000001f0: d2f3 33bb 5b67 db3b 10f5 6e3b 5c05 963b
-0.011665082 -0.008371771 -0.002358661 -0.013342449 0.00548838 -0.0040463433 -0.0042646537 -0.0054657557
0.006461948 -0.012348906 -0.015941458 0.003842162 0.0015500737 -0.001706218 -0.0045721936 0.014552722
-0.00305944 -0.004905957 -0.0014435281 0.0042596795 4.7076246e-05 -0.015703993 -0.008736372 0.0019172514
0.010421202 0.0050303377 0.0018516657 0.0013156997 0.0031961887 0.0045587765 0.010028277 0.0011744461
0.0011282092 0.0047331345 -0.009964759 0.011915776 -0.008792346 -0.0015181433 0.008979233 0.0074672466
0.000654819 0.0046842997 -0.004260163 0.005676698 -0.010950167 -0.0035764654 -0.00042977429 -0.006286027
0.0034966674 0.0022842367 0.0013875866 -0.003822959 0.00554717 -0.012440145 -0.00056245324 -0.00022572318
-0.014191388 0.010660984 -0.01267711 0.005407824 -0.014537188 0.0054271366 -0.005035356 0.0004900091
-0.0040853745 -0.009920207 0.0011858075 -0.0022046745 0.003484672 -0.015224234 -0.0025842732 0.0053894585
-0.0010157984 -0.0056665544 0.0045783757 -0.007078648 0.017877419 0.008020411 -0.0013741163 -0.006490593
-0.005326573 0.0035810617 0.0020600422 -0.002844064 0.007312427 -0.0019455849 0.003724121 -0.0048359763
0.00027081877 0.006764977 0.00102518 0.00062297296 -0.0035507947 0.0022496218 0.0021175754 0.004813336
0.022565084 0.008385868 0.0014621292 -0.002266017 0.0029196832 -0.0008678045 -0.0006478904 -0.016294997
-0.018748125 -0.008895221 -0.0019355471 -0.006720076 -0.009182597 0.008542144 0.0028633922 -0.00625688
-0.0031627545 -0.011139424 -0.0134685375 -0.0022895844 0.005973276 0.004554862 0.00025094437 0.015236491
0.0003470797 -0.010352003 0.007035466 0.0017757581 -0.002745856 0.0066956705 0.0036461987 0.0045782756

action_model._continuous_distribution.mu.weight f4 [1, 128]
00000000: 092a 643c e326 9b3c e1e8 623a abd7 4b3a
00000010: 9299 b0bc 33c3 fbbb a551 f33b 70dd c63c
00000020: 6200 76bc 2251 f5bc 4d0a bebc 8234 79bc
00000030: bccb a3bc 4443 acbc 6202 e93c 748c 60bc
00000040: fe19 ef3c 9dca 01bc ee67 1e3c ffbd 7abc
00000050: 6c63 0abd 3780 753c fa4e b93c 5827 ad3c
00000060: 76bb 8d3c 4085 ce3c f76a 0fbc aac9 97bc
00000070: cdf2 223d 623a 933c 7bcd d13c e87b 743c
00000080: 82a9 28bc fe5b a63c e3b5 0f3d 8e00 34bc
00000090: db2d fdbc 600d 9b3c ed4a 8d3c 572c 38bb
000000a0: a109 3e3a 61ca c9bc 1dee a43c 2e2f 583c
000000b0: e557 253b 42af 933b 2276 c8bc 9872 963a
000000c0: 7e2e 673c c2d5 263c c63b 843a e7b6 c2bc
000000d0: 6d7f b9bc 2101 f4bb 3599 2d3c 0259 ba3c
000000e0: fb8c 8dbc 812c e2bc 213a 11bc 2bed c4bb
000000f0: 39a6 803c 5c53 a83c 2054 92bc 055d 073c
00000100: c777 f3bb d965 c1bb 110b 633c 3cf8 16bc
00000110: 4c6a 9f3c f356 06bd 82d7 d4bc 8a74 a5bc
00000120: 5cd8 913c 5a07 1ebc ae73 a0ba 6550 5ebc
00000130: 9cbe d5bc 6cda 67bc 83db 503c e090 863c
00000140: ffa0 6ebd 041e ae3b 7fe8 903b 959a d5bc
00000150: 321e e63c b688 59bb 2516 d5bb 2ac8 293c
00000160: 4a67 333c c013 ecbc 1dc6 9abc ba6f 043c
00000170: f74f a3ba 0b40 6eba 1c7f c0ba c2be 00bd
00000180: 0988 243c 7a17 903c 005b 60bb 1642 943b
00000190: b47c 96bc 2f38 d23b 290c e33b a2dd 813b
000001a0: 3efe 56ba b410 47bb 3d5f 82bc fa59 1ebd
000001b0: dfc3 da3c 107c 8b3a 577e c93c 094a 0a3c
000001c0: bf45 5bbc 942e 96bb 039c 74bb a41f 54bc
000001d0: 14ac b33c abb2 673c 9ec7 9b3c 7fc9 a93a
000001e0: 26f2 e9bc df08 ad3c 92d7 48bc f90c 3a3d
000001f0: cafc d7bc ca59 1c3d d424 783c 49a2 333d
0.013926038 0.018939441 0.00086559175 0.00077759725 -0.021557603 -0.0076831817 0.0074255043 0.024275512
-0.01501474 -0.029945914 -0.023198271 -0.015210273 -0.019994609 -0.021028168 0.028443519 -0.013705362
0.029187199 -0.007921842 0.009668333 -0.015304088 -0.033786222 0.014984182 0.022620667 0.021136925
0.017301302 0.025210023 -0.00875353 -0.018528778 0.039782334 0.017972175 0.025610676 0.01492212
-0.01029432 0.020307537 0.03508557 -0.01098646 -0.030905655 0.018927276 0.017247641 -0.00281026
0.00072493596 -0.024632635 0.020133073 0.013194842 0.0025229391 0.0045069763 -0.024470393 0.0011478243
0.014110206 0.0101828 0.0010088615 -0.023768855 -0.02264377 -0.0074464236 0.010595609 0.02274752
-0.017279139 -0.027609112 -0.008863957 -0.006009718 0.015704261 0.020547561 -0.01786238 0.008261924
-0.00743005 -0.0059020338 0.013857619 -0.009214457 0.019459866 -0.032797765 -0.025981668 -0.020197172
0.017803364 -0.009645307 -0.0012241506 -0.013568972 -0.026091866 -0.014151197 0.012747648 0.016426504
-0.058259007 0.0053136367 0.004422247 -0.026074687 0.02809057 -0.0033193058 -0.006502884 0.010362664
0.010949919 -0.028818011 -0.018893296 0.008083278 -0.0012459744 -0.00090885226 -0.0014686319 -0.03143192
0.010042199 0.01758932 -0.0034233928 0.0045244796 -0.01837001 0.006415389 0.00692894 0.0039631883
-0.0008201337 -0.0030374946 -0.015914554 -0.038660027 0.026704727 0.0010641832 0.024596376 0.008440503
-0.013383328 -0.0045831893 -0.0037324436 -0.012946997 0.02193264 0.014141719 0.019016083 0.0012953727
-0.028557848 0.021122394 -0.012258427 0.045422528 -0.026365656 0.038171567 0.015145499 0.04385594

action_model._discrete_distribution.branches.0.weight f4 [1, 128]
00000000: 7781 1f3c af63 2a3a cd2d b63a e7a0 463c
00000010: da81 26bc 7ff6 2a3c d6a7 313c 857d 913c
00000020: 7fe7 88ba 7755 00bc f00a 5bbc ab2d a03a
00000030: 6fba 14bc 8bd5 8c3c 5806 223c 5824 6739
00000040: 6f29 213c 2715 6b3b a90b 813c 4ba5 e83a
00000050: 8264 73bb dec4 20bc 8f7b b2bb 477c 2cbc
00000060: db9e a63b c974 87bc 14b9 3bbc bc48 193c
00000070: 9904 1d3c b0e6 b0bb a866 093c 0865 dcbc
00000080: df2a 953b eda5 63bb 140a 213b c074 9cbb
00000090: 0748 8e3c 9ff3 273c c637 8e3c e328 563c
000000a0: cbea c43b c4a4 a439 3381 e4bb aa36 2fbc
000000b0: da47 bf3b c714 143c 3f96 fc3b 558a 49ba
000000c0: 6de6 d5bc 19f0 3d3b 47fd e2bb 1f6c 803b
000000d0: 7575 1fbc 0281 c0bb 70af e43a caee b73b
000000e0: 29e6 8b3c 765f babb 6742 97bb 8e31 ad3b
000000f0: 81e8 483c 57a8 82b8 4f32 a0bb dc99 0e3c
00000100: 77b7 cd3b 5f0d e9ba 1db8 51bb 38f1 0a3b
00000110: 0d13 c3bb 4b43 3a39 6d7b b1bc 9363 a8ba
00000120: 63f9 593c 5314 67bb bac4 0c3b 0c18 33ba
00000130: 27ac 493b 6729 3b3b 530c 74bc 2391 adbb
00000140: 7596 9cbb e0da 45bc 88e1 74bb be4f 4cbb
00000150: aa2d 383c 0dd3 72bb bd8b b8bc 9b5d 813c
00000160: 0b8f 67bc 0813 dbb8 717c 86bb 68e2 d2bb
00000170: 9ba9 693c fa0b 303b ec98 05bc 873e f5bb
00000180: 6dc6 573b 4495 3b39 d8f2 983a 4328 2fba
00000190: 2559 e83b e747 cabb 0be0 243c f0a4 61ba
000001a0: 93bd 423c 8fb5 32bc 0438 303c 6fdc 313c
000001b0: 5eee 36bb eddd 883b 7b8f f9bb 5bd0 55bb
000001c0: 57b0 edbb 4f09 273c 6af4 03bc 2b58 90bb
000001d0: 020f c2bb eb1f 593a f37d fc39 90ef 81bb
000001e0: 6975 c53b 6f1f 3c3c 2fcd 0e3c 851c 72b9
000001f0: c044 48bb b787 61bc 60e1 303c f6b4 233c
0.009735457 0.00064998394 0.0013899148 0.012123323 -0.010162795 0.010434746 0.010843238 0.017760048
-0.0010444968 -0.007832876 -0.013369307 0.0012220641 -0.009077652 0.017191669 0.009889208 0.00022043416
0.009836539 0.0035870762 0.01575263 0.0017749456 -0.0037138765 -0.009812562 -0.0054468582 -0.010527677
0.005084855 -0.01653518 -0.0114577 0.00935572 0.009583616 -0.005398594 0.008386292 -0.026903644
0.00455223 -0.003473635 0.0024572657 -0.00477466 0.01736833 0.010250955 0.01736058 0.013071272
0.006009435 0.00031403278 -0.0069734096 -0.010694185 0.005837423 0.009038157 0.0077083404 -0.00076881546
-0.026110852 0.002898222 -0.0069271657 0.003919139 -0.009732594 -0.005874754 0.0017447304 0.0056131827
0.017077522 -0.0056876494 -0.00461607 0.0052854484 0.0122624645 -6.230239e-05 -0.0048888098 0.008703675
0.006277974 -0.0017780474 -0.003200061 0.0021200906 -0.0059531988 0.00017763411 -0.0216653 -0.0012847058
0.013304087 -0.0035259917 0.0021479563 -0.00068318914 0.0030772777 0.0028558613 -0.014895516 -0.0052968427
-0.004778678 -0.01207611 -0.0037365872 -0.003117546 0.011241356 -0.0037052066 -0.02252757 0.015791705
-0.014133225 -0.000104462786 -0.00410419 -0.006435681 0.0142616285 0.0026862607 -0.008154135 -0.0074842605
0.0032924667 0.00017889315 0.0011669053 -0.00066817197 0.007090705 -0.006173122 0.010063182 -0.00086076465
0.011886018 -0.010907545 0.010755543 0.010855778 -0.0027913074 0.0041768462 -0.007615981 -0.003262541
-0.0072536874 0.01019509 -0.008053878 -0.0044050417 -0.005922199 0.0008282649 0.00048159025 -0.0039653257
0.0060259593 0.011482104 0.008715912 -0.00023089543 -0.0030558556 -0.013765267 0.010795921 0.009991875

onnx::LSTM_116 f4 [1, 512, 128]
00000000: 35c3 113e 8e95 1d3d 4df2 afbc de17 123e
00000010: 1917 233e be5c dd3c 8c8c 823c b825 f83d
00000020: 7261 51bc cb4a d83d 520e 023e 3fed 123e
00000030: ee49 b4bd 3588 123e c2c6 6ebd 2783 e33d
00000040: c0ca 10be 3fc6 983c 38ad cebd 3f48 37bc
00000050: 1149 113e a723 c3bd 75f7 11bd bf55 9a3d
00000060: f6d6 233d b3a8 13be 5f22 98bc 92ed b8bd
00000070: 58fb 18be 7189 59bd 1f48 febb 138b 133e
00000080: 6e49 0d3e d9f5 e6bd 9875 1c3d e588 fbb9
00000090: 6b1c 49bd fd97 13be c74c b03d 9480 943d
000000a0: e840 ab3c 4756 913d d7d6 083e ea9e 8ebd
000000b0: c3af 83bc 4b86 8f3d 5966 b53d d792 bdbd
000000c0: d293 edbd 30e7 ee3c ec40 f8bd c0e1 bc3d
000000d0: 53ea 5a3d 6e67 d23d fe11 e9bd 77c0 273e
000000e0: cb20 643d c7ae 4a3d d9c9 983c 23b8 943b
000000f0: 5d2b 423c a34c 13be 50f1 fd3d 06dd 133e
00000100: 71bd 173e 5b34 45bb 6bbc 8c3d 873d 04be
00000110: 1cb5 67bd 218a e03d e128 933d 06a6 f73d
00000120: 3cd6 bd3d f26d 423d 694a 1e3e 6e15 073d
00000130: 4cd8 413d c6d9 65bd 39f9 09be aa1a 5a3d
00000140: 548f 1bbd e10b 85bd 8d0d cabd 61fd 913d
00000150: 176e 86bc 7d80 733d a7e3 13bd 5754 283c
00000160: 6aed 54bd 51c2 cd3d 60ae fa3d 1161 423d
00000170: 0842 54bd 8f3a 03be b8ad 043e 247e ffbd
00000180: 2a3a 833d 0c20 dd3d bd7d 1a3c e10f 89bc
00000190: 96df 0fbd 3700 253d dda7 403d b8f2 c1bd
000001a0: 09a7 93bc 9a01 de3d 8445 2cbd 9bcc a93d
000001b0: 53c9 19be aca3 a43d 0edd a73d 9d57 3fbd
000001c0: ee9d a7bd 3ee7 21bc 5371 033e 6ff9 063e
000001d0: f2f5 1cbd 18e4 0a3e e0d9 ab3d 6c5e bdbd
000001e0: 989b b63d bb06 c93d f59a b83d ae47 843d
000001f0: a569 6fbd 25f9 e83d 0d1f 563d 78b9 c53d
00000200: 4cab 0c3e 0b6b 25be df45 95bd 070e 3fbc
00000210: 188a aebd 4e67 bebd 71e6 4bbd 22c5 72bd
00000220: 66f3 1d3d e6a6 a13d 7ea3 553c ac98 1ebe
00000230: 049c 1fbe a091 533d 7398 babd 7753 d0bd
00000240: 0179 2a3d 95db 513d e3f6 d3bd 7b51 1bbe
00000250: fafb f03c 8702 abbd 5039 eabd c2d1 a03d
00000260: da49 293e 93af b2bd c254 00be b1f5 d73d
00000270: 57f9 203e 32e3 babd 1a51 dd3d c795 563d
00000280: b278 163d d970 e2bc 1d10 71bd 75f3 893d
00000290: 096b a0bd 3717 f03d 2514 06be da0b 5b3c
000002a0: 4e27 ee3d 3d7c 21be 89c8 b53c a37b 853c
000002b0: 197a 543d 98ef c8bd 8638 a73d 435b 83bd
000002c0: 1b75 a9bd 04b4 4c3d ae9f 15be 75cd ad3d
000002d0: 5527 a5bc 2991 0fbe 671a 09be 8df1 003e
000002e0: 0516 63bd 2c91 c6bc dd24 043e 3840 9ebc
000002f0: 4ec5 55bd 9761 f03c 8bad d43d e029 81bd
00000300: 45b6 bbbd 90df fabc f0b9 003e 166f b7bd
00000310: 629b b23d 4643 033d b5cb 5abd d67e 96bd
00000320: af7c 193e 87cb f03d a88b 0ebe 9c0b 6c3d
00000330: f620 013e 75be d4bd f34d d53d 8c2b 7cbd
00000340: 95e3 733d af8b ed3d 61e3 693d f3d0 ea3d
00000350: 56b4 0abe f113 4abc 1335 13be 8f97 a7bd
00000360: 274e f0bb 93db c63c 9e8c 14bd 22f2 063d
00000370: 436e 0c3e 9b6b 84bd 879b 79bd ee2b 103e
00000380: bfde 9cbd 5dcb 733d 7f92 993d f965 993c
00000390: f087 88bd aef3 c53c 5489 bbbc 4e55 16be
000003a0: e31f 053e 81f8 f43d b639 923d 30a4 4ebd
000003b0: 89f0 ce3d 3be8 e5bc aa67 40bd 72f2 9dbc
000003c0: b58c 3d3c 84d6 e0bc 22ae 1abe b666 073e
000003d0: 41ad 083e d301 21bc 08fd 1d3e 9f6a 073e
000003e0: 3b3f acbd 34b0 153d 2616 843d ab55 07be
000003f0: 8b4d ae3c 3750 72bd 4b61 763d a6cb a0bd
0.14234622 0.038472705 -0.021477843 0.14266917 0.1592678 0.027021762 0.015936159 0.12116569
-0.01277958 0.105611406 0.12700775 0.14348315 -0.088031635 0.14309771 -0.05829502 0.11109
-0.14139843 0.018649219 -0.100916326 -0.011186658 0.14188029 -0.095282845 -0.035636384 0.07535886
0.039999925 -0.14419822 -0.018571077 -0.09029688 -0.1493963 -0.05310959 -0.0077600623 0.14408521
0.13797542 -0.112773605 0.038198084 -0.00047976445 -0.049099367 -0.14413448 0.08608394 0.07251087
0.020904973 0.07096534 0.13363205 -0.06963904 -0.01607502 0.07008036 0.08857412 -0.09256523
-0.1160046 0.029162973 -0.12121758 0.09222746 0.053446125 0.10273634 -0.11380385 0.16382013
0.055695336 0.049483087 0.018650936 0.0045385524 0.011851159 -0.14384703 0.12399542 0.14439783
0.1481836 -0.003009102 0.068718754 -0.12914096 -0.056569204 0.10963846 0.071855314 0.12092213
0.092693776 0.047468133 0.15458073 0.03297942 0.047325417 -0.056115888 -0.13473977 0.053248085
-0.037978485 -0.06496406 -0.09865866 0.07128406 -0.016409917 0.059448708 -0.036105778 0.010274014
-0.05198423 0.100468285 0.12240291 0.04745585 -0.051820785 -0.12815307 0.12956893 -0.12475231
0.06407578 0.10797128 0.009429392 -0.016731204 -0.035125338 0.040283408 0.047035087 -0.09470123
-0.018023985 0.10840149 -0.042058483 0.082909785 -0.15018205 0.080390304 0.0819646 -0.046714414
-0.081844196 -0.009881793 0.12836199 0.13181089 -0.03832049 0.13563573 0.08391166 -0.09246525
0.08916396 0.09815737 0.09013931 0.06458984 -0.05845036 0.113756455 0.052275706 0.09654516
0.1373722 -0.16154115 -0.072887175 -0.011661059 -0.08522433 -0.092970476 -0.049780313 -0.05927003
0.0385622 0.078931615 0.013039468 -0.15487927 -0.15586859 0.05165255 -0.09111109 -0.1017217
0.041619305 0.0512348 -0.10349824 -0.15167801 0.029417027 -0.083500914 -0.11436713 0.07852508
0.16532078 -0.087248944 -0.12532333 0.10544909 0.15720116 -0.09125365 0.108064845 0.052388933
0.036736198 -0.0276417 -0.058853257 0.06735889 -0.07832915 0.11723178 -0.13093622 0.013369525
0.116285905 -0.1577005 0.02219035 0.016294306 0.051874254 -0.09811324 0.08165078 -0.06413891
-0.08274289 0.049976364 -0.14611694 0.084864534 -0.020160357 -0.14020218 -0.13388978 0.12592144
-0.05544092 -0.024239145 0.12904687 -0.019317731 -0.052190118 0.02934341 0.10384663 -0.06306815
-0.091656245 -0.030624181 0.1257093 -0.08956735 0.08721043 0.03204658 -0.053416926 -0.07348411
0.1498897 0.1175757 -0.13920462 0.05762826 0.1261023 -0.10387889 0.10415258 -0.061564967
0.05954321 0.11598908 0.05710161 0.11465635 -0.13545355 -0.012333856 -0.14375715 -0.081832044
-0.0073335352 0.024274623 -0.036266916 0.03294576 0.13713937 -0.064658366 -0.060939338 0.14079258
-0.07659673 0.059520114 0.07498645 0.018725382 -0.06666553 0.024164047 -0.022892632 -0.14680979
0.13000445 0.11961461 0.07139914 -0.05044955 0.10104472 -0.028064838 -0.04697386 -0.019280646
0.011569192 -0.027446039 -0.15105489 0.13222775 0.13347341 -0.009827095 0.15428555 0.13224266
-0.08410498 0.036544994 0.06449537 -0.13216273 0.02127721 -0.05915853 0.06015138 -0.07851343

onnx::LSTM_117 f4 [1, 512, 128]
00000000: fad3 a93d 7607 99bd e938 c13d 06e0 0dbe
00000010: 9c58 83bd f7eb 14be 861a 06be 2120 3bbd
00000020: 0570 04bd 3abf ef3c 19e3 603d c1e3 b53d
00000030: c5b8 abbd 65ce 4b3d ec4d 003e 5324 bfbc
00000040: 7241 bdbd a62a b53d 5125 26bc 1761 0c3d
00000050: 7e46 c6bd 4833 b53c b4ab ffbd 132c 023c
00000060: 5f41 333d c25c 973c d239 dc3d 9456 4abc
00000070: 3df1 ecbb 099b 0c3d 152a b3bd 1da7 903c
00000080: 46a8 1ebe f914 e8bc cb07 a1bd 089e e7bd
00000090: 1b64 b83d dba7 9c3d 7576 32bd 8eb9 153c
000000a0: 6a6d 0cbe a0c7 003e 8090 2d3c d2d0 f13d
000000b0: a2bc 773c ae57 123e 1f9f 9d3d fc4d 9ebd
000000c0: 271e cd3c 349a 0cbe d55c 5c3d 1574 0abe
000000d0: 91e8 27bd a2f8 33bd afe5 673d 795c 10bb
000000e0: 5802 b5bd c334 093e c862 9dbd d689 1c3e
000000f0: b931 b3bd b21c 9a3d d3f5 0e3e 4d1e eabd
00000100: b187 c6bd 8953 ffbd 66f7 b03c 63f7 0d3e
00000110: c7c6 9abd b90d c43c 94e6 cb3d 46a7 8c3d
00000120: 2407 b93d 6c32 4fbd 613a e5bd bdee 94bd
00000130: a566 d2bd 03e2 bf3d bcec f5bd b931 1a3c
00000140: e6e3 55bd ab01 ccbc eb76 99bc 878e 073e
00000150: e6de ff3d 2f1f b5bd f7ba d8bd 4d8c c93d
00000160: 6f72 1c3e 7bb8 443d e8b4 4e3b ae5d 0fbe
00000170: f6f2 833c a797 14be 54e3 efbc 227a 9bbd
00000180: 5dd0 84bc 90bc 893c fc28 fe3d dc37 a6bd
00000190: df90 64bc af5a 73bd cab0 dabd eef8 bd3d
000001a0: 7a9c c5ba 78fd 293d 098a a13d 85bc b3bd
000001b0: 1f75 ff3d 663f febd f5eb c3bd d163 14bd
000001c0: ffdb 203e 06f5 92bd 4d20 83bd 2c59 19bd
000001d0: eba3 75bd 2792 b9bd 0904 2b3d a0bf 49bd
000001e0: 9d98 6f3d 35ae a33d a414 08be 1476 ed3d
000001f0: 0232 d0bd 03b6 493c 236c b0bc d021 b03d
00000200: 5e87 74bd 2a4c f9bd 39e2 a33d 1c8b cfbd
00000210: 55ef 8c3c 537b e3bd 25cc b93d f013 0fbe
00000220: 84da fa3d 7089 c1bd 4efd ef3d ea36 b4bd
00000230: d4ce 013e 55dc 78bc 85af 0cbe d91e 9dbd
00000240: 2781 19be 154b 86bd 80a8 15be 84cc 9b3d
00000250: dd29 00be 20fb 02be 2740 d93c 0574 5fbc
00000260: 1b40 17be 6c82 073d b64a 8abc 4044 0ebe
00000270: 50fe dc3d 9de9 043e 8366 0bbe 9778 573d
00000280: 5df3 ea3d d49f 753d 796b 5cbd 861d 09be
00000290: 3c9d dabd b78c b2bd 3cf1 063e df58 703d
000002a0: 1337 edbd eea0 68bd 43ec 0abe 1f45 4dbd
000002b0: 1180 86bd a7d1 0ebe f712 a43d f24e 123e
000002c0: 833a 2bbc 4db5 0abe f88f 0f3e 587e f83d
000002d0: 2430 8fbd 099d b03d c811 c9bd 4ad9 b03c
000002e0: dc20 5bbd aa9a dcbd 6c0e 5dbd 6224 4ebc
000002f0: 9f59 ae3d 3130 ef3d d481 16be d9f7 e33b
00000300: 76f1 ad3d 9a15 e4bd 0e31 91bd 9b34 b53c
00000310: 09c4 e13d 3d04 f7bd d353 e2bd 6c5f 18be
00000320: 3e5f 96bd 5cfd 8b3d 5280 3bbd 7b7f 8dbd
00000330: 76c8 0d3e fa32 01be e406 d1bd e73a a33d
00000340: 1b61 8fbd 7507 37bd f38e 12bd e1c3 9bbd
00000350: 3d21 be3b bc6f fd3d da23 e23d 1686 dbbd
00000360: 10d8 d4bd b759 ce3d dd74 fd3d 6e5c a7bd
00000370: a157 673d 42cf b0bd b2a5 0dbe 86a3 89bc
00000380: 1b11 ac3d 565f 0cbd 98c0 97bd 86fd 473c
00000390: f2d1 4abd c909 133e e6f5 02bd d30e 8dbd
000003a0: b13c c63d ec13 e63d 8c22 e83d f30a a3bc
000003b0: 36de d6bc baff 943d 1f8e 0f3e a8ac 8f3d
000003c0: b5d6 8c3d eabd a53c faa0 3a3d 7724 d93d
000003d0: f243 a3bd 29fc 8dbd 00a2 f73d 3cfd d53d
000003e0: ca0c d3bd b1c7 5fbd c3a4 5dbb 9fe0 4b3d
000003f0: f08b 153e 0389 babd 7520 51bc 45d1 fb3c
0.082923844 -0.07472126 0.09434683 -0.1385499 -0.06413385 -0.14543138 -0.13096055 -0.045684937
-0.032333393 0.029265989 0.054904077 0.08881331 -0.08384851 0.04975738 0.12529725 -0.02333275
-0.09240998 0.08846025 -0.010140733 0.03427228 -0.09681414 0.02211918 -0.12483922 0.007945078
0.043763515 0.018476848 0.10753216 -0.012349743 -0.0072309063 0.03432754 -0.08748261 0.01765781
-0.15493879 -0.028330313 -0.078628145 -0.11309439 0.090034686 0.076492034 -0.04357 0.009138478
-0.13713613 0.12576151 0.0105935335 0.118074074 0.015120657 0.1429126 0.076963656 -0.07729718
0.025038792 -0.13730699 0.05379947 -0.13520844 -0.040993277 -0.043938287 0.056615528 -0.0022027774
-0.08838338 0.13399033 -0.07684857 0.15286955 -0.08749718 0.075250044 0.13960962 -0.11431561
-0.0969385 -0.12467105 0.021602344 0.13863902 -0.07557445 0.023932325 0.09956089 0.068678424
0.09034565 -0.050585195 -0.111927755 -0.07272098 -0.10273484 0.0936928 -0.12008044 0.009411269
-0.052219294 -0.02490314 -0.018733462 0.13237964 0.124936864 -0.088438384 -0.10582536 0.098412134
0.15278028 0.048027497 0.0031540934 -0.1400058 0.016107064 -0.14510976 -0.029283203 -0.07591654
-0.016212637 0.016813546 0.12410161 -0.08116123 -0.013950556 -0.059412654 -0.10678251 0.09275995
-0.0015076541 0.041501492 0.07887656 -0.087761916 0.12473511 -0.12414436 -0.095664896 -0.036228005
0.15708922 -0.07175641 -0.06402645 -0.037438557 -0.059970777 -0.090610795 0.041751895 -0.049255013
0.058495153 0.07992212 -0.13289124 0.11594787 -0.10165788 0.012311461 -0.021535939 0.08600199
-0.05969941 -0.1217273 0.08002133 -0.10133955 0.017203966 -0.111075066 0.090721406 -0.1397245
0.1224871 -0.09450042 0.11718236 -0.087995365 0.12676555 -0.01518925 -0.1373883 -0.07671899
-0.14990674 -0.065572895 -0.14615059 0.07607368 -0.1251597 -0.12791109 0.026519848 -0.013638501
-0.14770548 0.033083364 -0.016881328 -0.13893223 0.10790694 0.12979741 -0.13613324 0.052605238
0.11472199 0.059966877 -0.05381343 -0.13390169 -0.10674521 -0.087182455 0.13177961 0.058678504
-0.1158277 -0.0567941 -0.13566689 -0.050114747 -0.065673955 -0.13947164 0.0801143 0.14287928
-0.010450962 -0.13545723 0.14019763 0.12133473 -0.06991604 0.08623702 -0.09817845 0.021587986
-0.053498134 -0.10771687 -0.053968832 -0.0125819165 0.085131876 0.11679114 -0.14697963 0.006957036
0.08493321 -0.11136933 -0.070894346 0.02211981 0.11023719 -0.12061355 -0.110511445 -0.1488015
-0.07342385 0.06835434 -0.045776673 -0.069090806 0.13846001 -0.12617102 -0.102063924 0.07970219
-0.07000943 -0.044684846 -0.03578086 -0.0760572 0.005802302 0.12374827 0.110419944 -0.10718934
-0.10392773 0.100757055 0.123758055 -0.081719264 0.056480054 -0.08633281 -0.13832739 -0.016801607
0.084017 -0.034270607 -0.07409781 0.012206441 -0.049516626 0.14359201 -0.03197279 -0.06887593
0.09679545 0.112342685 0.11334714 -0.019902682 -0.026229005 0.072753385 0.14019059 0.070153534
0.068768896 0.02023216 0.045563675 0.10602658 -0.07971944 -0.06932861 0.12091446 0.10448691
-0.10305174 -0.0546338 -0.003382013 0.049774762 0.14604163 -0.09108164 -0.012764086 0.030739436

onnx::LSTM_118 f4 [1, 1024]
00000000: ada4 b8ba a0e8 d93b d8f4 c33a b799 d9bb
00000010: 73fc 2cba b61f 033c b515 22bc 157d d4bb
00000020: a1ed 8a3c bca2 003c 38fe 163c 4606 a13b
00000030: d3e7 3f3b 2b8d 98ba 51fd 7a3c 36d1 e7bb
00000040: 645b 693c 026c 21ba b4ca 083b a455 86bb
00000050: 5e33 273c 02a0 b73b 1b0b 433b 3652 1c3c
00000060: 2b45 6e3b 56c2 dab8 78d1 d6bb cd7c cf3b
00000070: eb6d ddbb aaa2 ab3a 7070 ff3b 6599 6abc
00000080: dc39 493b cb3b fb3b dd69 6a3c 5122 3138
00000090: 3ea0 22ba 7c57 513c d534 6eba 7be9 703c
000000a0: 86d1 33bc 1f8f 563a c6d8 043c bd46 573a
000000b0: 7134 623c 071a 82bb 9eeb 0a3c a54d 193c
000000c0: efd0 3e3c 1140 193c e552 d7ba 1cae e83c
000000d0: 1110 1d3c 8d69 e23b d5e5 5a3b 415a f93b
000000e0: 674f 083c 0ebc e93b b0c9 673c 497d 74b9
000000f0: df98 49bc d454 cfba ae2f 6d3b 1bfc 113b
00000100: 8e38 8dbb 9e40 fa3b fb0a 513b 61b9 913a
00000110: 52ef 7d3c 1143 a03b afbe ebb9 9bed d4bb
00000120: 5dff 073c 944a 87bb 3453 e3bb 2cf1 143c
00000130: b48c 293c 18b7 6e3b 0498 823b 9995 1c3c
00000140: fd43 203c 592c 01bb aaa6 1bbb bfb0 debb
00000150: 51bd a0ba 13e0 7f3b a092 44bc a2ea 08ba
00000160: 854d 063c 5864 debb a2f7 d63a 7c41 393c
00000170: 7546 a4ba c5ec 843b 07ed 53b9 8281 f1ba
00000180: 8a42 f63b 08f3 df39 f1b8 08bc 235a 683c
00000190: 6de9 5dbc 7afc b03c cf12 9fba cd64 5a3c
000001a0: 05a3 0ebb b711 81bb 3745 aeba 3e9b 4abb
000001b0: 5212 883b 1172 d53a 25a8 553b 3253 d13b
000001c0: 66f0 9f3c 2009 a33c 5320 7cbc 7210 c3bb
000001d0: c5a9 033c 551f 18bc 0a68 b93b 82ca 733b
000001e0: 65c1 f83b d541 733a 4d9b ac3b a523 9d3b
000001f0: b1f9 043a 7f33 80bb ea94 0d3c e8ad f53b
00000200: fcdf dd3b c48a 123c 6dad e0bb f22e 88bb
00000210: d37b 95ba e487 0cbc 9729 eabb b631 223b
00000220: 4baf ad3b 3533 91bb bac2 843b c50a ff3b
00000230: 14a8 23bc 06ec a53b 5972 163b 7580 beba
00000240: ee93 2abb 57b6 3bbc be03 153b ef73 5cbb
00000250: d473 213c 80db 5e3b 8855 59bb 7c13 473b
00000260: dcc8 2c3c 9488 21ba 1275 c9bb 0512 b1bb
00000270: b409 9a3b 84ba 923a 5167 213c 6a91 233b
00000280: 7997 f53b d3e0 8e3b eba9 813b fd67 9abb
00000290: a747 56bb f228 843b af77 df3b 9740 513c
000002a0: 0ff6 e4bb ccba 24bc f5ca 163c 0f8d bbba
000002b0: 89fa ce3b b4fe 85ba c197 b9bb 899f 343c
000002c0: 8b93 113c 8767 d0bb 2dad 68bb db38 ab3b
000002d0: 488f 103c 9c40 60bb c281 fdbb c978 eb3b
000002e0: 3e00 1e3c 8cd6 cf3b 3ee2 4f3c 9547 14bc
000002f0: b905 a33a 9faf b93b 9947 ab3b 3d8f a5bb
00000300: 7d77 d4ba b782 c2bb 0c81 353b 0101 5ebb
00000310: 74da bb3b 7ee6 b93b d0f5 31bb 9336 8fbb
00000320: c304 c83b cec0 a6bb 50dc 8fba e202 353c
00000330: 2e3c 2d3b 0a10 103c a03a 60bc 3d5e 483b
00000340: d498 ca39 2a46 003a c4cd 62bb fbe6 1839
00000350: aa4f 6a3a accf 3b3c f788 0bbc cf4e 483a
00000360: 2515 33ba c7c2 2f3c 4dfc f03b 6b7b 363c
00000370: 9a0c 36bb 8230 103a 6bf8 6c39 5a78 a43b
00000380: 2fef ab3b 5df5 443b 0408 d3bb c14e 603c
00000390: 83e7 e2bb fe33 a53c 468d a73b 0c83 8f3b
000003a0: 1602 78bb cf78 9bba abf4 1cbc 9a02 773b
000003b0: dfd3 b23a b4c3 fdba a8ed acb9 799d cd3b
000003c0: cd91 80b9 afe6 a93c 59f7 51bc 7179 18bc
000003d0: cec5 d339 3a17 a6bb 9f5a 1d3b 59f5 6a3c
000003e0: 8564 debb 9ebc b43b 9cb9 9c3b 2f37 c5ba
000003f0: 00a7 59bb 95ec b8bb 347e 55bb c4c6 adb6
-0.0014087163 0.0066500455 0.0014950288 -0.0066406387 -0.0006598897 0.008003166 -0.009892871 -0.0064846375
0.016959013 0.007851299 0.009215884 0.004914078 0.0029282465 -0.0011638751 0.015319184 -0.0070745004
0.014242981 -0.0006157757 0.0020872774 -0.0040995646 0.010205118 0.005603791 0.0029761258 0.009541085
0.0036357145 -0.00010431248 -0.0065557323 0.006332016 -0.006757488 0.0013094742 0.007795386 -0.014318799
0.0030704653 0.00766704 0.014307466 4.2232048e-05 -0.00062036875 0.012777206 -0.0009086852 0.014704104
-0.010975247 0.0008184779 0.008108323 0.000821214 0.013806448 -0.003970388 0.008479027 0.009356891
0.011646493 0.0093536535 -0.0016427903 0.028403334 0.00958635 0.0069095553 0.003340115 0.007609636
0.008319712 0.0071330136 0.014147207 -0.00023316326 -0.012304514 -0.0015818127 0.003619175 0.002227551
-0.0043097204 0.0076370975 0.0031897414 0.0011117869 0.015498953 0.0048908074 -0.00044964763 -0.0064980513
0.008300629 -0.0041287635 -0.006937409 0.009090703 0.010348488 0.003642505 0.003985407 0.009557151
0.009781835 -0.001971027 -0.0023750463 -0.006795972 -0.0012263452 0.003904347 -0.011997849 -0.00052229513
0.008197193 -0.0067868643 0.0016400705 0.011307117 -0.0012533205 0.0040565454 -0.00020210828 -0.0018425437
0.0075152563 0.00042714947 -0.008344875 0.0141816465 -0.013544423 0.021604765 -0.0012136343 0.013329697
-0.0021764648 -0.0039388794 -0.0013295774 -0.0030915285 0.0041525746 0.0016284605 0.0032601443 0.0063880915
0.01952381 0.019901812 -0.015388566 -0.005952888 0.008036082 -0.009284814 0.0056581544 0.0037199561
0.007591414 0.0009279524 0.0052675367 0.004795509 0.00050726073 -0.003912389 0.008641461 0.007497538
0.006771086 0.008944217 -0.0068566115 -0.004155987 -0.00114047 -0.008577321 -0.007146071 0.0024748868
0.0053004376 -0.004431153 0.0040515335 0.0077832663 -0.009988803 0.0050635366 0.002295634 -0.0014534133
-0.0026028114 -0.011457047 0.0022737826 -0.0033638438 0.009854276 0.0034005344 -0.0033162553 0.0030376604
0.0105459355 -0.00061620143 -0.006147989 -0.0054037594 0.0047008637 0.0011194502 0.009851293 0.00249585
0.0074948636 0.004360297 0.0039570234 -0.0047121034 -0.0032696517 0.0040332014 0.0068196873 0.012771747
-0.0069873403 -0.0100543015 0.009203662 -0.0014309007 0.006316487 -0.0010223002 -0.0056638424 0.011024364
0.008885275 -0.0063599977 -0.0035503611 0.0052252836 0.008823223 -0.0034218198 -0.0077364156 0.0071860296
0.009643612 0.0063427147 0.012688218 -0.00905027 0.0012437619 0.0056666876 0.005227041 -0.0050524757
-0.0016209927 -0.0059359926 0.0027695326 -0.003387511 0.0057328288 0.0056732288 -0.0027154572 -0.0043705194
0.0061040833 -0.005088902 -0.0010975692 0.011048051 0.0026433575 0.0087928865 -0.013685852 0.0030573749
0.00038642308 0.0004893268 -0.003460751 0.00014581897 0.00089382625 0.011463087 -0.008516542 0.0007641138
-0.0006831459 0.010727591 0.0073542953 0.011137824 -0.0027778507 0.0005500392 0.00022599257 0.00501923
0.0052470188 0.0030053474 -0.0064401645 0.013690651 -0.006924571 0.020166393 0.0051132767 0.0043796357
-0.003784304 -0.0011861565 -0.009579818 0.003769076 0.0013643465 -0.0019360692 -0.00032983464 0.0062748757
-0.00024522693 0.020739881 -0.01281532 -0.009306298 0.00040392432 -0.005068687 0.0024010313 0.014340722
-0.006786885 0.005515649 0.0047828685 -0.0015046353 -0.0033211112 -0.005643437 -0.0032576444 -5.178941e-06
