Assets/ML-Agents/results/sshipMovMod2Test00/ShipMovementImitation/ShipMovementImitation-49961.onnx (onnx, 605703 bytes, 9 tensors)

network_body._body_endoder.seq_layers.0.weight f4 [128, 1]
0	0xbf5792fa	-0.84208643
1	0x3face568	1.3507509
2	0x3ebea322	0.37233835
3	0x3edf940e	0.43667644
4	0xbffd3e9c	-1.9784732
5	0x3febc772	1.8420241
6	0x3f174e77	0.591041
7	0x3f73fa0e	0.9530343
8	0xbe0ea40b	-0.13929765
9	0xbfda6870	-1.7063122
10	0xbf2779e2	-0.65420353
11	0x3f6878e2	0.9080945
12	0xbf19e66d	-0.60117227
13	0xbf1e4fe2	-0.6184064
14	0xbf1a7a5a	-0.60342944
15	0xbebfa7bb	-0.37432656
16	0x3f512465	0.8169616
17	0xbf104561	-0.56355864
18	0xbf1fa7e5	-0.6236556
19	0xbd2a4497	-0.04156932
20	0x3e0d923e	0.13825318
21	0x3eadef8b	0.3397182
22	0xbf8a8de8	-1.0824556
23	0x3d704ade	0.05866515
24	0x3f735708	0.95054674
25	0xbe9b426a	-0.30324107
26	0xbf323fd0	-0.6962862
27	0x3fb0e9f3	1.3821396
28	0xbfa4f23d	-1.2886425
29	0xbfbfc2dc	-1.4981341
30	0xc00122e5	-2.0177548
31	0xbc308dda	-0.010776008
32	0x3fad6f09	1.354951
33	0xbe978b54	-0.29598486
34	0xbe3d3433	-0.18476944
35	0xbe162aa3	-0.14664702
36	0xbf24ae86	-0.643288
37	0xbcacfae1	-0.021115722
38	0xbf0ae84f	-0.54260725
39	0xbf620537	-0.8828921
40	0xbec19aa6	-0.378133
41	0x3f27d518	0.6555953
42	0x3f8261ba	1.0186074
43	0x3f138457	0.5762381
44	0x3fa28c2e	1.269903
45	0xbf7cb771	-0.9871741
46	0xbeefb456	-0.46817273
47	0x3f290c2f	0.66034216
48	0x3f8a52fd	1.0806576
49	0x3f37c16f	0.7177953
50	0xbeaf55fa	-0.34245282
51	0x3f9c4f26	1.2211654
52	0x3f72b4d7	0.9480719
53	0xbe5615a5	-0.20906694
54	0xbf171826	-0.5902122
55	0x3fd9e327	1.7022446
56	0x3ebd784d	0.37005845
57	0xbf0407d8	-0.5157447
58	0xbeedf7ac	-0.4647802
59	0xc0434e42	-3.0516515
60	0x3db3ae89	0.08773524
61	0x3ee891f5	0.45423856
62	0x3eb843d3	0.35989246
63	0x3f9ab710	1.2087116
64	0x3fcd379e	1.6032598
65	0x3e31940d	0.17341633
66	0x3dc6ed6d	0.09713254
67	0x3f46183c	0.7738073
68	0x3f9ae52c	1.2101188
69	0xbef8dc6e	-0.48605675
70	0x3ecb45c1	0.39701656
71	0x3d158f9e	0.036513917
72	0x3f3c7bb7	0.73626274
73	0xbf535e43	-0.82565707
74	0xbc64a0f1	-0.013954387
75	0x3cd3db76	0.025861483
76	0x3f8d0cc7	1.1019524
77	0x3f2e350d	0.680497
78	0xbfa39516	-1.2779872
79	0xbeeeb966	-0.46625823
80	0x3efa1a13	0.48848018
81	0x401b9c32	2.4314084
82	0x4017288b	2.3618495
83	0xbe4c59e1	-0.19956161
84	0xbea51601	-0.3224335
85	0x3f2c60a8	0.67334986
86	0x3ec37d20	0.381814
87	0xbf733ac7	-0.9501156
88	0xbf3977fd	-0.7244871
89	0x3f2b76bb	0.66978043
90	0xbfd3884f	-1.6525973
91	0x3fc46648	1.5343714
92	0x3ec9e313	0.39431056
93	0x3ed5a4c2	0.41727263
94	0x3f4e48a3	0.80579585
95	0xbf520a54	-0.8204701
96	0xbf1c26e4	-0.6099684
97	0x3c250468	0.010071851
98	0xbf066ead	-0.5251263
99	0xbe57a64a	-0.21059528
100	0xbee13c22	-0.4399119
101	0xbf9ffa5a	-1.2498276
102	0xbf282cb6	-0.65693223
103	0xbed08791	-0.4072843
104	0x3e80fa38	0.25190902
105	0x3f383dfe	0.7196959
106	0x3ed9cb72	0.4253803
107	0xbf98258f	-1.1886462
108	0xbf728b41	-0.94743735
109	0xbe631b95	-0.2217849
110	0xbf7c00e2	-0.9843885
111	0xbe32b610	-0.17452264
112	0x3f067659	0.52524334
113	0xbf9e86f3	-1.2384933
114	0xbc6624e0	-0.014046878
115	0x3fcff403	1.6246341
116	0xbe4b8853	-0.19876222
117	0xbee520c2	-0.44751555
118	0xbe893662	-0.26799303
119	0x3f86b140	1.0522842
120	0xbfc7acc8	-1.5599604
121	0xbfa98ad7	-1.3245496
122	0xbf59d1c7	-0.8508572
123	0x3fb0e350	1.381937
124	0xbe60a0f2	-0.21936396
125	0xbf505618	-0.8138137
126	0x3fa29d06	1.270417
127	0x3fcb7cbf	1.5897444

network_body._body_endoder.seq_layers.0.bias f4 [128]
0	0x3bef34fa	0.0073000165
1	0x3c7eb25b	0.015545453
2	0xbbd410c0	-0.0064717233
3	0xbc38fbda	-0.011290515
4	0xbbd70975	-0.0065624067
5	0x3ba41139	0.005006936
6	0x3b97e515	0.004635463
7	0xbc5ed084	-0.013599519
8	0xbbb10ba2	-0.005402998
9	0x3c901ef4	0.017592885
10	0x3bab6283	0.0052302494
11	0xbbbd8729	-0.0057839346
12	0x3bd57eae	0.0065153455
13	0xbc49f400	-0.012326241
14	0x3b085890	0.002080474
15	0xbb99cab8	-0.0046933554
16	0xbb18868e	-0.002327356
17	0x3c141f9d	0.00904074
18	0x3bce3a16	0.0062935455
19	0x3b5b9eae	0.0033511329
20	0x3b0ee21f	0.002180226
21	0xbc03b348	-0.008038349
22	0x3c532d57	0.012889228
23	0xbc2e9567	-0.0106557375
24	0x3b110f19	0.0022134243
25	0x3b9486f9	0.0045326916
26	0x3c2320f1	0.009956584
27	0xbbebe6f2	-0.0071991617
28	0x3c5a239d	0.013314155
29	0xbbcb77cf	-0.0062093507
30	0x3bd45286	0.006479564
31	0xb8cf9145	-9.897588e-05
32	0xbb9ff227	-0.0048811617
33	0xbc8b18a3	-0.016979521
34	0xbb9b225b	-0.00473432
35	0x3b1298c6	0.0022368892
36	0xba852277	-0.0010157366
37	0x3b4432a2	0.0029937406
38	0xbb8d493f	-0.00431171
39	0x3bafe0a5	0.005367356
40	0xbc053b6b	-0.008131842
41	0xbc2b463a	-0.010453755
42	0xbad49837	-0.001621968
43	0x3b27224d	0.0025502623
44	0x3bd3fd92	0.006469437
45	0x3a321122	0.0006792714
46	0xbacbb234	-0.001554078
47	0x3b3c078b	0.002869102
48	0x3bd60b78	0.006532129
49	0xbc89ff98	-0.01684551
50	0xbaafefee	-0.0013422945
51	0xbaf6ed61	-0.0018839055
52	0xbb02a83d	-0.0019936704
53	0xbbc7cea2	-0.0060976306
54	0x3c0e9b24	0.008703981
55	0xb9a23646	-0.00030939485
56	0xbc205b90	-0.009787455
57	0x3acf1b0f	0.0015800911
58	0x3b0e812b	0.002174447
59	0x3c02f869	0.007993796
60	0x3c36959a	0.011144066
61	0x3b131985	0.002244563
62	0x3b55f1a2	0.0032645245
63	0xbbcd9d7e	-0.006274878
64	0x3bd966fd	0.0066345916
65	0xbc0d4ce7	-0.008624292
66	0xbafaea63	-0.0019143339
67	0xbb5d5b97	-0.0033776516
68	0x3b145ca0	0.0022638217
69	0x3c424349	0.011856862
70	0xb968149a	-0.00022132919
71	0xbbabc55a	-0.005242032
72	0xbc68d284	-0.014210347
73	0x3be24163	0.0069047674
74	0xb9f7c430	-0.00047257682
75	0x3b8fd1b4	0.004389012
76	0x3bc584f9	0.0060278145
77	0x3aed7d08	0.0018118927
78	0x3b927229	0.0044691754
79	0xbb0eeafe	-0.0021807547
80	0x3c0f62af	0.008751555
81	0x3bcd3c73	0.0062633096
82	0x395bdec1	0.0002096845
83	0x39c50a4b	0.00037582437
84	0x3b050df5	0.0020302508
85	0xbbaa54e8	-0.00519811
86	0x3a6f2a7a	0.0009123456
87	0xbc136391	-0.008995906
88	0xba203872	-0.00061119266
89	0x3be13ab8	0.006873455
90	0x3bf5b228	0.0074980445
91	0xba7e4a0f	-0.00097003666
92	0x391686c4	0.00014355319
93	0xba31e414	-0.00067860004
94	0xbbd1f773	-0.006407672
95	0xbb2133b3	-0.0024597466
96	0xbc02281e	-0.007944135
97	0x3c291965	0.010320996
98	0x3c005edc	0.007835116
99	0xbaa06feb	-0.0012240385
100	0xbc1be813	-0.00951578
101	0x3ace3917	0.0015733567
102	0xbbcbbec4	-0.0062178094
103	0xbb4a1e0d	-0.0030840666
104	0xbb9a847e	-0.0047155013
105	0xbc1946cb	-0.009355257
106	0x3c2f2bfc	0.010691639
107	0xbab3a8c6	-0.0013706915
108	0xb9dc5f98	-0.00042032893
109	0xbb4ad3c8	-0.0030948985
110	0xbc39b1de	-0.011333911
111	0x3b92930c	0.0044730958
112	0x3c67b4cd	0.014142227
113	0x3c0060e9	0.007835605
114	0x3c1270d9	0.008938038
115	0x3c17cf02	0.009265663
116	0x3c29c9ac	0.010363024
117	0xbac3f32e	-0.0014949793
118	0x3c3a2f6c	0.011363845
119	0x3bae8a64	0.005326556
120	0xbb8eaf52	-0.004354396
121	0x3bb17156	0.005415122
122	0xbc1f061d	-0.009706047
123	0xb982ea9f	-0.0002497034
124	0x3bfafe53	0.0076597123
125	0x3b847cb7	0.0040431875
126	0x3bb1dbb0	0.0054278
127	0xbbf4c19a	-0.007469368

network_body._body_endoder.seq_layers.2.weight f4 [128, 128]
0	0xbd8fd7f4	-0.07023612
1	0x3c7e4967	0.01552043
2	0xbd0401ba	-0.03222821
3	0xbce5ef6a	-0.028068263
4	0xbe22b774	-0.15890294
5	0x3c570e2e	0.013125939
6	0xbd7dd428	-0.061969906
7	0x3df56c32	0.11983527
8	0xbdc10446	-0.09424643
9	0xbe2f4e6b	-0.17119758
10	0xbddcce17	-0.10781496
11	0xbd47da4f	-0.04879218
12	0xbda9b3f1	-0.08286274
13	0xbd8bd318	-0.06827372
14	0x3dba3399	0.09091873
15	0xbd845a1f	-0.06462502
16	0xbca015d7	-0.019541664
17	0x3d516bf4	0.051128343
18	0x3e320ad9	0.1738695
19	0xbde283fe	-0.11060332
20	0xbd2bfaf0	-0.04198736
21	0xbd08a381	-0.033359054
22	0x3de70237	0.11279719
23	0x3e05109d	0.12994619
24	0x3d566982	0.052346714
25	0xbce11214	-0.02747444
26	0x3da35122	0.07974459
27	0xbdb5bed9	-0.08874292
28	0x3d303bca	0.04302577
29	0xbdbb2e70	-0.091397166
30	0xbe1995a0	-0.14998484
31	0x3e1685f9	0.14699544
32	0xbd10a0d7	-0.03530964
33	0xbda145db	-0.07874652
34	0xbcdd07cb	-0.026981255
35	0x3e5050ec	0.20343369
36	0xbc6faaa5	-0.014628087
37	0x3d8f8ceb	0.070093
38	0x3d9ecd71	0.077540286
39	0xbdc8d648	-0.09806496
40	0x3d7ec1f6	0.062196694
41	0x3df85f4a	0.1212755
42	0xbdf88113	-0.12133994
43	0xbd9163ad	-0.0709909
44	0xbd8cc811	-0.06874097
45	0x3c5cdedd	0.013480869
46	0xbc132d66	-0.008982992
47	0x3cf316d3	0.02967397
48	0x3da22eb1	0.07919062
49	0xbc3b383a	-0.01142698
50	0x3dbe3516	0.09287469
51	0xbd3b6ff5	-0.045761067
52	0xbdd423f9	-0.10358424
53	0x3e29cff6	0.16583237
54	0xbcdeb322	-0.027185027
55	0x3d6681a2	0.05627597
56	0x3e118df2	0.14214304
57	0x3d27c8d7	0.04096302
58	0xbdc6b4a1	-0.09702421
59	0x3d2485f0	0.040166795
60	0xbd2c398c	-0.04204707
61	0xbd731e5d	-0.05935513
62	0xbce28c79	-0.027654873
63	0x3a83d041	0.0010056571
64	0xbd4e47ac	-0.05036132
65	0xbd6a41e5	-0.05719175
66	0x3bccea4f	0.0062535177
67	0x3d3ffd8d	0.046872664
68	0x3a15e742	0.0005718359
69	0xbd35e27d	-0.04440545
70	0x3d2d6942	0.04233671
71	0xbd9c1442	-0.07621051
72	0x3e304168	0.1721245
73	0x3c9cc58b	0.019137165
74	0xbd1dc5a7	-0.038518574
75	0xbdc89e9d	-0.09795878
76	0x3c99921b	0.018746426
77	0xbde0ddd0	-0.109798074
78	0xbc8c630b	-0.017137071
79	0xbe4b1c7d	-0.19835086
80	0x3db49447	0.08817344
81	0x3ce7e4d2	0.028307352
82	0xbe30d013	-0.17266874
83	0x3e0d98af	0.13827775
84	0x3a0e4dd5	0.0005428468
85	0xbc0f06d1	-0.0087296525
86	0x3d834e57	0.064114265
87	0x3cf89e62	0.03034896
88	0x3de7e293	0.113225125
89	0xbd01497d	-0.031564225
90	0xbdd89d5d	-0.1057689
91	0x3e34d273	0.17658405
92	0x3e13014e	0.14355966
93	0x3cf6dde7	0.030135108
94	0xbd6a7205	-0.057237644
95	0x3c2c1cb8	0.010504894
96	0x3e8a02d8	0.26955295
97	0xbdcf1281	-0.10110951
98	0x3cdb8fbd	0.026801938
99	0xbdf1a4ac	-0.11798987
100	0x3e19fa45	0.15036876
101	0x3c0c89c9	0.008577772
102	0xbda61a1a	-0.08110447
103	0x3c633ec3	0.013869944
104	0xbd39ca8a	-0.045359172
105	0xbd7d7352	-0.061877556
106	0xbba5ee73	-0.0050638258
107	0x3d652422	0.055942662
108	0x3d723f58	0.05914244
109	0x3e0af4a4	0.13569885
110	0xbdadec34	-0.08492318
111	0xbd56f5cc	-0.052480504
112	0xbd82a089	-0.06378276
113	0xbdf64bc4	-0.1202617
114	0xbc5a6de6	-0.013331866
115	0xbe173ba2	-0.14768842
116	0xbd9518b3	-0.072801016
117	0x3d9c2007	0.07623296
118	0x3d55cf60	0.05219972
119	0xbd07f90f	-0.033196505
120	0xbc19bd15	-0.00938346
121	0xbd5d5a37	-0.054041114
122	0xbd2ec994	-0.04267271
123	0x3db093cd	0.08621941
124	0xbba897ef	-0.005145065
125	0x3d648101	0.05578709
126	0xbe009561	-0.12556984
127	0xbde8ce71	-0.113675006
128	0x3e26415b	0.16235869
129	0x3db71171	0.089388736
130	0x3dc826f0	0.09773052
131	0x3de06066	0.109558865
132	0x3db8bd93	0.090205334
133	0xbced08ac	-0.0289348
134	0xbd246b18	-0.040141195
135	0x3ce9de8e	0.028548505
136	0x3ca5c78b	0.020236751
137	0xbe063c75	-0.13109
138	0xbe138c21	-0.14408924
139	0xbd005d14	-0.031338766
140	0xbe6d113a	-0.23151103
141	0x3e1e9753	0.15487413
142	0xbda7877f	-0.08180141
143	0x3d134a30	0.035959423
144	0xbe31933d	-0.17341323
145	0x3d32e99d	0.043679822
146	0x3d699bf7	0.057033505
147	0x3c458943	0.0120566515
148	0x3e2c896c	0.16849297
149	0x3d10b304	0.035326973
150	0x3d1e4687	0.03864148
151	0xbd237186	-0.039903186
152	0x3dc18050	0.09448302
153	0x3dc1ab5a	0.09456511
154	0x3d3bbb0d	0.045832682
155	0x3d4ebb05	0.050471324
156	0x3c4c21d3	0.012459236
157	0xbbc26f7b	-0.0059336997
158	0xbdae6efc	-0.08517262
159	0xbce2fd23	-0.027708596
160	0x3e02dcef	0.12779592
161	0x3d5f02f2	0.05444617
162	0x3d8b2e09	0.0679589
163	0xbe196f5e	-0.1498389
164	0x39dc1b09	0.00041981813
165	0x3d2857d2	0.041099377
166	0xbbc27ff9	-0.0059356657
167	0xbd19bfb0	-0.037536323
168	0xbcdb04e5	-0.026735732
169	0x3dc803f7	0.09766381
170	0x3c2e1abe	0.010626493
171	0xbc4b1035	-0.012394001
172	0xbdb35048	-0.08755547
173	0x3b8b9c66	0.0042605875
174	0x3d9bde4c	0.07610759
175	0xbcd24c3d	-0.025671119
176	0x3db1fa89	0.08690364
177	0xbdd163d2	-0.10224117
178	0xbdd7aeaf	-0.10531365
179	0xbc688c24	-0.014193568
180	0xbc82c0cb	-0.015961071
181	0xbb02a6d8	-0.0019935872
182	0xbd8624d3	-0.065499924
183	0xbcec5b1e	-0.028852042
184	0xbd86c6bf	-0.065808766
185	0xbd485390	-0.048907816
186	0x3d0b098b	0.033944648
187	0xbd1e43a6	-0.038638733
188	0xbe5f0821	-0.21780445
189	0x3e1b1ab9	0.15146913
190	0x3e4a7221	0.19770099
191	0xbca9cfed	-0.02072903
192	0xbe171d4e	-0.14757273
193	0x3c0cc5c2	0.008592071
194	0xbc3f813c	-0.011688527
195	0xbd51cf2c	-0.051222965
196	0xbd220435	-0.039554793
197	0x3cd87021	0.026420655
198	0xbc57f3cb	-0.013180683
199	0xbda908f0	-0.08253658
200	0x3d0f61e3	0.03500546
201	0x3e4d300a	0.20037857
202	0xbbcadf72	-0.0061911875
203	0xbcb8bd38	-0.022551164
204	0x3d863aa8	0.065541565
205	0x3d8f31de	0.06991933
206	0x3e0d727c	0.13813204
207	0x3d30df46	0.04318168
208	0xbaac1d87	-0.0013131358
209	0xbe297f13	-0.16552381
210	0xbdc582c0	-0.09644079
211	0xbc11ca03	-0.008898261
212	0xbc65e6b7	-0.0140320575
213	0xbe173c65	-0.14769132
214	0xbd25af4d	-0.040450383
215	0x3e41e046	0.1893321
216	0xbda9458e	-0.0826522
217	0x3dd135ba	0.10215326
218	0xbdd476cf	-0.103742234
219	0xbcd6b4f4	-0.026209332
220	0x3da6c686	0.08143334
221	0xbd10f4b1	-0.035389606
222	0x3d961ac4	0.07329324
223	0xbd2a4f99	-0.041579816
224	0xbe02e8d8	-0.12784135
225	0xbdd14fc7	-0.102202944
226	0xbd19a6c2	-0.03751255
227	0x3dac4c5f	0.08413004
228	0x3cdc24b5	0.026872972
229	0x3d118002	0.03552247
230	0xbd32c9b0	-0.043649375
231	0xbde82f1d	-0.11337111
232	0xbda2cf78	-0.07949728
233	0xbdb9fd91	-0.09081567
234	0xbcd0905a	-0.025459457
235	0xbe5b178e	-0.21395704
236	0xbd703591	-0.058644835
237	0xbc8ce2c2	-0.01719797
238	0xbc29da5a	-0.0103670005
239	0xbc3c4d3d	-0.011493024
240	0xbcb5c528	-0.022188738
241	0xbd52e8d8	-0.05149159
242	0xbd990fb2	-0.07473697
243	0xbd7be329	-0.061495934
244	0xbdb88241	-0.09009219
245	0xbde177b6	-0.11009161
246	0xbdc02217	-0.09381502
247	0x3d04693e	0.03232693
248	0x3db6b001	0.08920289
249	0xbdd27153	-0.10275521
250	0xbcc06903	-0.023487573
251	0x3d7ef0f7	0.06224152
252	0x3c436dc9	0.01192803
253	0xbd418fe9	-0.047256384
254	0xbcc7800f	-0.024353055
255	0x3e1150dd	0.14191003

network_body._body_endoder.seq_layers.2.bias f4 [128]
0	0xbca0eb32	-0.0196434
1	0xbc1fa4e9	-0.0097439075
2	0x3b3e5b54	0.0029046135
3	0xbc474bd4	-0.012164075
4	0x3b80f74c	0.00393573
5	0xbbaa1eee	-0.0051916754
6	0xbb949bbc	-0.0045351665
7	0xbbfa92d8	-0.0076468997
8	0x3ae7c640	0.0017682984
9	0xbbdbe84c	-0.0067110416
10	0xbcb75c32	-0.02238283
11	0x3c70589e	0.0146695655
12	0x3b60fe23	0.0034331165
13	0x3b085f6c	0.002080883
14	0xbbe3b272	-0.0069487626
15	0x3c85cde7	0.016333533
16	0xbc3fe5ca	-0.011712501
17	0xbbf768f0	-0.0075503513
18	0x3b97ec5b	0.00463633
19	0x3bad7279	0.005293187
20	0x3b1a4e61	0.0023545253
21	0xbc1b58f9	-0.009481662
22	0xba0710ed	-0.00051523634
23	0xbaae8388	-0.0013314346
24	0x3c091659	0.0083671445
25	0x3c088cf6	0.008334389
26	0x3c063526	0.0081913825
27	0xbaee5f10	-0.001818629
28	0xb9bf9685	-0.00036542505
29	0x3c074a92	0.008257525
30	0x3b8ebd7d	0.004356085
31	0xbb74bd29	-0.0037344194
32	0x3b9392c8	0.0045035817
33	0x3c06257f	0.008187651
34	0xbc1faab3	-0.009745288
35	0x3c9cc298	0.019135758
36	0xbb9baeb4	-0.004751051
37	0xba2fca37	-0.00067058526
38	0x3c05d537	0.00816851
39	0x3c3fd947	0.011709518
40	0xbae6ea3b	-0.0017617414
41	0x3bad4aaf	0.005288444
42	0xbbb28b77	-0.0054487544
43	0x3b733a71	0.0037113691
44	0xbc29cae2	-0.010363312
45	0xbc07073b	-0.00824147
46	0xbb3b2224	-0.0028554285
47	0xb9579e48	-0.00020562962
48	0x3b743a9f	0.0037266386
49	0xba43d0ae	-0.00074697554
50	0x3be1597a	0.0068771215
51	0xbaa5c4a9	-0.001264711
52	0x3a902b97	0.0010999319
53	0xbc74d22b	-0.014942686
54	0xbb9795a8	-0.0046259947
55	0x3a921621	0.0011145511
56	0xbc6f948e	-0.014622821
57	0x3ca0608c	0.019577287
58	0xbc874bfc	-0.016515724
59	0x3b7b105d	0.0038309314
60	0xbc388c76	-0.011263957
61	0xbaf820d0	-0.0018930677
62	0xbc5ca81a	-0.013467813
63	0x3a459879	0.0007537674
64	0xbaecf997	-0.0018079755
65	0xbc9866e5	-0.018603751
66	0xbbcb303d	-0.006200819
67	0x3af58514	0.0018731677
68	0xbbc224e6	-0.005924809
69	0xbc5c026b	-0.013428311
70	0x3a5bf43b	0.000839058
71	0xbba3ca6d	-0.0049984963
72	0xbb952c86	-0.0045524267
73	0xbc296221	-0.010338337
74	0x3b79cbf6	0.0038115955
75	0xb9dd7444	-0.0004223903
76	0x3c96b49f	0.018396674
77	0x3ba2b6d5	0.004965643
78	0x3bcc6192	0.006237217
79	0xbbe60e0b	-0.007020717
80	0xbc19ec08	-0.009394653
81	0x39734d8c	0.00023203174
82	0xbb29b69a	-0.0025896193
83	0xbbd6dbbf	-0.0065569575
84	0x3c089d39	0.008338266
85	0xbb9ca811	-0.0047807773
86	0x3a94596b	0.0011318153
87	0xba64708b	-0.000871428
88	0x3a401e7e	0.00073287624
89	0x3c207215	0.009792824
90	0x3b1cf1c8	0.0023947824
91	0x3c1cc902	0.009569408
92	0xbc919a69	-0.017773824
93	0x3c287fb6	0.010284355
94	0x3b7dd280	0.0038730204
95	0x3b2ee261	0.0026685225
96	0x3c7c3109	0.01539255
97	0x3c851636	0.016245943
98	0x3c1cd365	0.009571885
99	0xba0cff28	-0.00053785974
100	0x3c1adac2	0.00945157
101	0xbafe37ed	-0.0019395329
102	0xbb9d45ce	-0.004799581
103	0xbcc3145d	-0.02381342
104	0xbcb6bbd9	-0.02230637
105	0xbba62829	-0.0050707054
106	0xbbeec2d6	-0.00728641
107	0xbc04846d	-0.008088213
108	0xbc39a3d0	-0.01133056
109	0x3c534215	0.012894173
110	0x3bbaf756	0.0057057543
111	0xb9d7cc35	-0.00041160142
112	0xb842678e	-4.6349647e-05
113	0xbc725282	-0.014790179
114	0xbc9f737d	-0.019464249
115	0xbb85924d	-0.0040762783
116	0x3b84c278	0.004051503
117	0xbb1b7aca	-0.002372431
118	0x3c277e6c	0.010223012
119	0x3c306ea2	0.010768564
120	0xbbc9086d	-0.0061350376
121	0xbc7a8038	-0.015289359
122	0x3c528de8	0.012851216
123	0x3baf2d23	0.005345957
124	0x3b944859	0.004525226
125	0x3c0ef292	0.008724825
126	0xbbba435e	-0.0056843003
127	0x3ac72d76	0.0015196044

action_model._continuous_distribution.mu.weight f4 [1, 128]
0	0x3c50619a	0.0127185825
1	0x3c9852ce	0.018594172
2	0xbb15e89d	-0.0022874244
3	0xba0e10f0	-0.0005419394
4	0xbcc14641	-0.02359307
5	0xbc40e02d	-0.011772198
6	0x3bcca604	0.0062453765
7	0x3cbe329e	0.023217496
8	0xbc4f851f	-0.012666016
9	0xbcd2af0f	-0.02571824
10	0xbcbc9467	-0.023019983
11	0xbc4d78dc	-0.012541022
12	0xbc9c3306	-0.019067299
13	0xbc98b7e1	-0.018642368
14	0x3c327029	0.010890999
15	0xbc659c2d	-0.014014286
16	0x3cd7e136	0.026352506
17	0xbc128b3a	-0.008944327
18	0x3c4f0a49	0.0126367295
19	0xbc5863f3	-0.0132074235
20	0xbc9f81fe	-0.019471165
21	0x3c60e029	0.013725319
22	0x3c513224	0.012768302
23	0x3ca0a8b2	0.01961169
24	0x3c65fc47	0.014037198
25	0x3cbf02b2	0.023316715
26	0xbbe4b1ae	-0.006979189
27	0xbc19c2d7	-0.009384832
28	0x3ce7d33b	0.028298965
29	0x3c8d8ace	0.017278101
30	0x3c4f4686	0.012651091
31	0x3c8bc6b1	0.017062517
32	0xbc535b6c	-0.012900215
33	0x3c98f218	0.018670127
34	0x3d026c99	0.031841848
35	0xbc018a02	-0.007906439
36	0xbcac4353	-0.021028196
37	0x3c821e29	0.015883522
38	0x3c6b646d	0.014367205
39	0xbb46bf20	-0.0030326322
40	0x3b101dd3	0.0021990433
41	0xbcd2da64	-0.025738902
42	0x3cb5c059	0.022186445
43	0x3c362938	0.011118226
44	0x391723d0	0.00014413823
45	0xba95e3c4	-0.0011435677
46	0xbcbf6285	-0.023362407
47	0xb9081aa5	-0.00012979897
48	0x3c36b2f0	0.01115106
49	0x3c1248ec	0.008928519
50	0xbaaa895a	-0.0013010905
51	0xbca76795	-0.020435134
52	0xbcc88504	-0.02447749
53	0xbb2cce74	-0.0026368173
54	0x3c3d4baf	0.011553689
55	0x3caa1621	0.020762505
56	0xbbabfade	-0.0052484116
57	0xbcf1bbb9	-0.029508458
58	0xbbef0556	-0.0072943373
59	0xbbff1fb2	-0.007785761
60	0x3c9bd36b	0.01902171
61	0x3ca6a247	0.020341052
62	0xbca3f3af	-0.020013658
63	0x3ba7ac7a	0.0051169964
64	0xbc1c376a	-0.009534696
65	0xbc10589e	-0.0088101905
66	0x3c1167f6	0.008874884
67	0xbc4b6b42	-0.012415709
68	0x3c80b76e	0.015712466
69	0xbd04460c	-0.032293364
70	0xbce39bea	-0.027784307
71	0xbcb90cfb	-0.022589197
72	0x3c613c0c	0.013747226
73	0xbc08aae0	-0.008341521
74	0x3ab4fe5e	0.0013808717
75	0xbaebbe28	-0.0017985748
76	0xbccaca17	-0.024754567
77	0xbc450f51	-0.0120275775
78	0x3c541ec1	0.012946785
79	0x3c667279	0.014065378
80	0xbd3cf8b5	-0.046135623
81	0x3bd17a68	0.006392766
82	0x3b8bd6be	0.0042675426
83	0xbccc048c	-0.024904512
84	0x3c9e3caf	0.019316046
85	0xbba3fe57	-0.005004685
86	0xbbd53773	-0.006506854
87	0x3bf09a08	0.0073425807
88	0x3bf6b8a0	0.0075293332
89	0xbce969ba	-0.028492797
90	0xbc91ffbc	-0.017822139
91	0x3c08064f	0.008302285
92	0xba705fec	-0.0009169567
93	0x3aa8fe7a	0.0012893223
94	0xbbe065ae	-0.0068480587
95	0xbcf6bb9e	-0.03011876
96	0x3c122afe	0.008921383
97	0x3c9a0740	0.018802285
98	0xbba848d2	-0.005135634
99	0x3b10d3b6	0.0022098846
100	0xbca8feeb	-0.020629367
101	0x3b79acc2	0.0038097356
102	0x3c1c882f	0.009553953
103	0x3ae16dda	0.0017198876
104	0xbc350402	-0.011048319
105	0xbba631e0	-0.0050718635
106	0xbc4cdf9e	-0.012504486
107	0xbd180f3a	-0.037123896
108	0x3c8ca6fa	0.017169464
109	0x3b0b6e79	0.0021275564
110	0x3cc18d4c	0.023626946
111	0x3bf07915	0.007338653
112	0xbc4e9c85	-0.012610559
113	0xbb6ca178	-0.0036106985
114	0xb8e3128f	-0.0001082766
115	0xbc8096c2	-0.015696887
116	0x3cd1804a	0.025573868
117	0x3c5cec9a	0.013484145
118	0x3c905025	0.01761634
119	0xbae62fdc	-0.0017561871
120	0xbceee12c	-0.029160105
121	0x3c992c96	0.018698018
122	0xbbda7e7a	-0.006667909
123	0x3d34978d	0.044089843
124	0xbcedd6d1	-0.029033097
125	0x3d15afc0	0.03654456
126	0x3c3759e9	0.01119087
127	0x3d39aca2	0.04533065

action_model._discrete_distribution.branches.0.weight f4 [1, 128]
0	0x3c1f8177	0.009735457
1	0x3a2a63af	0.00064998394
2	0x3ab62dcd	0.0013899148
3	0x3c46a0e7	0.012123323
4	0xbc2681da	-0.010162795
5	0x3c2af67f	0.010434746
6	0x3c31a7d6	0.010843238
7	0x3c917d85	0.017760048
8	0xba88e77f	-0.0010444968
9	0xbc005577	-0.007832876
10	0xbc5b0af0	-0.013369307
11	0x3aa02dab	0.0012220641
12	0xbc14ba6f	-0.009077652
13	0x3c8cd58b	0.017191669
14	0x3c220658	0.009889208
15	0x39672458	0.00022043416
16	0x3c21296f	0.009836539
17	0x3b6b1527	0.0035870762
18	0x3c810ba9	0.01575263
19	0x3ae8a54b	0.0017749456
20	0xbb736482	-0.0037138765
21	0xbc20c4de	-0.009812562
22	0xbbb27b8f	-0.0054468582
23	0xbc2c7c47	-0.010527677
24	0x3ba69edb	0.005084855
25	0xbc8774c9	-0.01653518
26	0xbc3bb914	-0.0114577
27	0x3c1948bc	0.00935572
28	0x3c1d0499	0.009583616
29	0xbbb0e6b0	-0.005398594
30	0x3c0966a8	0.008386292
31	0xbcdc6508	-0.026903644
32	0x3b952adf	0.00455223
33	0xbb63a5ed	-0.003473635
34	0x3b210a14	0.0024572657
35	0xbb9c74c0	-0.00477466
36	0x3c8e4807	0.01736833
37	0x3c27f39f	0.010250955
38	0x3c8e37c6	0.01736058
39	0x3c5628e3	0.013071272
40	0x3bc4eacb	0.006009435
41	0x39a4a4c4	0.00031403278
42	0xbbe48133	-0.0069734096
43	0xbc2f36aa	-0.010694185
44	0x3bbf47da	0.005837423
45	0x3c1414c7	0.009038157
46	0x3bfc963f	0.0077083404
47	0xba498a55	-0.00076881546
48	0xbcd5e66d	-0.026110852
49	0x3b3df019	0.002898222
50	0xbbe2fd47	-0.0069271657
51	0x3b806c1f	0.003919139
52	0xbc1f7575	-0.009732594
53	0xbbc08102	-0.005874754
54	0x3ae4af70	0.0017447304
55	0x3bb7eeca	0.0056131827
56	0x3c8be629	0.017077522
57	0xbbba5f76	-0.0056876494
58	0xbb974267	-0.00461607
59	0x3bad318e	0.0052854484
60	0x3c48e881	0.0122624645
61	0xb882a857	-6.230239e-05
62	0xbba0324f	-0.0048888098
63	0x3c0e99dc	0.008703675
64	0x3bcdb777	0.006277974
65	0xbae90d5f	-0.0017780474
66	0xbb51b81d	-0.003200061
67	0x3b0af138	0.0021200906
68	0xbbc3130d	-0.0059531988
69	0x393a434b	0.00017763411
70	0xbcb17b6d	-0.0216653
71	0xbaa86393	-0.0012847058
72	0x3c59f963	0.013304087
73	0xbb671453	-0.0035259917
74	0x3b0cc4ba	0.0021479563
75	0xba33180c	-0.00068318914
76	0x3b49ac27	0.0030772777
77	0x3b3b2967	0.0028558613
78	0xbc740c53	-0.014895516
79	0xbbad9123	-0.0052968427
80	0xbb9c9675	-0.004778678
81	0xbc45dae0	-0.01207611
82	0xbb74e188	-0.0037365872
83	0xbb4c4fbe	-0.003117546
84	0x3c382daa	0.011241356
85	0xbb72d30d	-0.0037052066
86	0xbcb88bbd	-0.02252757
87	0x3c815d9b	0.015791705
88	0xbc678f0b	-0.014133225
89	0xb8db1308	-0.000104462786
90	0xbb867c71	-0.00410419
91	0xbbd2e268	-0.006435681
92	0x3c69a99b	0.0142616285
93	0x3b300bfa	0.0026862607
94	0xbc0598ec	-0.008154135
95	0xbbf53e87	-0.0074842605
96	0x3b57c66d	0.0032924667
97	0x393b9544	0.00017889315
98	0x3a98f2d8	0.0011669053
99	0xba2f2843	-0.00066817197
100	0x3be85925	0.007090705
101	0xbbca47e7	-0.006173122
102	0x3c24e00b	0.010063182
103	0xba61a4f0	-0.00086076465
104	0x3c42bd93	0.011886018
105	0xbc32b58f	-0.010907545
106	0x3c303804	0.010755543
107	0x3c31dc6f	0.010855778
108	0xbb36ee5e	-0.0027913074
109	0x3b88dded	0.0041768462
110	0xbbf98f7b	-0.007615981
111	0xbb55d05b	-0.003262541
112	0xbbedb057	-0.0072536874
113	0x3c27094f	0.01019509
114	0xbc03f46a	-0.008053878
115	0xbb90582b	-0.0044050417
116	0xbbc20f02	-0.005922199
117	0x3a591feb	0.0008282649
118	0x39fc7df3	0.00048159025
119	0xbb81ef90	-0.0039653257
120	0x3bc57569	0.0060259593
121	0x3c3c1f6f	0.011482104
122	0x3c0ecd2f	0.008715912
123	0xb9721c85	-0.00023089543
124	0xbb4844c0	-0.0030558556
125	0xbc6187b7	-0.013765267
126	0x3c30e160	0.010795921
127	0x3c23b4f6	0.009991875

onnx::LSTM_116 f4 [1, 512, 128]
0	0x3e0f4648	0.13991654
1	0x3d0bb441	0.03410745
2	0xbcaffa98	-0.021481797
3	0x3e11b4ee	0.14229175
4	0x3e1f0a3d	0.1553125
5	0x3ce2f6dd	0.027705604
6	0x3c8a6404	0.016893394
7	0x3df1853f	0.11792993
8	0xbc497180	-0.012295127
9	0x3dd901ca	0.10596044
10	0x3dfe3898	0.12413138
11	0x3e0d286d	0.13784952
12	0xbdbb862a	-0.09156449
13	0x3e134be6	0.14384422
14	0xbd708e4c	-0.058729455
15	0x3de415fb	0.11137005
16	0xbe12d6e1	-0.14339782
17	0x3c5a6c80	0.0133315325
18	0xbdd39c90	-0.10332596
19	0xbc671aae	-0.014105482
20	0x3e1122e9	0.14173473
21	0xbdcd4205	-0.10022358
22	0xbd0ed5fa	-0.034872033
23	0x3d9a685d	0.07539437
24	0x3d1fc03e	0.039001696
25	0xbe155c1e	-0.14585921
26	0xbc9497ee	-0.018138852
27	0xbdbee07d	-0.093201615
28	0xbe1869ec	-0.14884156
29	0xbd55b3ef	-0.05217355
30	0xbbe684af	-0.00703486
31	0x3e0ff924	0.14059883
32	0x3e0bc514	0.13649398
33	0xbde5969c	-0.11210367
34	0x3d17e965	0.037087817
35	0xba146a50	-0.0005661594
36	0xbd46653f	-0.0484364
37	0xbe167718	-0.14693868
38	0x3daa6bc5	0.08321337
39	0x3d91fcc0	0.07128286
40	0x3ca62f2b	0.020286163
41	0x3d8fa789	0.07014377
42	0x3e04884a	0.12942615
43	0xbd9641ae	-0.07336746
44	0xbc912a8e	-0.017720487
45	0x3d90fa21	0.07078958
46	0x3db64294	0.088994175
47	0xbdbc5cb5	-0.0919737
48	0xbdf4923f	-0.11941957
49	0x3cff382a	0.03115471
50	0xbe00fb98	-0.12595975
51	0x3dbe4ece	0.092923746
52	0x3d5f49f5	0.05451389
53	0x3dd317f4	0.10307303
54	0xbde79af8	-0.11308855
55	0x3e24deba	0.16100588
56	0x3d4e8a7f	0.05042505
57	0x3d3787a9	0.04480711
58	0x3c7c2fb9	0.015392237
59	0x3ad21dce	0.0016030611
60	0x3c4a4d8d	0.012347591
61	0xbe15e0f9	-0.14636602
62	0x3df9749d	0.12180445
63	0x3e10631d	0.14100309
64	0x3e11b941	0.14230825
65	0xbba6c161	-0.0050889705
66	0x3d8982d6	0.06714408
67	0xbe039eb8	-0.12853515
68	0xbd64b73d	-0.055838812
69	0x3ddc4bc4	0.10756639
70	0x3d8b8d8c	0.06814107
71	0x3df4ea3c	0.11958739
72	0x3dbec212	0.0931436
73	0x3d3bd1e0	0.04585445
74	0x3e1bdf2c	0.15221852
75	0x3ce4a575	0.027910927
76	0x3d452014	0.048126295
77	0xbd7072e1	-0.058703307
78	0xbe0ef7ac	-0.13961667
79	0x3d4e25d9	0.050329063
80	0xbd182bf6	-0.0371513
81	0xbd8a610c	-0.067567915
82	0xbdccc523	-0.09998538
83	0x3d934df8	0.07192606
84	0xbc831377	-0.016000492
85	0x3d76aec3	0.06022526
86	0xbd10dfb2	-0.035369582
87	0x3bff8ef4	0.0077990238
88	0xbd600e1e	-0.054700963
89	0x3dcf03b2	0.10108127
90	0x3dfb4a1d	0.12269995
91	0x3d45a12c	0.04824941
92	0xbd58c9d6	-0.05292686
93	0xbe029294	-0.12751228
94	0x3e057b62	0.13035348
95	0xbdfdd69d	-0.1239445
96	0x3d7a23c4	0.061069265
97	0x3dd82d26	0.105554864
98	0x3bd4d328	0.0064948983
99	0xbc82bac9	-0.015958207
100	0xbd1bf0b9	-0.038071368
101	0x3d28f7c2	0.041251905
102	0x3d41612a	0.047211803
103	0xbdc39c95	-0.0955135
104	0xbc970c40	-0.018438458
105	0x3dd9e146	0.106386706
106	0xbd398ff8	-0.045303315
107	0x3da4ca16	0.08046357
108	0xbe19f371	-0.15034272
109	0x3dafc785	0.08582977
110	0x3da9473d	0.08265541
111	0xbd4a126d	-0.04933398
112	0xbdaff6bf	-0.08591985
113	0xbc429ee1	-0.0118787
114	0x3e00a98a	0.12564674
115	0x3e031603	0.12801366
116	0xbd1a2c72	-0.037640043
117	0x3e03541d	0.12825055
118	0x3dad6e72	0.084683314
119	0xbdbc36cd	-0.0919014
120	0x3db24c69	0.0870598
121	0x3dc82871	0.097733386
122	0x3dbafbec	0.091300815
123	0x3d7b738e	0.0613895
124	0xbd6fde43	-0.058561575
125	0x3de09fd3	0.10967984
126	0x3d50d135	0.050980765
127	0x3dc825a6	0.09772806
128	0x3e12e9d1	0.14347006
129	0xbe2141b8	-0.15747726
130	0xbd97b4e2	-0.074075475
131	0xbc15a467	-0.009133435
132	0xbdb23897	-0.087022
133	0xbdbfedc7	-0.09371524
134	0xbd4fed64	-0.050763503
135	0xbd617fa9	-0.055053387
136	0x3d1f7648	0.03893116
137	0x3da36d05	0.07979778
138	0x3c81503a	0.015785325
139	0xbe1baaa9	-0.1520182
140	0xbe213fd8	-0.1574701
141	0x3d544e06	0.05183222
142	0xbdbde510	-0.09272206
143	0xbdd8b2ac	-0.10580954
144	0x3d37dc05	0.04488756
145	0x3d5cebd7	0.053935852
146	0xbdd70ffd	-0.105010964
147	0xbe1cf57f	-0.15328024
148	0x3ce3742e	0.02776536
149	0xbda2be86	-0.07946496
150	0xbdea5348	-0.11441666
151	0x3d9d8c27	0.076927476
152	0x3e252008	0.161255
153	0xbdb4ddb3	-0.08831348
154	0xbe00e657	-0.12587868
155	0x3dd4336c	0.103613704
156	0x3e20ddd0	0.15709615
157	0xbdbde062	-0.09271313
158	0x3ddd7ff6	0.10815422
159	0x3d647084	0.055771366
160	0x3d0f6544	0.035008684
161	0xbce8fd97	-0.028441234
162	0xbd766269	-0.060152445
163	0x3d97d5db	0.074138366
164	0xbd9fdf08	-0.07806212
165	0x3deeeb2a	0.11665948
166	0xbe0490ef	-0.12945913
167	0x3c4a855d	0.012360898
168	0x3def0a4c	0.11671886
169	0xbe22c10d	-0.15893956
170	0x3cdbd8db	0.026836803
171	0x3c6fce79	0.014636629
172	0x3d4aabe2	0.049480326
173	0xbdc8c58a	-0.098033026
174	0x3da6d4ca	0.08146055
175	0xbd85d6af	-0.06535088
176	0xbda9505d	-0.08267281
177	0x3d4a407a	0.049377896
178	0xbe160fb2	-0.14654425
179	0x3dbbad8b	0.0916396
180	0xbcb053cb	-0.02152433
181	0xbe0f0e3b	-0.13970272
182	0xbe086fc7	-0.1332389
183	0x3dfef741	0.12449504
184	0xbd5ebf80	-0.054381847
185	0xbcb0b3f4	-0.021570183
186	0x3e04c70f	0.1296656
187	0xbcb32a83	-0.021870857
188	0xbd55d8a8	-0.052208573
189	0x3cfb934e	0.030709889
190	0x3dda5fc4	0.10662797
191	0xbd7c9560	-0.061665893
192	0xbdba87d3	-0.09107938
193	0xbcda948b	-0.026682159
194	0x3e0197cb	0.1265556
195	0xbdb7520b	-0.08951195
196	0x3db2cd6d	0.08730588
197	0x3cfce163	0.030869192
198	0xbd62c225	-0.055360932
199	0xbd962a5b	-0.073322974
200	0x3e174dc7	0.14775763
201	0x3df80233	0.121097945
202	0xbe107a27	-0.14109097
203	0x3d7d4a63	0.06183852
204	0x3e01ac25	0.12663324
205	0xbdd8689b	-0.10566827
206	0x3ddf1efe	0.10894583
207	0xbd81db6b	-0.06340679
208	0x3d782806	0.060585044
209	0x3de81084	0.11331275
210	0x3d63a02b	0.05557267
211	0x3dec02ca	0.115239695
212	0xbe0cc3b2	-0.13746527
213	0xbc59a9bf	-0.0132850995
214	0xbe13a423	-0.14418082
215	0xbda2cb74	-0.07948962
216	0xbc160394	-0.0091561265
217	0x3cc7bde5	0.024382541
218	0xbd112b0c	-0.035441443
219	0x3d076b4d	0.033061314
220	0x3e0fbe2c	0.14037389
221	0xbd840543	-0.06446316
222	0xbd775b8b	-0.060390037
223	0x3e10e52e	0.14149925
224	0xbda25981	-0.07927228
225	0x3d84ba5a	0.06480856
226	0x3d9aee85	0.07565025
227	0x3c9bd32f	0.019021599
228	0xbd88cfda	-0.066802695
229	0x3cbec003	0.023284918
230	0xbcbdfa6e	-0.023190703
231	0xbe0f6c8c	-0.14006251
232	0x3e0cb9b7	0.1374272
233	0x3df1c838	0.11805767
234	0x3d9afc9a	0.07567711
235	0xbd3c542a	-0.045978703
236	0x3dd10d5f	0.102076285
237	0xbcf2fbfa	-0.029661167
238	0xbd420ed0	-0.047377408
239	0xbc8d5121	-0.0172506
240	0x3c48e951	0.012262658
241	0xbcb90e89	-0.022589939
242	0xbe182e5a	-0.14861432
243	0x3e0699bb	0.13144581
244	0x3e077571	0.13228394
245	0xbc0a912e	-0.008457465
246	0x3e1e81f7	0.15479265
247	0x3e060dbf	0.13091181
248	0xbda6a69b	-0.08137246
249	0x3d175bb4	0.03695269
250	0x3d8ba1be	0.06817959
251	0xbe091fae	-0.13390991
252	0x3cb7232f	0.022355644
253	0xbd7c13c5	-0.06154229
254	0x3d81d8e2	0.06340195
255	0xbda3ebdb	-0.0800397

onnx::LSTM_117 f4 [1, 512, 128]
0	0x3da9582e	0.08268772
1	0xbd9bd712	-0.07609381
2	0x3dc03419	0.09384937
3	0xbe0d238e	-0.13783094
4	0xbd83d5f7	-0.06437295
5	0xbe122946	-0.14273557
6	0xbe0651df	-0.13117169
7	0xbd3d36f3	-0.04619498
8	0xbcf25a20	-0.02958399
9	0x3cf5a785	0.029987106
10	0x3d59f4cb	0.05321197
11	0x3dbd151e	0.092325434
12	0xbdaaf50e	-0.08347522
13	0x3d4d2a10	0.050088942
14	0x3dfad762	0.12248112
15	0xbcc325e3	-0.023821777
16	0xbdbe6de2	-0.09298302
17	0x3db5a4a4	0.08869293
18	0xbc31a6bf	-0.010842978
19	0x3d06bcae	0.032894783
20	0xbdc71096	-0.097199604
21	0x3cb32be3	0.021871513
22	0xbdfb72ad	-0.12277732
23	0x3b836866	0.004010248
24	0x3d369a13	0.04458053
25	0x3c8f0423	0.017458027
26	0x3ddf07fc	0.10890195
27	0xbc3dc95e	-0.011583654
28	0xbc2719ab	-0.010198991
29	0x3d0bea23	0.034158837
30	0xbdb636c5	-0.08897165
31	0x3c92598a	0.017864961
32	0xbe1e190a	-0.15439239
33	0xbd08888a	-0.03333334
34	0xbda7808f	-0.081788175
35	0xbde0b25f	-0.109715216
36	0x3db1f411	0.0868913
37	0x3d9b9fc9	0.07598836
38	0xbd340926	-0.043954037
39	0x3bd952db	0.0066321916
40	0xbe0c67a9	-0.13711418
41	0x3e00c520	0.12575197
42	0x3c166a2a	0.009180585
43	0x3df44aa2	0.119282976
44	0x3c9432ce	0.018090632
45	0x3e1076ff	0.14107893
46	0x3d9a6d4f	0.0754038
47	0xbd9d8697	-0.076916866
48	0x3ccfb02c	0.02535256
49	0xbe0c58eb	-0.13705795
50	0x3d51c59a	0.05121384
51	0xbe05e274	-0.13074666
52	0xbd2748d8	-0.040840954
53	0xbd381f47	-0.044951703
54	0x3d673e8e	0.05645614
55	0xbaad9b8d	-0.001324521
56	0xbdb3ca39	-0.08778805
57	0x3e09855a	0.13429776
58	0xbd9eda43	-0.07756474
59	0x3e1d098c	0.15335673
60	0xbdb3bd5d	-0.087763526
61	0x3da124a6	0.07868318
62	0x3e0f1710	0.13973641
63	0xbde9038f	-0.11377632
64	0xbdc60dd0	-0.09670603
65	0xbdfedff9	-0.12445063
66	0x3c9d252e	0.019182768
67	0x3e0d352f	0.13789819
68	0xbda9cf6d	-0.082915165
69	0x3cc23be1	0.023710193
70	0x3dcabe72	0.09899606
71	0x3d87de50	0.066341996
72	0x3db7c341	0.089727886
73	0xbd6395d4	-0.05556281
74	0xbdddf00a	-0.108367994
75	0xbd8fd9c5	-0.07023958
76	0xbdd06608	-0.10175711
77	0x3dbe77e9	0.09300215
78	0xbdf522d6	-0.11969535
79	0x3c138b58	0.00900539
80	0xbd517724	-0.051139012
81	0xbccc048b	-0.02490451
82	0xbc9a9db4	-0.018874027
83	0x3e07d9fa	0.13266745
84	0x3df5b239	0.11996884
85	0xbdb4ebc5	-0.08834032
86	0xbdd9a6fa	-0.106275514
87	0x3dc980d6	0.09839027
88	0x3e1ea147	0.1549121
89	0x3d4addb5	0.049527843
90	0x3b5e86a7	0.003395477
91	0xbe0f6757	-0.14004265
92	0x3c5351d8	0.012897931
93	0xbe1450b2	-0.14483908
94	0xbce13d7c	-0.027495138
95	0xbd9930d9	-0.0748002
96	0xbc7732fb	-0.015087838
97	0x3c9a5343	0.01883853
98	0x3dfaa259	0.122379966
99	0xbda98e6c	-0.08279118
100	0xbc938571	-0.018007966
101	0xbd805616	-0.062664196
102	0xbdd1b690	-0.10239899
103	0x3db962b0	0.09052026
104	0xbb902a54	-0.004399577
105	0x3d162ba1	0.0366627
106	0x3da8d1d5	0.08243147
107	0xbdb6b2b9	-0.089208074
108	0x3e02f75d	0.12789674
109	0xbe0176ff	-0.1264305
110	0xbdc3e103	-0.09564402
111	0xbd131d8f	-0.03591686
112	0x3e20684d	0.15664788
113	0xbd8c3d39	-0.06847615
114	0xbd7e49c7	-0.06208208
115	0xbd2fc717	-0.042914476
116	0xbd7501f8	-0.05981633
117	0xbdbf9306	-0.09354214
118	0x3d12b180	0.03581381
119	0xbd50ec1e	-0.05100643
120	0x3d7fbff3	0.062438916
121	0x3d9c28b0	0.07624948
122	0xbe0854e4	-0.13313633
123	0x3deaabe9	0.114585705
124	0xbdd44850	-0.10365355
125	0x3c7f0317	0.0155647015
126	0xbcb4f565	-0.02208967
127	0x3dafb063	0.08578565
128	0xbd852afb	-0.065023385
129	0xbdfd0b2b	-0.12355646
130	0x3d9a6b33	0.07539978
131	0xbdda61bb	-0.10663172
132	0x3c6085cc	0.013703775
133	0xbde97880	-0.11399937
134	0x3dc234e5	0.09482745
135	0xbe0a1164	-0.13483196
136	0x3e02339f	0.12715004
137	0xbdb81091	-0.08987535
138	0x3dfb6bba	0.122764066
139	0xbdaa151a	-0.08304806
140	0x3dfbdbce	0.12297784
141	0xbca70b12	-0.02039102
142	0xbe12581b	-0.14291422
143	0xbda7dac3	-0.08196022
144	0xbe1e22b0	-0.1544292
145	0xbd803a3b	-0.062611066
146	0xbe136d7d	-0.14397235
147	0x3d967015	0.07345597
148	0xbe0515e9	-0.1299664
149	0xbe08cd63	-0.13359599
150	0x3cf3e995	0.029774467
151	0xbc569ce5	-0.01309893
152	0xbe1316f1	-0.1436422
153	0x3d15c60c	0.036565825
154	0xbc8a6c8f	-0.016897468
155	0xbe0c0f2f	-0.13677667
156	0x3dd12610	0.10212338
157	0x3e028c6d	0.1274888
158	0xbe111e69	-0.14171757
159	0x3d43d6b8	0.047812194
160	0x3df3ebc3	0.11910202
161	0x3d616485	0.055027504
162	0xbd666ce4	-0.05625619
163	0xbe045410	-0.12922692
164	0xbde1aa85	-0.11018852
165	0xbdb29c72	-0.08721246
166	0x3e041073	0.128969
167	0x3d83708b	0.0641795
168	0xbdf2cc17	-0.11855333
169	0xbd62c142	-0.055360086
170	0xbe0c8425	-0.13722284
171	0xbd6bfed9	-0.05761609
172	0xbd7c7a7e	-0.061640255
173	0xbe0ecdfd	-0.13945766
174	0x3d97cd29	0.07412178
175	0x3e0c81c1	0.13721372
176	0xbc70b414	-0.0146913715
177	0xbe0f10d0	-0.13971257
178	0x3e0b553f	0.13606738
179	0x3dffe7b7	0.12495368
180	0xbd8aceed	-0.06777749
181	0x3dbb6765	0.0915058
182	0xbdbf119f	-0.09329533
183	0x3cdbf0b5	0.026848176
184	0xbd4253e9	-0.047443304
185	0xbddaaedc	-0.10677883
186	0xbd56855a	-0.052373268
187	0xbbfbb5d0	-0.007681586
188	0x3db4a8b2	0.088212386
189	0x3dfa0f39	0.12209935
190	0xbe1a642a	-0.15077272
191	0x3c324415	0.01088049
192	0x3dac4c2e	0.084129676
193	0xbdecb7e9	-0.115585156
194	0xbd98ba6c	-0.07457432
195	0x3c828669	0.015933232
196	0x3ddb383b	0.107040845
197	0xbdecc848	-0.11561638
198	0xbdf2db61	-0.118582495
199	0xbe1dfee2	-0.15429261
200	0xbda18be9	-0.07888014
201	0x3d81483e	0.06312607
202	0xbd2a5978	-0.04158923
203	0xbd7c4da6	-0.06159749
204	0x3e1266dd	0.14297052
205	0xbe069ed5	-0.13146527
206	0xbddae3bc	-0.10687968
207	0x3dae6d64	0.08516958
208	0xbd933e5e	-0.0718963
209	0xbd4f8368	-0.05066243
210	0xbd280d75	-0.04102846
211	0xbd929cb5	-0.07158796
212	0x3c2be167	0.010490752
213	0x3e03bce6	0.12865028
214	0x3dd5915b	0.10428115
215	0xbde5a134	-0.11212388
216	0xbddab796	-0.106795475
217	0x3dd204f3	0.1025485
218	0x3e043fe4	0.12914997
219	0xbd9ccd3d	-0.076563336
220	0x3d787ccc	0.06066589
221	0xbda54db9	-0.08071465
222	0xbe1359cf	-0.14389728
223	0xbc4254e2	-0.011861058
224	0x3db75bcf	0.08953058
225	0xbcf27d0f	-0.029600648
226	0xbd9664cd	-0.07343445
227	0x3c0a7867	0.008451558
228	0xbd5f0a1f	-0.05445301
229	0x3e0d1720	0.13778353
230	0xbcdabd39	-0.026701557
231	0xbd97d5b1	-0.07413805
232	0x3dbe03b0	0.09278047
233	0x3dda793d	0.106676556
234	0x3df09e8c	0.117489904
235	0xbcd31d4f	-0.025770811
236	0xbcbb34fb	-0.022852411
237	0x3d8f85cf	0.07007944
238	0x3e1488b5	0.14505275
239	0x3d845456	0.06461398
240	0x3d979f74	0.0740346
241	0x3c8c53e8	0.017129853
242	0x3d46e6a7	0.04855981
243	0x3dd40213	0.10351958
244	0xbd95cf87	-0.07314973
245	0xbd92878d	-0.071547605
246	0x3dee8bfb	0.11647793
247	0x3dcd6584	0.10029128
248	0xbdcdf09c	-0.10055658
249	0xbd7397b3	-0.059470844
250	0xbbb43f66	-0.0055007217
251	0x3d3e9686	0.04653027
252	0x3e0fa1f8	0.1402663
253	0xbdafedff	-0.08590316
254	0xbc8c95c3	-0.017161256
255	0x3d0dab80	0.034587383

onnx::LSTM_118 f4 [1, 1024]
0	0x3a17dcbb	0.0005793084
1	0x3ab8970e	0.0014083104
2	0x3b074749	0.0020641854
3	0xbbff32b2	-0.007788026
4	0x3b928e6b	0.004472544
5	0x3ba46303	0.005016686
6	0xbc063fb5	-0.0081939
7	0xbc0319dd	-0.008001772
8	0x3c81145a	0.015756775
9	0x3c0b59a5	0.00850526
10	0x3c08cee7	0.008350111
11	0xba978962	-0.0011561329
12	0x3c16433c	0.009171303
13	0x3b74f041	0.0037374648
14	0x3bdb134b	0.0066856495
15	0xbb8043e1	-0.003914342
16	0x3c41eac5	0.011835759
17	0x3b30a743	0.0026955165
18	0x3a89ff25	0.001052831
19	0xbbc2b672	-0.0059421593
20	0xb91c6673	-0.00014915485
21	0x3bc336d3	0.0059574633
22	0x3aa142e5	0.0012303261
23	0x3bf81221	0.0075705205
24	0xba4c9fdc	-0.00078058033
25	0x3a6fd1bf	0.0009148381
26	0xbbe46e8f	-0.0069711874
27	0x3b940c30	0.0045180544
28	0xbbcdbda6	-0.0062787114
29	0x3c057c26	0.008147275
30	0x3b221321	0.002473064
31	0xbc498776	-0.012300363
32	0x3bb62297	0.0055583226
33	0x3b931731	0.0044888486
34	0x3bc1afac	0.0059108343
35	0xbb09016a	-0.0020905384
36	0x3a6fc565	0.00091465405
37	0x3bb18c93	0.005418369
38	0xba9ea56f	-0.0012103746
39	0x3c53d48d	0.012929094
40	0xbc000b06	-0.007815128
41	0xb9bad29e	-0.00035633607
42	0x3c20bc86	0.0098105725
43	0x3b3211c5	0.0027171236
44	0x3c3a901e	0.011386899
45	0xbb9354eb	-0.004496207
46	0x3c150a1b	0.009096648
47	0x3c2746ef	0.010209783
48	0x3babb87a	0.005240497
49	0x3baf64fa	0.0053526135
50	0xba88dbf1	-0.0010441524
51	0x3c42ab25	0.011881624
52	0x3c016479	0.00789749
53	0x3bed07ae	0.0072335815
54	0x3bac300f	0.0052547525
55	0x3ba37be4	0.004989134
56	0xb887c3fe	-6.473808e-05
57	0x3bc406aa	0.0059822397
58	0x3c2573b4	0.010098387
59	0xba94ef05	-0.0011362737
60	0xbb8a13a1	-0.0042137657
61	0xbc0d335b	-0.008618201
62	0x3b3537d9	0.0027651696
63	0x3b3609bb	0.0027776796
64	0x3b421f40	0.0029620677
65	0xbb314ebc	-0.0027054986
66	0x3b06d009	0.0020570776
67	0x3b4985a5	0.0030749824
68	0x3b9e75c5	0.0048358166
69	0x3bf4a8e9	0.0074664247
70	0xba729447	-0.00092536624
71	0x3b14b4d1	0.0022690783
72	0x3bac01ad	0.005249223
73	0xbb27a6c9	-0.002558159
74	0xbb6f8079	-0.0036545082
75	0xbaa5b74a	-0.0012643125
76	0x3c5d74ad	0.013516587
77	0xbbcfe7df	-0.00634478
78	0x3ab23b45	0.0013597986
79	0x3c21c482	0.009873511
80	0x39268527	0.00015880597
81	0xbc182701	-0.009286643
82	0x3b091c9f	0.00209216
83	0xbbd79dff	-0.006580114
84	0xbc041215	-0.008060952
85	0x3b91b878	0.004447039
86	0xbc3d053d	-0.011536893
87	0xba8f5cba	-0.0010937669
88	0x3c12c5dd	0.008958307
89	0xbc03063b	-0.007997091
90	0x3b865b74	0.0041002575
91	0x3bd81e94	0.006595442
92	0x3a5a37ab	0.0008324335
93	0x3b3af9bc	0.00285302
94	0xb8ee104a	-0.000113517584
95	0x38e121d6	0.000107351385
96	0x3b56ff77	0.0032806078
97	0x3c07fb92	0.008299725
98	0x3b3c59d5	0.0028740068
99	0x3c4cedea	0.012507895
100	0xbbe9c93a	-0.007134584
101	0x3ca73dbf	0.020415185
102	0xbb225077	-0.00247672
103	0x3b7735f6	0.0037721372
104	0x3b889399	0.0041679856
105	0xbb70a137	-0.0036717185
106	0xbba367ed	-0.004986754
107	0x3ac7682c	0.0015213541
108	0xbb8b56d3	-0.0042522936
109	0xbb63cb7d	-0.003475874
110	0x3c23078b	0.009950529
111	0x3c1bd61e	0.009511499
112	0x3c6c5a8e	0.014425887
113	0x3c56b7f2	0.013105379
114	0xbc71e773	-0.014764654
115	0xbb28de8f	-0.002576742
116	0x3b0df7c5	0.0021662575
117	0xbbff3f39	-0.007789519
118	0x3b16374e	0.0022921148
119	0x3baf4be0	0.005349621
120	0x3bcf57fb	0.0063276268
121	0x3a673b51	0.00088207895
122	0x3c1f5a3d	0.009726104
123	0x3b040200	0.0020142794
124	0x3c6fb7b8	0.014631204
125	0xbb8979d0	-0.0041954294
126	0x3ba58fc1	0.005052537
127	0x3bae85d3	0.0053260117
128	0xba046657	-0.000505065
129	0x3c03b822	0.008039506
130	0xbbcad49f	-0.006189897
131	0xbc0f9f05	-0.008765941
132	0xb95525de	-0.0002032737
133	0xbc18faf9	-0.00933718
134	0xbb5f60db	-0.003408483
135	0x3acb1205	0.0015493041
136	0x3b77a22c	0.003778587
137	0xbb54707d	-0.003241568
138	0x3c015ecb	0.007896136
139	0x3a976691	0.0011550953
140	0xbb5a99d4	-0.003335585
141	0x3c16e82e	0.009210629
142	0x3bb53a5d	0.005530639
143	0xbaa8f74f	-0.0012891087
144	0xba757487	-0.0009363372
145	0xbb815b77	-0.003947671
146	0x3b8caf66	0.00429337
147	0x39624ec0	0.00021582376
148	0x3bd2a347	0.0064281556
149	0x3b06a786	0.002054663
150	0xba8ae083	-0.0010595474
151	0x3bbb298d	0.0057117403
152	0x3b923023	0.0044613048
153	0x3a5416be	0.0008090547
154	0xbbaaa16d	-0.0052072317
155	0xbb614c49	-0.0034377745
156	0x3b1e22ca	0.0024129623
157	0xba50061c	-0.00079354807
158	0x3b97f54a	0.004637395
159	0x3a85e8a8	0.0010216432
160	0x3ba69ade	0.0050843796
161	0x3b66f408	0.0035240669
162	0xb935df04	-0.00017344585
163	0xbbb005ee	-0.0053718006
164	0xba40dd98	-0.0007357239
165	0x39945301	0.00028290602
166	0xb905ebfe	-0.00012771782
167	0x3c3481cd	0.011017275
168	0xbbbbb051	-0.0057278057
169	0xbc10ac5c	-0.008830156
170	0x3bf3fb16	0.0074457033
171	0xb97de7b2	-0.00024214273
172	0xba7bc8f2	-0.00096048333
173	0xbae454f2	-0.0017420335
174	0xb90143cb	-0.00012327654
175	0x3c6430e0	0.013927668
176	0x3b87f3d6	0.0041489406
177	0xbb850988	-0.004059974
178	0xbadf0ee6	-0.001701799
179	0xbabe82e0	-0.0014534853
180	0x3bc61abd	0.006045668
181	0x3ab4f148	0.0013804818
182	0xbc09f4e5	-0.008420204
183	0x3bf0a634	0.0073440317
184	0x3bf9ac51	0.0076194187
185	0x3bbf49f0	0.0058376715
186	0x3be4dc8b	0.0069842986
187	0xbb0650dc	-0.0020494973
188	0x3b8f4ce1	0.0043731784
189	0x3b8b578c	0.0042523798
190	0x3b60aa63	0.0034281246
191	0xbb26b475	-0.002543715
192	0x3aa03cd2	0.0012225157
193	0xbbcb90b1	-0.006212317
194	0xbb3a5053	-0.0028429225
195	0xb9ce6286	-0.00039364788
196	0x39d04d90	0.0003973064
197	0x3b351413	0.0027630373
198	0xbaf7828a	-0.0018883508
199	0x39c8f2b5	0.00038327803
200	0x3a835cad	0.0010022126
201	0xbb378542	-0.0028003012
202	0xba036da4	-0.0005013591
203	0x3b33b1a7	0.0027419121
204	0x3aa4b1da	0.0012565211
205	0x3bc89fa2	0.0061225453
206	0xbc0aa150	-0.008461311
207	0x3b2f90cb	0.0026789184
208	0x3bb833b0	0.005621396
209	0x39e17a2f	0.00043006378
210	0xbb84b1d8	-0.004049521
211	0x3abd04fe	0.0014421043
212	0xbb9b0635	-0.0047309645
213	0x3bf54c96	0.0074859364
214	0xbc0c0141	-0.008545221
215	0x37c5ccfa	2.357968e-05
216	0xbabcd49d	-0.0014406625
217	0x3b0e21dc	0.0021687662
218	0x3c10f69c	0.008847859
219	0x3c17c459	0.0092631215
220	0xbb4c1426	-0.003113994
221	0x3b523070	0.0032072328
222	0x38b360b6	8.553399e-05
223	0x3b8bd1f3	0.0042669713
224	0x3af432a0	0.001863081
225	0x3abc51d2	0.0014367646
226	0xbc0b0999	-0.008486175
227	0x3ba7e719	0.0051239845
228	0xbb90188b	-0.004397457
229	0x3c430cac	0.011904877
230	0x3c30f123	0.010799679
231	0x3aa22132	0.0012369512
232	0x3a687c76	0.0008868644
233	0xb984213b	-0.0002520176
234	0xbc47d326	-0.012196338
235	0x3b51a1d5	0.0031987329
236	0x3b07e456	0.0020735464
237	0xbb62a774	-0.0034584673
238	0xb9174bca	-0.00014428716
239	0x3b9b1345	0.0047325217
240	0x3b95664c	0.004559314
241	0x3c42e2ab	0.011894862
242	0xbc17182f	-0.009222074
243	0xbbd029fa	-0.0063526602
244	0xbb2ac7fa	-0.0026059137
245	0xbbab49ae	-0.005227289
246	0xb9a2edc8	-0.0003107621
247	0x3bf1b94f	0.007376827
248	0xbba238f9	-0.0049506393
249	0x3a8156b8	0.0009867763
250	0xb9f5b6a2	-0.00046866114
251	0xbb612e8c	-0.003436002
252	0xba875b7f	-0.001032695
253	0xbb3c58a3	-0.0028739355
254	0xbb85f146	-0.0040876
255	0x3b5f984f	0.0034117883
