Assets/ML-Agents/results/sshipMovMod1Test-3/My Behavior/checkpoint.pt (torch, 428514 bytes, 33 tensors)

network_body._body_endoder.seq_layers.0.weight f4 [128, 1]
0	0x3f775887	0.96619457
1	0x3fe20e54	1.7660623
2	0x3fd133b3	1.6343902
3	0xbdb79638	-0.08964199
4	0xbfd1caf2	-1.6390059
5	0xbf569288	-0.8381734
6	0xbfa2f88a	-1.2732098
7	0xbecd33cc	-0.4007858
8	0x3de0405a	0.10949774
9	0x3e8a964f	0.270678
10	0x3ec087fd	0.3760375
11	0xbf9edab5	-1.2410494
12	0xbef1d2de	-0.4723119
13	0xbf94c9b6	-1.1624057
14	0xbfaed87f	-1.3659819
15	0xbef24a80	-0.47322464
16	0xbf6e2a07	-0.9303288
17	0xbed3ad6e	-0.41343254
18	0xbe64005e	-0.22265765
19	0xbf95b337	-1.1695317
20	0xbf8d67b8	-1.1047277
21	0xbfbb1a29	-1.4617358
22	0x3f1d73ad	0.6150463
23	0xbff3c77b	-1.9045252
24	0x3ee88c1e	0.454194
25	0xbea8d7e0	-0.329772
26	0xbf7e03cc	-0.99224544
27	0x3e1b3b0e	0.15159246
28	0xbda48e49	-0.08034951
29	0x3f16913d	0.58815366
30	0x3fb01c2a	1.3758595
31	0x3f376a20	0.7164631
32	0x3f3b3371	0.7312537
33	0x3f243b26	0.64152753
34	0x3f574dd0	0.8410311
35	0xbf5b2087	-0.8559651
36	0xbed4d30f	-0.41567275
37	0xbf6afb97	-0.91790146
38	0xbf339e37	-0.7016329
39	0x3e0bf73d	0.13668533
40	0x3f201634	0.6253388
41	0x3eb1ecd6	0.34751004
42	0x3fcc56f0	1.5964031
43	0xbe9d3cca	-0.3071044
44	0xbecf4c01	-0.40487674
45	0xbf8ea85c	-1.1145129
46	0x401a69d7	2.41271
47	0xbe9430ca	-0.28943473
48	0x3e56722b	0.20941989
49	0x3f8cb3bf	1.0992354
50	0xbf81bd54	-1.0135903
51	0xbe4bcd5e	-0.1990256
52	0xbec7d850	-0.3903222
53	0x3f42b7cc	0.760617
54	0xbf7a2a69	-0.9772096
55	0x3f6a0400	0.91412354
56	0x3fd0f5d8	1.6325026
57	0xbf980cc9	-1.1878902
58	0xbf81d245	-1.0142294
59	0xbfe678f2	-1.800566
60	0x3d0a691a	0.03379164
61	0x3e3ea277	0.18616663
62	0xbfdb8834	-1.7150941
63	0x3f8fc218	1.1231108
64	0x3e2b9a4e	0.16758081
65	0x3f3509f4	0.7071831
66	0x3ea8a330	0.32937002
67	0xbfbade1b	-1.4599031
68	0xbf2e6c37	-0.6813387
69	0xbda8c7fa	-0.082412675
70	0x3f8527cd	1.0402771
71	0xbf1601ac	-0.585963
72	0x3eb5f8a0	0.35541248
73	0x3fa6f5ab	1.3043722
74	0x3f7f9fe9	0.9985338
75	0x3e5d86ba	0.21633425
76	0x3f860347	1.046975
77	0x3d4418e3	0.047875296
78	0xbf5a01d1	-0.8515902
79	0xbe36762a	-0.17818514
80	0xbf47fdde	-0.78121746
81	0xbfecfa8c	-1.8513961
82	0xbed58082	-0.41699606
83	0xbea47405	-0.32119766
84	0x3f6e215e	0.93019664
85	0x3daac46d	0.083382465
86	0x3f045dd3	0.51705664
87	0xbef27688	-0.47356057
88	0xbeb0d87b	-0.34540161
89	0x3ebc9540	0.3683262
90	0x3f8f1668	1.1178713
91	0x3f909e89	1.1298381
92	0xbf4ecca9	-0.80781037
93	0x3ff733b5	1.9312655
94	0x3f0734f0	0.5281515
95	0xbef607e3	-0.48052892
96	0xbf91b11b	-1.1382173
97	0x3f3df65f	0.7420406
98	0x3fb74bf1	1.432005
99	0xbfed14d1	-1.8521978
100	0x3ec77bee	0.38961738
101	0xbfef5c8f	-1.8700122
102	0xbed84157	-0.4223735
103	0x3ec76e01	0.38951114
104	0xbf58eeea	-0.84739554
105	0xbeca05c5	-0.39457527
106	0xbe02fdec	-0.12792176
107	0x3f6d4947	0.9268994
108	0x3f0b7aa1	0.5448399
109	0x3eb584fc	0.35453022
110	0x3e687e2e	0.22704384
111	0xbf8877ca	-1.0661557
112	0x3f0d3a47	0.5516705
113	0xbf58a59f	-0.8462772
114	0xbfbf93ff	-1.496704
115	0xbe4a0698	-0.19729078
116	0x3f6841f9	0.90725666
117	0xbd1f0b0b	-0.03882889
118	0xbf0b5b15	-0.54435855
119	0xbe882fae	-0.26598877
120	0x3f974bba	1.1819985
121	0x3fbf6e7b	1.4955591
122	0xc001b898	-2.0268917
123	0xc01fe184	-2.4981394
124	0x401acd13	2.4187667
125	0xbfb6124f	-1.4224337
126	0xbf7183ca	-0.9434172
127	0xbf1bfd34	-0.6093323

network_body._body_endoder.seq_layers.0.bias f4 [128]
0	0xbb4d2767	-0.0031304003
1	0xbb73764a	-0.0037149363
2	0xba81db3e	-0.0009907258
3	0xbc21e931	-0.009882257
4	0x3bdf0daf	0.006807051
5	0x3baf2640	0.005345136
6	0xbbe385bd	-0.006943433
7	0xbc74c981	-0.01494062
8	0x3a9d0278	0.0011978885
9	0x3bcb8139	0.006210473
10	0xbc1078bd	-0.008817849
11	0x3bac8be4	0.0052656997
12	0x3c142208	0.009041317
13	0x3b5df13d	0.0033865713
14	0xbbdf231c	-0.0068096053
15	0x3bdee64a	0.006802355
16	0x3be8d979	0.007106003
17	0x3bbec984	0.0058223624
18	0xbbf58c68	-0.0074935444
19	0x3bfd9985	0.007739248
20	0xbc068944	-0.008211438
21	0x3be96ecc	0.0071238037
22	0xbb1b49a7	-0.0023695023
23	0xbbbb00cb	-0.0057068816
24	0x3cbe9df7	0.023268683
25	0x3bf06b0f	0.007336981
26	0xbbdbdad7	-0.0067094374
27	0x39ba511e	0.00035537122
28	0xbbbf2f77	-0.0058345157
29	0xbb96009d	-0.00457771
30	0x3a785d68	0.0009474368
31	0xbad99ea1	-0.0016603061
32	0xbb47aeb7	-0.0030469128
33	0x3b291344	0.0025798837
34	0x3c3a646c	0.0113764815
35	0xbbd91fe2	-0.006626115
36	0x3bce9c42	0.0063052485
37	0xbbbf63b6	-0.005840744
38	0xbc45744b	-0.012051652
39	0x362dc231	2.5892043e-06
40	0xbaeedb23	-0.0018223267
41	0xbbbb16a7	-0.0057094875
42	0xb9ac0dae	-0.0003281659
43	0xbc5dfa3b	-0.013548429
44	0xbca9b613	-0.020716703
45	0xbc0585db	-0.008149589
46	0xba492224	-0.0007672629
47	0xbbcbec9c	-0.0062232744
48	0xbb4673cf	-0.003028143
49	0xbbe99630	-0.0071284994
50	0xbbd477f0	-0.006484024
51	0xbc35edeb	-0.011104087
52	0x3bccee5e	0.0062540015
53	0x3be4fc2e	0.00698807
54	0xbc37cc8b	-0.0112182
55	0xbb0545ff	-0.002033591
56	0xba31a26a	-0.0006776216
57	0xbbc975ce	-0.0061480766
58	0x3be97381	0.007124365
59	0x3bcd68a4	0.0062685777
60	0xbb1dea1a	-0.0024095834
61	0xbca54763	-0.020175641
62	0xbbfb6930	-0.0076724514
63	0xbbb2455a	-0.0054403963
64	0x3a34264a	0.00068721606
65	0xbb16efcd	-0.0023031116
66	0x3b456fb0	0.0030126385
67	0x3b273c76	0.0025518215
68	0x3bd5b742	0.00652209
69	0x3b874f0e	0.004129297
70	0xbaf9d567	-0.0019060791
71	0xbcd0ec0f	-0.025503187
72	0xbc64026f	-0.013916596
73	0xb7f2a157	-2.8923778e-05
74	0xbc0a945b	-0.008458222
75	0xbb9e1ee0	-0.004825458
76	0x3a326d97	0.00068064913
77	0x3a789929	0.0009483272
78	0xbbe93605	-0.0071170353
79	0xba808825	-0.0009806199
80	0xbbf0eedf	-0.0073526944
81	0x3be0867c	0.0068519693
82	0xbc223e81	-0.009902597
83	0xbc579a66	-0.01315937
84	0xbb5b452e	-0.0033457982
85	0xba95adbb	-0.0011419574
86	0xbad73154	-0.0016417899
87	0x3becc656	0.007225792
88	0xbbe4f428	-0.0069871135
89	0xbac0fd53	-0.0014723934
90	0xbc0cc79b	-0.0085925115
91	0xbafc0afb	-0.0019229347
92	0xbc1f4f5c	-0.009723511
93	0xbb87622d	-0.0041315765
94	0xbad87d41	-0.0016516821
95	0xbc6f5986	-0.014608746
96	0xbbf60f24	-0.007509129
97	0xbc9c5f90	-0.019088537
98	0xbb1af950	-0.0023647137
99	0x3c16583b	0.009176309
100	0xbaa4924a	-0.0012555805
101	0xbbaa94af	-0.0052057127
102	0xbbb7fb12	-0.0056146467
103	0xba9faf24	-0.0012182933
104	0x3c298317	0.010346196
105	0xbbdcace1	-0.006734476
106	0x3befa286	0.0073130755
107	0xbada53a2	-0.0016657005
108	0x3a768aff	0.00094048673
109	0x3c8157d8	0.015788957
110	0x3a6debc8	0.00090759667
111	0x3bced251	0.0063116928
112	0x3a4369fc	0.00074544526
113	0x3ba79408	0.0051140822
114	0x3bbd9fd1	0.005786874
115	0xbc1c1b1c	-0.009527948
116	0x3a41ad44	0.00073881843
117	0xbb597c7d	-0.0033185773
118	0xbbc05d50	-0.0058704987
119	0xbbcaa0db	-0.0061837262
120	0x3b6f7e90	0.0036543943
121	0xbc8f10bc	-0.017464034
122	0x3b001242	0.0019542133
123	0xba94dc94	-0.0011357241
124	0x3b79aa2b	0.0038095813
125	0xbc2063d5	-0.009789427
126	0xbc34f0c6	-0.011043733
127	0x3c05d6a7	0.008168853

network_body._body_endoder.seq_layers.2.weight f4 [128, 128]
0	0xbd38156d	-0.04494231
1	0x3dff9e06	0.124813125
2	0x3d39b2a5	0.045336384
3	0x3d0b89d0	0.034066975
4	0x3db8a65b	0.09016105
5	0xbdb40020	-0.08789086
6	0xbc88f47e	-0.016718145
7	0x3e1269d8	0.14298189
8	0xbd8898ad	-0.066697456
9	0xbd911605	-0.07084278
10	0xbba69cc7	-0.0050846073
11	0xbcb2c4a1	-0.021822276
12	0x3d9598a0	0.073045015
13	0x3d591387	0.05299714
14	0xbc9dc7fa	-0.019260395
15	0x3e6a0e51	0.22857024
16	0x3e04fbfb	0.12986748
17	0x3cacf0d0	0.021110922
18	0xbdbaee0b	-0.09127434
19	0x3dddc9d5	0.10829512
20	0x3d7340ee	0.059388094
21	0x3bca53d9	0.006174546
22	0xbc0c50bf	-0.008564173
23	0x3c77aea3	0.01511732
24	0xbd28fad5	-0.041254837
25	0xbe3f3a79	-0.1867465
26	0xbb81fd29	-0.0039669466
27	0x39266d0a	0.00015871614
28	0x3d11c07b	0.035583954
29	0x3d316d02	0.04331685
30	0x3d0605ad	0.032720257
31	0x3e0776cc	0.13228911
32	0xbe03feb3	-0.12890129
33	0x3d0bd8c9	0.03414229
34	0xbe062c3c	-0.13102812
35	0xbbd0d3bb	-0.0063728965
36	0x3c921f61	0.017837228
37	0x3da1bd63	0.07897451
38	0xbd82bb53	-0.063833855
39	0x3c3c16c2	0.011480035
40	0xbcd16d10	-0.0255647
41	0xbe2b7d73	-0.16747074
42	0xbcb21066	-0.021736335
43	0x3daf15a9	0.08549053
44	0xbdd633e9	-0.1045912
45	0x3c3a5b28	0.011374272
46	0xbddd295e	-0.10798906
47	0xbddfd5d3	-0.109294556
48	0x3d1ec1a5	0.038758893
49	0xbe34593a	-0.17612162
50	0xbe0829b6	-0.13297161
51	0x3d3fa785	0.04679062
52	0x3d20852e	0.03918951
53	0x3dfa0bc6	0.12209277
54	0x3dc64486	0.096810386
55	0x3cc7a259	0.024369406
56	0x3da814b4	0.08207074
57	0xbc19da2d	-0.009390396
58	0x3d6f9454	0.058491066
59	0x3d1eb707	0.038748767
60	0x3df184b9	0.11792893
61	0x3d94280f	0.07234203
62	0xbd699457	-0.057026234
63	0xbbc765cc	-0.006085133
64	0xbd576e41	-0.05259538
65	0x3c44ba5f	0.012007325
66	0xbcfc4be1	-0.0307979
67	0xbcd74219	-0.026276635
68	0xbe05df46	-0.13073453
69	0xbd4408e3	-0.047860038
70	0x3c9c4ba7	0.019079043
71	0x3d8ff780	0.07029629
72	0xbca38b56	-0.019963901
73	0xbdf763ef	-0.12079608
74	0xbd32ed56	-0.043683372
75	0xbdcd63a9	-0.10028774
76	0xbe292b23	-0.16520362
77	0x3c220315	0.00988843
78	0x3dd1585b	0.102219306
79	0xbdd523c6	-0.10407214
80	0xbda85355	-0.08219019
81	0x3b978b15	0.004624734
82	0xbdd3894d	-0.103289224
83	0xbc586423	-0.013207468
84	0xbd244efe	-0.040114395
85	0x3d85e7cc	0.06538352
86	0xbd872215	-0.065982975
87	0x3d85c2d9	0.06531305
88	0xbd2265c1	-0.03964782
89	0xbdf24b5f	-0.11830782
90	0xbdb41c8f	-0.087945096
91	0xbd0db329	-0.03459469
92	0xbcee7ef9	-0.02911328
93	0x3dd31dce	0.10308419
94	0xbd52b2d7	-0.051440086
95	0x3c3ad5ee	0.011403544
96	0xbbe9f5cd	-0.0071398974
97	0xbd987f18	-0.07446116
98	0x3d8108e9	0.063005276
99	0xbd9e1ca5	-0.07720307
100	0xbd410ac7	-0.04712942
101	0xbca9cc48	-0.020727292
102	0x3cb49dd5	0.022047916
103	0x3c6122a6	0.013741171
104	0x3c97664e	0.0184814
105	0x3dd18c53	0.10231843
106	0x3e38d69e	0.1805062
107	0xbb8306a3	-0.003998594
108	0xbda25daa	-0.07928021
109	0xbdbacea8	-0.09121448
110	0x3d8b5254	0.06802812
111	0x3ceca0bc	0.028885238
112	0xbe05c669	-0.13063969
113	0xbcadfac1	-0.021237733
114	0x3cf11244	0.029427655
115	0x3dee03e9	0.116218396
116	0x3cbd3c7a	0.023100127
117	0xbda60370	-0.081061244
118	0x3d3cb54f	0.046071347
119	0x3d92f5c7	0.071757846
120	0x3d0c6f1a	0.034285642
121	0xbd201406	-0.039081596
122	0x3cd0af35	0.02547417
123	0xbd2deeee	-0.04246419
124	0x3d708ee3	0.058730017
125	0x3d27644f	0.040867146
126	0xbd1885eb	-0.03723709
127	0xbd941bc4	-0.072318584
128	0x3cc0b4d6	0.02352373
129	0x3e1162c2	0.1419783
130	0xbd9243ed	-0.07141862
131	0x3dda6b79	0.1066503
132	0xbd95337a	-0.07285209
133	0xbda21c1d	-0.079155184
134	0x3d8f4792	0.06996073
135	0xbd2c6915	-0.0420924
136	0x3cf1cebc	0.029517524
137	0x3d83d86a	0.06437762
138	0xbde6a477	-0.11261838
139	0xbaccff31	-0.0015640018
140	0x3d5edd38	0.05441019
141	0xbe1399c5	-0.14414127
142	0x3d004caf	0.03132313
143	0xbdde6723	-0.108595155
144	0x3df1c4bf	0.118051045
145	0xbdec5088	-0.115387976
146	0xb9dd6fbe	-0.0004223566
147	0xbd414c06	-0.047191642
148	0xbbdd9139	-0.0067616967
149	0x3cdcea5d	0.026967222
150	0xbdd50d5b	-0.10402938
151	0x3d5edd60	0.05441034
152	0x3cd6aab4	0.026204444
153	0xbc615913	-0.013754147
154	0xbda47a87	-0.08031183
155	0xbcf425fb	-0.029803267
156	0xbdfa64bd	-0.122262456
157	0xbcb836b6	-0.022487026
158	0xbe058d10	-0.13042092
159	0x3d26a83f	0.040687796
160	0xbdb7bdea	-0.0897177
161	0xbd7c338c	-0.061572596
162	0xbd1da893	-0.038490843
163	0xbe1180a6	-0.14209232
164	0x3d90e96d	0.070757724
165	0xbe015c39	-0.12632836
166	0xbd610354	-0.054934815
167	0xbe22177b	-0.1582927
168	0xbdfed4d4	-0.124429375
169	0x3e424bf8	0.18974292
170	0xbc8733cd	-0.016504193
171	0xbaf9c03b	-0.0019054482
172	0xbe202bae	-0.15641662
173	0xbdc20c15	-0.09474961
174	0x3d459f85	0.048247833
175	0x3dca609e	0.098817095
176	0xbdb3045c	-0.08741066
177	0x3dc4edfa	0.09615703
178	0x3d21bf3b	0.039489012
179	0xbe49d5c3	-0.1971045
180	0xbca26f8f	-0.019828586
181	0xbe828fac	-0.25500238
182	0x3d88cb66	0.0667942
183	0xbdfe5a10	-0.12419522
184	0x3d669fa3	0.056304585
185	0xbdfa60f1	-0.12225521
186	0x3d959eae	0.073056564
187	0xbbdb1733	-0.006686115
188	0xbdb19961	-0.08671833
189	0xbcd7eae7	-0.026357127
190	0x3d4c4344	0.049868837
191	0x3d132477	0.035923447
192	0xbd07f670	-0.033194005
193	0xbc142ab0	-0.009043381
194	0xbd448441	-0.04797769
195	0x3ce9f344	0.02855838
196	0x3d89f2c1	0.06735755
197	0x3de7ec7d	0.113244034
198	0xbbec8cf0	-0.0072189495
199	0x3d45932b	0.048236053
200	0x3ca868c1	0.020557763
201	0xbd0b7ac4	-0.034052625
202	0xbb7169e1	-0.003683679
203	0x3cf1bc5d	0.029508764
204	0x3ba6daad	0.005091986
205	0x3da016a9	0.07816822
206	0x3cca8bf4	0.024724938
207	0xbd164042	-0.036682375
208	0xbd8bff7f	-0.068358414
209	0x3cb3e3aa	0.021959145
210	0xbdd563d4	-0.10419431
211	0xbccb0812	-0.024784122
212	0x3dcf69f7	0.10127633
213	0x3db87097	0.0900585
214	0x3d9ef88b	0.077622496
215	0xbd6b45fa	-0.05743978
216	0x3c7128a9	0.014719167
217	0xbd38b824	-0.045097485
218	0x3de75cf6	0.11297028
219	0xbe0bd27a	-0.13654509
220	0x3dca1ad0	0.09868395
221	0x3d625ebd	0.05526613
222	0xbd897b27	-0.067129426
223	0xbdd05d52	-0.101740494
224	0x3ccfbb53	0.025357878
225	0x3c2940c8	0.010330386
226	0xbd31d6f9	-0.043417905
227	0x3d9be0ca	0.076112345
228	0xbdd81abf	-0.105519764
229	0x3ca70ce5	0.02039189
230	0x3e18d8e2	0.14926484
231	0xbd1cbb0b	-0.038264316
232	0x3c7fcc2b	0.015612642
233	0xbd0a289c	-0.033730134
234	0x3dd28d0b	0.10280808
235	0x3d9e8430	0.077400565
236	0x3dd0dee7	0.10198765
237	0x3e048ac0	0.12943554
238	0xbe519292	-0.20466068
239	0xbd765d07	-0.06014731
240	0x3dcd9563	0.10038259
241	0xbbc08097	-0.005874704
242	0xbe0e4acc	-0.1389572
243	0x3d8f4597	0.06995695
244	0x3cd0591f	0.025433121
245	0xbc38864b	-0.011262487
246	0x3dce9db1	0.10088671
247	0x3d23aabf	0.039957758
248	0x3d873221	0.06601358
249	0xb8949d02	-7.086435e-05
250	0x3dae9edd	0.085263945
251	0xbd81e116	-0.0634176
252	0x3d9c901a	0.07644673
253	0xbce39b13	-0.027783906
254	0xbcac1775	-0.021007279
255	0xbd355f28	-0.0442802

network_body._body_endoder.seq_layers.2.bias f4 [128]
0	0x3b84e374	0.004055435
1	0x3aaeb9fd	0.0013330575
2	0x3b887065	0.004163789
3	0xbcb30f6c	-0.02185794
4	0x3b999d6b	0.004687955
5	0x3ba33d7d	0.004981695
6	0x3c0551d7	0.008137188
7	0xbc5765e5	-0.013146852
8	0x3a93fc3b	0.001129038
9	0xbcab4550	-0.020907074
10	0xbcc0ac99	-0.023519801
11	0x3c015eb8	0.007896118
12	0x3c2f63cb	0.010704945
13	0xbbb810e5	-0.0056172484
14	0x3bb043be	0.0053791692
15	0x3c006e33	0.007838774
16	0x3ca61d1f	0.020277558
17	0xbc76dfb7	-0.015067986
18	0xbc03c417	-0.008042357
19	0xbba965b7	-0.005169596
20	0xbc82adbc	-0.015951984
21	0xbb909250	-0.004411973
22	0xba0b7fd3	-0.00053214765
23	0x3b1b60cb	0.0023708816
24	0xbbaa80ea	-0.005203356
25	0xbbb4b4bc	-0.0055147093
26	0xbb64c46f	-0.0034907123
27	0xbb3ef0d0	-0.0029135235
28	0x3c01f8dc	0.007932868
29	0xb9802bfa	-0.00024446828
30	0xbb428379	-0.0029680415
31	0x3c0141fb	0.007889266
32	0xbbd76f47	-0.0065745446
33	0xbbec37e2	-0.00720881
34	0xba832195	-0.0010004515
35	0xbb1486d3	-0.002266337
36	0x3c00b0ee	0.007854683
37	0xbb5694a8	-0.0032742415
38	0x3c468376	0.012116304
39	0x3be684ac	0.0070348587
40	0x3bad042e	0.0052800393
41	0x3c897438	0.01677905
42	0x394a8d71	0.00019316912
43	0xbaa92c73	-0.0012906924
44	0x3b9984eb	0.0046850345
45	0xbb3ba4e3	-0.0028632216
46	0x3af71a2f	0.0018852408
47	0x3b710ce3	0.0036781363
48	0x3be25298	0.0069068186
49	0xbbbbc719	-0.0057305214
50	0xbc2a7583	-0.010403994
51	0xba994519	-0.0011693566
52	0x3cbadad5	0.022809425
53	0xbb946553	-0.0045286804
54	0xbc0cc73d	-0.008592424
55	0x3bffc576	0.0078055216
56	0x3ba87bb5	0.0051417
57	0x392fb859	0.00016757975
58	0x3afab16f	0.0019126366
59	0x3cafbb2b	0.021451553
60	0x3bae187f	0.0053129788
61	0x3b1f3c19	0.0024297296
62	0xbc43cc3b	-0.011950548
63	0xbbb192df	-0.0054191197
64	0x3b659b32	0.003503513
65	0xb94b3231	-0.00019378286
66	0xbc0a3a2a	-0.008436719
67	0xbc9944d1	-0.018709572
68	0x3a9c618c	0.0011930927
69	0xbc050794	-0.008119483
70	0x3b87bbcc	0.00414226
71	0xbc022d7d	-0.007945416
72	0xbc020828	-0.007936515
73	0x3b7c8564	0.0038531655
74	0xba978bb2	-0.0011562018
75	0xbb38bd5b	-0.0028189037
76	0xbcc3f0a3	-0.023918455
77	0x3c0732e0	0.008251876
78	0x3b813d43	0.0039440705
79	0xbb50d67a	-0.003186612
80	0xbcbc7143	-0.023003226
81	0x39891a15	0.0002615011
82	0xbb4966da	-0.003073147
83	0x3ba976da	0.005171639
84	0x3c34d710	0.011037603
85	0xbbee075c	-0.007264061
86	0xbb72b41f	-0.003703363
87	0xbc0a650c	-0.008446943
88	0x3bbbd1e2	0.005731807
89	0x3cae93ca	0.021310706
90	0xbb9bb808	-0.004752163
91	0x3c98bac6	0.018643748
92	0xbbb7ef8b	-0.0056132725
93	0xbae37813	-0.001735451
94	0xba8f5c1c	-0.0010937485
95	0xbc191689	-0.009343752
96	0x3c2c005f	0.010498135
97	0xb8e535f2	-0.00010929619
98	0x3bd78806	0.0065774946
99	0xbc8d9156	-0.017281216
100	0xbc0fb396	-0.008770844
101	0xbbf82928	-0.0075732656
102	0x3bf78827	0.0075540724
103	0x3b50ebcd	0.003187883
104	0x3a0f4a63	0.00054661016
105	0xbcc3796e	-0.023861613
106	0xbc35020c	-0.011047851
107	0xbbbbb105	-0.0057278895
108	0xbc091aad	-0.008368176
109	0x3c4c3e93	0.012466091
110	0xbc125eb9	-0.008933716
111	0xbcc8cdcb	-0.024512192
112	0x3b3217f5	0.0027174924
113	0xb9ff131f	-0.00048651636
114	0x3c0a38d8	0.008436404
115	0xbc1c28b7	-0.009531192
116	0xbbfd79fe	-0.00773549
117	0x3b8bc2ee	0.004265181
118	0xbb81b468	-0.0039582737
119	0xbb55b010	-0.0032606162
120	0x3a6e89f5	0.00090995367
121	0x3bb23469	0.0054383767
122	0xbbbeb38c	-0.0058197435
123	0x3cb920d7	0.022598667
124	0x3c63ecb0	0.013911411
125	0x3b8e3edb	0.004340989
126	0x3ba6216d	0.0050699026
127	0xbbb01c0d	-0.0053744377

action_model._continuous_distribution.mu.weight f4 [1, 128]
0	0xba8ea171	-0.0010881854
1	0xbc9f6536	-0.01945744
2	0xbbf63c1e	-0.0075144907
3	0x3cf61638	0.030039892
4	0xbcf2d095	-0.029640475
5	0xbc32dd9e	-0.0109170955
6	0xbcf0eed1	-0.029410752
7	0x39bb78e0	0.00035757478
8	0xbc556d35	-0.013026525
9	0x3d162b0f	0.036662158
10	0x3d1e6320	0.03866875
11	0xbc9543c3	-0.018220788
12	0xbb89e4f1	-0.0042082
13	0x3b5241b4	0.003208262
14	0xbd277655	-0.040884335
15	0xbc87c580	-0.016573668
16	0xbbb5578d	-0.0055341185
17	0x3c8f69da	0.017506529
18	0x3ccbd954	0.024883904
19	0x3c90b4e9	0.01766439
20	0x3d48744a	0.048939027
21	0x3c9fcbd7	0.019506378
22	0xbc585b07	-0.013205296
23	0xbc111cad	-0.0088569345
24	0x3c92bb98	0.017911717
25	0x3bf0a7f2	0.0073442394
26	0x3c1ef8ab	0.009702842
27	0x3b9668b5	0.004590119
28	0xbc5a1fdf	-0.013313263
29	0xbb9ae22c	-0.004726669
30	0x3cc81a9b	0.024426749
31	0xbbe99359	-0.007128161
32	0x3a3875b6	0.0007036583
33	0x3c8b9918	0.017040774
34	0x3d0c229a	0.034212686
35	0x3c5e1a84	0.0135561265
36	0xb9e33e9f	-0.0004334347
37	0x3ce6ae43	0.028159266
38	0xba8ae350	-0.0010596309
39	0xbbfefdf9	-0.0077817407
40	0x3bb2f6cc	0.0054615494
41	0xbbb8425e	-0.005623146
42	0xbc065b06	-0.008200413
43	0x3cc6c680	0.024264574
44	0xbc6943b7	-0.014237336
45	0xb7adcd09	-2.0718684e-05
46	0xba1c4abe	-0.0005962065
47	0xbcf0c186	-0.029389154
48	0xbc05ef9c	-0.008174803
49	0x3ca24f2b	0.01981314
50	0x36edbf63	7.0854308e-06
51	0x3bee8218	0.007278692
52	0xbce74744	-0.028232224
53	0x3c6d665b	0.0144897355
54	0x3c2dcb55	0.01060756
55	0x3b3ea9dc	0.0029092943
56	0xbcaa174d	-0.020763064
57	0x3c8609a6	0.016362023
58	0xba9b26cd	-0.0011837125
59	0xbc8fb891	-0.017544063
60	0xbc8bd43c	-0.017068975
61	0x3c50bfe8	0.0127410665
62	0x3c9bc6c3	0.019015675
63	0x3c685a21	0.014181645
64	0xbbe1354f	-0.00687281
65	0xbbd4e33f	-0.0064968164
66	0x3c0ccaee	0.008593304
67	0x3d13c9ef	0.03608125
68	0xbc54070c	-0.012941133
69	0x3c9c58ed	0.019085372
70	0xbc6ea815	-0.014566441
71	0x3c91075c	0.017703705
72	0x3c31ecd9	0.010859692
73	0xbc7681a7	-0.01504556
74	0xbb28d578	-0.0025762003
75	0x3ce614d5	0.028086105
76	0x3d2123b2	0.039340682
77	0xbca15388	-0.019693151
78	0xbcbd2264	-0.023087688
79	0x3c596aab	0.0132700605
80	0x3d69fb1d	0.057124246
81	0xbb44babf	-0.0030018536
82	0x3b6a85ac	0.003578524
83	0xbc685383	-0.014180067
84	0xbbd7f919	-0.006590974
85	0x3c148b19	0.009066367
86	0x3bc7b153	0.0060941367
87	0x3cc2be1e	0.023772296
88	0xbadf5bb1	-0.0017040876
89	0xbcb80ed7	-0.022468014
90	0x3d105f83	0.035247337
91	0x3bcf02e1	0.006317482
92	0x3c406bc7	0.011744446
93	0xbaa51ce6	-0.0012597113
94	0x3c6718ec	0.014105063
95	0x3b9ae033	0.0047264337
96	0x3a891fb8	0.0010461723
97	0x3c571f71	0.013130055
98	0xbc139abf	-0.009009062
99	0x3d3aa47a	0.045567013
100	0x3c3eec2b	0.0116529865
101	0x3a3a46de	0.0007105897
102	0xbcde307a	-0.027122725
103	0xbc6bc575	-0.014390339
104	0xbc936b0c	-0.01799538
105	0x3ca2cb06	0.0198722
106	0x3c9c155f	0.01905316
107	0x3d15f43d	0.036609877
108	0x3c676d50	0.014125183
109	0xbbfeefc9	-0.0077800495
110	0x3a8e4c2d	0.0010856442
111	0x3c9e6af4	0.019338109
112	0xbcd786bf	-0.02630937
113	0xbcfc4e1b	-0.030798962
114	0xbcf103f8	-0.029420838
115	0x39633b78	0.00021670561
116	0x3c341d1c	0.010993268
117	0xbc9d787a	-0.019222487
118	0x3c421da4	0.011847887
119	0x3cf2da7f	0.029645203
120	0xbc0b6ddf	-0.008510082
121	0xbb26bcaa	-0.0025442042
122	0x3ade5f9c	0.001696575
123	0xbc9bea5d	-0.019032652
124	0xbcb30fb4	-0.021858074
125	0xbc22aa97	-0.009928367
126	0xbae05986	-0.0017116524
127	0x3c48ed24	0.01226357

action_model._discrete_distribution.branches.0.weight f4 [1, 128]
0	0x3abfc7f7	0.0014631738
1	0xbb4044f5	-0.0029337977
2	0xbc660c08	-0.014040954
3	0xbb35a58f	-0.0027717089
4	0x3c7d7feb	0.015472393
5	0xbb5d6f07	-0.0033788101
6	0x3bcca582	0.006245316
7	0x3c7a7de5	0.015288805
8	0x3b45f591	0.0030206183
9	0x3b95b428	0.0045685954
10	0x3b99b010	0.0046901777
11	0xbc84c72b	-0.016208252
12	0x3b6ffe3d	0.0036620044
13	0x3b969f7a	0.004596648
14	0xbb7f98f8	-0.0039001089
15	0xbae728c2	-0.0017636048
16	0x3b8e7b1c	0.004348172
17	0x3b9f3b07	0.0048593315
18	0x3b3bf40b	0.0028679396
19	0x3c0af3ab	0.0084809465
20	0xbc92ad8c	-0.01790502
21	0xbb0ec37a	-0.0021783994
22	0xb943e567	-0.00018682108
23	0x3b1ac1b2	0.0023613987
24	0x3912ef76	0.00014012851
25	0xbb9405cb	-0.004517292
26	0x3c109dac	0.008826654
27	0x3c345f0b	0.011008988
28	0x3bd6e877	0.0065584737
29	0xbc101baf	-0.008795663
30	0x3a9bcd7c	0.0011886801
31	0x3c570613	0.013124007
32	0x3b46bb7f	0.0030324159
33	0xbc043bdb	-0.008070911
34	0xbc24f01d	-0.010067013
35	0x3c253e47	0.010085649
36	0x3ac2afa1	0.0014853367
37	0x397025dd	0.00022902289
38	0xbb9ea642	-0.004841597
39	0x3cc036d3	0.023463642
40	0x3c2b5a3d	0.010458526
41	0xbb0cbaa0	-0.0021473542
42	0xbc465a13	-0.012106436
43	0x3bec3c1b	0.0072093136
44	0x3b2c8043	0.0026321567
45	0xbbfcdc2b	-0.0077166758
46	0x3c7e57db	0.015523876
47	0xbbfbf047	-0.0076885554
48	0x3baf3a27	0.0053475085
49	0x3b5c5ccf	0.0033624654
50	0x3ba58973	0.0050517856
51	0xbb7a249a	-0.003816879
52	0x3bfac7d0	0.007653214
53	0x3c056547	0.008141822
54	0xbc3cc10b	-0.011520634
55	0x3ad659f5	0.0016353714
56	0x3c0c5cf4	0.008567084
57	0xbb929102	-0.0044728527
58	0x3c2c9c29	0.010535278
59	0x3c358f5d	0.011081544
60	0xbb6fc7cd	-0.0036587596
61	0x3c0b680b	0.0085086925
62	0x3b6beec0	0.003600046
63	0xbc198405	-0.009369855
64	0xbc6db570	-0.01450859
65	0xbb037ee3	-0.0020064644
66	0x3b070ebd	0.002060815
67	0x3c056285	0.008141165
68	0xbc757802	-0.014982225
69	0x3b80cb30	0.003930472
70	0xbc0f9467	-0.008763409
71	0x3c916419	0.017747926
72	0x3ba9acab	0.0051780543
73	0x3c80e4da	0.015734125
74	0xbb5bab43	-0.0033518828
75	0x3b8d7a10	0.0043175295
76	0xbc5a28eb	-0.01331542
77	0x3a7724fa	0.0009427812
78	0x3c2b7686	0.01046527
79	0xbc4e1b6a	-0.012579778
80	0x3c74762f	0.014920755
81	0xbb762e57	-0.0037564242
82	0x3c7b55b2	0.015340256
83	0x3b0f4373	0.0021860271
84	0xbb7c9047	-0.0038538144
85	0xbb28ca53	-0.002575536
86	0x3baf3ef0	0.005348079
87	0xbb067abf	-0.002051994
88	0x3c3b987b	0.011449928
89	0x3ba2ef9f	0.0049724127
90	0xb8c81088	-9.539822e-05
91	0xbc5db8e0	-0.013532847
92	0xbc7e2385	-0.015511398
93	0x3b354f6f	0.0027665754
94	0x3a02cf01	0.00049899524
95	0xbc958bf3	-0.01825521
96	0xbb2bcf66	-0.0026216148
97	0xbb0ee198	-0.0021801945
98	0xbbf7c01a	-0.007560742
99	0x3b67871a	0.003532833
100	0xbaf22135	-0.0018473031
101	0xbb2c76eb	-0.0026315998
102	0xbbfba357	-0.0076793837
103	0x3b583820	0.0032992437
104	0x3bfc66fb	0.007702706
105	0x3bc34eee	0.005960337
106	0xbc269d6a	-0.010169366
107	0xbc46add8	-0.0121264085
108	0x3ae774c0	0.0017658696
109	0x3c949df8	0.018141732
110	0xba47ad43	-0.00076170656
111	0x3b39e561	0.002836548
112	0xbc5c1283	-0.013432148
113	0x3b592312	0.0033132476
114	0xbc01f14b	-0.007931064
115	0xbbb4bb73	-0.0055155098
116	0x398847d3	0.00025993455
117	0x3c41057a	0.011781091
118	0xbc049865	-0.008092974
119	0xbb6258fa	-0.0034537897
120	0x3a2f3791	0.0006684
121	0x3b52a6b7	0.0032142827
122	0x3beee9df	0.007291063
123	0x3c04e8f6	0.008112183
124	0x3c249589	0.010045418
125	0xbc68ae48	-0.014201708
126	0x3a3b568d	0.0007146381
127	0xbb1e3111	-0.0024138133

exp_avg f4 [128, 1]
0	0xb985b814	-0.00025504886
1	0xb763138f	-1.3534808e-05
2	0xb9901d41	-0.00027487616
3	0xb77aff24	-1.4960566e-05
4	0x3a396831	0.00070727157
5	0x3a11217c	0.00055363006
6	0xb9b0dfb4	-0.00033736008
7	0xb88fa201	-6.848947e-05
8	0xba8b77cd	-0.0010640562
9	0x3a22ced8	0.00062106317
10	0x393a7d23	0.0001778496
11	0x3a07a846	0.0005174916
12	0x39a43e06	0.0003132673
13	0x38b0e631	8.4352105e-05
14	0xba10fb02	-0.0005530567
15	0x3a9c4d20	0.001192484
16	0x39c3ee24	0.00037370727
17	0x39f29f1d	0.00046276386
18	0xb9557082	-0.00020355175
19	0x3a662158	0.00087787723
20	0xba217182	-0.00061585766
21	0x399ea18a	0.00030256464
22	0x39eabc1d	0.00044772113
23	0xba1d3fe9	-0.0005998598
24	0x38b0a3b4	8.422826e-05
25	0x38fe9e55	0.000121411555
26	0xba64e530	-0.00087316614
27	0xba06cb84	-0.00051420205
28	0xb9cc08c2	-0.00038916437
29	0x3a0cfec0	0.0005378537
30	0x394dd09f	0.00019628041
31	0x39a07daa	0.00030611205
32	0x3a556036	0.0008139642
33	0xb99cca58	-0.00029905397
34	0x39266b21	0.00015870902
35	0xb961f66c	-0.00021549471
36	0x398a218d	0.00026346408
37	0xb96ea7ad	-0.00022759913
38	0x36e50f38	6.8265035e-06
39	0xba44c67c	-0.0007506383
40	0x3a74eff0	0.0009343615
41	0xba111bb5	-0.00055354397
42	0xb9f28e15	-0.00046263696
43	0x373b3479	1.1158286e-05
44	0x37a6118b	1.9796911e-05
45	0xb981762a	-0.00024692836
46	0x3abdaa4a	0.0014470306
47	0xb9176345	-0.00014437463
48	0x39957394	0.00028505607
49	0x39847cbb	0.00025269933
50	0xba3908c8	-0.00070584984
51	0xb8f3721e	-0.00011608399
52	0x3a0fac97	0.0005480735
53	0xb9add014	-0.00033152162
54	0xb91f3da7	-0.00015186389
55	0x3a45f844	0.0007551948
56	0xba8615d1	-0.001022989
57	0xb9316fe8	-0.00016921724
58	0x3a1909a0	0.0005837921
59	0x39db9330	0.00041880598
60	0x3aac472f	0.0013143773
61	0xb7b3732f	-2.13921e-05
62	0xb9c5bc7a	-0.00037715194
63	0x390e4dce	0.0001357116
64	0x3a323a0a	0.00067988096
65	0x39d6d814	0.00040978251
66	0xb79f6b7d	-1.900433e-05
67	0xb8a5c0e6	-7.903743e-05
68	0x3a0a02f9	0.0005264725
69	0x39dfeef8	0.0004271192
70	0xb9bc43e0	-0.00035908725
71	0x379b1cfb	1.8490935e-05
72	0x3850b543	4.9759878e-05
73	0x3a228796	0.00062000134
74	0x392a8af9	0.00016264235
75	0xb950b8e5	-0.00019905304
76	0x39c836b7	0.00038187738
77	0xba8ee19c	-0.0010900977
78	0xb9b243d1	-0.00034001333
79	0x38917021	6.9350244e-05
80	0xb9c4e602	-0.00037555402
81	0x3a525784	0.0008023905
82	0xb983b95e	-0.00025124376
83	0xb7854ae2	-1.5889706e-05
84	0x39a7a82a	0.00031978014
85	0x3a551001	0.000812769
86	0xba50fbf9	-0.0007972117
87	0x3a21d745	0.000617374
88	0xb975b5a6	-0.0002343269
89	0x38c92d92	9.592915e-05
90	0xb88f663c	-6.837814e-05
91	0xb9312a65	-0.00016895829
92	0xb98dc9e9	-0.0002704405
93	0x38755695	5.8493188e-05
94	0xb9a96e43	-0.00032316343
95	0xb796d2cd	-1.7979555e-05
96	0xb987e001	-0.00025916102
97	0x38bb37ab	8.927224e-05
98	0x3a8c00af	0.0010681356
99	0x38ca7f35	9.655805e-05
100	0xba32c2d0	-0.00068191905
101	0xb9a60ece	-0.00031673018
102	0xba106fd4	-0.0005509828
103	0xb9b88cda	-0.00035200157
104	0xb804a9e3	-3.162947e-05
105	0xba343145	-0.0006873797
106	0x3a043d02	0.0005044491
107	0xba3f9fe4	-0.00073098973
108	0xba1b0ce8	-0.0005914704
109	0x391324e6	0.00014032758
110	0x3aaa0b66	0.0012973368
111	0x39bca57e	0.00035981456
112	0xba1ad890	-0.0005906904
113	0x3a1c7251	0.0005967962
114	0x391c53ec	0.00014908583
115	0xb8d5880a	-0.00010181971
116	0xba852502	-0.0010158124
117	0xb9893b14	-0.00026174693
118	0xb946e339	-0.00018967399
119	0xb9f124aa	-0.0004599442
120	0x3a39b979	0.00070848275
121	0x392fe04f	0.00016772862
122	0x3947cfdc	0.00019055553
123	0x396f20fa	0.00022805101
124	0xb9b06666	-0.0003364563
125	0xb915d3b2	-0.0001428861
126	0xb973b50c	-0.00023241731
127	0xb595cf70	-1.1161737e-06

exp_avg_sq f4 [128, 1]
0	0x35ef6048	1.7834909e-06
1	0x332fc929	4.0928317e-08
2	0x36092385	2.0435266e-06
3	0x34f2a221	4.5193977e-07
4	0x384bcb03	4.858804e-05
5	0x380642b0	3.2010197e-05
6	0x3758c5bc	1.2920642e-05
7	0x355f046f	8.3080425e-07
8	0x38035c60	3.1318865e-05
9	0x37245c59	9.796663e-06
10	0x356d4272	8.838607e-07
11	0x37dc6ab2	2.6275728e-05
12	0x372ae6b2	1.0186503e-05
13	0x356480d6	8.51241e-07
14	0x37e990ac	2.7843133e-05
15	0x3916db23	0.0001438675
16	0x375d5f56	1.3194824e-05
17	0x379e6ad9	1.8884823e-05
18	0x369c98b3	4.666939e-06
19	0x3897325a	7.20962e-05
20	0x380f3ffe	3.4153454e-05
21	0x37239b0b	9.751656e-06
22	0x36b51794	5.396965e-06
23	0x3825a784	3.9495077e-05
24	0x3428b5aa	1.5712308e-07
25	0x36095720	2.0465304e-06
26	0x389a6401	7.3619194e-05
27	0x36e8366b	6.920474e-06
28	0x373268c5	1.063402e-05
29	0x36cfff4f	6.1988026e-06
30	0x358d676f	1.0535422e-06
31	0x364c2581	3.04202e-06
32	0x378ecaea	1.7022208e-05
33	0x36283e53	2.5070228e-06
34	0x356818e7	8.646297e-07
35	0x369d6450	4.6906425e-06
36	0x3704f473	7.924728e-06
37	0x36a404c1	4.8881343e-06
38	0x33a06a6a	7.469937e-08
39	0x37894797	1.636501e-05
40	0x37baa9b7	2.2251957e-05
41	0x372aa26c	1.0170606e-05
42	0x36d372e4	6.301665e-06
43	0x33aa89f8	7.941338e-08
44	0x33dd3218	1.03002264e-07
45	0x36e21446	6.737685e-06
46	0x3866f738	5.5066514e-05
47	0x3620b24f	2.3945647e-06
48	0x3635b831	2.7078315e-06
49	0x35b34ef6	1.335952e-06
50	0x384b6e79	4.8501857e-05
51	0x35b19508	1.3230901e-06
52	0x37e4f1c9	2.7292308e-05
53	0x362a279d	2.5355032e-06
54	0x360e4a65	2.1202952e-06
55	0x3770dc65	1.4356429e-05
56	0x37f2b8d9	2.8934724e-05
57	0x3653290b	3.146534e-06
58	0x3806412f	3.2008797e-05
59	0x3792424f	1.7435434e-05
60	0x383164d5	4.2293996e-05
61	0x33710ccb	5.612382e-08
62	0x3784e00d	1.5839958e-05
63	0x35254c5e	6.157842e-07
64	0x3756def9	1.2807309e-05
65	0x369bc0cf	4.641806e-06
66	0x3309e372	3.210466e-08
67	0x3532a8c7	6.655577e-07
68	0x37d674af	2.5565123e-05
69	0x378790c4	1.6160666e-05
70	0x366da1a7	3.5409846e-06
71	0x3324d929	3.838173e-08
72	0x33b0deb1	8.236146e-08
73	0x3723b7d1	9.758355e-06
74	0x35338bba	6.6886025e-07
75	0x35a2fc93	1.2143449e-06
76	0x3685adf5	3.98396e-06
77	0x37f77dee	2.9503335e-05
78	0x37742bbf	1.4553719e-05
79	0x34a77425	3.119068e-07
80	0x37713529	1.4377097e-05
81	0x3884fcac	6.341314e-05
82	0x36eaaa8f	6.993599e-06
83	0x342293a2	1.5141134e-07
84	0x366cd2b8	3.5289395e-06
85	0x37902501	1.7183369e-05
86	0x378e0af7	1.6932825e-05
87	0x381a3ca3	3.6772934e-05
88	0x36efc24d	7.1453746e-06
89	0x34ada89e	3.2346446e-07
90	0x3484a1a6	2.470453e-07
91	0x35758d31	9.1475073e-07
92	0x36f39e13	7.2603666e-06
93	0x340f554c	1.3348944e-07
94	0x361bbe8c	2.3207713e-06
95	0x345713cc	2.0030637e-07
96	0x36f8dc6d	7.416637e-06
97	0x3472d286	2.2614594e-07
98	0x38062d48	3.199026e-05
99	0x35aca61f	1.2863346e-06
100	0x37660f4b	1.3712629e-05
101	0x374a9958	1.2075841e-05
102	0x380895d7	3.2564476e-05
103	0x36618f0e	3.3610881e-06
104	0x3506a432	5.0157826e-07
105	0x38471245	4.7462312e-05
106	0x37cb6901	2.4248382e-05
107	0x377b3ff6	1.4975658e-05
108	0x37293210	1.0084841e-05
109	0x35833de2	9.778271e-07
110	0x38416181	4.6105593e-05
111	0x3734a19e	1.07664655e-05
112	0x3716f010	8.996591e-06
113	0x380d4d8f	3.368925e-05
114	0x36153292	2.2232166e-06
115	0x35cdc35e	1.533055e-06
116	0x37deecc1	2.657471e-05
117	0x36d20332	6.2588597e-06
118	0x36938716	4.3966675e-06
119	0x37aefd18	2.0860272e-05
120	0x376d4273	1.4141772e-05
121	0x356e6ccb	8.8820224e-07
122	0x3664b728	3.4081258e-06
123	0x3691fcad	4.350752e-06
124	0x361e0db2	2.3551806e-06
125	0x3619c748	2.2914774e-06
126	0x36b52426	5.3984286e-06
127	0x33ab370d	7.972822e-08

exp_avg f4 [128]
0	0xb6b391de	-5.351597e-06
1	0x3613cde4	2.202455e-06
2	0xb6e68456	-6.86994e-06
3	0x354e325e	7.6814274e-07
4	0xb845ae57	-4.7130827e-05
5	0xb7b2348e	-2.1243726e-05
6	0x37a77af6	1.996521e-05
7	0x378d99a1	1.6880049e-05
8	0xb81bdf22	-3.716269e-05
9	0x3797d25e	1.8098563e-05
10	0x371a2de7	9.189803e-06
11	0xb8020478	-3.0998577e-05
12	0xb7b28c26	-2.1284515e-05
13	0xb785fd5f	-1.597282e-05
14	0x38110d9a	3.458336e-05
15	0xb885e416	-6.3844185e-05
16	0xb7f9def9	-2.9786943e-05
17	0xb7ac5255	-2.0542337e-05
18	0x36957ccc	4.4550743e-06
19	0xb88f1863	-6.823314e-05
20	0x380b45ae	3.3205077e-05
21	0xb82290fa	-3.875883e-05
22	0x374faf8c	1.2379034e-05
23	0x37b1c5ea	2.1192205e-05
24	0xb5fa3b2a	-1.864367e-06
25	0xb68e93ff	-4.249159e-06
26	0x38569575	5.116077e-05
27	0xb79e4f0e	-1.887188e-05
28	0x37b708e0	2.1819433e-05
29	0x37a56448	1.971623e-05
30	0x366b418c	3.5055882e-06
31	0x37148b12	8.853867e-06
32	0x37d182b8	2.4975612e-05
33	0xb7549cd2	-1.2672697e-05
34	0x36a69ebb	4.965664e-06
35	0x36d4e534	6.344775e-06
36	0xb70a5786	-8.245819e-06
37	0x37000185	7.629748e-06
38	0x371a5db2	9.20093e-06
39	0xb7c9d9dd	-2.4062518e-05
40	0x37eff537	2.8605207e-05
41	0xb7536452	-1.2599938e-05
42	0xb7299ab8	-1.0109208e-05
43	0x36cc5eae	6.090696e-06
44	0x3733ab2c	1.07090855e-05
45	0x379beac4	1.8586761e-05
46	0x3821d84a	3.8586826e-05
47	0x3720762a	9.564255e-06
48	0x370b3c31	8.29906e-06
49	0x36d07018	6.2119325e-06
50	0x381ab870	3.6888232e-05
51	0x37ac2081	2.0519134e-05
52	0xb7ba0ca2	-2.217881e-05
53	0xb75ad310	-1.3042954e-05
54	0x37856011	1.589957e-05
55	0x37b96876	2.2102362e-05
56	0xb7c31463	-2.3255305e-05
57	0x370b580a	8.305544e-06
58	0xb842036c	-4.625639e-05
59	0xb7df04ef	-2.6585969e-05
60	0x383ce050	4.50316e-05
61	0x36baa3bd	5.5622936e-06
62	0x37c19f97	2.3081708e-05
63	0x36c8c171	5.982984e-06
64	0x3798a205	1.8195258e-05
65	0x3752140f	1.2521646e-05
66	0x3672e933	3.619655e-06
67	0xb78b2f6c	-1.6592174e-05
68	0xb7b6a6bb	-2.177373e-05
69	0xb7793894	-1.485473e-05
70	0xb732bfe7	-1.06543075e-05
71	0x36e5a444	6.843855e-06
72	0x368f1449	4.2640936e-06
73	0x378c7d5a	1.6747672e-05
74	0x36b2d34a	5.3294107e-06
75	0xb588bc0f	-1.0187522e-06
76	0x375b188c	1.30591325e-05
77	0xb810d20f	-3.4527908e-05
78	0x37a987b2	2.0209558e-05
79	0xb6a29983	-4.8458473e-06
80	0x37dad23e	2.6085527e-05
81	0xb8856113	-6.360016e-05
82	0x37d62c35	2.5531373e-05
83	0x370850c0	8.125033e-06
84	0x371d351a	9.370293e-06
85	0x37e0c33f	2.67938e-05
86	0xb7d7f1dc	-2.5742622e-05
87	0xb81d5b5a	-3.7516795e-05
88	0x378331f5	1.563968e-05
89	0x36724a34	3.6104002e-06
90	0xb52fc80e	-6.54837e-07
91	0xb6a805ff	-5.007488e-06
92	0x37ae0ba4	2.0747837e-05
93	0x36a45d2e	4.8984284e-06
94	0xb7308b23	-1.0522813e-05
95	0x365901f2	3.2336652e-06
96	0x37c1a4a4	2.308406e-05
97	0x36913560	4.3275504e-06
98	0x37ddc08b	2.6434913e-05
99	0xb7a466f2	-1.9598261e-05
100	0xb7a222a6	-1.932804e-05
101	0x366ea88e	3.5562875e-06
102	0x378b3db3	1.6598822e-05
103	0xb7142818	-8.8308225e-06
104	0xb791cca5	-1.7380642e-05
105	0x38057f79	3.182839e-05
106	0xb7e8f610	-2.7771137e-05
107	0xb79f53f8	-1.8993378e-05
108	0xb7a4327f	-1.9573838e-05
109	0x35fc3896	1.8791932e-06
110	0x3844d994	4.6932677e-05
111	0xb7a10eac	-1.9199528e-05
112	0xb7ae51aa	-2.0780444e-05
113	0xb7d44081	-2.5302406e-05
114	0xb784f416	-1.5849288e-05
115	0x36ad23f4	5.1599873e-06
116	0xb7ea668e	-2.794273e-05
117	0x37337663	1.06967955e-05
118	0x35f731a2	1.8417379e-06
119	0x37a26b50	1.9361876e-05
120	0x37b63a91	2.1723363e-05
121	0x369b1298	4.6215246e-06
122	0xb64de955	-3.0683198e-06
123	0x36338b86	2.6754292e-06
124	0xb6b3c77c	-5.3578387e-06
125	0x36df1130	6.647919e-06
126	0x37deda59	2.6566138e-05
127	0xb7145639	-8.841563e-06

exp_avg_sq f4 [128]
0	0x3133476f	2.6088534e-09
1	0x2f010a0d	1.1736052e-10
2	0x31453f58	2.870328e-09
3	0x309b6184	1.130545e-09
4	0x33776f46	5.761037e-08
5	0x331d6ee5	3.665527e-08
6	0x32811f76	1.5031883e-08
7	0x31253ed2	2.404637e-09
8	0x3347c160	4.650917e-08
9	0x32804699	1.4933265e-08
10	0x30de3be0	1.6169643e-09
11	0x32fda974	2.9530135e-08
12	0x3262b640	1.319637e-08
13	0x30950cf5	1.084486e-09
14	0x330d29eb	3.2867245e-08
15	0x343a66e6	1.7360034e-07
16	0x3288b1c0	1.5913315e-08
17	0x32c6ec71	2.3157755e-08
18	0x31c1b2ab	5.6373515e-09
19	0x33c12984	8.9948145e-08
20	0x3336d191	4.2565777e-08
21	0x32503001	1.2118108e-08
22	0x3220eb6e	9.366756e-09
23	0x333e6079	4.4325564e-08
24	0x2fc1dfc3	3.5265488e-10
25	0x31216a3f	2.3488977e-09
26	0x33b7501a	8.536172e-08
27	0x3244d826	1.1457848e-08
28	0x32446b97	1.1433165e-08
29	0x325c7ec1	1.2834506e-08
30	0x30e0e5e3	1.6363483e-09
31	0x31bfbc7b	5.5802594e-09
32	0x32fa9b98	2.9174586e-08
33	0x31994daf	4.4617177e-09
34	0x30aea196	1.2706092e-09
35	0x31b48db3	5.254799e-09
36	0x3212291f	8.507668e-09
37	0x31c3bba3	5.6965788e-09
38	0x300910b8	4.986407e-10
39	0x32ca333e	2.3539197e-08
40	0x332081be	3.7370903e-08
41	0x3273b481	1.4185503e-08
42	0x3222a94c	9.468135e-09
43	0x2f6cb323	2.1527717e-10
44	0x305b74f5	7.983794e-10
45	0x320eb63d	8.306924e-09
46	0x33c30bea	9.082562e-08
47	0x315b90a4	3.1950913e-09
48	0x318a557a	4.026046e-09
49	0x3168330f	3.3789467e-09
50	0x337a0c81	5.8219033e-08
51	0x3116bcd5	2.1935211e-09
52	0x3308635e	3.175534e-08
53	0x31bf86bf	5.5741505e-09
54	0x316e0520	3.4636471e-09
55	0x32ce2b40	2.4001224e-08
56	0x33429e8a	4.5313335e-08
57	0x316feee3	3.4914869e-09
58	0x33281937	3.913848e-08
59	0x32ad4d10	2.0174895e-08
60	0x33658d9e	5.3447017e-08
61	0x2fa86f5b	3.0638145e-10
62	0x32a484f5	1.9152575e-08
63	0x3094ffa4	1.0841075e-09
64	0x32bacf70	2.1747582e-08
65	0x3200a387	7.487762e-09
66	0x2f4881d3	1.8236017e-10
67	0x30d30ebe	1.535646e-09
68	0x330a301b	3.217438e-08
69	0x328eee3a	1.6639309e-08
70	0x31c82dd6	5.825977e-09
71	0x2f72e1ec	2.2090035e-10
72	0x2f966285	2.7354843e-10
73	0x32817bfe	1.5073962e-08
74	0x30b26acf	1.2981561e-09
75	0x310d3eb2	2.0553839e-09
76	0x31e0c319	6.541438e-09
77	0x331eaccd	3.6944403e-08
78	0x3291ee9f	1.6988734e-08
79	0x301587d2	5.4398896e-10
80	0x32908850	1.6825794e-08
81	0x33a1c4f3	7.5329716e-08
82	0x322d9bc0	1.0105339e-08
83	0x30083432	4.9550686e-10
84	0x31bcac49	5.4911067e-09
85	0x32c74b1c	2.3200805e-08
86	0x32ea4101	2.7270746e-08
87	0x33466b71	4.6198185e-08
88	0x32060a45	7.802162e-09
89	0x30328dc5	6.495749e-10
90	0x2ff97c1c	4.538102e-10
91	0x30c30ca8	1.4191714e-09
92	0x32346211	1.0499677e-08
93	0x3002773b	4.746316e-10
94	0x319d0018	4.569312e-09
95	0x2fd80093	3.929058e-10
96	0x3211de5b	8.490669e-09
97	0x30022cd0	4.7357407e-10
98	0x3368f930	5.4243344e-08
99	0x311a86c0	2.2486546e-09
100	0x32ad1060	2.0147297e-08
101	0x3264e00c	1.3322289e-08
102	0x331d4e6a	3.662573e-08
103	0x31e4c8fe	6.6585235e-09
104	0x3096c76c	1.0970616e-09
105	0x336fc0e0	5.5821943e-08
106	0x32ee712c	2.7758311e-08
107	0x32bda3c9	2.2076977e-08
108	0x32934470	1.7144174e-08
109	0x30c43be9	1.4277904e-09
110	0x33a0419a	7.4625135e-08
111	0x32779ee4	1.441342e-08
112	0x32845b58	1.540836e-08
113	0x3326cbfc	3.883541e-08
114	0x3141b307	2.8186962e-09
115	0x3102087c	1.8922313e-09
116	0x33332975	4.171439e-08
117	0x31de3bdd	6.467856e-09
118	0x31b4b2a5	5.258999e-09
119	0x32e1a2b0	2.626743e-08
120	0x32b5a242	2.114496e-08
121	0x30d9ec4b	1.5855987e-09
122	0x3182ad66	3.803211e-09
123	0x31be538b	5.5392255e-09
124	0x31c161c4	5.628154e-09
125	0x3148a2b4	2.9196316e-09
126	0x320b5366	8.1098275e-09
127	0x2fcb4137	3.6971823e-10

exp_avg f4 [128, 128]
0	0x34c4323a	3.654439e-07
1	0x34be4e70	3.544733e-07
2	0x34c3b6ac	3.6454492e-07
3	0xb6579583	-3.2124524e-06
4	0xb882c4f8	-6.235571e-05
5	0xb8051382	-3.172784e-05
6	0xb84aa48e	-4.8313806e-05
7	0xb77c613a	-1.5043008e-05
8	0x341da700	1.4682519e-07
9	0x345eec9c	2.0761439e-07
10	0x34897808	2.5605573e-07
11	0xb8459a4f	-4.711217e-05
12	0xb79565fb	-1.7809672e-05
13	0xb838f847	-4.4100245e-05
14	0xb8598924	-5.1864554e-05
15	0xb795a6b1	-1.7839806e-05
16	0xb813d4e2	-3.5245794e-05
17	0xb782904e	-1.5564405e-05
18	0xb70bc13b	-8.330036e-06
19	0xb83a27dd	-4.438298e-05
20	0xb82f9cb1	-4.186918e-05
21	0xb8690df8	-5.556454e-05
22	0x34a62e73	3.0953706e-07
23	0xb8980ce1	-7.250324e-05
24	0x348fcccd	2.6784838e-07
25	0xb74fe63d	-1.2391768e-05
26	0xb81d9c65	-3.757737e-05
27	0x3401095c	1.2017466e-07
28	0xb63e0e74	-2.832062e-06
29	0x34a350e1	3.0419963e-07
30	0x34cac206	3.7766603e-07
31	0x34b0f75b	3.296253e-07
32	0x34b27d76	3.3246369e-07
33	0x34a8c615	3.1436562e-07
34	0x34bbe420	3.4997447e-07
35	0xb807cf8f	-3.2379812e-05
36	0xb783495c	-1.5650578e-05
37	0xb811b8fa	-3.4742967e-05
38	0xb7de35c0	-2.6489492e-05
39	0x3400ac98	1.1983718e-07
40	0x34a74aef	3.1160695e-07
41	0x34844ccd	2.4642796e-07
42	0x34c51aa5	3.6713496e-07
43	0xb740d4a5	-1.1493602e-05
44	0xb77ec836	-1.5186195e-05
45	0xb8312e3d	-4.224315e-05
46	0x34a3c579	3.0504796e-07
47	0xb735e142	-1.0840888e-05
48	0x34309b69	1.6447815e-07
49	0x34c927c2	3.7468095e-07
50	0xb82107bc	-3.8392594e-05
51	0xb6f9a795	-7.4402874e-06
52	0xb77668ae	-1.4687115e-05
53	0x34b4e7ea	3.3696352e-07
54	0xb81b2917	-3.6993148e-05
55	0x34c13976	3.599086e-07
56	0x34c3d128	3.6473762e-07
57	0xb83cf6c4	-4.505251e-05
58	0xb821430f	-3.8447844e-05
59	0xb88fc0f1	-6.8547095e-05
60	0x34b7cff6	3.4237718e-07
61	0x3422d5d2	1.5165213e-07
62	0xb888cfa6	-6.523663e-05
63	0x34c9caf0	3.7586824e-07
64	0x3409561c	1.2790446e-07
65	0x34b01078	3.2794537e-07
66	0x347ec387	2.3726726e-07
67	0xb868b746	-5.5483797e-05
68	0xb7d810c8	-2.5757021e-05
69	0xb6450d5b	-2.9363061e-06
70	0x34c787be	3.7165404e-07
71	0xb7b90e18	-2.2060281e-05
72	0x3486f7ca	2.5139735e-07
73	0x34cb6ade	3.7889453e-07
74	0x34c5a13a	3.6811417e-07
75	0x3437ec9f	1.7129285e-07
76	0x34c7de65	3.7228452e-07
77	0x34b7508d	3.4145015e-07
78	0xb8071b48	-3.2211916e-05
79	0xb6e018a6	-6.6785897e-06
80	0xb7f7b7c4	-2.9530267e-05
81	0xb893d7e6	-7.0497204e-05
82	0xb78370fa	-1.5669026e-05
83	0xb749c968	-1.2027427e-05
84	0x34c231e7	3.6171625e-07
85	0x346d0bcf	2.2076641e-07
86	0x349ab896	2.881904e-07
87	0xb795c3f9	-1.7853441e-05
88	0xb7596084	-1.295668e-05
89	0x348724f1	2.5172588e-07
90	0x34c984ab	3.7535696e-07
91	0x34ca1e39	3.7647422e-07
92	0xb80015e6	-3.0537973e-05
93	0x34b73884	3.4127527e-07
94	0x349c0b56	2.9065512e-07
95	0xb7979e85	-1.807442e-05
96	0xb834fc7a	-4.315048e-05
97	0x34b42a31	3.355831e-07
98	0x34c97194	3.7521806e-07
99	0xb893eb88	-7.053377e-05
100	0x348a5d5e	2.5772437e-07
101	0xb8954732	-7.118135e-05
102	0xb7853a54	-1.5881997e-05
103	0x348a57fa	2.5768514e-07
104	0xb8069991	-3.209111e-05
105	0xb778b29c	-1.4823538e-05
106	0xb6a07a8e	-4.782639e-06
107	0x34c20358	3.613775e-07
108	0x349dc26c	2.938499e-07
109	0x34820d60	2.4224119e-07
110	0x343f2401	1.780136e-07
111	0xb829923f	-4.0428942e-05
112	0x349e966f	2.9539248e-07
113	0xb8065e93	-3.203617e-05
114	0xb86ea89e	-5.690066e-05
115	0xb6f793c5	-7.3783763e-06
116	0x34c0cc3e	3.5911393e-07
117	0xb597f4ac	-1.1321586e-06
118	0xb7ac21ef	-2.05198e-05
119	0xb7270fb3	-9.957631e-06
120	0x34cb4f3e	3.7869353e-07
121	0x34c6583e	3.694458e-07
122	0xb8a1ed6b	-7.721301e-05
123	0xb8c7cb00	-9.526871e-05
124	0x34a42a23	3.057804e-07
125	0xb8629201	-5.4018576e-05
126	0xb815c131	-3.570429e-05
127	0xb7c11ce4	-2.3020846e-05
128	0xba88fd95	-0.001045155
129	0xbafae705	-0.0019142336
130	0xbae8288b	-0.0017712278
131	0x3630fae6	2.6372086e-06
132	0xb7774b8d	-1.4739938e-05
133	0xb6b80772	-5.484494e-06
134	0xb72bc924	-1.0239226e-05
135	0xb5b79d40	-1.3680328e-06
136	0xb8f3289c	-0.00011594707
137	0xb99895b0	-0.00029103225
138	0xb9d4607c	-0.00040507677
139	0xb7277d6a	-9.983176e-06
140	0xb61507c9	-2.2207262e-06
141	0xb717a920	-9.039679e-06
142	0xb73e4730	-1.1341457e-05
143	0xb61494d6	-2.2140352e-06
144	0xb6d8b774	-6.4586584e-06
145	0xb5da783a	-1.6277256e-06
146	0x353fc9ad	7.144652e-07
147	0xb719c760	-9.165931e-06
148	0xb70a9237	-8.259484e-06
149	0xb753f02a	-1.2632498e-05
150	0xba2e29ab	-0.0006643782
151	0xb7948dc0	-1.7708982e-05
152	0xba00b10a	-0.00049091934
153	0xb536ea91	-6.814162e-07
154	0xb6eb20d7	-7.007369e-06
155	0xb9299672	-0.00016173141
156	0x365854a9	3.2235787e-06
157	0xba268210	-0.0006351778
158	0xbac357dd	-0.0014903505
159	0xba4af9ce	-0.0007742912
160	0xba4f2af0	-0.00079028215
161	0xba35b81b	-0.0006932036
162	0xba6e7d51	-0.0009097653
163	0xb6baa534	-5.562464e-06
164	0xb5ddf9ee	-1.6538522e-06
165	0xb6d06ee2	-6.2117915e-06
166	0xb687c2a7	-4.045974e-06
167	0xb918a894	-0.0001455865
168	0xba311712	-0.0006755452
169	0xb9c42bf7	-0.0003741679
170	0xbae2c012	-0.0017299673
171	0xb49854fa	-2.8374035e-07
172	0xb5b895e7	-1.3752696e-06
173	0xb70c7768	-8.372452e-06
174	0xbb2b7d7b	-0.0026167321
175	0xb3ce5b22	-9.6091995e-08
176	0xb96b1287	-0.00022418248
177	0xba9bea79	-0.001189544
178	0xb6f31f18	-7.245584e-06
179	0x357f85d2	9.5189637e-07
180	0xb5b9e45e	-1.3850038e-06
181	0xba5796a7	-0.0008224048
182	0xb6e438d4	-6.801545e-06
183	0xba819686	-0.0009886778
184	0xbae7e3ff	-0.001769185
185	0xb71b140f	-9.24339e-06
186	0xb6f7925e	-7.378213e-06
187	0xb78b9170	-1.6637816e-05
188	0xb7f322c5	-2.8984048e-05
189	0xb9500d91	-0.0001984148
190	0xb781cd38	-1.547356e-05
191	0xba9f524e	-0.0012155266
192	0xb93bbbba	-0.00017903643
193	0xba485583	-0.0007642137
194	0xb9b9fcad	-0.00035474208
195	0xb752bd22	-1.2561011e-05
196	0xb686973a	-4.0111163e-06
197	0x364b71a2	3.03155e-06
198	0xba938a22	-0.0011256377
199	0xb64647a5	-2.9546002e-06
200	0xb9c88a47	-0.00038249997
201	0xbab92838	-0.0014126366
202	0xba8d931e	-0.0010801291
203	0xb972da9a	-0.00023160354
204	0xba948153	-0.0011330046
205	0xb83d733d	-4.5168435e-05
206	0xb6b9047b	-5.5139512e-06
207	0x358d70c2	1.0538135e-06
208	0xb6a1b40c	-4.819134e-06
209	0xb7909bca	-1.7238683e-05
210	0xb5d22a2a	-1.5658491e-06
211	0xb4f88a52	-4.629424e-07
212	0xba83de95	-0.0010060841
213	0xb8b5a0af	-8.660682e-05
214	0xba125656	-0.0005582323
215	0xb614fabd	-2.2199667e-06
216	0xb554ddf4	-7.929914e-07
217	0xb9d01c7e	-0.0003969408
218	0xba9e8fd6	-0.001209731
219	0xbaa04a7c	-0.0012229229
220	0xb6a9abe0	-5.0566014e-06
221	0xbb0936d1	-0.0020937214
222	0xba157ceb	-0.0005702513
223	0xb60f5e6e	-2.1363626e-06
224	0xb7112887	-8.6521095e-06
225	0xba521abb	-0.00080148474
226	0xbacb5410	-0.0015512723
227	0xb790ea3d	-1.7275213e-05
228	0xb9dc3abd	-0.00042005433
229	0xb7913df2	-1.7314193e-05
230	0xb5dd0a4c	-1.646878e-06
231	0xb9dc2b5a	-0.0004199397
232	0xb6bc966a	-5.620347e-06
233	0xb5b57d98	-1.3522103e-06
234	0x35b88c54	1.3749909e-06
235	0xba8367ab	-0.0010025402
236	0xba1a3fc4	-0.00058841356
237	0xb9c88cea	-0.00038251962
238	0xb97f42a5	-0.00024343522
239	0xb7057e1a	-7.956778e-06
240	0xba1c2fe4	-0.0005958064
241	0xb6bab597	-5.564372e-06
242	0xb75ab2b5	-1.3035421e-05
243	0x3580a701	9.585348e-07
244	0xba809ea5	-0.0009812905
245	0x36ece5f9	7.0601204e-06
246	0xb6386d50	-2.7481765e-06
247	0x345976b0	2.0252878e-07
248	0xbaa7bdf4	-0.0012797699
249	0xbad4537d	-0.0016199198
250	0xb7a1287c	-1.9211548e-05
251	0xb7cd5429	-2.4477094e-05
252	0xbb2bed90	-0.0026234128
253	0xb7490374	-1.1981338e-05
254	0xb6d8020e	-6.437541e-06
255	0xb66427a8	-3.399773e-06
