Assets/ML-Agents/results/sshipMovMod1Test-3/My Behavior/My Behavior-500114.onnx (onnx, 75174 bytes, 6 tensors)

network_body._body_endoder.seq_layers.0.weight f4 [128, 1]
0.96619457 1.7660623 1.6343902 -0.08964199 -1.6390059 -0.8381734 -1.2732098 -0.4007858
0.10949774 0.270678 0.3760375 -1.2410494 -0.4723119 -1.1624057 -1.3659819 -0.47322464
-0.9303288 -0.41343254 -0.22265765 -1.1695317 -1.1047277 -1.4617358 0.6150463 -1.9045252
0.454194 -0.329772 -0.99224544 0.15159246 -0.08034951 0.58815366 1.3758595 0.7164631
0.7312537 0.64152753 0.8410311 -0.8559651 -0.41567275 -0.91790146 -0.7016329 0.13668533
0.6253388 0.34751004 1.5964031 -0.3071044 -0.40487674 -1.1145129 2.41271 -0.28943473
0.20941989 1.0992354 -1.0135903 -0.1990256 -0.3903222 0.760617 -0.9772096 0.91412354
1.6325026 -1.1878902 -1.0142294 -1.800566 0.03379164 0.18616663 -1.7150941 1.1231108
0.16758081 0.7071831 0.32937002 -1.4599031 -0.6813387 -0.082412675 1.0402771 -0.585963
0.35541248 1.3043722 0.9985338 0.21633425 1.046975 0.047875296 -0.8515902 -0.17818514
-0.78121746 -1.8513961 -0.41699606 -0.32119766 0.93019664 0.083382465 0.51705664 -0.47356057
-0.34540161 0.3683262 1.1178713 1.1298381 -0.80781037 1.9312655 0.5281515 -0.48052892
-1.1382173 0.7420406 1.432005 -1.8521978 0.38961738 -1.8700122 -0.4223735 0.38951114
-0.84739554 -0.39457527 -0.12792176 0.9268994 0.5448399 0.35453022 0.22704384 -1.0661557
0.5516705 -0.8462772 -1.496704 -0.19729078 0.90725666 -0.03882889 -0.54435855 -0.26598877
1.1819985 1.4955591 -2.0268917 -2.4981394 2.4187667 -1.4224337 -0.9434172 -0.6093323
00000000: 8758 773f 540e e23f b333 d13f 3896 b7bd
00000010: f2ca d1bf 8892 56bf 8af8 a2bf cc33 cdbe
00000020: 5a40 e03d 4f96 8a3e fd87 c03e b5da 9ebf
00000030: ded2 f1be b6c9 94bf 7fd8 aebf 804a f2be
00000040: 072a 6ebf 6ead d3be 5e00 64be 37b3 95bf
00000050: b867 8dbf 291a bbbf ad73 1d3f 7bc7 f3bf
00000060: 1e8c e83e e0d7 a8be cc03 7ebf 0e3b 1b3e
00000070: 498e a4bd 3d91 163f 2a1c b03f 206a 373f
00000080: 7133 3b3f 263b 243f d04d 573f 8720 5bbf
00000090: 0fd3 d4be 97fb 6abf 379e 33bf 3df7 0b3e
000000a0: 3416 203f d6ec b13e f056 cc3f ca3c 9dbe
000000b0: 014c cfbe 5ca8 8ebf d769 1a40 ca30 94be
000000c0: 2b72 563e bfb3 8c3f 54bd 81bf 5ecd 4bbe
000000d0: 50d8 c7be ccb7 423f 692a 7abf 0004 6a3f
000000e0: d8f5 d03f c90c 98bf 45d2 81bf f278 e6bf
000000f0: 1a69 0a3d 77a2 3e3e 3488 dbbf 18c2 8f3f
00000100: 4e9a 2b3e f409 353f 30a3 a83e 1bde babf
00000110: 376c 2ebf fac7 a8bd cd27 853f ac01 16bf
00000120: a0f8 b53e abf5 a63f e99f 7f3f ba86 5d3e
00000130: 4703 863f e318 443d d101 5abf 2a76 36be
00000140: defd 47bf 8cfa ecbf 8280 d5be 0574 a4be
00000150: 5e21 6e3f 6dc4 aa3d d35d 043f 8876 f2be
00000160: 7bd8 b0be 4095 bc3e 6816 8f3f 899e 903f
00000170: a9cc 4ebf b533 f73f f034 073f e307 f6be
00000180: 1bb1 91bf 5ff6 3d3f f14b b73f d114 edbf
00000190: ee7b c73e 8f5c efbf 5741 d8be 016e c73e
000001a0: eaee 58bf c505 cabe ecfd 02be 4749 6d3f
000001b0: a17a 0b3f fc84 b53e 2e7e 683e ca77 88bf
000001c0: 473a 0d3f 9fa5 58bf ff93 bfbf 9806 4abe
000001d0: f941 683f 0b0b 1fbd 155b 0bbf ae2f 88be
000001e0: ba4b 973f 7b6e bf3f 98b8 01c0 84e1 1fc0
000001f0: 13cd 1a40 4f12 b6bf ca83 71bf 34fd 1bbf

network_body._body_endoder.seq_layers.0.bias f4 [128]
-0.0031304003 -0.0037149363 -0.0009907258 -0.009882257 0.006807051 0.005345136 -0.006943433 -0.01494062
0.0011978885 0.006210473 -0.008817849 0.0052656997 0.009041317 0.0033865713 -0.0068096053 0.006802355
0.007106003 0.0058223624 -0.0074935444 0.007739248 -0.008211438 0.0071238037 -0.0023695023 -0.0057068816
0.023268683 0.007336981 -0.0067094374 0.00035537122 -0.0058345157 -0.00457771 0.0009474368 -0.0016603061
-0.0030469128 0.0025798837 0.0113764815 -0.006626115 0.0063052485 -0.005840744 -0.012051652 2.5892043e-06
-0.0018223267 -0.0057094875 -0.0003281659 -0.013548429 -0.020716703 -0.008149589 -0.0007672629 -0.0062232744
-0.003028143 -0.0071284994 -0.006484024 -0.011104087 0.0062540015 0.00698807 -0.0112182 -0.002033591
-0.0006776216 -0.0061480766 0.007124365 0.0062685777 -0.0024095834 -0.020175641 -0.0076724514 -0.0054403963
0.00068721606 -0.0023031116 0.0030126385 0.0025518215 0.00652209 0.004129297 -0.0019060791 -0.025503187
-0.013916596 -2.8923778e-05 -0.008458222 -0.004825458 0.00068064913 0.0009483272 -0.0071170353 -0.0009806199
-0.0073526944 0.0068519693 -0.009902597 -0.01315937 -0.0033457982 -0.0011419574 -0.0016417899 0.007225792
-0.0069871135 -0.0014723934 -0.0085925115 -0.0019229347 -0.009723511 -0.0041315765 -0.0016516821 -0.014608746
-0.007509129 -0.019088537 -0.0023647137 0.009176309 -0.0012555805 -0.0052057127 -0.0056146467 -0.0012182933
0.010346196 -0.006734476 0.0073130755 -0.0016657005 0.00094048673 0.015788957 0.00090759667 0.0063116928
0.00074544526 0.0051140822 0.005786874 -0.009527948 0.00073881843 -0.0033185773 -0.0058704987 -0.0061837262
0.0036543943 -0.017464034 0.0019542133 -0.0011357241 0.0038095813 -0.009789427 -0.011043733 0.008168853
00000000: 6727 4dbb 4a76 73bb 3edb 81ba 31e9 21bc
00000010: af0d df3b 4026 af3b bd85 e3bb 81c9 74bc
00000020: 7802 9d3a 3981 cb3b bd78 10bc e48b ac3b
00000030: 0822 143c 3df1 5d3b 1c23 dfbb 4ae6 de3b
00000040: 79d9 e83b 84c9 be3b 688c f5bb 8599 fd3b
00000050: 4489 06bc cc6e e93b a749 1bbb cb00 bbbb
00000060: f79d be3c 0f6b f03b d7da dbbb 1e51 ba39
00000070: 772f bfbb 9d00 96bb 685d 783a a19e d9ba
00000080: b7ae 47bb 4413 293b 6c64 3a3c e21f d9bb
00000090: 429c ce3b b663 bfbb 4b74 45bc 31c2 2d36
000000a0: 23db eeba a716 bbbb ae0d acb9 3bfa 5dbc
000000b0: 13b6 a9bc db85 05bc 2422 49ba 9cec cbbb
000000c0: cf73 46bb 3096 e9bb f077 d4bb ebed 35bc
000000d0: 5eee cc3b 2efc e43b 8bcc 37bc ff45 05bb
000000e0: 6aa2 31ba ce75 c9bb 8173 e93b a468 cd3b
000000f0: 1aea 1dbb 6347 a5bc 3069 fbbb 5a45 b2bb
00000100: 4a26 343a cdef 16bb b06f 453b 763c 273b
00000110: 42b7 d53b 0e4f 873b 67d5 f9ba 0fec d0bc
00000120: 6f02 64bc 57a1 f2b7 5b94 0abc e01e 9ebb
00000130: 976d 323a 2999 783a 0536 e9bb 2588 80ba
00000140: dfee f0bb 7c86 e03b 813e 22bc 669a 57bc
00000150: 2e45 5bbb bbad 95ba 5431 d7ba 56c6 ec3b
00000160: 28f4 e4bb 53fd c0ba 9bc7 0cbc fb0a fcba
00000170: 5c4f 1fbc 2d62 87bb 417d d8ba 8659 6fbc
00000180: 240f f6bb 905f 9cbc 50f9 1abb 3b58 163c
00000190: 4a92 a4ba af94 aabb 12fb b7bb 24af 9fba
000001a0: 1783 293c e1ac dcbb 86a2 ef3b a253 daba
000001b0: ff8a 763a d857 813c c8eb 6d3a 51d2 ce3b
000001c0: fc69 433a 0894 a73b d19f bd3b 1c1b 1cbc
000001d0: 44ad 413a 7d7c 59bb 505d c0bb dba0 cabb
000001e0: 907e 6f3b bc10 8fbc 4212 003b 94dc 94ba
000001f0: 2baa 793b d563 20bc c6f0 34bc a7d6 053c

network_body._body_endoder.seq_layers.2.weight f4 [128, 128]
-0.04494231 0.124813125 0.045336384 0.034066975 0.09016105 -0.08789086 -0.016718145 0.14298189
-0.066697456 -0.07084278 -0.0050846073 -0.021822276 0.073045015 0.05299714 -0.019260395 0.22857024
0.12986748 0.021110922 -0.09127434 0.10829512 0.059388094 0.006174546 -0.008564173 0.01511732
-0.041254837 -0.1867465 -0.0039669466 0.00015871614 0.035583954 0.04331685 0.032720257 0.13228911
-0.12890129 0.03414229 -0.13102812 -0.0063728965 0.017837228 0.07897451 -0.063833855 0.011480035
-0.0255647 -0.16747074 -0.021736335 0.08549053 -0.1045912 0.011374272 -0.10798906 -0.109294556
0.038758893 -0.17612162 -0.13297161 0.04679062 0.03918951 0.12209277 0.096810386 0.024369406
0.08207074 -0.009390396 0.058491066 0.038748767 0.11792893 0.07234203 -0.057026234 -0.006085133
-0.05259538 0.012007325 -0.0307979 -0.026276635 -0.13073453 -0.047860038 0.019079043 0.07029629
-0.019963901 -0.12079608 -0.043683372 -0.10028774 -0.16520362 0.00988843 0.102219306 -0.10407214
-0.08219019 0.004624734 -0.103289224 -0.013207468 -0.040114395 0.06538352 -0.065982975 0.06531305
-0.03964782 -0.11830782 -0.087945096 -0.03459469 -0.02911328 0.10308419 -0.051440086 0.011403544
-0.0071398974 -0.07446116 0.063005276 -0.07720307 -0.04712942 -0.020727292 0.022047916 0.013741171
0.0184814 0.10231843 0.1805062 -0.003998594 -0.07928021 -0.09121448 0.06802812 0.028885238
-0.13063969 -0.021237733 0.029427655 0.116218396 0.023100127 -0.081061244 0.046071347 0.071757846
0.034285642 -0.039081596 0.02547417 -0.04246419 0.058730017 0.040867146 -0.03723709 -0.072318584
0.02352373 0.1419783 -0.07141862 0.1066503 -0.07285209 -0.079155184 0.06996073 -0.0420924
0.029517524 0.06437762 -0.11261838 -0.0015640018 0.05441019 -0.14414127 0.03132313 -0.108595155
0.118051045 -0.115387976 -0.0004223566 -0.047191642 -0.0067616967 0.026967222 -0.10402938 0.05441034
0.026204444 -0.013754147 -0.08031183 -0.029803267 -0.122262456 -0.022487026 -0.13042092 0.040687796
-0.0897177 -0.061572596 -0.038490843 -0.14209232 0.070757724 -0.12632836 -0.054934815 -0.1582927
-0.124429375 0.18974292 -0.016504193 -0.0019054482 -0.15641662 -0.09474961 0.048247833 0.098817095
-0.08741066 0.09615703 0.039489012 -0.1971045 -0.019828586 -0.25500238 0.0667942 -0.12419522
0.056304585 -0.12225521 0.073056564 -0.006686115 -0.08671833 -0.026357127 0.049868837 0.035923447
-0.033194005 -0.009043381 -0.04797769 0.02855838 0.06735755 0.113244034 -0.0072189495 0.048236053
0.020557763 -0.034052625 -0.003683679 0.029508764 0.005091986 0.07816822 0.024724938 -0.036682375
-0.068358414 0.021959145 -0.10419431 -0.024784122 0.10127633 0.0900585 0.077622496 -0.05743978
0.014719167 -0.045097485 0.11297028 -0.13654509 0.09868395 0.05526613 -0.067129426 -0.101740494
0.025357878 0.010330386 -0.043417905 0.076112345 -0.105519764 0.02039189 0.14926484 -0.038264316
0.015612642 -0.033730134 0.10280808 0.077400565 0.10198765 0.12943554 -0.20466068 -0.06014731
0.10038259 -0.005874704 -0.1389572 0.06995695 0.025433121 -0.011262487 0.10088671 0.039957758
0.06601358 -7.086435e-05 0.085263945 -0.0634176 0.07644673 -0.027783906 -0.021007279 -0.0442802
00000000: 6d15 38bd 069e ff3d a5b2 393d d089 0b3d
00000010: 5ba6 b83d 2000 b4bd 7ef4 88bc d869 123e
00000020: ad98 88bd 0516 91bd c79c a6bb a1c4 b2bc
00000030: a098 953d 8713 593d fac7 9dbc 510e 6a3e
00000040: fbfb 043e d0f0 ac3c 0bee babd d5c9 dd3d
00000050: ee40 733d d953 ca3b bf50 0cbc a3ae 773c
00000060: d5fa 28bd 793a 3fbe 29fd 81bb 0a6d 2639
00000070: 7bc0 113d 026d 313d ad05 063d cc76 073e
00000080: b3fe 03be c9d8 0b3d 3c2c 06be bbd3 d0bb
00000090: 611f 923c 63bd a13d 53bb 82bd c216 3c3c
000000a0: 106d d1bc 737d 2bbe 6610 b2bc a915 af3d
000000b0: e933 d6bd 285b 3a3c 5e29 ddbd d3d5 dfbd
000000c0: a5c1 1e3d 3a59 34be b629 08be 85a7 3f3d
000000d0: 2e85 203d c60b fa3d 8644 c63d 59a2 c73c
000000e0: b414 a83d 2dda 19bc 5494 6f3d 07b7 1e3d
000000f0: b984 f13d 0f28 943d 5794 69bd cc65 c7bb
00000100: 416e 57bd 5fba 443c e14b fcbc 1942 d7bc
00000110: 46df 05be e308 44bd a74b 9c3c 80f7 8f3d
00000120: 568b a3bc ef63 f7bd 56ed 32bd a963 cdbd
00000130: 232b 29be 1503 223c 5b58 d13d c623 d5bd
00000140: 5553 a8bd 158b 973b 4d89 d3bd 2364 58bc
00000150: fe4e 24bd cce7 853d 1522 87bd d9c2 853d
00000160: c165 22bd 5f4b f2bd 8f1c b4bd 29b3 0dbd
00000170: f97e eebc ce1d d33d d7b2 52bd eed5 3a3c
00000180: cdf5 e9bb 187f 98bd e908 813d a51c 9ebd
00000190: c70a 41bd 48cc a9bc d59d b43c a622 613c
000001a0: 4e66 973c 538c d13d 9ed6 383e a306 83bb
000001b0: aa5d a2bd a8ce babd 5452 8b3d bca0 ec3c
000001c0: 69c6 05be c1fa adbc 4412 f13c e903 ee3d
000001d0: 7a3c bd3c 7003 a6bd 4fb5 3c3d c7f5 923d
000001e0: 1a6f 0c3d 0614 20bd 35af d03c eeee 2dbd
000001f0: e38e 703d 4f64 273d eb85 18bd c41b 94bd
00000200: d6b4 c03c c262 113e ed43 92bd 796b da3d
00000210: 7a33 95bd 1d1c a2bd 9247 8f3d 1569 2cbd
00000220: bcce f13c 6ad8 833d 77a4 e6bd 31ff ccba
00000230: 38dd 5e3d c599 13be af4c 003d 2367 debd
00000240: bfc4 f13d 8850 ecbd be6f ddb9 064c 41bd
00000250: 3991 ddbb 5dea dc3c 5b0d d5bd 60dd 5e3d
00000260: b4aa d63c 1359 61bc 877a a4bd fb25 f4bc
00000270: bd64 fabd b636 b8bc 108d 05be 3fa8 263d
00000280: eabd b7bd 8c33 7cbd 93a8 1dbd a680 11be
00000290: 6de9 903d 395c 01be 5403 61bd 7b17 22be
000002a0: d4d4 febd f84b 423e cd33 87bc 3bc0 f9ba
000002b0: ae2b 20be 150c c2bd 859f 453d 9e60 ca3d
000002c0: 5c04 b3bd faed c43d 3bbf 213d c3d5 49be
000002d0: 8f6f a2bc ac8f 82be 66cb 883d 105a febd
000002e0: a39f 663d f160 fabd ae9e 953d 3317 dbbb
000002f0: 6199 b1bd e7ea d7bc 4443 4c3d 7724 133d
00000300: 70f6 07bd b02a 14bc 4184 44bd 44f3 e93c
00000310: c1f2 893d 7dec e73d f08c ecbb 2b93 453d
00000320: c168 a83c c47a 0bbd e169 71bb 5dbc f13c
00000330: adda a63b a916 a03d f48b ca3c 4240 16bd
00000340: 7fff 8bbd aae3 b33c d463 d5bd 1208 cbbc
00000350: f769 cf3d 9770 b83d 8bf8 9e3d fa45 6bbd
00000360: a928 713c 24b8 38bd f65c e73d 7ad2 0bbe
00000370: d01a ca3d bd5e 623d 277b 89bd 525d d0bd
00000380: 53bb cf3c c840 293c f9d6 31bd cae0 9b3d
00000390: bf1a d8bd e50c a73c e2d8 183e 0bbb 1cbd
000003a0: 2bcc 7f3c 9c28 0abd 0b8d d23d 3084 9e3d
000003b0: e7de d03d c08a 043e 9292 51be 075d 76bd
000003c0: 6395 cd3d 9780 c0bb cc4a 0ebe 9745 8f3d
000003d0: 1f59 d03c 4b86 38bc b19d ce3d bfaa 233d
000003e0: 2132 873d 029d 94b8 dd9e ae3d 16e1 81bd
000003f0: 1a90 9c3d 139b e3bc 7517 acbc 285f 35bd

network_body._body_endoder.seq_layers.2.bias f4 [128]
0.004055435 0.0013330575 0.004163789 -0.02185794 0.004687955 0.004981695 0.008137188 -0.013146852
0.001129038 -0.020907074 -0.023519801 0.007896118 0.010704945 -0.0056172484 0.0053791692 0.007838774
0.020277558 -0.015067986 -0.008042357 -0.005169596 -0.015951984 -0.004411973 -0.00053214765 0.0023708816
-0.005203356 -0.0055147093 -0.0034907123 -0.0029135235 0.007932868 -0.00024446828 -0.0029680415 0.007889266
-0.0065745446 -0.00720881 -0.0010004515 -0.002266337 0.007854683 -0.0032742415 0.012116304 0.0070348587
0.0052800393 0.01677905 0.00019316912 -0.0012906924 0.0046850345 -0.0028632216 0.0018852408 0.0036781363
0.0069068186 -0.0057305214 -0.010403994 -0.0011693566 0.022809425 -0.0045286804 -0.008592424 0.0078055216
0.0051417 0.00016757975 0.0019126366 0.021451553 0.0053129788 0.0024297296 -0.011950548 -0.0054191197
0.003503513 -0.00019378286 -0.008436719 -0.018709572 0.0011930927 -0.008119483 0.00414226 -0.007945416
-0.007936515 0.0038531655 -0.0011562018 -0.0028189037 -0.023918455 0.008251876 0.0039440705 -0.003186612
-0.023003226 0.0002615011 -0.003073147 0.005171639 0.011037603 -0.007264061 -0.003703363 -0.008446943
0.005731807 0.021310706 -0.004752163 0.018643748 -0.0056132725 -0.001735451 -0.0010937485 -0.009343752
0.010498135 -0.00010929619 0.0065774946 -0.017281216 -0.008770844 -0.0075732656 0.0075540724 0.003187883
0.00054661016 -0.023861613 -0.011047851 -0.0057278895 -0.008368176 0.012466091 -0.008933716 -0.024512192
0.0027174924 -0.00048651636 0.008436404 -0.009531192 -0.00773549 0.004265181 -0.0039582737 -0.0032606162
0.00090995367 0.0054383767 -0.0058197435 0.022598667 0.013911411 0.004340989 0.0050699026 -0.0053744377
00000000: 74e3 843b fdb9 ae3a 6570 883b 6c0f b3bc
00000010: 6b9d 993b 7d3d a33b d751 053c e565 57bc
00000020: 3bfc 933a 5045 abbc 99ac c0bc b85e 013c
00000030: cb63 2f3c e510 b8bb be43 b03b 336e 003c
00000040: 1f1d a63c b7df 76bc 17c4 03bc b765 a9bb
00000050: bcad 82bc 5092 90bb d37f 0bba cb60 1b3b
00000060: ea80 aabb bcb4 b4bb 6fc4 64bb d0f0 3ebb
00000070: dcf8 013c fa2b 80b9 7983 42bb fb41 013c
00000080: 476f d7bb e237 ecbb 9521 83ba d386 14bb
00000090: eeb0 003c a894 56bb 7683 463c ac84 e63b
000000a0: 2e04 ad3b 3874 893c 718d 4a39 732c a9ba
000000b0: eb84 993b e3a4 3bbb 2f1a f73a e30c 713b
000000c0: 9852 e23b 19c7 bbbb 8375 2abc 1945 99ba
000000d0: d5da ba3c 5365 94bb 3dc7 0cbc 76c5 ff3b
000000e0: b57b a83b 59b8 2f39 6fb1 fa3a 2bbb af3c
000000f0: 7f18 ae3b 193c 1f3b 3bcc 43bc df92 b1bb
00000100: 329b 653b 3132 4bb9 2a3a 0abc d144 99bc
00000110: 8c61 9c3a 9407 05bc ccbb 873b 7d2d 02bc
00000120: 2808 02bc 6485 7c3b b28b 97ba 5bbd 38bb
00000130: a3f0 c3bc e032 073c 433d 813b 7ad6 50bb
00000140: 4371 bcbc 151a 8939 da66 49bb da76 a93b
00000150: 10d7 343c 5c07 eebb 1fb4 72bb 0c65 0abc
00000160: e2d1 bb3b ca93 ae3c 08b8 9bbb c6ba 983c
00000170: 8bef b7bb 1378 e3ba 1c5c 8fba 8916 19bc
00000180: 5f00 2c3c f235 e5b8 0688 d73b 5691 8dbc
00000190: 96b3 0fbc 2829 f8bb 2788 f73b cdeb 503b
000001a0: 634a 0f3a 6e79 c3bc 0c02 35bc 05b1 bbbb
000001b0: ad1a 09bc 933e 4c3c b95e 12bc cbcd c8bc
000001c0: f517 323b 1f13 ffb9 d838 0a3c b728 1cbc
000001d0: fe79 fdbb eec2 8b3b 68b4 81bb 10b0 55bb
000001e0: f589 6e3a 6934 b23b 8cb3 bebb d720 b93c
000001f0: b0ec 633c db3e 8e3b 6d21 a63b 0d1c b0bb

action_model._continuous_distribution.mu.weight f4 [1, 128]
-0.0010881854 -0.01945744 -0.0075144907 0.030039892 -0.029640475 -0.0109170955 -0.029410752 0.00035757478
-0.013026525 0.036662158 0.03866875 -0.018220788 -0.0042082 0.003208262 -0.040884335 -0.016573668
-0.0055341185 0.017506529 0.024883904 0.01766439 0.048939027 0.019506378 -0.013205296 -0.0088569345
0.017911717 0.0073442394 0.009702842 0.004590119 -0.013313263 -0.004726669 0.024426749 -0.007128161
0.0007036583 0.017040774 0.034212686 0.0135561265 -0.0004334347 0.028159266 -0.0010596309 -0.0077817407
0.0054615494 -0.005623146 -0.008200413 0.024264574 -0.014237336 -2.0718684e-05 -0.0005962065 -0.029389154
-0.008174803 0.01981314 7.0854308e-06 0.007278692 -0.028232224 0.0144897355 0.01060756 0.0029092943
-0.020763064 0.016362023 -0.0011837125 -0.017544063 -0.017068975 0.0127410665 0.019015675 0.014181645
-0.00687281 -0.0064968164 0.008593304 0.03608125 -0.012941133 0.019085372 -0.014566441 0.017703705
0.010859692 -0.01504556 -0.0025762003 0.028086105 0.039340682 -0.019693151 -0.023087688 0.0132700605
0.057124246 -0.0030018536 0.003578524 -0.014180067 -0.006590974 0.009066367 0.0060941367 0.023772296
-0.0017040876 -0.022468014 0.035247337 0.006317482 0.011744446 -0.0012597113 0.014105063 0.0047264337
0.0010461723 0.013130055 -0.009009062 0.045567013 0.0116529865 0.0007105897 -0.027122725 -0.014390339
-0.01799538 0.0198722 0.01905316 0.036609877 0.014125183 -0.0077800495 0.0010856442 0.019338109
-0.02630937 -0.030798962 -0.029420838 0.00021670561 0.010993268 -0.019222487 0.011847887 0.029645203
-0.008510082 -0.0025442042 0.001696575 -0.019032652 -0.021858074 -0.009928367 -0.0017116524 0.01226357
00000000: 71a1 8eba 3665 9fbc 1e3c f6bb 3816 f63c
00000010: 95d0 f2bc 9edd 32bc d1ee f0bc e078 bb39
00000020: 356d 55bc 0f2b 163d 2063 1e3d c343 95bc
00000030: f1e4 89bb b441 523b 5576 27bd 80c5 87bc
00000040: 8d57 b5bb da69 8f3c 54d9 cb3c e9b4 903c
00000050: 4a74 483d d7cb 9f3c 075b 58bc ad1c 11bc
00000060: 98bb 923c f2a7 f03b abf8 1e3c b568 963b
00000070: df1f 5abc 2ce2 9abb 9b1a c83c 5993 e9bb
00000080: b675 383a 1899 8b3c 9a22 0c3d 841a 5e3c
00000090: 9f3e e3b9 43ae e63c 50e3 8aba f9fd febb
000000a0: ccf6 b23b 5e42 b8bb 065b 06bc 80c6 c63c
000000b0: b743 69bc 09cd adb7 be4a 1cba 86c1 f0bc
000000c0: 9cef 05bc 2b4f a23c 63bf ed36 1882 ee3b
000000d0: 4447 e7bc 5b66 6d3c 55cb 2d3c dca9 3e3b
000000e0: 4d17 aabc a609 863c cd26 9bba 91b8 8fbc
000000f0: 3cd4 8bbc e8bf 503c c3c6 9b3c 215a 683c
00000100: 4f35 e1bb 3fe3 d4bb eeca 0c3c efc9 133d
00000110: 0c07 54bc ed58 9c3c 15a8 6ebc 5c07 913c
00000120: d9ec 313c a781 76bc 78d5 28bb d514 e63c
00000130: b223 213d 8853 a1bc 6422 bdbc ab6a 593c
00000140: 1dfb 693d bfba 44bb ac85 6a3b 8353 68bc
00000150: 19f9 d7bb 198b 143c 53b1 c73b 1ebe c23c
00000160: b15b dfba d70e b8bc 835f 103d e102 cf3b
00000170: c76b 403c e61c a5ba ec18 673c 33e0 9a3b
00000180: b81f 893a 711f 573c bf9a 13bc 7aa4 3a3d
00000190: 2bec 3e3c de46 3a3a 7a30 debc 75c5 6bbc
000001a0: 0c6b 93bc 06cb a23c 5f15 9c3c 3df4 153d
000001b0: 506d 673c c9ef febb 2d4c 8e3a f46a 9e3c
000001c0: bf86 d7bc 1b4e fcbc f803 f1bc 783b 6339
000001d0: 1c1d 343c 7a78 9dbc a41d 423c 7fda f23c
000001e0: df6d 0bbc aabc 26bb 9c5f de3a 5dea 9bbc
000001f0: b40f b3bc 97aa 22bc 8659 e0ba 24ed 483c

action_model._discrete_distribution.branches.0.weight f4 [1, 128]
0.0014631738 -0.0029337977 -0.014040954 -0.0027717089 0.015472393 -0.0033788101 0.006245316 0.015288805
0.0030206183 0.0045685954 0.0046901777 -0.016208252 0.0036620044 0.004596648 -0.0039001089 -0.0017636048
0.004348172 0.0048593315 0.0028679396 0.0084809465 -0.01790502 -0.0021783994 -0.00018682108 0.0023613987
0.00014012851 -0.004517292 0.008826654 0.011008988 0.0065584737 -0.008795663 0.0011886801 0.013124007
0.0030324159 -0.008070911 -0.010067013 0.010085649 0.0014853367 0.00022902289 -0.004841597 0.023463642
0.010458526 -0.0021473542 -0.012106436 0.0072093136 0.0026321567 -0.0077166758 0.015523876 -0.0076885554
0.0053475085 0.0033624654 0.0050517856 -0.003816879 0.007653214 0.008141822 -0.011520634 0.0016353714
0.008567084 -0.0044728527 0.010535278 0.011081544 -0.0036587596 0.0085086925 0.003600046 -0.009369855
-0.01450859 -0.0020064644 0.002060815 0.008141165 -0.014982225 0.003930472 -0.008763409 0.017747926
0.0051780543 0.015734125 -0.0033518828 0.0043175295 -0.01331542 0.0009427812 0.01046527 -0.012579778
0.014920755 -0.0037564242 0.015340256 0.0021860271 -0.0038538144 -0.002575536 0.005348079 -0.002051994
0.011449928 0.0049724127 -9.539822e-05 -0.013532847 -0.015511398 0.0027665754 0.00049899524 -0.01825521
-0.0026216148 -0.0021801945 -0.007560742 0.003532833 -0.0018473031 -0.0026315998 -0.0076793837 0.0032992437
0.007702706 0.005960337 -0.010169366 -0.0121264085 0.0017658696 0.018141732 -0.00076170656 0.002836548
-0.013432148 0.0033132476 -0.007931064 -0.0055155098 0.00025993455 0.011781091 -0.008092974 -0.0034537897
0.0006684 0.0032142827 0.007291063 0.008112183 0.010045418 -0.014201708 0.0007146381 -0.0024138133
00000000: f7c7 bf3a f544 40bb 080c 66bc 8fa5 35bb
00000010: eb7f 7d3c 076f 5dbb 82a5 cc3b e57d 7a3c
00000020: 91f5 453b 28b4 953b 10b0 993b 2bc7 84bc
00000030: 3dfe 6f3b 7a9f 963b f898 7fbb c228 e7ba
00000040: 1c7b 8e3b 073b 9f3b 0bf4 3b3b abf3 0a3c
00000050: 8cad 92bc 7ac3 0ebb 67e5 43b9 b2c1 1a3b
00000060: 76ef 1239 cb05 94bb ac9d 103c 0b5f 343c
00000070: 77e8 d63b af1b 10bc 7ccd 9b3a 1306 573c
00000080: 7fbb 463b db3b 04bc 1df0 24bc 473e 253c
00000090: a1af c23a dd25 7039 42a6 9ebb d336 c03c
000000a0: 3d5a 2b3c a0ba 0cbb 135a 46bc 1b3c ec3b
000000b0: 4380 2c3b 2bdc fcbb db57 7e3c 47f0 fbbb
000000c0: 273a af3b cf5c 5c3b 7389 a53b 9a24 7abb
000000d0: d0c7 fa3b 4765 053c 0bc1 3cbc f559 d63a
000000e0: f45c 0c3c 0291 92bb 299c 2c3c 5d8f 353c
000000f0: cdc7 6fbb 0b68 0b3c c0ee 6b3b 0584 19bc
00000100: 70b5 6dbc e37e 03bb bd0e 073b 8562 053c
00000110: 0278 75bc 30cb 803b 6794 0fbc 1964 913c
00000120: abac a93b dae4 803c 43ab 5bbb 107a 8d3b
00000130: eb28 5abc fa24 773a 8676 2b3c 6a1b 4ebc
00000140: 2f76 743c 572e 76bb b255 7b3c 7343 0f3b
00000150: 4790 7cbb 53ca 28bb f03e af3b bf7a 06bb
00000160: 7b98 3b3c 9fef a23b 8810 c8b8 e0b8 5dbc
00000170: 8523 7ebc 6f4f 353b 01cf 023a f38b 95bc
00000180: 66cf 2bbb 98e1 0ebb 1ac0 f7bb 1a87 673b
00000190: 3521 f2ba eb76 2cbb 57a3 fbbb 2038 583b
000001a0: fb66 fc3b ee4e c33b 6a9d 26bc d8ad 46bc
000001b0: c074 e73a f89d 943c 43ad 47ba 61e5 393b
000001c0: 8312 5cbc 1223 593b 4bf1 01bc 73bb b4bb
000001d0: d347 8839 7a05 413c 6598 04bc fa58 62bb
000001e0: 9137 2f3a b7a6 523b dfe9 ee3b f6e8 043c
000001f0: 8995 243c 48ae 68bc 8d56 3b3a 1131 1ebb
