Assets/ML-Agents/results/sshipMovMod1Test-2/My Behavior/My Behavior-499976.pt (torch, 429082 bytes, 33 tensors)

network_body._body_endoder.seq_layers.0.weight f4 [128, 1]
000000 37 f4 ab 3f cb 86 9e bf 73 c8 d4 3f cf 04 8e bf
       1.3433903 -1.2384886 1.6623672 -1.1095217
000010 23 12 8a be 95 ad 7f 3f 77 b0 4d 3f d8 79 67 3f
       -0.26966962 0.9987424 0.8034739 0.90420294
000020 c5 2d df 3e cc d6 7d 3f ea 15 66 3f ad e6 02 3f
       0.43589607 0.9915588 0.8987719 0.51133233
000030 88 98 52 be 1b 8a ec bd aa 65 4d 3e f2 6c 02 3e
       -0.20565999 -0.11549779 0.20058313 0.12736872
000040 60 0b 70 be 53 2b a7 bf c4 3d 0f c0 f5 90 1d bd
       -0.23441839 -1.3060097 -2.2381449 -0.03846832
000050 a8 2f 43 be 96 86 98 3f 2c 61 e7 3f a4 8d 8f bf
       -0.19061148 1.1916072 1.807653 -1.12151
000060 65 fe 4d bf 58 5c 3e bd 10 79 99 be 17 60 b1 bc
       -0.804663 -0.046474785 -0.29975176 -0.021652265
000070 f4 f6 88 bf d5 da 46 bd be 76 3f 3e c5 83 e6 3f
       -1.0700364 -0.04854854 0.1869764 1.8008963
000080 2b f7 02 bf dc d6 88 3f f1 85 a3 3e 74 98 d1 3d
       -0.511584 1.069057 0.31938127 0.10234156
000090 9b 39 b3 bf 1c 66 d5 3e 41 d3 a6 3e 32 3b 1a 3f
       -1.4001955 0.41679466 0.3258305 0.60246575
0000a0 2d 4e 08 40 5d 0b d5 be b5 23 06 bf 68 7a 43 3f
       2.1297715 -0.41610232 -0.52398235 0.7635865
0000b0 1f 2f 0d c0 35 85 ea 3f a1 ed ee be a6 fd 9e be
       -2.206001 1.8321902 -0.4666567 -0.31052893
0000c0 ee 9c 97 bf 59 75 5d bf 9f 96 88 bf f4 31 de be
       -1.1844766 -0.86507183 -1.0670966 -0.43397486
0000d0 b4 bc ec 3f 4a d9 99 3e e5 c5 cd 3f 4b c3 6f 3f
       1.8495088 0.3004859 1.6076018 0.9365737
0000e0 8d 85 81 bf d7 8d a6 3d 4c 71 20 be ca 53 76 bf
       -1.0118881 0.081325226 -0.1566822 -0.962216
0000f0 b3 d5 ce 3e 8a 69 26 3f f5 b4 7f bf 81 1c cb 3f
       0.40397415 0.6500479 -0.99885494 1.5868074
000100 ce d8 45 bf 2c 98 b1 bf 15 4a 0a 40 05 d8 fb be
       -0.7728394 -1.3874564 2.1607716 -0.49188247
000110 ff f7 95 3f 31 81 63 bf aa 19 f0 bf 46 52 21 3f
       1.1716307 -0.88869005 -1.8757832 0.63016164
000120 a8 48 4d 3f de b8 44 bf 99 a6 08 3f f2 99 08 c0
       0.8018899 -0.76844585 0.5337921 -2.134396
000130 4f 90 d7 be 4a d2 b8 3d bb a0 19 c0 bf 61 43 3f
       -0.42102286 0.090244845 -2.4004352 0.76321024
000140 ff 98 33 3e 3e a7 ab bf da c8 fa bf e2 23 67 bf
       0.17538832 -1.3410413 -1.9592545 -0.9028913
000150 0f 1a f4 3e a2 cc 21 3f 90 85 ba be e0 9a 3a 3f
       0.4767613 0.6320287 -0.36430025 0.7289257
000160 a2 f9 37 3e 30 93 c1 3f fb 10 a8 bf 2f 95 83 3f
       0.17966321 1.5123043 -1.3130182 1.0279902
000170 57 f1 7c bc e2 d0 83 be d5 a1 2c c0 52 09 0a 40
       -0.015438399 -0.25745302 -2.6973774 2.1568189
000180 e1 e6 80 bf c4 f0 17 3f 19 45 8a bf 82 fc cb bd
       -1.0070459 0.59351754 -1.0802337 -0.099602714
000190 aa c5 0a c0 5f 68 17 bf 12 58 95 bf 60 85 36 bf
       -2.1683145 -0.5914363 -1.1667502 -0.71297264
0001a0 60 ea 00 be 71 53 16 40 d0 1e cb be 85 af 01 c0
       -0.12589407 2.3488429 -0.39671946 -2.0263379
0001b0 a5 02 f8 be f8 ab c8 3e a9 a4 49 bf 30 8a 23 bf
       -0.48439518 0.39193702 -0.78766876 -0.6388273
0001c0 cc fb 9a be b4 d4 7c bf 43 26 8f 3f c4 60 78 3e
       -0.3027023 -0.9876206 1.1183552 0.24255663
0001d0 74 0b b2 bf 5a 74 63 bf 79 e3 fc bf 4e e4 14 c0
       -1.3909745 -0.88849413 -1.9756919 -2.3264346
0001e0 a3 cd ac 3e a2 ab cd 3f a7 5a 6a bf 9d c3 c7 bd
       0.33750638 1.6068003 -0.91544574 -0.09754107
0001f0 11 78 43 3f 1b d1 2a 3f 3e 5f 8d bf a7 fa a0 3e
       0.7635508 0.6672532 -1.1044691 0.31441233

network_body._body_endoder.seq_layers.0.bias f4 [128]
000000 fd b3 28 3c f5 1f ae bc 4e 1f 07 bb 5f 24 87 bb
       0.010296819 -0.021255473 -0.0020618024 -0.004124209
000010 69 dc 5a 3c b7 c8 94 bb 43 6a a3 3c 3b 68 31 3c
       0.013358214 -0.0045405286 0.01994813 0.010828073
000020 8c fc 58 3c 25 c1 59 3c ec 84 63 bc cb 8f 70 3c
       0.013243806 0.013290678 -0.0138866715 0.01468272
000030 d5 f6 b7 3b 49 5d 81 bc e2 f2 3f 3c 67 76 26 3c
       0.0056141415 -0.015791552 0.011715623 0.010160065
000040 cb d4 7a bc b3 34 df 3b d6 2e 5a bc f5 22 63 3c
       -0.015309523 0.006811702 -0.013316831 0.013863315
000050 bf 7b 03 3c cb d3 fa bb ce 0f 76 bc c5 3e 27 3c
       0.008025109 -0.007654642 -0.015018417 0.0102078365
000060 7b 45 4c bc 7a 5d 87 bc 6d 6f a6 39 fa f7 4b 3c
       -0.012467737 -0.016524065 0.00031745006 0.012449259
000070 66 fa 53 3c 02 a6 9e ba 8a 62 32 bc 01 b7 4f bc
       0.012938118 -0.0012103918 -0.010887751 -0.012677909
000080 9e 2c 47 bc fd bc 88 bc 9b 57 ab bc 15 2f 95 bc
       -0.012156634 -0.01669168 -0.020915797 -0.018210927
000090 65 1d 0b 39 07 bf 2b 3c f3 0a 63 3b c6 e6 8d bc
       0.00013267023 0.010482556 0.0034643977 -0.017321955
0000a0 4c d4 11 3b 7a b6 3e 3c eb 2c 82 3b 98 0c 4b 3c
       0.0022251783 0.0116401855 0.00397264 0.012393139
0000b0 21 46 4b bc ca d0 57 3c 40 6f 6e 3c 87 68 6f bc
       -0.012406857 0.013172338 0.014552891 -0.014612324
0000c0 aa d6 9c bc e9 47 74 3c b3 e1 7d 3c de 2e 61 bc
       -0.019145329 0.014909723 0.015495705 -0.013744084
0000d0 2b 67 a4 ba 06 62 c6 bc 8f 67 17 bc 26 d8 41 bc
       -0.0012542953 -0.024216663 -0.009240999 -0.011831319
0000e0 2d af 49 bb 46 69 d2 ba 31 24 7a 3c f8 7b 4d bc
       -0.003077458 -0.0016053102 0.015267418 -0.0125417635
0000f0 01 d0 40 3c 9c 4b 1e 3c e0 0c 82 bc 7b 3d 2c 3c
       0.011768342 0.009661581 -0.01587528 0.010512705
000100 b0 40 91 3c ab 0c 7f 3c ca 8a 76 3c 00 31 6d bc
       0.01773104 0.015566985 0.015047738 -0.014477015
000110 82 67 6f bc be 89 66 bc c7 64 10 bc e3 8c 7b bc
       -0.0146120805 -0.014070926 -0.00881309 -0.015353414
000120 9c ed 29 3c 62 ec 1a 3c 5d a9 61 3c b1 fd a4 3c
       0.010371592 0.009455772 0.0137732895 0.0201405
000130 24 c9 28 bc 38 bd 5c bc 2d b5 6b bc e9 01 4e bc
       -0.010301862 -0.013472848 -0.014386457 -0.012573698
000140 41 2d a4 bc 1d b4 1a bc 39 4e 82 3c 8a 2b 76 bc
       -0.02004111 -0.009442356 0.01590644 -0.015025029
000150 ee 0b 42 3c a5 e2 59 bc e3 00 81 bb 36 9f 0b bd
       0.011843665 -0.013298665 -0.0039368733 -0.034087382
000160 4f af 61 bc ba 8a 3d b9 2f 63 41 3c 17 37 13 3c
       -0.013774707 -0.00018076124 0.011803432 0.008985302
000170 ef a4 f4 bc f4 a0 30 bc e0 fa 2b bc 7b a3 3a 3c
       -0.029863803 -0.010780562 -0.010496825 0.011391516
000180 26 2a 6a 3b f0 25 7b bc 2b d0 68 3c 07 b8 ac 3b
       0.0035730689 -0.015328869 0.014209787 0.005270961
000190 79 94 97 3c 27 ee 7d bc 87 5c 58 bc 45 ef 84 3c
       0.018503414 -0.0154986745 -0.013205654 0.016227374
0001a0 7a 9b 91 bc b8 df 63 3c 76 84 51 3c 49 1b c4 3c
       -0.017774332 0.013908319 0.012787929 0.023938792
0001b0 8a 08 65 3c a0 14 4a 3c 55 58 47 bc 2b 0d 79 bc
       0.013979087 0.012334019 -0.012167056 -0.015200893
0001c0 df 33 62 bc 1b b6 93 3c f5 c8 88 3c 95 5a 59 bc
       -0.013806312 0.01803117 0.016697386 -0.013266225
0001d0 38 fc 4a 3c 73 72 20 3c 54 bb e3 3b 7d 05 5d 3c
       0.012389235 0.009792912 0.0069498215 0.013490078
0001e0 f6 a9 c9 3b fd 28 4a bc 1c 3f 90 bc 22 4f 67 3c
       0.006154294 -0.012338874 -0.017608218 0.014117988
0001f0 67 6d ac 3c 16 03 56 bc 91 99 1d 3c 33 2f df bc
       0.02104826 -0.013062259 0.009619133 -0.027244186

network_body._body_endoder.seq_layers.2.weight f4 [128, 128]
000000 7e ff d8 3c 95 12 57 bd dc c6 65 bd f0 8c cd bb
       0.026489016 -0.052507956 -0.05609785 -0.0062729046
000010 98 ef 8e 3d 90 d3 ff 3d b2 8e e2 3b 65 c0 09 3d
       0.06979293 0.12491524 0.0069139833 0.033630747
000020 3f df 84 bc e3 96 3c 3e 56 51 a7 bd 85 d8 2f 3e
       -0.016219733 0.18416934 -0.081698105 0.1717244
000030 99 57 dc 3d ca 08 02 be 03 f9 88 bb 09 56 3e 3c
       0.107588954 -0.12698665 -0.004180075 0.011617192
000040 e9 d2 e8 bd 8e a6 86 3d 0c 83 05 3e 06 3e c0 bb
       -0.11368353 0.065747365 0.13038272 -0.005866769
000050 24 88 a9 bd 9a e8 51 3d 73 53 6b bd 3e e7 14 3e
       -0.0827792 0.051247217 -0.05745263 0.14541337
000060 95 e7 55 bc 41 d1 eb 3d a8 20 28 3d 03 48 74 3d
       -0.013055702 0.115145214 0.04104677 0.05963899
000070 7d db a7 3d 73 67 02 3d 32 07 7a 3d dc e7 cc 3c
       0.08196161 0.031836938 0.06104202 0.025012903
000080 f6 d3 01 be b0 23 f3 bd fd e0 36 be 4a 2b 38 3d
       -0.12678513 -0.11872041 -0.17859264 0.04496316
000090 fd b6 94 bb 64 de fd bd e9 a3 96 bd e9 75 d2 bb
       -0.0045384155 -0.12395933 -0.07355482 -0.0064227474
0000a0 0a 7d a0 ba 92 ae 7f 3d 2a f1 96 3d b4 9d e9 3c
       -0.0012244296 0.062422343 0.07370217 0.028517582
0000b0 b6 25 4d be 14 2c d2 3d 9e c9 c3 bc ed 71 7e bd
       -0.20033917 0.102623135 -0.02389985 -0.062120367
0000c0 a2 eb ef 3d c0 62 f1 bb 98 a2 d5 bd f9 2c bd bb
       0.11714865 -0.0073665082 -0.10431403 -0.0057731834
0000d0 e7 7d 87 3d 1e 7e 21 be 62 f5 56 be d8 1f 71 bd
       0.06615811 -0.15770766 -0.20992044 -0.05886826
0000e0 61 e2 81 bb 88 f5 c7 bd 04 65 0c 3e c3 0c 19 be
       -0.003963754 -0.09763628 0.1371041 -0.14946274
0000f0 65 07 c5 bd 29 5a ba bd 09 ae 87 3a f6 1f 67 bc
       -0.09620551 -0.09099228 0.0010351549 -0.014106741
000100 f0 7b ed 3d b3 22 e7 bc a0 60 c5 3d 69 ff 42 3c
       0.11595905 -0.028214788 0.096375704 0.011901715
000110 2f 84 d9 3b 09 8b d1 3d 3c cc 80 bd f5 a7 6e be
       0.006638072 0.10231597 -0.062889546 -0.23306258
000120 fe 82 6b 3c c6 e0 38 bd 98 ca f0 3d 7b f8 83 bd
       0.014374493 -0.045136236 0.11757392 -0.06443878
000130 e0 4f 7f 3d 4e f0 d3 3c a1 09 71 bd b1 e0 09 3e
       0.062332034 0.025871422 -0.058847073 0.13464619
000140 f2 0b a5 bd d6 65 4e bd 9d 95 5e 3d 0d 87 33 bc
       -0.08058919 -0.050390087 0.0543419 -0.010957492
000150 33 10 cc bc 14 02 0e bd 4e a2 8e 3d 66 61 09 be
       -0.024910068 -0.03466995 0.06964551 -0.13416061
000160 b6 41 7b 3d c4 dd e1 3c 8c 58 ed 3c 78 7d ad bd
       0.061341964 0.027571566 0.028972887 -0.08471197
000170 bc fc b5 bd 00 5c 0a 3e 23 ae cb bb 2e 4d 7b 3d
       -0.08886096 0.13511658 -0.006215827 0.0613529
000180 67 a9 1a bd 74 2a 16 bd 5c b6 a5 bd 4a 91 20 be
       -0.03775921 -0.03666158 -0.08091423 -0.15680423
000190 52 c3 2b 3e ee 01 15 be c6 64 0b 3e 9e ec 52 3d
       0.16773728 -0.14551517 0.13612661 0.051495187
0001a0 9b ba 25 bd 4e 7a c3 3c f1 cc c7 3c d2 d9 9e bd
       -0.040461164 0.02386203 0.024389716 -0.0775639
0001b0 3a 7d 9b bd aa f4 cf bd 45 da 93 3d 55 7a 04 3e
       -0.075922444 -0.10154088 0.07219366 0.12937291
0001c0 23 21 cb 3c a9 4f c1 3c 76 1d 20 bd 7e ea 92 bd
       0.024796074 0.023597555 -0.039090596 -0.07173632
0001d0 27 2b 31 3d aa 1d c0 bd eb 05 3b 3d f2 51 ee bd
       0.043254044 -0.09380658 0.04565994 -0.116367236
0001e0 ef bb 01 3e 92 68 8f 3c ce 5b ba 3d 0c 1d 86 bd
       0.12669347 0.017505918 0.090995416 -0.06548509
0001f0 2e b1 5f bd 2b 70 7a 3c 4d ed d3 bc 7c c2 af 3d
       -0.05461233 0.015285532 -0.02586999 0.08582017
000200 d3 be 3f bd 1a bf 20 3c 4d 5d 0b 3d 8b be 26 bd
       -0.046812844 0.009811187 0.034024525 -0.04070906
000210 80 12 e9 3d 07 0f 03 3e dd 4d 90 3e 83 cc 9c bd
       0.11380482 0.12798701 0.28184405 -0.07656195
000220 50 b0 da bd 2c ef 3e bc fd 48 52 3d 38 8b 3d bd
       -0.1067816 -0.011653703 0.05133914 -0.046275347
000230 1e 37 02 be f7 f7 19 bd 09 39 23 3e 45 c1 32 be
       -0.12716338 -0.037589993 0.15939726 -0.17456539
000240 53 e7 f5 bc ab e7 95 3c d6 f5 39 3e b1 8b 1d 3e
       -0.03001753 0.018298944 0.18160185 0.1538532
000250 2c b0 d7 bb af b8 44 bd 91 fa 00 3d 8f 0c c6 3d
       -0.0065822806 -0.04802769 0.03148896 0.09670364
000260 fc cd 85 3d 63 f9 13 bc ae 38 a1 bb 16 93 d0 ba
       0.06533429 -0.009031626 -0.004920087 -0.0015912976
000270 45 87 ae 3c 04 0a 9d 3d 7d 61 95 3c 4c 07 42 3e
       0.021304736 0.07667926 0.018234963 0.18948096
000280 ac 8e da 3d f8 d5 78 bd 65 b7 c9 bd 4d c0 ba 3d
       0.10671744 -0.06075093 -0.09849433 0.0911871
000290 88 4c fd bd be 2c 3e bd 86 e6 aa 3d ff 95 16 3c
       -0.12368113 -0.04642939 0.0834475 0.009191035
0002a0 cb 69 84 bd ef c8 0a be 48 7c eb bd 55 89 04 be
       -0.06465491 -0.13553213 -0.11498314 -0.12943013
0002b0 2d d4 2a 3d 4d 8c 06 3c 8d af 13 be 6e ef 40 be
       0.041706253 0.008212161 -0.14422436 -0.18841335
0002c0 44 d4 13 bd 86 95 d1 3c 9e ad 5a 3e a5 0b 94 3d
       -0.036091104 0.025583994 0.21355292 0.072287835
0002d0 e6 1d c5 3d eb 7a d9 bc 2d c8 f7 3d bc 33 2f bd
       0.09624843 -0.02654787 0.120987274 -0.042773947
0002e0 5b 2f 85 3c 6a 33 60 3d aa 33 71 3b 7e 9a 8c 3d
       0.016257932 0.054736532 0.0036804476 0.068654045
0002f0 04 43 8d bd f6 ac 91 3d fc 8d c8 bd c2 4f 1c bd
       -0.06897548 0.07113068 -0.09792706 -0.038162
000300 b9 13 be bc 48 5f e1 3c d7 09 c6 bd 6e c2 d8 bd
       -0.023202764 0.027511254 -0.096698456 -0.105839595
000310 70 7a 06 bd d1 f3 1e 3e b4 64 15 ba f7 bc 32 3e
       -0.03283161 0.15522696 -0.0005698905 0.17454897
000320 5f 92 30 3e 46 f0 02 bd e1 95 10 bc 74 56 46 3c
       0.17243336 -0.031967424 -0.008824796 0.012105573
000330 80 f2 bc bc dc ed 19 be 10 85 03 be 24 a8 00 bd
       -0.023064852 -0.15032142 -0.12843728 -0.03141035
000340 8d fa 53 39 96 8d ac 3d e3 a3 25 3d 40 00 03 3d
       0.00020215866 0.08425443 0.040439498 0.03198266
000350 b6 d8 25 bc 13 04 39 3c 17 83 03 bd 04 48 84 3d
       -0.010122469 0.011292475 -0.03210744 0.064590484
000360 c8 b5 4c bc 89 ad fb 3d f5 55 85 bd 1a c5 05 3d
       -0.012494512 0.122889586 -0.06510536 0.032658674
000370 d6 b3 cf bd 7b c1 fd bc 51 e3 8e 3d 3b 0b fc bd
       -0.10141723 -0.030976048 0.06976951 -0.123068295
000380 8b 14 cc bb de 47 e6 b9 3b 76 0c be 80 49 d3 bd
       -0.006228035 -0.00043922564 -0.13716976 -0.103167534
000390 30 f0 c1 bc e5 34 1f 3e f4 86 67 3d 96 5f ac 3d
       -0.0236741 0.15547521 0.056525186 0.08416669
0003a0 38 0d 19 3e 32 3c be bc 16 45 43 3d 1c 1f fc bc
       0.14946449 -0.023222063 0.047673307 -0.030776553
0003b0 8a b6 f9 bd 5d 08 c0 3d f6 cf 96 3d d9 aa db bd
       -0.1219302 0.09376595 0.07363884 -0.10725946
0003c0 8e 43 00 3e ab 12 a6 3d d5 5e cc 3d ea 54 6f 3c
       0.1252577 0.081090294 0.09979025 0.014607647
0003d0 d1 0a c0 bd 45 af bd bc 0e 16 39 be 9d ba 3a bd
       -0.09377063 -0.023154864 -0.1807482 -0.045588125
0003e0 04 11 a1 bc db f0 83 bd 1d f2 50 be 36 62 21 bd
       -0.019661434 -0.06442424 -0.20404859 -0.039400302
0003f0 36 cf b1 ba 4d 3c 09 bb 2e 51 85 3c 40 8b bf bc
       -0.0013565782 -0.0020940483 0.016274061 -0.02338183

network_body._body_endoder.seq_layers.2.bias f4 [128]
000000 22 46 c9 bb e5 f8 6e bc 6d 6b 5e bc 0e 16 cb bc
       -0.0061423937 -0.014585708 -0.013575417 -0.02479079
000010 17 50 17 bd dc dc d2 bc 65 40 00 bc 76 0e 31 39
       -0.036941614 -0.02574008 -0.007827853 0.00016885423
000020 b5 21 bd bc c2 b6 8f 3c fe ac 6d 3c 53 6f 80 bc
       -0.023087362 0.0175432 0.014506577 -0.015678084
000030 16 e0 68 bc b9 a8 14 bd cc 9d 88 3c c1 6c 84 bc
       -0.0142135825 -0.03629372 0.016676806 -0.01616514
000040 6d 2b 66 bc 9f e5 d4 3c 67 61 68 bc 7e 8b 7d 3c
       -0.014048439 0.025988398 -0.014183379 0.015475152
000050 01 97 8d 3b d8 35 13 bd 96 3b 7e 3c 4a ea 4b bc
       0.0043209796 -0.03594002 0.015517136 -0.012445996
000060 b7 2f 51 3c e7 20 6c 3c 3f ec 8c bc e7 75 65 3c
       0.012767724 0.014412141 -0.017202495 0.014005161
000070 bd d5 92 3c cc 58 89 3c 6e a8 1b 3c 8a 7f 59 bc
       0.017924184 0.016765974 0.009500606 -0.013275037
000080 3a 55 86 3c 03 f7 6e bc f0 c8 c9 3c 22 2f 3c 3c
       0.016398061 -0.014585259 0.024631947 0.011485847
000090 24 09 8e bc 32 bf a8 bc 6b 57 81 3c 3a 1b 52 3c
       -0.017338343 -0.020598982 0.015788754 0.012823874
0000a0 7e ba 8e 3c 05 32 50 39 cf 80 5b 3c 70 c6 5a 3c
       0.01742291 0.0001985506 0.01339741 0.013352975
0000b0 2f bb 77 bc 1b da 2d 3c e9 64 05 3c d7 50 33 3b
       -0.015120312 0.010611082 0.008141735 0.0027361417
0000c0 f8 40 a5 bb b8 c9 87 bc cd 4a 55 3c 51 a3 91 bc
       -0.0050431453 -0.01657568 0.013018322 -0.01777807
0000d0 d3 fa 4e 3c 26 b6 ef bc 0b f6 80 bc a7 03 89 3c
       0.012633043 -0.02926166 -0.015742322 0.016725374
0000e0 34 15 88 3c 7a b0 5a bc ff c5 73 bc aa 63 74 bc
       0.016611673 -0.013347739 -0.014878749 -0.01491634
0000f0 92 b9 3b bc 11 1a 5c 3c fe 54 79 bc 35 e2 37 3c
       -0.011457818 0.013433949 -0.015218018 0.011223366
000100 60 07 63 3c fd f7 8e 3c 2c 82 11 bd 37 12 d1 bc
       0.013856739 0.017452234 -0.035524532 -0.02552138
000110 8c f8 5e bc 02 05 86 3c 54 1d 55 3c 2a da 57 ba
       -0.013609063 0.01635981 0.013007481 -0.0008234108
000120 32 45 76 bc 95 99 8d 3c 49 a5 4f 3c eb 5e 70 3c
       -0.015031146 0.017285148 0.012673684 0.014671068
000130 96 55 b2 3a b9 a6 53 3c eb 03 83 bc 2c 20 86 3c
       0.0013605829 0.012918168 -0.01599308 0.016372763
000140 02 32 cc bc d1 fc 91 bc 0b dd ca 3c cc e0 f7 bc
       -0.02492619 -0.017820748 0.024763605 -0.030258559
000150 1b 7c 57 3c 0f dd 87 3c f5 e4 65 bc c9 97 f2 bc
       0.013152148 0.016584901 -0.014031638 -0.029613392
000160 6a bc 49 bc 38 63 76 bc eb f1 08 3c 34 ad 54 bc
       -0.012312988 -0.015038304 0.008358459 -0.012980748
000170 c4 9e ac bc 45 7e 4e bc 91 68 17 3c d2 6e 75 bc
       -0.0210718 -0.012603347 0.009241239 -0.014980035
000180 bb df e4 bc e0 0b 72 3c 50 e9 62 bc 54 bd 50 3c
       -0.027938714 0.014773339 -0.013849571 0.012740452
000190 84 93 d9 bc fc 3f b5 bc 74 67 8b 3c 45 cd ea bb
       -0.026559599 -0.022125237 0.017017104 -0.0071655833
0001a0 59 2b 7a bc a6 9b 2e ba f5 1c 94 bc d1 bf 55 3c
       -0.015269124 -0.00066607667 -0.018080214 0.013046221
0001b0 e3 9f c7 bc 2c 4a 8e bc 4e 9c 90 bc 78 0f c1 bc
       -0.024368232 -0.017369352 -0.017652657 -0.023566946
0001c0 44 16 e0 bc b7 ee ca 3b 49 68 77 bc 2e c5 93 bc
       -0.027354367 0.006193008 -0.015100547 -0.018038359
0001d0 2f 82 ac bb 6f 36 7f bc ca cf 40 bc aa ee 39 bc
       -0.0052645425 -0.015576943 -0.011768291 -0.011348406
0001e0 2c 9e 95 bc d0 c2 40 3c 4a 3e ba bc 10 ea 2e 3c
       -0.018263899 0.011765197 -0.02273478 0.010675922
0001f0 03 0a 82 3c 08 c9 53 3c dc b2 76 3c 19 6a 69 bc
       0.015873915 0.012926348 0.015057292 -0.014246487

action_model._continuous_distribution.mu.weight f4 [1, 128]
000000 4f ed 1b b7 7c eb 01 3c 22 0e aa 3c 57 76 6e 3d
       -9.293973e-06 0.007929679 0.020758692 0.058218326
000010 23 28 59 3d 1e 7b 6a 3d be 9d 30 b8 bb 7a 74 38
       0.053016793 0.05724632 -4.210858e-05 5.8288435e-05
000020 f2 50 91 3d e4 ee f0 bc eb 5f d3 bc c8 d6 d8 3c
       0.07095517 -0.029410787 -0.025802573 0.026469603
000030 d3 05 12 3c d4 e4 54 3d 25 4d 10 bc 6b d2 07 3c
       0.008912521 0.05197604 -0.008807455 0.008289914
000040 51 b4 28 3d 5f ae 89 bb fd 75 cc 3b 15 ab d2 bc
       0.041187588 -0.004201695 0.0062396512 -0.025716344
000050 02 6b 16 3d 08 40 4e 3d 79 df 82 bb fb 66 3e 3c
       0.036723144 0.050354034 -0.003993925 0.011621232
000060 c5 ef 06 bc 40 df c6 bb c4 f1 a2 3b c7 70 1f bc
       -0.008235876 -0.006069094 0.0049726684 -0.009731478
000070 31 34 c9 bb 49 5e ff bc c3 98 b1 ba b1 34 ee 3c
       -0.006140255 -0.031172888 -0.0013549555 0.02907786
000080 7b 78 df bb 63 c5 be 3c 0c bb 66 bc d6 02 5f bb
       -0.0068197823 0.02328748 -0.014082681 -0.003402879
000090 0c 9a 9a 3b 8c 29 85 3d 88 bc 04 3c a1 c0 11 bc
       0.004718071 0.06502065 0.00810159 -0.008896024
0000a0 78 cf d2 bc 7c c3 c3 3c 17 e3 7e bc 3f 1f b5 bc
       -0.025733694 0.023896925 -0.015557072 -0.022109626
0000b0 73 cf da 3b 66 cf bc 3c fb cd 3f bb 11 d4 c9 b9
       0.006677562 0.023048114 -0.002926706 -0.0003849571
0000c0 6b 6b 2a 3d fd e0 cf 3b a4 5d 72 bb 3e c1 b5 3b
       0.041606348 0.0063439594 -0.0036982084 0.005546718
0000d0 86 14 f9 bc 89 6d 4a 3d 40 fa a2 3b f6 34 4b bc
       -0.030405294 0.049420867 0.00497368 -0.012402764
0000e0 dc 51 81 bb 43 f2 db 3c d6 9a bd 3c 8e e6 db 3c
       -0.003946526 0.026848918 0.02314512 0.026843335
0000f0 9d 57 d9 3b 6a d5 7b bc 2c db 9e 3c 0f 13 04 3d
       0.006632759 -0.015370706 0.019391619 0.03224474
000100 fd ac 1a 3c 3c f7 ff bb 77 5b 5a 3d 13 ff a5 3d
       0.009440658 -0.007811455 0.053309884 0.08105292
000110 28 1d ae 3c 3f b3 cd bc 04 5e 6f bc 5f a4 94 39
       0.021254137 -0.025109885 -0.014609817 0.00028351226
000120 bf 68 77 3c 22 70 a3 bc ba 02 cf bb 13 76 85 bc
       0.015100657 -0.01995093 -0.0063174637 -0.016291654
000130 50 bd 82 3c 30 d9 c4 bc 08 28 99 3a 4d eb ca bc
       0.015959412 -0.024029344 0.0011684904 -0.024770403
000140 8f c5 39 3d b9 3b 5a 3c 2b 42 84 ba 52 20 60 3d
       0.045354422 0.013319903 -0.001009052 0.054718323
000150 de 25 b6 bc ab 93 8b bb 32 a1 c6 3c d0 94 52 3d
       -0.022234853 -0.0042595468 0.024246786 0.05141145
000160 70 7b f6 3b 33 91 c4 3c 80 fe b4 ba 9f 0d 4c 3b
       0.007522039 0.023995018 -0.0013808757 0.0031136048
000170 9b 83 55 3d cd e4 02 3d 7b fa 90 ba be 41 45 3c
       0.052127462 0.031956483 -0.0011060977 0.0120396
000180 79 8a 4f 3d e7 0f 13 bb 30 88 60 3b a9 7c fd bb
       0.050669167 -0.0022439898 0.0034260862 -0.007735808
000190 b1 27 2b 3d 51 d9 1e 3d 75 18 75 bc 92 36 f2 3c
       0.0417859 0.038781468 -0.014959444 0.029567037
0001a0 ef 14 bc 3c 45 20 9e 3c c1 77 3f 3c 88 7b ce bc
       0.0229592 0.019302497 0.011686266 -0.025205389
0001b0 55 6e b3 3d e2 20 b7 3c a9 65 52 3b a3 b7 78 3d
       0.087612785 0.022354547 0.0032104051 0.060722005
0001c0 ff 35 83 3d 53 df 17 ba 21 38 f0 3b 35 23 e8 3b
       0.06406783 -0.0005793471 0.00733091 0.007084275
0001d0 2c 08 2f 3d 7d ba 98 3b 84 3f 78 3d f3 1d 5e 3c
       0.042732403 0.004660903 0.06060745 0.013556945
0001e0 a8 07 6c 3a f4 9e f7 ba 49 1c ac 3d 67 d0 b6 bc
       0.00090038264 -0.0018891976 0.084038325 -0.02231617
0001f0 e5 44 b6 bb c4 50 a1 bb ba e6 4b bc cb 81 ba 3c
       -0.005562412 -0.004922958 -0.012445146 0.022766968

action_model._discrete_distribution.branches.0.weight f4 [1, 128]
000000 ff 8b d6 3a 13 60 a3 bb bf 6c 16 bb 2c d6 16 3c
       0.0016368626 -0.004985818 -0.0022953001 0.009206336
000010 a3 b8 48 3c c3 b6 b7 bb d0 eb 7b bc 08 94 48 3c
       0.012251052 -0.0056065037 -0.015376046 0.012242325
000020 70 c9 09 bc 35 ee 85 3c ee 62 0f 3c 57 88 56 bc
       -0.008409843 0.016348938 0.008751614 -0.013094029
000030 83 ea 7b bc 27 4d c7 b9 c7 96 fa 3a 25 49 53 3b
       -0.015375736 -0.0003801372 0.0019118421 0.0032239642
000040 d3 4e 03 3c 3a 4e 0a bc 8b 6d d7 3b c8 6f e6 ba
       0.008014399 -0.008441502 0.006574338 -0.0017580921
000050 ca 97 a2 3b 60 81 4a bc 2f ba 14 bc 6a d3 f7 3c
       0.0049619423 -0.012359947 -0.009077593 0.030252177
000060 ba 1b d4 bc 64 32 3e 3c 3e 77 3d 3c af aa 47 3c
       -0.025892127 0.011608694 0.011564074 0.01218669
000070 44 80 93 ba 5e 6f 00 3a e3 50 e9 bb 2d e1 2f 3a
       -0.0011253436 0.00048994075 -0.007120238 0.0006709274
000080 ef f6 07 bc 28 ba 0f 3b 11 64 84 bb 5b f7 0b 3c
       -0.00829862 0.0021931026 -0.004040249 0.008542861
000090 87 b0 15 3c 9e b2 8e bb d7 7c 8e 3c af 97 5a 3b
       0.009136326 -0.004354789 0.017393513 0.003335457
0000a0 c3 bb 5b bc 0d 7a 09 3b 13 13 ed 3a 2b c6 18 bc
       -0.013411465 0.002097729 0.001808735 -0.009324591
0000b0 46 79 8c 3b e2 b7 5a bc 5b 67 85 3c 2d 11 0d 3b
       0.004286918 -0.013349505 0.016284635 0.002152513
0000c0 1b d0 bc 3b 97 dd 5f bb 6f 1d 0c 3c a4 1d 94 bc
       0.005762113 -0.0034159177 0.008551939 -0.01808054
0000d0 b3 0b e6 ba d8 a6 84 bb 1f 55 5d 3c cf d2 dc ba
       -0.0017551094 -0.0040482096 0.013509064 -0.0016847494
0000e0 75 a7 5c 3b e8 26 59 3b ff 7c d8 bb 88 f3 bb ba
       0.0033669148 0.0033134762 -0.0066066976 -0.0014339546
0000f0 5f 8c 3c bb bd d3 6a 3c ad 6b 9f bc 8d 75 78 3b
       -0.002877019 0.014332709 -0.019460524 0.0037911863
000100 7f 17 3b 3c d7 03 b1 bb 56 23 86 bc 18 4d e5 3b
       0.011419176 -0.005402069 -0.016374271 0.0069977157
000110 12 60 82 bc 4b 92 51 bc 68 e5 7d bc aa 3b dc bb
       -0.01591495 -0.012791227 -0.015496589 -0.0067209797
000120 53 fe e8 bb 22 b4 83 bc 07 08 46 bb 20 8c ed bb
       -0.007110396 -0.016077105 -0.0030217187 -0.00724937
000130 fa 6b 62 bc 44 74 89 3b 72 dc 6e bb 4d c3 17 3c
       -0.013819689 0.004194768 -0.0036447314 0.009262872
000140 80 ab 53 bb e4 b7 32 3b 3b 27 f6 3b 50 87 7c bc
       -0.0032298267 0.0027270252 0.007512001 -0.01541312
000150 b5 71 40 3b 6f 79 01 3b 32 72 43 ba cf a7 0a bc
       0.002936465 0.0019756218 -0.0007455676 -0.00846286
000160 c1 52 34 3c 5f c5 16 3c f2 ba 59 bc 6c eb 41 3b
       0.011006058 0.00920233 -0.0132892 0.0029589785
000170 ae b7 82 3c c3 5d 76 3b d4 3e 08 3c 2f 8c 6c bc
       0.015956726 0.0037592507 0.008315761 -0.014437719
000180 77 0e f9 bb c3 7f c0 bb a8 eb 71 3c b7 a1 0a 39
       -0.0076006013 -0.0058746054 0.0147656575 0.00013220949
000190 fc 78 90 b9 82 00 ea bb 3e 8e 31 3c 4b 5c 56 bc
       -0.0002755596 -0.007141174 0.010837136 -0.013083528
0001a0 85 3f d7 bb ba d1 70 3c 15 14 f6 3b b3 55 0e bc
       -0.0065688514 0.01469844 0.007509718 -0.0086874245
0001b0 ca 02 4b bc ef bc bb bb 0b 1d 4f ba ec 0b ca 3b
       -0.012390802 -0.0057293097 -0.0007900751 0.006165972
0001c0 bb 12 11 3c d5 05 57 3a f2 97 bf bb 84 5e 00 3b
       0.008854563 0.0008202468 -0.0058469707 0.0019587586
0001d0 37 67 ea 3b bf 65 f5 3a 5d 65 08 3a 5c 72 86 bb
       0.0071534174 0.0018722339 0.00052030926 -0.004102988
0001e0 30 aa 06 3c b5 99 78 3b f0 66 78 ba aa 9d 6d 3c
       0.008219287 0.0037933413 -0.0009475788 0.014502922
0001f0 02 9f 71 3b 55 eb 8a 3b af 58 2c 3c 9d 5d 24 bc
       0.0036868458 0.0042394795 0.010519191 -0.010032085

exp_avg f4 [128, 1]
000000 3e 05 2d 39 ba fb a1 38 0d 81 ca 38 e6 b3 be b9
       0.00016500519 7.723966e-05 9.656148e-05 -0.0003637366
000010 47 93 70 ba b2 02 21 38 d0 cc 62 39 53 e1 82 39
       -0.00091772195 3.83879e-05 0.00021629338 0.00024963412
000020 e0 7a 04 3a a8 a1 7e 3a 38 58 76 b9 f9 4b 95 39
       0.000505371 0.000971342 -0.00023493252 0.000284761
000030 d6 1e e3 38 b1 e7 ee 39 c7 b7 93 39 86 76 28 39
       0.00010829947 0.0004556752 0.0002817495 0.00016065882
000040 1c a9 02 3a 78 7f 17 ba b2 b0 79 39 6f c1 52 39
       0.00049843057 -0.0005779187 0.00023812315 0.0002009922
000050 bc 88 1f b9 44 7c 89 b8 b3 b2 94 b9 2a d4 dc b9
       -0.00015214359 -6.555815e-05 -0.000283619 -0.00042119744
000060 34 9a 4e 3a 45 97 9f 3a 20 95 2b 37 25 cb 88 ba
       0.00078812544 0.0012175819 1.0227115e-05 -0.0010436518
000070 aa 6b 91 ba 1d 28 cd b9 d6 de 66 37 9a b7 ee b9
       -0.0011094708 -0.00039130534 1.3760951e-05 -0.0004553169
000080 55 6c 0d 3a 6b 0b b8 b9 35 71 95 b7 8d 2c b7 b9
       0.0005394866 -0.00035103722 -1.78149e-05 -0.00034937673
000090 0d c9 c6 38 2a 1a c1 38 ed 17 8f 38 c3 a1 6f b9
       9.478824e-05 9.2078306e-05 6.823228e-05 -0.00022853077
0000a0 e7 7f 4f 38 34 90 d2 38 72 93 a3 b9 23 b4 fc 39
       4.9471764e-05 0.0001004044 -0.00031199638 0.00048199398
0000b0 f0 1f 36 3a 8b 8b ac 39 90 4c 0b ba 54 17 25 3a
       0.0006947508 0.00032910364 -0.0005313838 0.00062977266
0000c0 6f 36 01 ba 60 6f 2d b9 1c ad 2e ba 56 cb dc 39
       -0.0004929071 -0.00016540056 -0.00066633685 0.00042113167
0000d0 69 e5 70 38 ba e9 19 b8 0c 2b 41 b8 ea c0 0f b9
       5.7434114e-05 -3.6695717e-05 -4.6054876e-05 -0.00013709409
0000e0 83 a5 9a 39 19 f3 5b b8 1e c5 2e ba e7 4f c7 39
       0.00029496485 -5.244007e-05 -0.0006666946 0.0003801577
0000f0 d2 c2 bd 39 aa 87 39 39 ba fe 83 39 60 39 2a 39
       0.00036194042 0.00017693514 0.00025176053 0.00016233837
000100 4f ec c8 b9 88 f3 2c ba 0e 22 83 39 ca 95 71 b8
       -0.00038323036 -0.0006597568 0.0002501164 -5.759838e-05
000110 a5 3e 9c b8 64 f8 9f 3a d0 c6 b9 39 68 08 b6 b9
       -7.450328e-05 0.0012204763 0.00035434077 -0.00034720008
000120 19 0a 2c 39 28 9e f5 b9 8b 9a 1e 3a ef 14 0f b9
       0.0001640696 -0.00046847877 0.00060502504 -0.00013645341
000130 0e 48 3e 39 9e 1e 7e ba 4e 72 bf 39 46 eb f0 b9
       0.00018146654 -0.00096938934 0.00036515523 -0.0004595166
000140 c7 70 ae b8 68 b5 21 3a db 2b 5e ba ad b7 79 3a
       -8.317973e-05 0.0006168694 -0.0008475163 0.0009525966
000150 04 d1 4a 39 d4 50 0c ba cc f0 70 b7 fe fb fa b7
       0.00019342086 -0.00053526205 -1.436118e-05 -2.9919665e-05
000160 3a b3 30 b9 ce 0a 36 b7 8e 57 4c ba e6 9e 95 38
       -0.00016851435 -1.0850561e-05 -0.0007795029 7.134471e-05
000170 b7 6f 97 b9 2e e9 94 39 55 4b 34 3a 2f 44 c6 39
       -0.00028884198 0.00028402492 0.00068776804 0.00037816304
000180 6c 8b 5a 39 28 83 15 ba 9c 44 21 b7 7e 24 13 ba
       0.00020842039 -0.0005703443 -9.612322e-06 -0.0005613043
000190 eb 00 66 b9 53 1a e5 39 b4 f8 f5 39 24 92 c1 b7
       -0.00021934851 0.00043697897 0.0004691534 -2.3075445e-05
0001a0 39 04 f1 39 9f 25 8d 39 0a d0 b6 ba 59 d3 e2 b8
       0.00045970248 0.00026921646 -0.0013947499 -0.00010815886
0001b0 ee 92 d0 b9 8f dd 68 39 3f 5f e4 b9 0d 3f d4 39
       -0.00039782323 0.00022207781 -0.00043558513 0.00040482768
0001c0 14 61 21 3a ce c5 43 b8 95 72 3f 39 ba 6e 4c b9
       0.00061561284 -4.6675843e-05 0.00018257865 -0.00019496205
0001d0 07 80 40 ba 1c d9 72 b9 48 fa aa b9 30 8e af b9
       -0.00073432963 -0.00023159798 -0.000326114 -0.0003348454
0001e0 58 18 3a b8 45 49 b8 b9 82 ee a5 39 fb ed 4f ba
       -4.4368528e-05 -0.00035149805 0.00031648955 -0.0007931885
0001f0 7c b0 8f 38 51 3c a9 b8 20 e8 1a ba 88 8f b0 34
       6.851644e-05 -8.069783e-05 -0.0005909223 3.2886987e-07

exp_avg_sq f4 [128, 1]
000000 f6 f0 08 36 3a b4 46 34 ed ac 3a 35 d4 9c 3d 35
       2.0405837e-06 1.8505753e-07 6.954204e-07 7.06362e-07
000010 0c 64 d9 37 03 f0 00 34 48 22 e0 35 b2 c8 3d 37
       2.5915004e-05 1.2008245e-07 1.6699278e-06 1.1312006e-05
000020 ba 09 6a 38 06 f9 56 39 ab e5 e2 36 cc ca a8 37
       5.5799006e-05 0.00020501399 6.7620617e-06 2.0121595e-05
000030 2c e6 31 34 45 d2 71 37 59 61 d8 37 84 42 fa 37
       1.6568146e-07 1.4413677e-05 2.5794538e-05 2.9833296e-05
000040 07 db 53 37 57 2d a5 36 35 83 ce 35 3b f6 fa 35
       1.2627576e-05 4.9226614e-06 1.5386382e-06 1.8698114e-06
000050 8a 08 1c 34 b7 62 1c 36 1c 15 56 37 63 0c d1 36
       1.4531739e-07 2.330327e-06 1.2760309e-05 6.2301274e-06
000060 f7 69 d8 37 70 ac 87 37 29 3b 8c 34 85 b2 9e 37
       2.579855e-05 1.6173552e-05 2.6120077e-07 1.8918197e-05
000070 92 a1 2b 38 cc 68 de 36 67 96 72 35 fb fa 6c 38
       4.092005e-05 6.6283155e-06 9.037089e-07 5.650053e-05
000080 56 04 4b 37 19 7e 04 37 99 9a 92 35 b8 eb 55 37
       1.2100752e-05 7.8971725e-06 1.0922842e-06 1.2750672e-05
000090 07 5e e2 34 7f 10 9f 37 05 bc e0 35 c5 42 a3 36
       4.2164194e-07 1.8961959e-05 1.6744021e-06 4.8655515e-06
0000a0 82 fa ce 35 c3 38 79 33 22 a2 25 36 7c ae 99 38
       1.5421103e-06 5.8026455e-08 2.468129e-06 7.328109e-05
0000b0 71 4d 9e 37 d2 ec 2b 37 c4 24 a7 37 56 68 92 37
       1.887113e-05 1.0247533e-05 1.9925072e-05 1.7453141e-05
0000c0 9f d3 84 35 a5 19 96 36 1c a9 b7 37 32 c4 e4 36
       9.896356e-07 4.473334e-06 2.1894048e-05 6.8177696e-06
0000d0 8c ce a6 35 7a 30 66 34 28 dc ad 35 f9 55 7e 37
       1.2428077e-06 2.1438055e-07 1.2953578e-06 1.5159597e-05
0000e0 89 ad df 35 4d ff f0 35 56 3e 07 38 bd 1b bd 36
       1.66653e-06 1.7955696e-06 3.2244563e-05 5.635868e-06
0000f0 c0 83 3c 38 2f 89 30 37 6b 80 28 36 a2 ad c6 36
       4.4945395e-05 1.0522358e-05 2.51087e-06 5.9210734e-06
000100 58 73 b7 36 a7 08 a8 37 7b af bd 36 c9 35 93 33
       5.467253e-06 2.003119e-05 5.6530675e-06 6.8550044e-08
000110 f3 75 16 36 71 4a 3e 38 08 13 a7 36 17 31 95 37
       2.2420397e-06 4.536886e-05 4.9792034e-06 1.7785043e-05
000120 5e f1 83 37 09 4d 0d 37 63 c3 92 38 14 f6 7e 35
       1.5728812e-05 8.422191e-06 6.998216e-05 9.4980464e-07
000130 19 f9 94 35 88 0a 97 38 be 03 cc 36 73 e3 26 38
       1.1099356e-06 7.202203e-05 6.0801094e-06 3.9789313e-05
000140 75 27 ad 34 34 cd 8e 36 1a 85 c7 37 56 e5 1c 38
       3.225247e-07 4.2558186e-06 2.3784629e-05 3.7406884e-05
000150 e5 06 69 37 cc 16 74 38 ab 23 f4 34 77 ea db 32
       1.38894875e-05 5.8195365e-05 4.5474494e-07 2.5601578e-08
000160 be b3 10 37 ae 5d a0 34 19 8b de 37 d7 7f 50 34
       8.624918e-06 2.9870483e-07 2.6529235e-05 1.9418017e-07
000170 9d 38 8f 34 19 45 78 36 4d 7c 29 37 cf 6f 10 38
       2.6677017e-07 3.69951e-06 1.0102126e-05 3.4436405e-05
000180 d6 6e 1d 35 46 40 7f 38 3a e0 2b 34 11 b0 cd 36
       5.8648345e-07 6.0856597e-05 1.6007189e-07 6.129973e-06
000190 3f 48 c4 35 be 31 40 37 62 af 06 37 35 87 82 35
       1.4624164e-06 1.1455673e-05 8.027857e-06 9.725105e-07
0001a0 28 32 69 37 be 2d d2 36 49 0c a1 38 5d 87 4e 34
       1.389956e-05 6.263813e-06 7.6793665e-05 1.923449e-07
0001b0 d2 52 b1 36 34 25 58 37 7c 5e eb 35 6e 18 43 37
       5.2846526e-06 1.2883265e-05 1.7536363e-06 1.1628594e-05
0001c0 8c ef b6 37 d2 ee 95 33 d4 02 be 34 bb 68 26 37
       2.1807638e-05 6.981794e-08 3.5392316e-07 9.9187555e-06
0001d0 3f c5 76 37 6a 9d ae 36 a3 ce cd 35 7f 88 c9 36
       1.4708668e-05 5.2039295e-06 1.5333829e-06 6.006157e-06
0001e0 7e ad a3 36 40 e6 07 38 b2 7e 13 37 4a 70 9e 37
       4.8779757e-06 3.2400945e-05 8.791381e-06 1.8887356e-05
0001f0 41 e7 f6 33 d1 1b 0b 36 21 03 18 37 57 09 5f 34
       1.14973325e-07 2.0728805e-06 9.0606345e-06 2.0771891e-07

exp_avg f4 [128]
000000 1e 5a cc 37 ab c7 cc 37 39 97 13 38 f8 f6 96 37
       2.436066e-05 2.4411673e-05 3.518837e-05 1.7996397e-05
000010 e5 d2 38 b8 6b 3b 59 37 eb d8 00 38 18 7d 60 37
       -4.406543e-05 1.2948042e-05 3.07196e-05 1.3380566e-05
000020 4c d2 f0 36 43 f9 f6 37 38 70 00 b8 c6 da 6a 35
       7.177039e-06 2.9441557e-05 -3.062209e-05 8.749015e-07
000030 e8 5a 0b b7 7d fc 4a 38 00 1d 54 36 56 a3 a8 b7
       -8.306211e-06 4.83957e-05 3.1607342e-06 -2.010322e-05
000040 38 72 55 38 e0 d0 6b 36 8c 17 02 b7 89 b3 de 36
       5.0889532e-05 3.513931e-06 -7.754086e-06 6.637016e-06
000050 71 56 2f b7 ac 55 00 37 9d 03 64 b7 04 da 3d b7
       -1.0450939e-05 7.649342e-06 -1.35907e-05 -1.1316039e-05
000060 9e 9d 8b 38 1e 9b 53 37 4c 20 40 36 f2 ad af b7
       6.657395e-05 1.2612696e-05 2.8629029e-06 -2.0942625e-05
000070 40 09 95 b8 a2 b0 1f b7 83 cd 05 37 86 5f 34 b7
       -7.1065966e-05 -9.518264e-06 7.975267e-06 -1.0751077e-05
000080 a0 1e 2e 38 e0 c4 5a b8 7a da ce 36 9d 3b 4d 37
       4.1513355e-05 -5.2158604e-05 6.1647124e-06 1.2232832e-05
000090 c6 a7 9a b7 83 26 ac b7 f1 94 2c b7 61 a6 d8 b7
       -1.8436356e-05 -2.0521931e-05 -1.0286677e-05 -2.5826683e-05
0000a0 eb 32 1e b7 7b 65 95 b6 72 4d a5 36 d0 4b a2 b6
       -9.429389e-06 -4.45236e-06 4.926399e-06 -4.836802e-06
0000b0 52 c5 28 38 be d9 46 38 86 39 af b8 95 7a 4a 38
       4.023809e-05 4.7409667e-05 -8.355365e-05 4.8274716e-05
0000c0 f6 1d 9f 38 8f be 38 b8 4a b2 d0 b8 26 70 03 38
       7.5872915e-05 -4.404649e-05 -9.951422e-05 3.133728e-05
0000d0 e4 86 0a 38 00 3e e5 b6 65 67 65 35 6b 60 ac 37
       3.302739e-05 -6.8319496e-06 8.5459607e-07 2.0548896e-05
0000e0 2c 37 e8 b6 c2 4a 16 36 96 9d 96 b8 f0 cc 98 37
       -6.9205616e-06 2.2395257e-06 -7.18191e-05 1.8215243e-05
0000f0 fd fd 8d b7 a8 84 ac b6 9e ec 0a 38 e8 17 65 36
       -1.6926782e-05 -5.1414427e-06 3.312213e-05 3.4137574e-06
000100 f6 7b 61 b8 d9 17 d6 b8 5d 0c b4 37 93 85 96 36
       -5.3759628e-05 -0.00010208757 2.146343e-05 4.4858984e-06
000110 48 5b 2a b6 f3 b9 c9 38 c0 6b 97 b6 9d d6 f6 b7
       -2.5385107e-06 9.6190626e-05 -4.5126944e-06 -2.9425422e-05
000120 35 1f 4e b7 18 05 5b 36 ae 68 d2 37 2c 23 1d b8
       -1.2285823e-05 3.2636508e-06 2.5082696e-05 -3.7464473e-05
000130 3a 34 41 37 2d 9b 3f 38 af d0 05 38 b5 9d e5 b7
       1.1515856e-05 4.5682467e-05 3.1904023e-05 -2.7372365e-05
000140 41 82 e2 b6 9b 66 c4 b7 bd d3 a2 b8 b0 3e e9 38
       -6.7504884e-06 -2.34128e-05 -7.764201e-05 0.00011121982
000150 60 6a 59 b6 c3 f5 91 b7 20 0c 15 36 88 72 47 b6
       -3.2397438e-06 -1.7399789e-05 2.2209788e-06 -2.9719977e-06
000160 29 ce 01 b6 d4 f6 43 b7 af b4 86 b8 b9 7b 01 37
       -1.93425e-06 -1.1680375e-05 -6.423273e-05 7.717806e-06
000170 fa 4d 83 37 24 ec 83 37 f3 33 81 b7 96 ac 5f 36
       1.5652728e-05 1.5726378e-05 -1.540219e-05 3.3330048e-06
000180 76 e6 50 b6 ce 2c 7d b7 7d 1b 40 b7 5c 3a c6 b7
       -3.1128561e-06 -1.5090407e-05 -1.1450492e-05 -2.3630615e-05
000190 58 b5 01 b8 44 37 9d 38 14 2b 11 38 a3 f4 f6 b7
       -3.0924886e-05 7.4966374e-05 3.4610814e-05 -2.9439403e-05
0001a0 b2 7c ef 37 3f d5 0e 38 ce f9 d8 b8 85 28 e7 b7
       2.8549086e-05 3.405404e-05 -0.000103462124 -2.7556214e-05
0001b0 e0 36 59 b8 fa 67 ab b5 22 90 2f 38 4b e4 a6 38
       -5.1787938e-05 -1.2770754e-06 4.1857485e-05 7.95802e-05
0001c0 98 d1 9b 38 c2 ff a9 b7 ad 19 28 38 20 f9 99 36
       7.430016e-05 -2.0265466e-05 4.0078234e-05 4.5887573e-06
0001d0 84 fd 13 b8 8e 1b fe b7 96 ef 01 b7 80 0c 7a b8
       -3.5283636e-05 -3.029199e-05 -7.744782e-06 -5.9616286e-05
0001e0 ee 42 bc b7 c3 86 f6 b6 a6 3b b4 38 81 d7 df b7
       -2.2442513e-05 -7.3470596e-06 8.594179e-05 -2.6684023e-05
0001f0 3c 74 9f 36 08 2e 40 b4 ac c4 c1 b7 ec 79 08 b5
       4.7521007e-06 -1.789814e-07 -2.3098975e-05 -5.084137e-07

exp_avg_sq f4 [128]
000000 77 6a a0 31 01 23 85 30 92 be 6c 31 ff 69 81 30
       4.6687165e-09 9.686972e-10 3.4450847e-09 9.416111e-10
000010 34 85 06 33 86 84 10 30 f4 6a cf 31 34 35 81 32
       3.1320454e-08 5.257522e-10 6.036652e-09 1.504177e-08
000020 b8 05 9d 33 32 2c 93 34 e3 26 4c 32 b6 91 e9 32
       7.3119224e-08 2.741304e-07 1.1883205e-08 2.7191032e-08
000030 81 00 b5 2f 5d 59 a0 32 7e 16 12 33 21 e8 1a 33
       3.2924066e-10 1.866709e-08 3.401373e-08 3.606704e-08
000040 dd 2b 8f 32 47 b1 be 31 04 e8 14 31 6c a4 36 31
       1.6667338e-08 5.549882e-09 2.166872e-09 2.6577949e-09
000050 ae 3d ae 2f db 70 48 31 a6 a2 95 32 bb fc 01 32
       3.1694242e-10 2.9167981e-09 1.7419847e-08 7.5662525e-09
000060 7a f6 0a 33 d0 2c 9e 32 17 ef 28 30 c0 7b c1 32
       3.2354798e-08 1.8414e-08 6.145781e-10 2.2524432e-08
000070 66 eb 5f 33 9a e6 fa 31 20 de bb 30 08 6c 9c 33
       5.2135327e-08 7.302174e-09 1.3669172e-09 7.283967e-08
000080 e6 06 74 32 60 c4 aa 32 2b 82 e6 30 e1 4c 96 32
       1.4204238e-08 1.9879906e-08 1.6771698e-09 1.7497259e-08
000090 59 a6 ba 30 71 78 d1 32 ea 46 1e 31 b8 97 3e 32
       1.358056e-09 2.4385573e-08 2.3032336e-09 1.1093952e-08
0000a0 54 73 f7 30 53 81 0d 2f 9c fb 83 31 7a be c9 33
       1.8004394e-09 1.286982e-10 3.8412065e-09 9.3944394e-08
0000b0 21 df c4 32 fd 4c bc 32 64 23 ed 32 71 c9 bd 32
       2.291887e-08 2.192109e-08 2.7606525e-08 2.20941e-08
0000c0 f4 7c cf 31 16 21 e0 31 cc 42 05 33 46 34 12 32
       6.0386984e-09 6.5230195e-09 3.1027227e-08 8.510204e-09
0000d0 43 36 7b 31 7b 39 39 30 90 6e b6 30 33 32 a2 32
       3.6556151e-09 6.738429e-10 1.3273667e-09 1.888211e-08
0000e0 91 44 1e 31 67 c6 36 31 30 44 2a 33 0e 3c ec 31
       2.3031002e-09 2.6597264e-09 3.9643226e-08 6.8753314e-09
0000f0 ff b6 73 33 31 db 5d 32 ef 34 84 31 2d 06 ff 31
       5.674428e-08 1.2913731e-08 3.8477235e-09 7.422179e-09
000100 24 07 11 32 22 24 01 33 61 22 2f 32 0f 98 31 2f
       8.441734e-09 3.0068016e-08 1.01941575e-08 1.6152078e-10
000110 02 79 5d 31 44 ff 76 33 c2 5b cf 31 8f 96 04 33
       3.2228518e-09 5.75085e-08 6.0349246e-09 3.0870577e-08
000120 d8 5a a8 32 64 ee 5f 32 da 1a d2 33 7b 4e 2d 31
       1.9599085e-08 1.3034512e-08 9.783771e-08 2.5219424e-09
000130 1d e3 c1 30 fa 78 bf 33 22 54 01 32 d9 fd 6a 33
       1.4107148e-09 8.916136e-08 7.527918e-09 5.4713244e-08
000140 75 85 83 30 f2 56 ac 31 99 f8 08 33 1d 6a 5b 33
       9.569435e-10 5.0157434e-09 3.1891066e-08 5.108642e-08
000150 9e a5 96 32 ca 12 a6 33 9d d2 75 30 33 26 e7 2e
       1.7537612e-08 7.733395e-08 8.942978e-10 1.05114493e-10
000160 9e a6 6d 32 34 2d 14 30 c6 2b 0e 33 42 a3 28 30
       1.38331e-08 5.3906324e-10 3.3101763e-08 6.135005e-10
000170 d2 04 84 31 01 6a 95 31 a0 dd 72 32 b1 ee 37 33
       3.8422536e-09 4.348522e-09 1.4136646e-08 4.2825096e-08
000180 81 ef 39 30 61 cc b8 33 53 78 fd 2f 43 e3 03 32
       6.7642963e-10 8.605344e-08 4.6105927e-10 7.676877e-09
000190 87 9f 30 31 67 ef 99 32 fd 67 23 32 d2 66 f3 30
       2.5702052e-09 1.7920412e-08 9.511493e-09 1.77098e-09
0001a0 fb a7 95 32 99 84 5f 32 27 8d cf 33 bb 0a ad 30
       1.7422272e-08 1.3010458e-08 9.664864e-08 1.2590456e-09
0001b0 f6 6e 13 32 4b 73 8d 32 29 25 9c 31 dd c4 95 32
       8.581756e-09 1.646699e-08 4.544422e-09 1.7435406e-08
0001c0 ec b7 f2 32 af ec 98 30 b5 9e c0 31 c8 19 5e 32
       2.8256146e-08 1.1126725e-09 5.6059783e-09 1.2927963e-08
0001d0 f7 78 96 32 c4 15 f8 31 4c fd fb 30 d6 45 18 32
       1.7517307e-08 7.2202244e-09 1.8334645e-09 8.863443e-09
0001e0 1f 76 0f 32 39 f9 30 33 67 1b 84 32 fe 47 b4 32
       8.350553e-09 4.120486e-08 1.5379284e-08 2.0987496e-08
0001f0 91 b3 d5 2f 04 6e 40 31 f3 dc 37 32 86 c8 b0 2f
       3.8872064e-10 2.8002214e-09 1.070224e-08 3.2156694e-10

exp_avg f4 [128, 128]
000000 f6 03 8c 34 15 89 31 b4 0d 12 ad 34 16 6e 1f b4
       2.6079914e-07 -1.653428e-07 3.2236895e-07 -1.4848078e-07
000010 86 fa 0a b3 0b 7e 50 34 62 30 28 34 3b ff 3c 34
       -3.235848e-08 1.9417364e-07 1.5663821e-07 1.7601717e-07
000020 17 92 b9 33 da 1a 4f 34 bb be 3b 34 5f 14 d8 33
       8.6413074e-08 1.9288146e-07 1.748512e-07 1.0061989e-07
000030 3a 22 b9 b2 6c 1c d4 b1 ea 95 42 33 65 e1 0f 33
       -2.1552399e-08 -6.1732432e-09 4.530549e-08 3.3499777e-08
000040 22 86 dd b2 1a 55 3c b4 6e 4f a1 b4 1b 04 14 b1
       -2.5788783e-08 -1.7539824e-07 -3.004638e-07 -2.1539168e-09
000050 7a 92 a3 b2 15 73 78 34 0b 1e bc 34 07 ae 21 b4
       -1.9042307e-08 2.3138666e-07 3.5039588e-07 -1.5057604e-07
000060 84 aa e5 b3 64 dd cb b0 58 98 1d b3 41 a4 11 b1
       -1.069466e-07 -1.4833117e-09 -3.6692967e-08 -2.1193645e-09
000070 91 4d 1a b4 2a 6c f0 b0 1e 78 39 33 2b 6c bb 34
       -1.4370586e-07 -1.749304e-09 4.3182915e-08 3.4910167e-07
000080 3c bb 8f b3 0c 00 5f 34 d9 c4 8b 33 b3 4d f8 32
       -6.693014e-08 2.076851e-07 6.508498e-08 2.8906333e-08
000090 d6 c1 49 b4 ed eb b1 33 22 5c 8e 33 2e 1e fd 33
       -1.8790101e-07 8.2851194e-08 6.629149e-08 1.178672e-07
0000a0 67 9f dd 34 cb 0b 69 b3 60 80 94 b3 57 e8 1f 34
       4.1280438e-07 -5.4260266e-08 -6.915138e-08 1.4892554e-07
0000b0 88 00 9f b4 1b bf be 34 e0 12 84 b3 c0 ca 22 b3
       -2.9616444e-07 3.5529305e-07 -6.150162e-08 -3.7902964e-08
0000c0 c9 c5 29 b4 08 29 f9 b3 8e f7 19 b4 3e 93 70 b3
       -1.5811305e-07 -1.16024296e-07 -1.4339295e-07 -5.601327e-08
0000d0 3a 80 c0 34 e2 ad 84 33 9f 5e a7 34 54 94 43 34
       3.5856084e-07 6.178358e-08 3.117502e-07 1.8214752e-07
0000e0 ee 4a 11 b4 b9 bd cd 32 1e 3b 66 b2 a8 bd 09 b4
       -1.3531437e-07 2.3951417e-08 -1.3401204e-08 -1.2828116e-07
0000f0 05 d5 ac 33 c1 75 08 34 04 f2 0e b4 ef 44 a5 34
       8.048122e-08 1.2708826e-07 -1.3312825e-07 3.07838e-07
000100 53 7e de b3 6f 75 48 b4 da e0 e0 34 73 b3 89 b3
       -1.0360659e-07 -1.8669174e-07 4.1886852e-07 -6.412201e-08
000110 1e 45 74 34 76 00 fe b3 f7 2b 87 b4 06 42 04 34
       2.2749416e-07 -1.18278805e-07 -2.5177698e-07 1.2317477e-07
000120 a4 d1 27 34 31 a2 dc b3 e4 3a e1 33 24 67 9a b4
       1.5629354e-07 -1.0274051e-07 1.0488091e-07 -2.875978e-07
000130 d2 21 69 b3 1e 2d e1 32 f5 06 ad b4 c6 b5 1f 34
       -5.42803e-08 2.6213964e-08 -3.2228823e-07 1.4874158e-07
000140 47 cb 31 33 74 d5 40 b4 91 a7 8d b4 34 08 01 b4
       4.1395904e-08 -1.7959047e-07 -2.6385217e-07 -1.2017045e-07
000150 65 06 ca 33 53 a6 04 34 5a c1 46 b3 e6 88 18 34
       9.407521e-08 1.2353966e-07 -4.627632e-08 1.4205906e-07
000160 b2 98 34 33 8f 82 9d 34 0c 87 3d b4 a7 a1 56 34
       4.204839e-08 2.9338523e-07 -1.7651126e-07 1.9989112e-07
000170 bc 95 a1 b0 1a fb fe b2 c0 8f c2 b4 2c 75 e0 34
       -1.1756849e-09 -2.968368e-08 -3.6239908e-07 4.1808505e-07
000180 1a d3 10 b4 a3 74 f9 33 d3 d3 1b b4 d5 ff 9d b1
       -1.3487843e-07 1.1616182e-07 -1.4512561e-07 -4.598386e-09
000190 af d3 9c b4 96 20 a7 b3 36 6a 27 b4 7a e9 cc b3
       -2.9211284e-07 -7.782471e-08 -1.5591726e-07 -9.5419594e-08
0001a0 4a 1c 03 b2 99 6a f4 34 32 3e 5d b3 5c a7 92 b4
       -7.631636e-09 4.5526102e-07 -5.151214e-08 -2.731639e-07
0001b0 b8 5d 89 b3 78 12 a8 33 50 ba e0 b3 3a 10 b5 b3
       -6.396607e-08 7.826469e-08 -1.0464703e-07 -8.431421e-08
0001c0 8e bc 1d b3 28 84 0e b4 c6 65 69 34 a0 77 5f 33
       -3.67259e-08 -1.3272859e-07 2.1736841e-07 5.2030032e-08
0001d0 f1 da 48 b4 84 9d ff b3 28 af 8e b4 25 2c a8 b4
       -1.8706102e-07 -1.1903015e-07 -2.6577004e-07 -3.1324558e-07
0001e0 bf d6 92 33 c9 46 a7 34 36 c4 02 b4 0f 68 9c b1
       6.837717e-08 3.1157677e-07 -1.2178575e-07 -4.5520276e-09
0001f0 d1 f0 1f 34 71 e7 0b 34 4e 2f 1f b4 96 e0 89 33
       1.4895637e-07 1.3029582e-07 -1.4825238e-07 6.4204116e-08
000200 61 dd 89 b9 fe c3 6b 38 b4 b5 aa b9 2b 6d 54 38
       -0.00026295616 5.6210898e-05 -0.00032560306 5.064641e-05
000210 7a 06 66 37 76 82 4c b9 7a 56 24 b9 d2 17 39 b9
       1.3710576e-05 -0.00019503557 -0.00015672474 -0.00017651849
000220 e4 1a b0 b8 7b 24 4b b9 30 d3 37 b9 7e 8e cf b8
       -8.397343e-05 -0.00019373179 -0.00017530913 -9.8970704e-05
000230 e0 41 24 37 f4 95 1f 36 cd 55 23 b8 e5 08 e5 b7
       9.7904995e-06 2.378013e-06 -3.8942137e-05 -2.730307e-05
000240 42 ab 42 37 9e 64 79 38 ca 76 d3 38 ee 31 14 35
       1.1603175e-05 5.9459933e-05 0.0001008339 5.5206954e-07
000250 b2 00 12 37 96 4b 74 b9 fa a4 b9 b9 76 30 57 38
       8.70244e-06 -0.00023297811 -0.00035408867 5.1305127e-05
000260 37 89 1b 38 9b 36 0f 34 f6 9f 7e 37 c5 22 93 35
       3.708267e-05 1.3337778e-07 1.5176824e-05 1.0962473e-06
000270 1c b8 4d 38 a6 3d dd 33 eb e0 19 b8 9f f4 b8 b9
       4.9047274e-05 1.0302328e-07 -3.6687514e-05 -0.00035277472
000280 9e 06 cc 37 d5 f3 5a b9 8e 41 7f b8 40 4e c4 b7
       2.4321776e-05 -0.00020880935 -6.085779e-05 -2.3401459e-05
000290 8e 57 85 38 1d 20 a8 b8 ae 66 82 b8 8b 1f f5 b8
       6.3582425e-05 -8.016846e-05 -6.218009e-05 -0.00011688386
0002a0 cc e2 da b9 27 55 ab 37 6e 6e d1 37 a9 0e 1c b9
       -0.00041749177 2.042444e-05 2.4966164e-05 -0.0001488278
0002b0 81 77 d0 38 89 43 bc b9 f2 89 bd 37 b0 fe 82 37
       9.940472e-05 -0.00035908472 2.2594792e-05 1.5615806e-05
0002c0 0c cd 61 38 e5 b2 27 38 6a 44 4d 38 af 51 b0 37
       5.3835145e-05 3.998251e-05 4.8939524e-05 2.1018872e-05
0002d0 c7 ff bd b9 c4 f1 6f b8 d9 0b a5 b9 ec a2 3f b9
       -0.00036239458 -5.7207202e-05 -0.0003148008 -0.00018275873
0002e0 8e 51 42 38 89 58 a3 b7 92 c5 c7 36 54 bf 38 38
       4.6329158e-05 -1.9472342e-05 5.9536624e-06 4.4047207e-05
0002f0 e4 ca a2 b8 3c 8e 04 b9 c4 6d 3f 38 8c f7 a2 b9
       -7.762553e-05 -0.00012641487 4.5640176e-05 -0.00031083485
000300 b7 b0 16 38 ca 72 84 38 26 1e de b9 ba db c4 37
       3.5927365e-05 6.3156316e-05 -0.00042365602 2.3467339e-05
000310 65 21 70 b9 62 0c 2b 38 42 98 b1 38 ee 4e 00 b9
       -0.00022900624 4.078111e-05 8.468378e-05 -0.00012236435
000320 19 f6 23 b9 ab 97 15 38 e2 e4 d8 b8 b8 5d ca 38
       -0.0001563657 3.566562e-05 -0.00010342315 9.649567e-05
000330 26 e7 ab 37 45 25 b2 b7 96 ab e2 38 c5 d6 1b b9
       2.0492425e-05 -2.1236609e-05 0.0001080848 -0.0001486196
000340 7f 14 12 b8 d5 4c 7f 38 9e e0 b9 38 f8 a5 2d 38
       -3.48282e-05 6.0868293e-05 8.863326e-05 4.1400985e-05
000350 e3 21 c1 b8 3e b4 00 b9 c7 d3 97 37 49 a5 14 b9
       -9.209269e-05 -0.00012274177 1.809922e-05 -0.00014175953
000360 f1 e6 14 b8 1b 41 9b b9 fe e2 7a 38 1f a3 52 b9
       -3.550103e-05 -0.0002961241 5.9816048e-05 -0.00020087928
000370 90 a7 7c 35 4c 3d 59 37 83 9f fe 38 0c b3 dd b9
       9.412115e-07 1.294848e-05 0.00012141375 -0.00042285805
000380 bf a9 41 38 1e 6d f1 b8 8a a9 4f 38 f2 f3 99 35
       4.6172874e-05 -0.000115121 4.951054e-05 1.1470386e-06
000390 c2 83 cd 38 1c 93 e8 37 b2 b9 5e 38 cb 91 0b 38
       9.7997035e-05 2.7725058e-05 5.3101867e-05 3.3275963e-05
0003a0 e2 dd 5a 36 4f 7b f1 b9 18 71 a4 37 fe 4f c0 38
       3.2613684e-06 -0.00046058974 1.9602987e-05 9.170173e-05
0003b0 42 d7 c3 37 15 c9 9d b8 59 67 18 38 f4 d6 f9 37
       2.3346049e-05 -7.523798e-05 3.6335874e-05 2.9783208e-05
0003c0 f3 d3 7f 37 70 95 3e 38 73 54 65 b9 bd 5d 42 b8
       1.5248533e-05 4.5438705e-05 -0.00021870602 -4.6340505e-05
0003d0 4c b7 84 38 94 dd 2b 38 59 3f bb 38 a7 3f dc 38
       6.328392e-05 4.0975938e-05 8.928654e-05 0.00010502274
0003e0 8a 36 87 b8 d3 f3 a4 b9 79 e2 2f 38 58 97 86 35
       -6.44746e-05 -0.0003146218 4.193417e-05 1.0027825e-06
0003f0 fe 18 1c b9 81 ff 07 b9 93 ff 53 38 3e 31 7b b8
       -0.0001488663 -0.00012969786 5.0544342e-05 -5.9888924e-05
