Assets/ML-Agents/results/sshipMovMod1Test-4/My Behavior/My Behavior-343993.pt (torch, 429082 bytes, 33 tensors)

network_body._body_endoder.seq_layers.0.weight f4 [128, 1]
1.8887022 0.29527596 0.1491901 0.12956871 -0.33301014 0.55259657 -1.0245981 1.5839065
0.25230414 0.6985883 1.1231251 2.3390455 0.16095355 0.76919174 0.16260302 -2.4716043
0.5022008 -0.8939822 -0.6916398 -0.5779976 0.43443733 0.30513975 0.8533668 0.56757975
-0.3109536 0.7215632 -0.115136445 0.12526222 1.5857352 -0.12083564 1.9337996 0.20937774
0.6464306 -2.1560657 2.2399142 0.69276404 2.1446843 -0.05941272 1.0341929 0.048311114
-0.7730806 0.40727392 -3.712695 2.1154287 -0.2989978 0.053978976 1.2444768 2.8081934
0.8510411 -1.3367949 0.05132379 -1.9410781 -1.2496264 -1.581427 -0.46130309 0.55904377
1.0029163 1.7739804 1.5076916 -1.1931945 1.2681719 -0.18960074 -0.24463688 -0.16226652
-0.56644756 -1.1963483 -0.15859218 0.6775539 0.9499886 -0.87874204 -0.91751784 -1.4558363
-0.74306697 -1.7326046 0.46302137 -0.55511 1.2009716 -0.14523768 0.11101868 -0.3121763
-0.9196868 -0.48390132 0.5246977 0.025893562 -0.45523348 -2.0315876 -1.6874117 -1.7407581
-0.77762926 -1.3005191 0.6738173 0.0903355 -2.192055 -0.94389987 2.6174843 1.4724641
0.7058498 -1.1238883 0.8085722 -0.93723416 0.08704128 -0.147077 0.27573276 -0.3294172
-0.48981732 0.45779276 0.5255696 0.35936904 0.6385635 0.6920023 -0.015272637 -0.43346983
-0.9831554 -0.84402406 -1.05206 0.0060285437 -0.23533735 -0.078111865 -1.1567734 0.18182185
-0.91048735 0.49409583 -0.64141494 0.5027333 -0.0673055 -0.5272138 0.078866586 0.7498175
00000000: fec0 f13f 692e 973e 4ac5 183e a9ad 043e
00000010: 4e80 aabe f876 0d3f 0826 83bf 73bd ca3f
00000020: 022e 813e afd6 323f 90c2 8f3f ecb2 1540
00000030: 02d1 243e c0e9 443f 6881 263e c42e 1ec0
00000040: 3b90 003f 04dc 64bf 4e0f 31bf a7f7 13bf
00000050: 926e de3e 473b 9c3e 3f76 5a3f e84c 113f
00000060: 4f35 9fbe 5eb8 383f a8cc ebbd bd44 003e
00000070: 5ff9 ca3f ad78 f7bd bf86 f73f 1e67 563e
00000080: 7a7c 253f fbfc 09c0 c15a 0f40 fc58 313f
00000090: 8242 0940 c15a 73bd 6f60 843f e0e1 453d
000000a0: 9ce8 45bf 3586 d03e cb9c 6dc0 2f63 0740
000000b0: 3d16 99be 0f19 5d3d 044b 9f3f 71b9 3340
000000c0: d4dd 593f 181c abbf e538 523d 3f75 f8bf
000000d0: c2f3 9fbf 336c cabf eb2f ecbe 7e1d 0f3f
000000e0: 905f 803f ca11 e33f 0afc c03f 99ba 98bf
000000f0: 7553 a23f b226 42be 1782 7abe 3229 26be
00000100: b502 11bf f121 99bf fd65 22be 2c74 2d3f
00000110: 7432 733f 3df5 60bf 73e2 6abf d858 babf
00000120: a339 3ebf fdc5 ddbf 2311 ed3e b01b 0ebf
00000130: 70b9 993f 30b9 14be c35d e33d 92d5 9fbe
00000140: 9870 6bbf eac1 f7be 9752 063f bc1e d43c
00000150: 5d14 e9be 8805 02c0 1bfd d7bf 29d1 debf
00000160: b612 47bf 6977 a6bf 4a7f 2c3f d201 b93d
00000170: a14a 0cc0 6ca3 71bf dd84 2740 b479 bc3f
00000180: 93b2 343f 92db 8fbf 96fe 4e3f 94ee 6fbf
00000190: b342 b23d 5a9b 16be d82c 8d3e 5fa9 a8be
000001a0: 56c9 fabe d063 ea3e bb8b 063f 38ff b73e
000001b0: e678 233f 1027 313f 153a 7abc c2ef ddbe
000001c0: 13b0 7bbf f611 58bf e7a9 86bf 178b c53b
000001d0: 46fc 70be 1df9 9fbd 2711 94bf 822f 3a3e
000001e0: b315 69bf 21fa fc3e c533 24bf 21b3 003f
000001f0: 77d7 89bd 7cf7 06bf ce84 a13d 0af4 3f3f

network_body._body_endoder.seq_layers.0.bias f4 [128]
-0.0037696178 -0.00669255 0.006807956 0.0023016657 0.0016324802 -0.0013333702 0.0023094926 0.0036449465
0.005143587 -0.002631087 -0.0037453414 -0.003433203 0.0019596634 9.110317e-05 -0.005115752 -0.0056668003
-0.0041928594 0.0009793867 0.0023723743 0.0020624758 -0.0033432557 0.0034313437 0.0035426435 0.002445174
-0.0035640781 -0.0003059235 -0.0004086078 0.004172505 -0.012783384 0.0025289475 -0.0039233933 -0.0033366128
0.0032644372 -0.003380757 -0.007376347 0.0033050203 -0.0040776376 -0.0016618014 0.0027910029 0.0024848036
-0.0012820408 0.009444023 0.0035310318 -0.004552639 0.0028304786 -0.00042996113 -0.0037619981 0.003614611
0.0025707793 -0.0032960174 0.00016624999 -0.0073250877 -0.006132339 0.0013531308 0.0042753657 0.0038397666
0.0031875242 0.0015143728 -0.0044408566 -0.0050753877 0.0026197846 0.0027871095 0.0036898577 -0.0009495259
0.002766044 -0.004180412 0.00053790276 0.0025623792 0.0039413837 0.0038058616 -7.290992e-05 0.0019639954
-0.0031315542 0.0033651683 0.0026007409 -0.0025635124 -0.0058756405 -0.003623847 -0.0029864833 0.0026955965
0.004878774 0.006006368 0.0035890292 -0.0027717815 0.00081268355 -0.015945302 -0.0043521007 0.0051340596
0.0036262248 -0.0046732146 -0.0035869242 0.0027329305 -0.002965426 -0.0062251715 0.003522831 0.003609956
0.0030621835 -0.004485804 -0.0046402696 -0.0047999797 0.004045518 0.0040181917 0.0022213303 -0.000498018
-0.0051536136 -0.0048451074 0.0024171069 0.0032872928 -0.0052599073 0.002737443 -0.011391582 0.00038549345
-0.0034479569 -0.00048757237 0.0038139576 -0.005369051 0.0034268224 0.002613633 -0.018227747 0.004214462
-0.0038864312 -0.0034132209 -0.0055758124 0.0033810851 -0.009420936 -0.0007086102 0.002581262 0.0027888073
00000000: b10b 77bb 2e4d dbbb 4615 df3b 8bd7 163b
00000010: f2f8 d53a 7bc4 aeba db5a 173b 0ee0 6e3b
00000020: 898b a83b 516e 2cbb 6774 75bb 97ff 60bb
00000030: b26d 003b a40e bf38 0aa2 a7bb 91b0 b9bb
00000040: 4164 89bb c45e 803a d679 1b3b 9a2a 073b
00000050: 861a 5bbb 65e0 603b b22b 683b 363f 203b
00000060: 4f93 69bb 5b64 a0b9 693a d6b9 82b9 883b
00000070: 6671 51bc b3bc 253b cf8f 80bb 13ab 5abb
00000080: 2bf0 553b b18f 5dbb 49b5 f1bb 0a99 583b
00000090: b49d 85bb cdd0 d9ba 42e9 363b 16d8 223b
000000a0: 270a a8ba 1abb 1a3c e268 673b 4e2e 95bb
000000b0: 8d7f 393b 686c e1b9 db8b 76bb 1ce3 6c3b
000000c0: 857a 283b ff01 58bb 6453 2e39 4a07 f0bb
000000d0: caf1 c8bb 895b b13a 5e18 8c3b 98a4 7b3b
000000e0: c8e5 503b eb7d c63a 9b84 91bb 704f a6bb
000000f0: b1b0 2b3b f0a7 363b 8ad1 713b 9be9 78ba
00000100: 8546 353b d6fb 88bb 0b02 0d3a 97ed 273b
00000110: b926 813b c36b 793b 37e7 98b8 60b6 003b
00000120: c33a 4dbb 288a 5c3b 3171 2a3b 9a00 28bb
00000130: 7288 c0bb 107e 6dbb e0b8 43bb 9ba8 303b
00000140: 1fde 9f3b 11d1 c43b eb35 6b3b c7a6 35bb
00000150: 450a 553a b99f 82bc 119c 8ebb 9d3b a83b
00000160: f5a5 6d3b c421 99bb 9a12 6bbb f71a 333b
00000170: 9857 42bb 86fc cbbb 4cdf 663b 0395 6c3b
00000180: eaae 483b a7fd 92bb 670d 98bb 2649 9dbb
00000190: 4490 843b 09ab 833b bd93 113b 6c8d 02ba
000001a0: a5df a8bb b5c3 9ebb 5368 1e3b 9f6f 573b
000001b0: 4d5b acbb ac66 333b c2a3 3abc 0e1c ca39
000001c0: 1ef7 61bb dba0 ffb9 97f3 793b ddee afbb
000001d0: 8a94 603b 7c49 2b3b 5b52 95bc 7819 8a3b
000001e0: 7fb3 7ebb 58b0 5fbb 4eb5 b6bb 3295 5d3b
000001f0: 455a 1abc 07c2 39ba 642a 293b 6cc4 363b

network_body._body_endoder.seq_layers.2.weight f4 [128, 128]
0.016609114 -0.08936806 0.07215943 0.04117467 -0.14279251 -0.042961475 -0.10224694 0.10717121
0.091764145 -0.028155055 0.04185695 0.00731059 0.065639466 -0.015714662 0.048275746 -0.06513687
-0.07280452 0.028367296 0.006971666 0.007239596 -0.09158278 0.10815013 0.23036063 0.047003474
0.18040718 0.056132145 -0.15044454 -0.056913026 -0.04189739 0.04958155 0.045869865 0.0764155
-0.01045312 -0.07493753 -0.06604206 0.2054128 0.033040695 -0.059077945 -0.0027250536 -0.047050253
-0.07132438 0.03407704 -0.048102107 -0.05783885 0.02368376 0.1150867 0.0029125107 -0.03780046
0.08677076 -0.06980945 0.045586042 0.036328364 0.028828649 0.00026680983 0.10577294 0.19128247
0.20329452 0.11860462 -0.101684205 0.05323542 0.010155817 -0.00057015056 -0.0728092 0.0027211723
0.09512022 0.03738295 0.024874331 -0.056578565 0.1483177 -0.08225842 0.07693119 0.0034123508
0.26026198 0.086650684 0.13291387 0.062015425 0.0004722994 -0.049520236 0.06363787 0.026676776
-0.07102145 0.1351881 0.08281554 -0.019188756 -0.091450736 0.024721054 -0.11346982 -0.087233335
-0.025375098 0.006183461 -0.044609282 -0.101903364 -0.09816431 -0.022352792 0.08177113 0.18371487
0.055421125 -0.11927485 -0.031587552 -0.14824429 -0.031253308 -0.0052192425 0.003781758 -0.00034536808
0.0021220816 0.06282753 0.072810724 0.12524433 -0.1260822 0.13852608 0.08320538 0.024531836
-0.018111775 0.06987664 0.021950237 0.023689823 -0.13036533 0.041920032 -0.04374812 0.09806583
-0.14959575 -0.11130711 -0.0060431166 -0.02191033 0.03806068 -0.03340446 0.010559379 0.061630223
0.06783802 0.21228933 0.11142759 -0.017236354 0.047330365 0.1401552 -0.12955728 0.0355774
0.04811484 0.056802038 0.011181515 0.021020506 0.041472033 0.021059532 0.14205542 -0.041239496
-0.010050117 0.11248521 0.004557533 -0.077377856 -0.15278287 -0.03590263 -0.100753754 -0.05235894
0.09256769 -0.0979992 -0.008741755 -0.12211348 -0.089517444 0.05226881 -0.050081052 -0.101636134
0.07470448 -0.041536797 -0.079627626 -0.08499151 0.033207953 -0.068309054 -0.04567632 0.014367728
0.0466242 -0.06394498 0.03241738 0.08754374 -0.16281135 -0.10966552 0.011977285 0.12249155
0.0735085 0.0008511579 0.12966284 -0.04777309 0.07568162 -0.066593885 -0.060664963 -0.11897175
0.023990322 -0.021944221 0.0065606926 -0.120473124 -0.027034247 0.024559788 0.063535266 -0.041262988
0.086002745 -0.07381804 -0.13461629 -0.04889068 -0.024984358 0.006559138 -0.024125721 0.21375309
0.023426434 0.015870702 0.019454397 0.12660187 0.060631104 0.040747434 -0.085087754 0.02605646
0.02069938 -0.03776959 0.00026476826 0.0042905374 -0.12586887 -0.031975314 -0.0059661334 0.21096583
-0.05292552 -0.07516305 0.0314744 0.03093237 0.036642157 0.033000175 -0.1576368 0.028529393
0.06462732 -0.024256304 0.044929754 0.14398026 0.06325394 0.09351595 -0.0018046079 -0.08866582
0.010659412 0.011741246 0.032154836 0.033010527 -0.14824592 -0.023599532 0.020981109 0.03414269
-0.14297965 -0.02180704 0.16099186 -0.08852801 -0.053001404 -0.041973162 0.020763047 -0.06131397
-0.10098687 -0.010409636 -0.068819776 -0.014265047 -0.05328832 0.10158298 0.15456212 -0.046983957
00000000: d60f 883c 9a06 b7bd 53c8 933d c5a6 283d
00000010: 3338 12be 5ff8 2fbd d866 d1bd 947c db3d
00000020: d7ee bb3d 6ea5 e6bc 3172 2b3d ac8d ef3b
00000030: fc6d 863d 09bc 80bc cabc 453d 7b66 85bd
00000040: 891a 95bd 8862 e83c 9372 e43b 223a ed3b
00000050: c18f bbbd d17d dd3d a8e3 6b3e b786 403d
00000060: a9bc 383e d2ea 653d 220e 1abe a21d 69bd
00000070: 999c 2bbd 0616 4b3d 0ae2 3b3d bb7f 9c3d
00000080: 9043 2bbc d978 99bd 0f41 87bd bc57 523e
00000090: ae55 073d b7fb 71bd d096 32bb c4b7 40bd
000000a0: 8412 92bd 5e94 0b3d b706 45bd 6ee8 6cbd
000000b0: 7204 c23c 93b2 eb3d d2df 3e3b a8d4 1abd
000000c0: deb4 b13d 42f8 8ebd 6eb8 3a3d 0dcd 143d
000000d0: 0f2a ec3c 9ce2 8b39 7c9f d83d 8ddf 433e
000000e0: 702c 503e fbe6 f23d cf3f d0bd 620d 5a3d
000000f0: 9564 263c 2876 15ba fd1c 95bd b255 323b
00000100: 64ce c23d dd1e 193d 41c5 cb3c edbe 67bd
00000110: 98e0 173e 1a77 a8bd 1a8e 9d3d bfa1 5f3b
00000120: 0f41 853e ea75 b13d 931a 083e e303 7e3d
00000130: f49e f739 bbd5 4abd 9254 823d 4189 da3c
00000140: b273 91bd c06e 0a3e 329b a93d bd31 9dbc
00000150: 864a bbbd cf83 ca3c dd62 e8bd 64a7 b2bd
00000160: 70df cfbc a19e ca3b 39b8 36bd b6b2 d0bd
00000170: 5f0a c9bd 341d b7bc 9f77 a73d c01f 3c3e
00000180: 4301 633d 5f46 f4bd f361 01bd 5acd 17be
00000190: 7803 00bd 2e06 abbb 5fd7 773b 8512 b5b9
000001a0: 9f12 0b3b b8ab 803d ca1d 953d 0d40 003e
000001b0: b11b 01be c8d9 0d3e 9567 aa3d fdf6 c83c
000001c0: 255f 94bc 7c1b 8f3d fcd0 b33c 2911 c23c
000001d0: 7d7e 05be 57b4 2b3d 3b31 33bd bdd6 c83d
000001e0: a12f 19be fbf4 e3bd 5605 c6bb 4b7d b3bc
000001f0: 84e5 1b3d 1dd3 08bd 3f01 2d3c f96f 7c3d
00000200: a9ee 8a3d 6062 593e 2634 e43d 4133 8dbc
00000210: 7cdd 413d d884 0f3e aaaa 04be 9cb9 113d
00000220: 1114 453d 41a9 683d ac32 373c 3233 ac3c
00000230: 94de 293d 0a85 ac3c fa76 113e bfea 28bd
00000240: 3fa9 24bc a55e e63d 5c57 953b 4878 9ebd
00000250: 1d73 1cbe a30e 13bd fc57 cebd 5476 56bd
00000260: 2194 bd3d ceb3 c8bd 9439 0fbc a216 fabd
00000270: ec54 b7bd d217 563d ca21 4dbd 9b26 d0bd
00000280: aafe 983d 7d22 2abd cf13 a3bd 0710 aebd
00000290: 1005 083d 9ee5 8bbd 1817 3bbd 9e66 6b3c
000002a0: 04f9 3e3d 96f5 82bd 16c8 043d 224a b33d
000002b0: 05b8 26be 5198 e0bd 603c 443c dadc fa3d
000002c0: a08b 963d 3d20 5f3a 56c6 043e b7ad 43bd
000002d0: f7fe 9a3d 6062 88bd d37b 78bd 76a7 f3bd
000002e0: 5a87 c43c 5ec4 b3bc 14fb d63b 9dba f6bd
000002f0: ed76 ddbc 9c31 c93c c71e 823d 6103 29bd
00000300: 3522 b03d ea2d 97bd dad8 09be 9841 48bd
00000310: ffab ccbc 0aee d63b 4ea3 c5bc 17e2 5a3e
00000320: cbe8 bf3c 4603 823c d45e 9f3c eca3 013e
00000330: 5258 783d c8e6 263d 7d42 aebd 5b74 d53c
00000340: bf91 a93c 49b4 1abd 98d0 8a39 a397 8c3b
00000350: c5e3 00be 8cf8 02bd 8e7f c3bb 6d07 583e
00000360: 6ec8 58bd 16ef 99bd 4deb 003d e265 fd3c
00000370: 1616 163d 312b 073d 8b6b 21be 79b6 e93c
00000380: 545b 843d 28b5 c6bc 4308 383d 906f 133e
00000390: 488b 813d 4a85 bf3d 9888 ecba 6d96 b5bd
000003a0: d0a4 2e3c 5b5e 403c cab4 033d 0c36 073d
000003b0: c7cd 17be ce53 c1bc 93e0 ab3c 35d9 0b3d
000003c0: 4269 12be ada4 b2bc 0ddb 243e 2c4e b5bd
000003d0: 0018 59bd 0dec 2bbd 4417 aa3c 5b24 7bbd
000003e0: 34d2 cebd 2e8d 2abc 62f1 8cbd f2b7 69bc
000003f0: da44 5abd bd0a d03d 8845 1e3e 4072 40bd

network_body._body_endoder.seq_layers.2.bias f4 [128]
0.0039154524 -0.004450285 -0.0044908547 0.0008814662 0.0031975887 -0.0056017074 0.0039196494 -0.004342915
-0.0019162667 0.0054038935 -0.004593918 0.003822936 -0.011379901 -0.020946939 0.002740383 -0.005458008
-0.005000101 -0.00550078 -0.0037365572 -0.0036047178 -0.004932104 -0.010265505 0.0017275907 -0.007817433
0.0036292125 -0.0055221617 -0.0042929845 -0.0013068664 0.009003964 0.003329626 -0.005487053 0.0045192284
0.0041023255 0.0036026405 0.0040037497 -0.0033521533 -0.004634259 -0.004603915 -0.0101311635 0.0029139768
0.0035728416 0.003956327 -0.005187818 0.0020201767 -0.007813455 -0.008495974 -0.0052458164 0.0038934278
-0.0045424597 -0.003957456 0.0038607891 0.003609172 -0.011041408 -0.0020519574 0.009102213 0.004123005
-0.010029438 0.003925914 0.004062659 -0.004226515 0.0036608935 0.003739421 0.003910535 -0.004655808
-0.010985304 0.0041278084 0.0041349237 -0.011697347 -0.0047424403 -0.0049751895 0.0024626062 -0.005049157
0.0031951808 0.003030367 0.0032800543 -0.0040511256 -0.004088775 0.0026264617 0.002626667 -0.0020710519
0.0022852167 0.0027837465 -0.00409196 0.0033841527 -0.0006494357 -0.0034406038 0.0037201555 0.0027435313
0.003042764 0.004360944 0.00400314 -0.0034690741 -0.0043033906 0.0015480594 -0.004717189 -0.0039964053
-0.005321107 0.0038122805 -0.00485032 0.003228804 0.003806843 -0.008937475 -0.012048286 0.0035727215
-0.0041793813 0.003882929 0.0069319583 -0.010024171 -0.004724186 -0.0030161734 0.00053107634 -0.005123307
0.0028892527 -0.0042776023 -0.009034991 -0.009835615 -0.0041453824 -0.0044169496 0.003897404 -0.005507018
-0.0032960286 -0.0050276928 0.003436451 -0.0040926575 -0.004690448 -0.0051791565 -0.0036642835 0.0033322892
00000000: 324d 803b b2d3 91bb 0528 93bb 3212 673a
00000010: a38e 513b 878e b7bb 6770 803b 034f 8ebb
00000020: 3e2b fbba 2513 b13b 9488 96bb 398a 7a3b
00000030: c472 3abc ea98 abbc ff97 333b 17d9 b2bb
00000040: e3d7 a3bb e33f b4bb 07e1 74bb 213d 6cbb
00000050: 7d9d a1bb a630 28bc 5370 e23a b114 00bc
00000060: 15d8 6d3b 40f3 b4bb 2aac 8cbb 294b abba
00000070: 5d85 133c db35 5a3b bdcc b3bb 0916 943b
00000080: cd6c 863b 471a 6c3b e331 833b cdaf 5bbb
00000090: fbda 97bb 70dc 96bb 2efd 25bc 6bf8 3e3b
000000a0: 5626 6a3b 14a4 813b 92fe a9bb f164 043b
000000b0: 0104 00bc b332 0bbc 19e5 abbb e128 7f3b
000000c0: ead8 94bb 8cad 81bb 4b05 7d3b dc87 6c3b
000000d0: 06e7 34bc 227a 06bb 7321 153c 461a 873b
000000e0: 8352 24bc f4a4 803b 0e20 853b 947e 8abb
000000f0: 9aeb 6f3b 1311 753b f223 803b c08f 98bb
00000100: b4fb 33bc 9142 873b 417e 873b 3ba6 3fbc
00000110: 7966 9bbb ea06 a3bb ad63 213b 6673 a5bb
00000120: 3d66 513b 1f99 463b 2ef6 563b 4ebf 84bb
00000130: 21fb 85bb b720 2c3b 2924 2c3b 7cba 07bb
00000140: 93c3 153b 846f 363b d915 86bb a9c8 5d3b
00000150: e43e 2aba c17b 61bb dacd 733b d1cc 333b
00000160: 1c69 473b 40e6 8e3b c62c 833b 6859 63bb
00000170: 7503 8dbb 41e8 ca3a a692 9abb 47f4 82bb
00000180: ae5c aebb 74d7 793b 6fef 9ebb 589a 533b
00000190: 3a7c 793b 7d6e 12bc 2d66 45bc 5224 6a3b
000001a0: 31f3 88bb bd78 7e3b 7b25 e33b 6c3c 24bc
000001b0: 58cd 9abb feaa 45bb ee37 0b3a 6ae1 a7bb
000001c0: 9e59 3d3b 212b 8cbb 8007 14bc 8f25 21bc
000001d0: fdd5 87bb 0fbc 90bb 976b 7f3b 3774 b4bb
000001e0: 2f02 58bb 58bf a4bb 1536 613b b31b 86bb
000001f0: 54b2 99bb eab5 a9bb 7a24 70bb 8962 5a3b

action_model._continuous_distribution.mu.weight f4 [1, 128]
-0.05298494 0.029102255 0.011633745 0.006838617 -0.0077337553 0.00495779 -0.009790688 7.732318e-05
0.0060576876 -0.0022830176 0.008371821 -0.019519148 0.010138863 0.010395356 -0.010192879 0.00011796259
0.006360175 0.0018356282 0.01576075 0.010097117 0.01605943 0.022206645 -0.005088742 0.04093931
-0.016574249 0.010528304 0.02991718 0.0031381089 -0.030327763 -0.011584317 0.0022381889 -0.017889893
-0.018668912 -0.012714321 -0.011585365 0.027908016 0.0060110576 0.041890103 0.004495286 -0.0037398112
-0.011890261 -0.017476598 0.003737229 -0.0017669396 0.004505792 0.029585587 0.013411972 -0.021302395
0.03155269 0.02159886 -0.027447749 -0.014556977 0.029404351 0.00091675646 -0.0063725756 -0.049537227
0.01916824 -0.008155029 -0.011883277 0.0071937954 -0.023106478 -0.026193198 -0.0060677305 0.0034626862
0.0072332174 -0.010147748 -0.020055702 0.061353393 0.021452006 0.008241604 -0.009001185 0.054149818
-0.0052468358 -0.004551962 -0.0042108125 0.00767667 0.006445797 -0.036400843 0.00070157537 0.0013735448
-0.022500152 -0.005167636 0.008897209 -0.023248354 0.0046232874 0.017286412 -0.012466048 -0.0045290687
-0.00473837 -0.021755377 -0.028508453 0.010305517 0.02521293 -0.0023893435 0.009446182 0.019283112
0.007757762 -0.02862366 0.010739306 -0.0032559491 -0.013952832 0.016655674 0.013492386 -0.004504815
0.017590802 -0.024109814 -0.004140457 0.01814146 0.011098466 0.00032707799 -0.00068026327 0.0038809308
-0.016861295 0.006972098 0.0010255079 0.005409346 0.009414015 0.014207948 -0.04484565 0.0043960214
0.018616367 0.014932661 -0.011033372 0.0057481574 0.0057082726 0.0052178013 0.022866346 -0.006653878
00000000: bd06 59bd da67 ee3c 779b 3e3c 7a16 e03b
00000010: 716b fdbb f574 a23b 1f69 20bc 9128 a238
00000020: 917f c63b ae9e 15bb f629 093c 9fe6 9fbc
00000030: 791d 263c 4951 2a3c 0800 27bc af62 f738
00000040: 0469 d03b 7699 f03a b01c 813c 616e 253c
00000050: 118f 833c b6ea b53c 76bf a6bb faaf 273d
00000060: b8c6 87bc e87e 2c3c e014 f53c bba8 4d3b
00000070: ee71 f8bc 26cc 3dbc 94ae 123b d38d 92bc
00000080: 8cef 98bc ba4f 50bc 8bd0 3dbc 5a9f e43c
00000090: 68f8 c43b f594 2b3d 314d 933b 9f17 75bb
000000a0: 5fcf 42bc 152b 8fbc 4cec 743b a898 e7ba
000000b0: 53a5 933b 795d f23c e3bd 5b3c 5c82 aebc
000000c0: 653d 013d 18f0 b03c 1ada e0bc 6380 6ebc
000000d0: 65e1 f03c 7c52 703a 0ad1 d0bb 8ce7 4abd
000000e0: b606 9d3c ac9c 05bc 14b2 42bc eeb9 eb3b
000000f0: cc49 bdbc 1e93 d6bc d0d3 c6bb 3cee 623b
00000100: a004 ed3b bd42 26bc db4b a4bc b24d 7b3d
00000110: 1ebc af3c cb07 073c b579 13bc 33cc 5d3d
00000120: a6ed abbb a028 95bb dbfa 89bb 938c fb3b
00000130: 4437 d33b 0d19 15bd ede9 373a 8408 b43a
00000140: 3d52 b8bc 4655 a9bb 99c5 113c 5573 bebc
00000150: f27e 973b 3c9c 8d3c 653e 4cbc 9568 94bb
00000160: 5444 9bbb 5538 b2bc 8f8a e9bc 79d8 283c
00000170: 598b ce3c 8896 1cbb 29c4 1a3c 9ef7 9d3c
00000180: d334 fe3b 2a7c eabc eaf3 2f3c c361 55bb
00000190: 6b9a 64bc 7b71 883c 2b0f 5d3c 219d 93bb
000001a0: 961a 903c f281 c5bc acac 87bb 669d 943c
000001b0: 57d6 353c aa7b ab39 b253 32ba 3757 7e3b
000001c0: b320 8abc 3276 e43b 566a 863a e240 b13b
000001d0: 3e3d 1a3c 74c8 683c 13b0 37bd 800c 903b
000001e0: 5a81 983c 1fa8 743c 51c5 34bc 0a5b bc3b
000001f0: 760c bb3b 17fa aa3b 3452 bb3c c608 dabb

action_model._discrete_distribution.branches.0.weight f4 [1, 128]
-0.005984634 0.004809203 -0.0019928035 -0.006536547 0.0058130655 0.008585265 0.012646171 0.008993757
0.0069468166 -0.007102363 0.009281532 -0.010194355 0.0013615877 -0.0055125696 -0.006834712 -0.0053046984
-0.0073075294 -0.014749423 0.008173211 -0.0087849265 -0.0057601943 0.008318951 0.0017552114 -0.0069565573
-0.011602602 -0.0030860396 0.0016362306 0.0109973205 -0.0021823435 0.0087500615 0.027372554 0.0105174845
0.0028663971 -0.010213121 0.0040105497 0.0032299932 0.0054030796 0.010743981 0.0061417436 0.0032794715
0.005521217 -0.011519516 -0.00062295585 0.003204311 -0.013426694 -0.0072056525 0.005532346 -0.002926915
-0.013421777 0.0076219267 0.0019469958 0.0046262695 0.017258862 -0.0021499621 0.010794324 -0.011066098
0.00887661 -0.005098484 0.0070767747 -0.012491909 6.513365e-05 0.003052206 0.005014941 0.0022583941
-0.006947998 0.006230505 0.01729148 0.015762229 -0.0039134077 -0.0062655094 0.016251825 0.002060436
-0.0053473837 -0.013009982 0.0152429985 0.01798228 -0.017070096 0.019639565 -0.00704263 0.007029546
-0.010621703 0.0038821173 0.028091354 0.0061934586 -0.00904087 0.01241048 0.0044447556 0.009183289
-0.003023477 0.0030121878 0.016624738 -0.0023699787 0.0018637851 0.0041888556 -0.0028614905 -0.0023450495
-0.0035433036 -0.0040320745 0.011155981 0.009476594 -0.0022877115 -0.01059284 -0.003790369 -0.016896293
0.013981881 0.00899597 0.0030499923 -0.005021719 0.006418941 0.006350573 -0.0057061343 0.012556329
0.0040601427 -0.0030183578 0.013756323 -0.00612296 0.0014163543 -0.013926144 -0.0077957707 0.010643049
0.012601393 -0.0044302754 -0.0035562948 0.0044596135 0.0048764367 0.0020667743 0.002610673 0.00066574174
00000000: c01a c4bb 8596 9d3b b299 02bb 8830 d6bb
00000010: 877b be3b 36a9 0c3c e331 4f3c 8d5a 133c
00000020: 1fa2 e33b f0ba e8bb 9111 183c 3906 27bc
00000030: 4d77 b23a c9a2 b4bb b8f5 dfbb 09d3 adbb
00000040: 0074 efbb 90a7 71bc eee8 053c a7ee 0fbc
00000050: 03c0 bcbb 364c 083c 1f0f e63a d5f3 e3bb
00000060: d718 3ebc 273f 4abb ca76 d63a 1b2e 343c
00000070: a605 0fbb 6b5c 0f3c 683c e03c 8751 2c3c
00000080: 2ada 3b3b ef54 27bc ee6a 833b 4bae 533b
00000090: 510c b13b 8607 303c ae40 c93b 67ec 563b
000000a0: 53eb b43b 5abc 3cbc dc4d 23ba 6bff 513b
000000b0: a3fb 5bbc 651d ecbb af48 b53b 7cd1 3fbb
000000c0: 03e7 5bbc 5bc1 f93b 5732 ff3a f697 973b
000000d0: 7562 8d3c 61e6 0cbb adda 303c 944e 35bc
000000e0: 336f 113c 2f11 a7bb 4ae4 e73b ddaa 4cbc
000000f0: 5d98 8838 8507 483b 6054 a43b 9101 143b
00000100: 08ac e3bb 4429 cc3b dda6 8d3c ca1f 813c
00000110: 0b3c 80bb e74e cdbb 8c22 853c 6108 073b
00000120: 1b39 afbb d227 55bc c5bd 793c 934f 933c
00000130: 96d6 8bbc 27e3 a03c ddc5 e6bb 1b58 e63b
00000140: a706 2ebc 1f6b 7e3b d71f e63c 7ff2 ca3b
00000150: 2820 14bc 5355 4b3c 50a5 913b 8175 163c
00000160: 8725 46bb 2068 453b 9a30 883c a551 1bbb
00000170: 404a f43a ab42 893b d887 3bbb 67af 19bb
00000180: c536 68bb 7e1f 84bb 93c7 363c b743 1b3c
00000190: 6eed 15bb 978d 2dbc d767 78bb 186a 8abc
000001a0: 4214 653c d563 133c 61e2 473b 3b8d a4bb
000001b0: fb55 d23b 7818 d03b 86fa babb 10b9 4d3c
000001c0: f20a 853b a4cf 45bb 3362 613c 1ca3 c8bb
000001d0: f7a4 b93a 7b2a 64bc aa73 ffbb 2f60 2e3c
000001e0: 1376 4e3c d82b 91bb ba10 69bb f321 923b
000001f0: 84ca 9f3b b872 073b d317 2b3b 2c85 2e3a

exp_avg f4 [128, 1]
0.000957738 0.0002424373 -6.0074774e-05 -0.0004795057 -5.477132e-05 0.0001543237 -7.360817e-05 -0.0013629524
-0.00029972033 0.0002751028 0.0012084009 0.0013513834 -0.0003662581 -0.00012875328 0.0015064569 -2.5485391e-05
0.00067372364 -2.744485e-05 -0.00012009121 2.6180043e-05 0.0015535364 -0.002088979 -0.0011870255 -0.0004247488
-1.0416996e-05 -7.478588e-05 -0.000104700346 -0.0014828627 0.00020366051 -0.0001633301 0.0018631392 0.0006089697
-0.00074920454 2.3920202e-05 4.6771645e-05 -0.0014606317 0.0008144882 0.0001629903 -0.0008450373 -0.00034388466
1.5071049e-05 -0.00028234816 -0.00012952906 0.00056895334 -5.318783e-06 -0.00018166291 0.00040450937 -0.0019077541
-0.00080646307 1.7022485e-05 -0.00031035507 -2.9099538e-06 1.9845622e-05 -8.258128e-06 -4.7000238e-05 -0.0017951268
-0.00072961877 -0.0003052438 0.0010455668 2.267401e-05 -0.00078239164 -5.8725855e-06 -1.8629817e-05 4.009667e-05
-0.000113441085 5.51102e-05 -0.0001035911 -0.00046745688 -0.0008906407 -2.8172482e-05 -6.5957836e-05 -6.9343885e-05
-1.5227877e-05 -2.6779533e-05 -0.00044162985 -1.5859601e-05 0.00016976726 -9.343418e-05 0.0013945682 -3.5386474e-05
-7.515578e-05 -5.6522716e-05 -0.0010859108 0.0013681607 -1.2027485e-05 1.04295095e-05 6.912982e-05 -7.999387e-05
-2.6366797e-05 1.1091055e-05 0.0001740749 -0.0008410518 -1.2776523e-05 4.2934564e-05 -0.0010476889 -0.0012752828
-0.0011830556 7.0389324e-05 0.0013559697 5.338123e-05 -0.0001467838 -1.7844759e-05 -0.0007553173 -3.1337055e-05
-6.575514e-06 0.00047821237 -0.00065010623 -0.0008083168 0.0005429607 -0.00057682995 5.1028037e-05 1.0719134e-05
9.0281676e-05 -1.6126201e-05 -5.2063846e-05 0.0006385687 -5.475375e-05 9.953948e-05 2.713688e-06 -0.0011762134
7.907679e-05 0.0008093872 2.984205e-06 -0.0005961577 5.5077544e-07 -5.954127e-06 -0.0021055425 -0.00046134525
00000000: b610 7b3a c436 7e39 ccf8 7bb8 2a66 fbb9
00000010: 42ba 65b8 f4d1 2139 165e 9ab8 18a5 b2ba
00000020: c823 9db9 ac3b 9039 3563 9e3a e720 b13a
00000030: 5406 c0b9 f201 07b9 4e74 c53a 76c9 d5b7
00000040: d49c 303a 5e39 e6b7 7ad9 fbb8 379d db37
00000050: 08a0 cb3a 40e7 08bb f795 9bba d2b0 deb9
00000060: a8c4 2eb7 5dd6 9cb8 9292 dbb8 9e5c c2ba
00000070: b48d 5539 9743 2bb9 9434 f43a 44a3 1f3a
00000080: 4466 44ba 3ea8 c837 ac2c 4438 ab72 bfba
00000090: 6183 553a 60e8 2a39 7e85 5dba 6b4b b4b9
000000a0: aad9 7c37 2108 94b9 31d2 07b9 d025 153a
000000b0: 0078 b2b6 c47c 3eb9 5414 d439 9b0d faba
000000c0: d268 53ba 82cb 8e37 27b7 a2b9 a048 43b6
000000d0: 267a a637 648c 0ab7 1f22 45b8 764a ebba
000000e0: e343 3fba 2109 a0b9 660b 893a 1134 be37
000000f0: 6a19 4dba 200d c5b6 3a47 9cb7 792d 2838
00000100: 38e7 edb8 2026 6738 0c3f d9b8 0015 f5b9
00000110: e379 69ba f253 ecb7 d852 8ab8 b76c 91b8
00000120: 3c7b 7fb7 9ca4 e0b7 8e8a e7b9 3c0a 85b7
00000130: 8d03 3239 18f2 c3b8 f2c9 b63a f06b 14b8
00000140: f49c 9db8 ce12 6db8 1f55 8eba db53 b33a
00000150: a8c9 49b7 67fa 2e37 caf9 9038 62c2 a7b8
00000160: 442e ddb7 b813 3a37 e087 3639 087a 5cba
00000170: c05a 56b7 a314 3438 9b52 89ba 6427 a7ba
00000180: c210 9bba fb9d 9338 cbba b13a a9e5 5f38
00000190: fae9 19b9 54b1 95b7 7c00 46ba e86f 03b8
000001a0: 3ca3 dcb6 94b8 fa39 e46b 2aba 39e5 53ba
000001b0: 7a55 0e3a 6736 17ba f006 5638 54d6 3337
000001c0: 9b55 bd38 c146 87b7 215f 5ab8 9f65 273a
000001d0: 64a7 65b8 dabf d038 ce1c 3636 2c2b 9aba
000001e0: 07d6 a538 0e2d 543a 4044 4836 7747 1cba
000001f0: 00d9 1335 90c9 c7b6 24fd 09bb b6e0 f1b9

exp_avg_sq f4 [128, 1]
2.9184333e-05 1.0913433e-06 2.5738247e-08 4.777322e-06 1.7545362e-05 1.2444673e-06 2.0723923e-05 3.7895e-05
1.8055949e-06 3.1920727e-06 3.937001e-05 4.2435368e-05 3.6666736e-06 2.8677562e-07 4.305711e-05 2.5998402e-06
9.117341e-06 7.075136e-07 7.77448e-06 1.3911972e-06 5.157874e-05 9.696127e-05 3.0277086e-05 5.767819e-06
6.77264e-06 1.1810848e-06 8.215997e-06 5.6441968e-05 5.8735935e-07 3.6883903e-05 8.7768654e-05 1.0321316e-05
9.57002e-06 3.1506693e-06 2.6782794e-07 4.9854138e-05 1.6875125e-05 1.2697328e-05 1.9766905e-05 8.620799e-06
1.5464705e-06 8.3721704e-07 2.4478302e-05 5.361813e-06 2.2798024e-05 2.3100633e-06 3.5212322e-06 8.307389e-05
1.7712367e-05 7.346483e-06 2.7295764e-06 9.116912e-07 5.213627e-07 6.5185345e-06 1.8794e-06 7.1843955e-05
1.1936984e-05 3.5039554e-06 2.3935236e-05 9.2055313e-07 1.46928105e-05 3.5638682e-06 5.37231e-08 6.566417e-07
1.9526538e-05 1.193648e-05 3.6389583e-06 5.508105e-06 1.729509e-05 4.4150042e-06 1.8520188e-06 9.091362e-06
1.2911521e-06 9.399022e-06 6.060536e-06 2.1958154e-07 1.0434502e-06 9.256223e-06 4.576154e-05 1.05273375e-05
5.67149e-06 1.5910975e-06 2.7756218e-05 6.0746486e-05 1.3378539e-05 3.939936e-08 1.518428e-05 2.1804362e-06
2.8422394e-06 1.4737739e-05 1.315582e-06 1.4938704e-05 6.053554e-06 1.931145e-06 3.0223997e-05 3.688592e-05
3.9991613e-05 1.2414274e-05 3.692227e-05 3.3462927e-06 2.1318638e-06 7.7649365e-06 1.5546897e-05 1.0522956e-06
1.0487086e-06 3.9134147e-06 1.2527377e-05 1.6134545e-05 5.5719534e-06 6.2513436e-06 3.4839178e-07 2.5684208e-06
1.1797215e-05 5.236576e-07 7.6731953e-07 9.063951e-06 1.5066966e-05 3.9546103e-06 1.727057e-08 3.504174e-05
2.1372509e-05 1.6184746e-05 1.982698e-06 8.259219e-06 2.5320105e-07 2.0549558e-06 0.00011059177 7.699202e-06
00000000: e1d0 f437 457a 9235 0117 dd32 e24c a036
00000010: 612e 9337 9207 a735 49d8 ad37 72f1 1e38
00000020: c557 f235 6437 5636 3a21 2538 a1fc 3138
00000030: f910 7636 24f6 9934 3898 3438 ea78 2e36
00000040: aef6 1837 f7eb 3d35 236f 0237 2cb9 ba35
00000050: 4056 5838 af57 cb38 8cfb fd37 3089 c136
00000060: 8940 e336 c485 9e35 70d7 0937 1abc 6c38
00000070: 07ab 1d35 cab3 1a38 7010 b838 b729 2d37
00000080: ec8e 2037 1670 5336 fec9 8f34 791a 5138
00000090: 0e8f 8d37 9c06 5537 1bd1 a537 0da2 1037
000000a0: 5290 cf35 1ebd 6035 c156 cd37 9fe9 b336
000000b0: 623e bf37 9606 1b36 4f4e 6c36 f537 ae38
000000c0: 0595 9437 cf81 f636 c42d 3736 f1ba 7435
000000d0: c6f3 0b35 c9b9 da36 b13f fc35 eeaa 9638
000000e0: f544 4837 7f25 6b36 87c8 c837 ee1b 7735
000000f0: 2481 7637 ca2a 6f36 2cbd 6633 1344 3035
00000100: eccc a337 cb42 4837 d434 7436 43d2 b836
00000110: ec14 9137 9924 9436 e292 f835 1a87 1837
00000120: a64b ad35 7eb0 1d37 9c5b cb36 1dc6 6b34
00000130: ad0c 8c35 2d4b 1b37 14f0 3f38 929e 3037
00000140: ba4d be36 b28d d535 06d6 e837 0bca 7e38
00000150: 6374 6037 0e38 2933 fcbf 7e37 9c53 1236
00000160: 4dbd 3e36 1b42 7737 0e93 b035 3fa1 7a37
00000170: a21f cb36 d298 0136 8a89 fd37 f4b5 1a38
00000180: abbc 2738 e746 5037 fcdc 1a38 df90 6036
00000190: 2411 0f36 2646 0237 b56a 8237 9a3c 8d35
000001a0: 5ac1 8c35 fa4f 8336 ad2c 5237 ac58 8737
000001b0: b7f6 ba36 a2c2 d136 9a0a bb34 225d 2c36
000001c0: a7ec 4537 7a91 0c35 ccf9 4d35 6011 1837
000001d0: 20c8 7c37 d8b1 8436 635a 9432 c8f9 1238
000001e0: 1d49 b337 7ac4 8737 7e0e 0536 1391 0a37
000001f0: b0ef 8734 dfe7 0936 81ed e738 d22b 0137

exp_avg f4 [128]
6.725235e-05 1.5384472e-05 -3.487312e-06 -2.8265267e-05 -2.400889e-05 6.9412963e-06 -2.6368718e-05 -7.658599e-05
-2.7055234e-05 1.3644294e-05 7.91979e-05 6.9581554e-05 -2.0143234e-05 -2.7833853e-06 8.5682346e-05 1.3453044e-05
3.1474327e-05 -9.871578e-07 -1.628998e-05 -6.661975e-06 8.669847e-05 -0.00010830111 -7.6595854e-05 -2.8612867e-05
2.2498903e-05 -8.840887e-06 -1.6943239e-05 -8.609243e-05 1.4790879e-05 -2.7869297e-05 0.00011842939 3.3104716e-05
-3.9932438e-05 1.2429502e-05 -4.0251493e-06 -8.349134e-05 4.9893395e-05 1.1617438e-05 -5.3382617e-05 -3.6461355e-05
-8.767328e-06 -1.6501825e-05 -2.1235668e-05 2.5929585e-05 -3.897456e-05 -1.5004262e-05 2.2769584e-05 -0.00012108993
-4.875537e-05 1.9347204e-05 -1.4931878e-05 4.128293e-06 5.3227363e-06 -1.3634329e-05 -1.1607093e-05 -0.00010552193
-4.8454414e-05 -1.4698975e-05 6.683742e-05 -9.487753e-06 -4.397316e-05 -1.854979e-05 1.4055527e-06 2.84202e-06
-3.226128e-05 1.8355871e-05 -1.3399418e-05 -2.6206086e-05 -5.873831e-05 -1.1194218e-05 -4.0944387e-06 -1.9142633e-05
-1.0373897e-05 -1.92991e-05 -2.9526222e-05 4.272224e-06 1.5635454e-05 1.6587703e-05 7.179686e-05 -2.6727688e-05
-1.0166896e-05 -1.7158447e-05 -6.331937e-05 8.63809e-05 -2.427255e-05 4.778708e-07 2.0240832e-05 -4.585038e-06
-9.329753e-06 2.420445e-05 7.3032716e-06 -4.3482098e-05 1.7461383e-05 9.18435e-06 -7.54519e-05 -8.334865e-05
-7.036232e-05 2.3199775e-05 8.317929e-05 1.5048782e-05 -1.2733996e-05 -1.7393671e-05 -4.1784704e-05 -1.4895321e-06
5.892712e-06 2.8509878e-05 -4.4171105e-05 -4.767774e-05 3.5734643e-05 -3.086859e-05 3.420172e-06 -1.5677153e-05
1.892584e-05 1.9200236e-06 -3.0652586e-06 3.947728e-05 -2.3874663e-05 5.9892955e-06 5.0796837e-07 -5.6483666e-05
3.231142e-05 4.8367772e-05 -6.2728236e-06 -3.4861696e-05 2.5635654e-06 -4.4892645e-06 -0.00010862837 -3.4306293e-05
00000000: d509 8d38 e70d 8137 9007 6ab6 331b edb7
00000010: b366 c9b7 48e9 e836 6432 ddb7 ca9c a0b8
00000020: acf4 e2b7 cce9 6437 0c17 a638 50ec 9138
00000030: 44f9 a8b7 32ca 3ab6 5cb0 b338 62b4 6137
00000040: 4d03 0438 7c7e 84b5 77a6 88b7 ee89 dfb6
00000050: e3d1 b538 b71f e3b8 16a2 a0b8 aa05 f0b7
00000060: 07bc bc37 5253 14b7 5421 8eb7 858c b4b8
00000070: 5726 7837 dcc8 e9b7 4b5d f838 ebd9 0a38
00000080: 217d 27b8 4e88 5037 c50f 87b6 1218 afb8
00000090: a044 5138 84e8 4237 26e7 5fb8 15ee 18b8
000000a0: 6317 13b7 666d 8ab7 4023 b2b7 5c83 d937
000000b0: 9d78 23b8 d1ba 7bb7 4f01 bf37 a9f1 fdb8
000000c0: ae7e 4cb8 ce4b a237 ed83 7ab7 c485 8a36
000000d0: f599 b236 ffbe 64b7 16bc 42b7 a84b ddb8
000000e0: 883b 4bb8 9e9b 76b7 112b 8c38 972d 1fb7
000000f0: d26f 38b8 5f9b 9bb7 6ca6 bc35 88b9 3e36
00000100: 4950 07b8 effa 9937 10ce 60b7 24d5 dbb7
00000110: c85d 76b8 cdce 3bb7 f662 89b6 7e94 a0b7
00000120: 8c0b 2eb7 80e4 a1b7 14af f7b7 205a 8f36
00000130: e228 8337 d225 8b37 a591 9638 4635 e0b7
00000140: 7c92 2ab7 7cef 8fb7 54ca 84b8 6427 b538
00000150: e79c cbb7 0847 0035 dbca a937 2dd9 99b6
00000160: fc86 1cb7 a90a cb37 a00e f536 8c60 36b8
00000170: 097a 9237 7c16 1a37 ee3b 9eb8 77cb aeb8
00000180: 7c8f 93b8 239d c237 8b70 ae38 077a 7c37
00000190: 19a4 55b7 a0e8 91b7 fc41 2fb8 efeb c7b5
000001a0: 03ba c536 7f28 ef37 5d44 39b8 95f9 47b8
000001b0: c8e1 1538 e578 01b8 1c86 6536 6e82 83b7
000001c0: efc2 9e37 c1d9 0036 beb4 4db6 6894 2538
000001d0: 7346 c8b7 a8f7 c836 525b 0835 e0e8 6cb8
000001e0: 1f86 0738 80de 4a38 257b d2b6 7638 12b8
000001f0: b809 2c36 7da2 96b6 69cf e3b8 1ae4 0fb8

exp_avg_sq f4 [128]
4.1706894e-08 1.7419679e-09 1.3965552e-10 7.611918e-09 3.525517e-08 1.9643385e-09 4.0013138e-08 5.8407856e-08
3.1066314e-09 4.8580966e-09 5.8331793e-08 6.603774e-08 5.4286518e-09 1.0376228e-09 6.8030495e-08 5.836381e-09
1.3942934e-08 1.5198716e-09 1.4255452e-08 3.5019507e-09 8.320305e-08 1.4711149e-07 4.838453e-08 8.405963e-09
1.4362671e-08 1.5109919e-09 1.6331356e-08 8.2148794e-08 1.0425313e-09 6.545587e-08 1.3030561e-07 1.4482198e-08
1.5303515e-08 6.0494307e-09 4.9724186e-10 7.711003e-08 2.5952392e-08 2.1101744e-08 3.0545227e-08 1.1419055e-08
3.5539391e-09 1.5233109e-09 5.0965074e-08 9.079845e-09 4.5529948e-08 2.9586358e-09 5.1019042e-09 1.2388931e-07
2.6036295e-08 1.4693497e-08 3.528005e-09 1.7542264e-09 1.2906456e-09 1.3087062e-08 3.7490113e-09 1.130911e-07
1.85869e-08 4.965268e-09 3.617613e-08 2.1236284e-09 2.2222865e-08 7.215269e-09 1.6167373e-10 1.0518107e-09
3.7640486e-08 2.3652015e-08 6.9064408e-09 7.534509e-09 2.7321303e-08 9.221679e-09 3.4732883e-09 1.7377008e-08
2.6368183e-09 2.0216946e-08 8.46365e-09 5.652546e-10 1.5049821e-09 1.7116488e-08 6.371379e-08 2.1295696e-08
1.1710551e-08 2.9703e-09 4.3935167e-08 8.0035086e-08 2.6798272e-08 1.5952349e-10 3.0830666e-08 4.159462e-09
5.9975647e-09 3.047643e-08 1.9908701e-09 2.1660727e-08 1.23398936e-08 4.0714165e-09 4.46986e-08 5.550719e-08
5.9414244e-08 2.3992815e-08 5.7402087e-08 6.459576e-09 3.035526e-09 1.4193371e-08 2.2410758e-08 2.0310682e-09
2.2186422e-09 5.9289245e-09 1.9532365e-08 2.5674959e-08 7.839568e-09 1.0129208e-08 6.847764e-10 5.44414e-09
2.2671255e-08 1.5782369e-09 2.3063516e-09 1.373877e-08 3.0190677e-08 8.392165e-09 5.715006e-11 5.1909574e-08
4.2730314e-08 2.3630095e-08 4.1821036e-09 1.2651151e-08 1.401649e-09 4.30497e-09 1.4956802e-07 1.0791725e-08
00000000: 3721 3333 0c6a ef30 898d 192f 92c5 0232
00000010: 786b 1733 02fd 0631 e9da 2b33 1edc 7a33
00000020: 707c 5531 45ec a631 7c88 7a33 a2d0 8d33
00000030: ed86 ba31 1b9c 8e30 2918 9233 5a89 c831
00000040: ac89 6f32 bae3 d030 24e8 7432 f8a6 7031
00000050: 5cad b233 b3f5 1d34 5acf 4f33 d169 1032
00000060: b2bf 7632 4dab cf30 0849 8c32 c769 b033
00000070: cf48 8f30 bf90 8c33 22ea 0b34 61cd 7832
00000080: c974 8332 5bdb cf31 49ae 0830 b097 a533
00000090: eaed de32 3a43 b532 d530 0333 892d 4432
000000a0: 8f39 7431 bd5c d130 b1e4 5a33 95fd 1b32
000000b0: b58c 4333 df50 4b31 d34c af31 6f06 0534
000000c0: 6ba6 df32 af6e 7c32 5271 7231 5b19 f130
000000d0: 8e62 b130 82d5 6032 a7d0 8031 7ddc f233
000000e0: 06a9 9f32 f69a aa31 1360 1b33 44ef 1131
000000f0: 99e4 be32 2dea f731 1cc3 312f 4d8f 9030
00000100: 27aa 2133 552b cb32 b24d ed31 1f71 0132
00000110: 2eb0 ea32 606d 1e32 bcae 6e31 7244 9532
00000120: 6633 3531 89a9 ad32 8767 1132 4260 1b30
00000130: dad7 ce30 8e07 9332 07d3 8833 bbed b632
00000140: 8c2f 4932 121e 4c31 3ab3 3c33 c1df ab33
00000150: 0632 e632 df65 2f2f ad6a 0433 04eb 8e31
00000160: 2313 ce31 30e5 0233 c2cf 0831 7110 ba32
00000170: 6dff 5332 8fe4 8b31 a1fa 3f33 cd66 6e33
00000180: a72e 7f33 c218 ce32 438a 7633 08f3 dd31
00000190: 8a99 5031 1bd7 7332 c781 c032 ee92 0b31
000001a0: c476 1831 5fb7 cb31 20c8 a732 d58b dc32
000001b0: c9ae 0632 ba04 2e32 db3a 3c30 290f bb31
000001c0: 9ebe c232 46e9 d830 c47d 1e31 c007 6c32
000001d0: 00ab 0133 222d 1032 3f59 7b2e 2ef3 5e33
000001e0: 7a86 3733 21fb ca32 2cb2 8f31 5a58 5932
000001f0: 24a4 c030 ebea 9331 f298 2034 8266 3932

exp_avg f4 [128, 128]
-0.0066932435 -0.0010401704 -0.00050142827 -0.0004253438 6.991523e-06 -0.0019530093 1.9381734e-05 -0.0056104325
-0.0008859133 -0.0024676248 -0.0039716098 -0.00829406 -0.00054509874 -0.0027168938 -0.0005505523 1.9256902e-05
-0.0017749425 1.8355211e-05 1.4890321e-05 1.1793199e-05 -0.0015361465 -0.001077019 -0.003015578 -0.0020059603
7.73022e-06 -0.0025486683 3.9229355e-05 -0.00040930614 -0.0056139934 3.7634025e-05 -0.0068535767 -0.00072670326
-0.0022840702 1.9056351e-05 -0.007940398 -0.0024476154 -0.0076031648 4.811456e-05 -0.0036565752 -0.00012569566
1.6658232e-05 -0.0014419217 2.2140233e-05 -0.007499102 8.0590935e-06 -0.00014405817 -0.00440275 -0.009961715
-0.0030071486 1.9961999e-05 -0.00013512916 1.917854e-05 2.0018877e-05 1.9585354e-05 8.205603e-06 -0.0019761422
-0.0035456424 -0.006285862 -0.0053383806 1.9973917e-05 -0.004487647 2.0659818e-05 1.220997e-05 2.6749274e-05
1.1425288e-05 1.9967254e-05 2.7611379e-05 -0.0023937766 -0.0033580656 1.8139162e-05 1.8614577e-05 1.9776588e-05
1.6121881e-05 1.9328747e-05 -0.0016375033 1.1203657e-05 -0.0042476077 3.10917e-05 -0.0003540006 7.5233793e-06
1.8563533e-05 8.803004e-06 -0.0018550653 -5.8124828e-05 8.136697e-06 1.9192707e-05 1.9464878e-05 1.93009e-05
1.6652426e-05 1.9996967e-05 -0.0023799345 -0.0002758998 1.9055176e-05 1.8941635e-05 -0.009284217 -0.0052141566
-0.0024937857 1.9846626e-05 -0.0028560096 1.8864099e-05 -0.0002639597 3.0498835e-05 -0.0009706235 7.120306e-06
9.267764e-06 -0.0016182559 -0.0018579357 -0.0012708517 -0.0022553098 -0.0024447693 2.38419e-05 7.615019e-06
1.9203246e-05 1.7765626e-05 1.9498737e-05 -1.0936623e-05 1.3310576e-05 4.7379737e-05 2.0065952e-05 -0.0006245205
1.860008e-05 -0.0017465435 1.3785892e-05 -0.0017776364 4.8435686e-05 1.0294345e-05 -0.00023311679 -0.0026490816
-0.00020044405 -4.1810752e-05 -3.3875003e-05 -3.1517684e-05 -2.9897205e-05 -6.305879e-05 -6.5428e-05 -0.0001678958
-3.95713e-05 -7.7171935e-05 -0.000119811404 -0.00024861508 -3.489544e-05 -8.406706e-05 -3.5041994e-05 -0.0001558369
-5.83339e-05 -5.7931582e-05 -4.66482e-05 -4.0484563e-05 -5.2221898e-05 -4.2390406e-05 -9.2394475e-05 -6.444769e-05
-2.9324547e-05 -7.938351e-05 -2.4399495e-05 -3.0874617e-05 -0.00016832454 -2.5049872e-05 -0.00020526309 -3.7674094e-05
-7.203444e-05 -0.00013557327 -0.00023803869 -7.654428e-05 -0.0002278138 -1.1226179e-05 -0.000110619774 -1.0135567e-05
-5.1243012e-05 -4.987433e-05 -0.0002348143 -0.00022469008 -2.9106384e-05 -1.2116774e-05 -0.00013235773 -0.0002987381
-9.216809e-05 -8.4026324e-05 -1.1194321e-05 -0.00012209761 -7.873983e-05 -9.9339406e-05 -3.458419e-05 -6.362961e-05
-0.00010743735 -0.00018811351 -0.00015996405 -7.571567e-05 -0.00013472218 -2.8526749e-05 -2.8213792e-05 -2.7759233e-05
-3.9894563e-05 -7.553122e-05 -2.8010983e-05 -7.5063246e-05 -0.0001020761 -5.6944642e-05 -5.93569e-05 -9.152522e-05
-4.9709983e-05 -0.00010879632 -5.4716154e-05 -3.920465e-05 -0.00012786369 -2.7205762e-05 -2.8447805e-05 -2.9359799e-05
-5.9229467e-05 -3.557568e-05 -6.0386235e-05 -3.629654e-06 -3.4470584e-05 -0.00012813546 -0.00010589839 -0.000109273125
-5.1276e-05 -8.187696e-05 -7.475332e-05 -2.3546796e-05 -0.00013788784 -6.0745922e-05 -0.00027831848 -0.00015612027
-7.782412e-05 -7.11934e-05 -8.802313e-05 -6.0284496e-05 -2.2635979e-05 -2.7258302e-05 -4.072106e-05 -2.9930146e-05
-3.6093443e-05 -5.4282307e-05 -6.0474493e-05 -4.6080022e-05 -7.133363e-05 -7.6471704e-05 -1.157375e-06 -3.348774e-05
-6.289227e-05 -5.4769e-05 -6.697637e-05 -4.380085e-07 -2.8602979e-05 -1.6372222e-05 -7.376983e-05 -3.6300393e-05
-5.8728067e-05 -5.7583697e-05 -4.429956e-05 -5.8341233e-05 -1.3933404e-05 -3.8050326e-05 -2.0251886e-05 -8.214089e-05
00000000: ff52 dbbb 5456 88ba 4872 03ba ae00 dfb9
00000010: ba98 ea36 1efc ffba f595 a237 b8d7 b7bb
00000020: a33c 68ba e0b7 21bb 4724 82bb cfe3 07bc
00000030: f5e4 0eba ea0d 32bb f052 10ba e289 a137
00000040: 30a5 e8ba 84f9 9937 71d1 7937 67db 4537
00000050: 8658 c9ba c32a 8dba 01a1 45bb 6e76 03bb
00000060: 0bb1 0137 8f07 27bb 338a 2438 2498 d6b9
00000070: 97f5 b7bb 3ad9 1d38 f893 e0bb 3b80 3eba
00000080: 57b0 15bb 34db 9f37 7118 02bc 2c68 20bb
00000090: f823 f9bb 9ece 4938 27a3 6fbb 2ccd 03b9
000000a0: 48bd 8b37 ddfe bcba cab9 b937 07bb f5bb
000000b0: 8b35 0737 520e 17b9 f244 90bb 7636 23bc
000000c0: 9513 45bb 1174 a737 75b1 0db9 9ae1 a037
000000d0: 36ee a737 3a4b a437 ccaa 0937 2a82 01bb
000000e0: 025e 68bb a2f9 cdbb 95ed aebb a98d a737
000000f0: 1d0d 93bb 9f4e ad37 6cd9 4c37 a163 e037
00000100: 3daf 3f37 5a7f a737 fc9e e737 e8e0 1cbb
00000110: fe12 5cbb 8e29 9837 8026 9c37 e6e5 a537
00000120: 7a3d 8737 2b24 a237 7ea1 d6ba 57f7 3b37
00000130: 842f 8bbb 7568 0238 2899 b9b9 5671 fc36
00000140: e2b8 9b37 9db0 1337 aa25 f3ba 0fcb 73b8
00000150: d982 0837 0600 a137 8248 a337 5ee8 a137
00000160: d0b0 8b37 29bf a737 adf8 1bbb a5a6 90b9
00000170: aed8 9f37 dae4 9e37 d41c 18bc 84db aabb
00000180: c86e 23bb 4e7c a637 e42b 3bbb 583e 9e37
00000190: 1264 8ab9 c0d7 ff37 7171 7eba f6ea ee36
000001a0: be7c 1b37 a81b d4ba fa85 f3ba b592 a6ba
000001b0: d2cd 13bb 6c38 20bb 1700 c837 8484 ff36
000001c0: a816 a137 6407 9537 3891 a337 707c 37b7
000001d0: 7d50 5f37 9bb9 4638 4e53 a837 dcb6 23ba
000001e0: 5e07 9c37 46ec e4ba f549 6737 94ff e8ba
000001f0: 6c27 4b38 e0b5 2c37 d070 74b9 379c 2dbb
00000200: 4a2e 52b9 f45d 2fb8 0215 0eb8 db31 04b8
00000210: c2cb fab7 6e3e 84b8 6436 89b8 300d 30b9
00000220: 5cf9 25b8 5ed7 a1b8 4243 fbb8 8d58 82b9
00000230: b25c 12b8 294d b0b8 0efa 12b8 2668 23b9
00000240: 8cab 74b8 90fb 72b8 20a8 43b8 f8cd 29b8
00000250: d608 5bb8 5acc 31b8 e8c3 c1b8 1728 87b8
00000260: fcfd f5b7 b37a a6b8 84ad ccb7 5e7f 01b8
00000270: 4680 30b9 3122 d2b7 e43b 57b9 4004 1eb8
00000280: 3211 97b8 ac28 0eb9 069a 79b9 6686 a0b8
00000290: 4de1 6eb9 1258 3cb7 8afc e7b8 ee0b 2ab7
000002a0: c4ed 56b8 2730 51b8 7c38 76b9 c99a 6bb9
000002b0: 7c29 f4b7 2649 4bb7 82c9 0ab9 f39f 9cb9
000002c0: 5e4a c1b8 4a37 b0b8 3ecf 3bb7 5407 00b9
000002d0: 2021 a5b8 7054 d0b8 7e0e 11b8 e370 85b8
000002e0: fd4f e1b8 5640 45b9 06bc 27b9 8ac9 9eb8
000002f0: 3644 0db9 ba4c efb7 a8ac ecb7 80dc e8b7
00000300: 7654 27b8 8466 9eb8 21f9 eab7 466b 9db8
00000310: b011 d6b8 d8d7 6eb8 fcf5 78b8 3af1 bfb8
00000320: b07f 50b8 9429 e4b8 067f 65b8 ac6f 24b8
00000330: 2613 06b9 ee37 e4b7 32a3 eeb7 b049 f6b7
00000340: 286d 78b8 1837 15b8 3a47 7db8 fb94 73b6
00000350: 8294 10b8 1a5c 06b9 c415 deb8 9029 e5b8
00000360: 3011 57b8 5cb5 abb8 e2c4 9cb8 5c86 c5b7
00000370: fc95 10b9 70c9 7eb8 46eb 91b9 37b4 23b9
00000380: 8235 a3b8 aa4d 95b8 0f99 b8b8 fcd9 7cb8
00000390: 65e2 bdb7 c2a8 e4b7 e8cb 2ab8 8012 fbb7
000003a0: 0a63 17b8 2fad 63b8 fea5 7db8 0c46 41b8
000003b0: f398 95b8 6f5f a0b8 1a57 9bb5 3075 0cb8
000003c0: 08e5 83b8 c4b7 65b8 aa75 8cb8 6e27 ebb4
000003d0: 6ef0 efb7 1457 89b7 e0b4 9ab8 4041 18b8
000003e0: c852 76b8 0686 71b8 4ace 39b8 6cb3 74b8
000003f0: 84c3 69b7 3a98 1fb8 98e2 a9b7 0e43 acb8

exp_avg_sq f4 [128, 128]
0.0010395433 2.5341082e-05 6.3278744e-06 4.569167e-06 3.0191936e-09 8.9187386e-05 2.3016442e-09 0.00073101267
1.8432569e-05 0.00014222853 0.00036759276 0.001594741 7.341548e-06 0.00017337211 7.4965583e-06 7.785384e-09
7.3601565e-05 2.136402e-09 2.059408e-09 2.1544782e-09 5.5034245e-05 2.7044578e-05 0.00021238138 9.402694e-05
3.1936798e-09 0.0001523759 1.1490213e-08 4.2575584e-06 0.00073458295 1.0697846e-08 0.0010898378 1.2613079e-05
0.00012172013 6.1035017e-09 0.0014675282 0.0001398972 0.0013404735 2.5451708e-08 0.00031193614 4.546283e-07
2.0584905e-09 4.8003338e-05 1.6915155e-08 0.0013046577 3.2990246e-09 6.116928e-07 0.00045206456 0.0022983395
0.00021138125 2.9645257e-09 5.3932825e-07 5.1016285e-09 2.7636486e-09 3.7132455e-09 2.4091533e-09 9.110797e-05
0.00029319592 0.0009182045 0.00066276675 2.6202496e-09 0.0004689357 5.342568e-09 3.9699666e-09 6.5713532e-09
2.1718174e-09 2.6222198e-09 6.823208e-09 0.00013381803 0.00026310622 2.1211837e-09 2.1605457e-09 3.3089211e-09
2.0538415e-09 4.2576627e-09 6.25467e-05 2.1885056e-09 0.00042109605 7.855199e-09 3.276998e-06 3.181397e-09
2.1628015e-09 2.3442408e-09 8.031284e-05 8.784672e-08 2.4277658e-09 5.5458123e-09 4.079599e-09 4.2874926e-09
2.0603799e-09 2.8696474e-09 0.00013219535 2.0428877e-06 6.2783143e-09 2.1862843e-09 0.0019969845 0.0006319056
0.00014527387 2.4724784e-09 0.00019075946 2.1787927e-09 1.8954498e-06 7.7543385e-09 2.2088818e-05 3.0442568e-09
2.327556e-09 6.133136e-05 8.0644946e-05 3.7620823e-05 0.00011914987 0.00013975451 1.25226185e-08 2.5017002e-09
2.2371713e-09 2.094833e-09 2.3489115e-09 3.0995384e-09 4.1463752e-09 2.0005059e-08 2.5524194e-09 9.437941e-06
2.1490127e-09 7.1144816e-05 2.0855562e-09 7.366498e-05 2.4437051e-08 2.2411621e-09 1.4858415e-06 0.00016421378
1.1615928e-06 2.877198e-08 9.325446e-09 7.905902e-09 5.2052515e-06 9.923728e-08 4.944946e-05 8.1668173e-07
2.139298e-08 1.5841289e-07 4.10205e-07 1.7823057e-06 1.0181135e-08 1.9304092e-07 1.0301301e-08 0.00028766404
8.18984e-08 3.7691472e-05 2.251754e-05 1.5759084e-05 6.133068e-08 3.063469e-08 2.3673397e-07 1.04637074e-07
4.5177053e-06 1.6957301e-07 5.648989e-07 7.688764e-09 8.201868e-07 6.24112e-07 1.2178076e-06 1.5299952e-08
1.3556684e-07 0.00021893128 1.6390288e-06 1.5580372e-07 1.4980719e-06 1.1614812e-07 3.479802e-07 6.0056617e-09
2.817533e-05 5.3661736e-08 0.0006491228 1.4579126e-06 4.1896033e-06 6.2500294e-09 5.044807e-07 2.5692511e-06
2.3557695e-07 8.411733e-05 6.1623795e-09 0.00017748798 7.3888055e-05 0.000117840595 1.0022904e-05 1.01418365e-07
3.270902e-07 1.0256925e-06 7.401602e-07 6.7164896e-05 5.235132e-07 1.6511528e-06 2.8101995e-06 1.2016441e-06
1.5118694e-05 6.736552e-05 1.1429566e-06 1.4902699e-07 2.9343437e-07 3.6355665e-05 3.9716528e-05 9.9839286e-05
2.6047166e-05 0.0001414089 6.965996e-08 1.4560533e-05 4.6987682e-07 9.3609754e-07 7.0792896e-09 4.569342e-06
3.9844133e-05 1.1027487e-05 8.939014e-08 3.6000816e-09 9.764855e-06 0.00019545556 0.00013404644 0.00014269874
2.8485372e-05 7.962087e-05 1.4725639e-07 6.6187975e-09 0.00022618925 4.1937503e-05 2.2322258e-06 7.05811e-07
1.6179105e-07 5.947133e-05 2.1250813e-07 4.1358035e-05 6.5939005e-09 9.598768e-07 2.527727e-08 5.0971817e-06
1.1275826e-05 6.824245e-08 8.9754565e-08 4.2164785e-08 1.3256218e-07 1.5561608e-07 4.8358526e-09 8.858427e-06
4.5486195e-05 3.359991e-05 5.221408e-05 3.8843348e-10 2.575438e-06 2.3001185e-07 6.364218e-05 1.2152154e-08
3.9010363e-05 7.9201214e-08 1.939014e-05 8.20238e-08 1.414233e-07 1.31034485e-05 6.520801e-09 1.8288353e-07
00000000: 4941 883a 8f93 d437 0754 d436 d850 9936
00000010: 377a 4f31 1d0a bb38 f42a 1e31 6ea1 3f3a
00000020: a49f 9a37 2e23 1539 77b9 c039 a106 d13a
00000030: 6b57 f636 39cb 3539 f28a fb36 7bc0 0532
00000040: 8a5a 9a38 fbcf 1231 7d85 0d31 fb0d 1431
00000050: 92d4 6638 cadd e237 b1b2 5e39 5430 c538
00000060: cf77 5b31 18c7 1f39 7e66 4532 26dc 8e36
00000070: 0791 403a a0c9 3732 e3d8 8e3a c39c 5337
00000080: ff43 ff38 f8b6 d131 135a c03a 5eb1 1239
00000090: d4b2 af3a e6a0 da32 5c8b a339 a313 f434
000000a0: 5975 0d31 3157 4938 d24c 9132 0c01 ab3a
000000b0: 0eb5 6231 3633 2435 1403 ed39 bd9f 163b
000000c0: 39a6 5d39 7db8 4b31 5bc6 1035 664a af31
000000d0: 9fea 3d31 1b2c 7f31 468e 2531 3811 bf38
000000e0: 17b8 9939 a9b3 703a 86bd 2d3a eb0f 3431
000000f0: 7cdb f539 ba91 b731 3268 8831 3cca e131
00000100: 043f 1531 9432 3431 9371 ea31 8151 0c39
00000110: 85f1 8939 42c4 1131 b978 1431 2863 6331
00000120: 9023 0d31 cc4a 9231 812b 8338 9964 1631
00000130: 8ec6 dc39 88f3 0632 66ea 5b36 ba9f 5a31
00000140: 68a0 1431 5218 2131 a16d a838 3fa6 bc33
00000150: b5d5 2631 7b8d be31 882c 8c31 2f51 9331
00000160: 9696 0d31 5f33 4531 eb9d 0a39 8b18 0936
00000170: a3b8 d731 853d 1631 d7df 023b 78a6 253a
00000180: a854 1839 4de8 2931 9a06 4839 bab9 1531
00000190: 2967 fe35 f137 0532 604b b937 2233 5131
000001a0: ccf2 1f31 069f 8038 ed1f a938 0dcb 1d38
000001b0: 19e0 f938 118b 1239 0f23 5732 60ea 2b31
000001c0: bcbc 1931 b1f4 0f31 7d6a 2131 a8ff 5431
000001d0: e777 8e31 97d7 ab32 a366 2f31 a657 1e37
000001e0: d5ad 1331 9533 9538 7e51 0f31 967c 9a38
000001f0: a5e9 d132 f102 1a31 206d c735 cd30 2c39
00000200: 06e8 9b35 4126 f732 bf35 2032 86d2 0732
00000210: c5a8 ae36 461c d533 f467 4f38 f139 5b35
00000220: a9c3 b732 3418 2a34 253a dc34 8f37 ef35
00000230: 1be9 2e32 af46 4f34 9af9 3032 9dd1 9639
00000240: 1fe0 af33 e916 1e38 0de4 bc37 6032 8437
00000250: e6b4 8333 3393 0333 f030 7e34 d7b4 e033
00000260: cb96 9736 e013 3634 8fa3 1735 8b17 0432
00000270: cf2a 5c35 a688 2735 8d73 a335 f36c 8332
00000280: 5490 1134 eb90 6539 9afc db35 004b 2734
00000290: 5c11 c935 1b6d f933 09d2 ba34 5c5a ce31
000002a0: 0f5a ec37 b479 6633 e529 2a3a 7fad c335
000002b0: 6b94 8c36 d7bf d631 a66b 0735 666b 2c36
000002c0: e6f2 7c34 2668 b038 ddbc d331 111c 3a39
000002d0: 59f4 9a38 3021 f738 0b28 2837 56cb d933
000002e0: ef9a af34 87aa 8935 6caf 4635 e1da 8c38
000002f0: 8e87 0c35 2e9d dd35 dc96 3c36 2d48 a135
00000300: 4ca6 7d37 9746 8d38 b167 9935 3a04 2034
00000310: 5089 9d34 997c 1838 4c95 2638 cf60 d138
00000320: dd7f da37 2a47 1439 f897 9533 0349 7437
00000330: 6143 fc34 2248 7b35 173e f331 5952 9936
00000340: 501e 2738 b202 3937 c0f6 bf33 4e65 7731
00000350: bcd3 2337 34f3 4c39 d18e 0c39 67a1 1539
00000360: dff3 ee37 21fa a638 871d 1e34 8f6b e331
00000370: 372d 6d39 0de6 2f38 59cd 1536 f676 3d35
00000380: c9b8 2d34 db70 7938 ca2d 6434 da77 2d38
00000390: 9090 e231 1ed5 8035 4e21 d932 7508 ab36
000003a0: 4e2d 3d37 af8c 9233 18bf c033 ac18 3533
000003b0: 6a56 0e34 6c17 2734 9c28 a631 a79e 1437
000003c0: 6ec8 3e38 a1ed 0c38 7100 5b38 278b d52f
000003d0: b0d5 2c36 2df9 7634 a377 8538 bdc5 5032
000003e0: 0f9f 2338 5415 aa33 02a8 a237 1025 b033
000003f0: 24da 1734 e2d6 5b37 920d e031 a45e 4434
