results/TurnTest0/My Behavior/My Behavior-7424.pt (torch, 154558 bytes, 11 tensors)

network_body._body_endoder.seq_layers.0.weight f4 [128, 10]
0	0x3e87a38c	0.26491964
1	0xbd5471d3	-0.051866364
2	0x3eced3fb	0.40396103
3	0x3e11d08e	0.14239714
4	0x3c98c6c5	0.018649468
5	0xbeafedbf	-0.34361073
6	0x3ee33801	0.44378665
7	0x3e9bf0e2	0.30457217
8	0x3e19d616	0.15023074
9	0xbbaa99c2	-0.0052063176
10	0xbdd86350	-0.10565817
11	0xbce10113	-0.027466333
12	0x3e8236f0	0.2543254
13	0x3b4eed65	0.0031574604
14	0xbeee3c07	-0.46530172
15	0x3ed829bd	0.42219344
16	0x3e337818	0.17526281
17	0x3e0cd3ac	0.13752621
18	0xbe5e982e	-0.2173774
19	0xbe5939b4	-0.21213418
20	0xbf142809	-0.5787359
21	0x3d8b7320	0.06809068
22	0xbdee5328	-0.116369545
23	0x3ed20837	0.41021892
24	0xbd8acf68	-0.06777841
25	0xbda0494d	-0.07826481
26	0xbeea950d	-0.45816842
27	0x3f01bd64	0.5067961
28	0xbcb0643f	-0.021532176
29	0xbdaa8e4b	-0.083279215
30	0x3e9aafb4	0.30212176
31	0xbeccef8a	-0.40026504
32	0x3e3db54d	0.18526192
33	0x3e0540de	0.13013026
34	0xbdcdce8d	-0.10049162
35	0x3eb9452d	0.3618559
36	0x3ed3d514	0.41373503
37	0xbe0f44c6	-0.13991079
38	0xbef878ec	-0.48529756
39	0xbe297223	-0.16547446
40	0xbe90b67f	-0.28264233
41	0x3ee6982f	0.45037982
42	0xbd7afd2a	-0.061276592
43	0x3e3d459e	0.18483588
44	0xbe839843	-0.25702104
45	0x3e8e5ae3	0.27803716
46	0xbd34f2f6	-0.044177018
47	0x3e153834	0.14572221
48	0xbeb2280f	-0.34796187
49	0x3d2f15da	0.04274545
50	0x3e41c761	0.18923713
51	0xbf2a022f	-0.6640958
52	0xbea87083	-0.3289834
53	0x3c73387b	0.014845009
54	0xbea8f6c3	-0.33000764
55	0xbf2e230f	-0.68022245
56	0x3ec01013	0.37512264
57	0xbdbbca29	-0.09169418
58	0xbf1c314e	-0.61012733
59	0xbd7b370d	-0.061331797
60	0xbe9ccbe1	-0.30624297
61	0xbdfe583f	-0.12419175
62	0xbd05484e	-0.03253966
63	0x3de086ea	0.10963233
64	0xbeb11c2c	-0.34591806
65	0x3eac35bd	0.3363475
66	0xbc2db230	-0.010601565
67	0x3ed2d80d	0.4118046
68	0xbe53237e	-0.20619008
69	0x3e9e2775	0.30889478
70	0xbe8bf79f	-0.27337357
71	0x3db93958	0.090441406
72	0x3ec247fa	0.3794554
73	0xbe84459f	-0.25834367
74	0xbebde472	-0.37088352
75	0xbeac4077	-0.33642933
76	0xbebb6d35	-0.36606756
77	0xbeede315	-0.46462312
78	0x3eca4a38	0.3950975
79	0xbe40fcc1	-0.18846418
80	0xbeeb3a8c	-0.45943105
81	0xbee44b1f	-0.44588563
82	0xbdb495b4	-0.08817616
83	0x3ee03a93	0.4379469
84	0xbed76d39	-0.42075518
85	0xbe2ad9cc	-0.16684645
86	0xbd7509c3	-0.059823763
87	0x3e51bf35	0.20483096
88	0x3e331a5d	0.17490526
89	0xbd4d7433	-0.050159644
90	0x3e351c29	0.17686523
91	0x3e3ff2fa	0.18745032
92	0x3e16f1a1	0.14740612
93	0xbd17d49a	-0.037067987
94	0x3c8c54cc	0.017130278
95	0xbf2c3f7b	-0.67284364
96	0xbdba82f3	-0.09107008
97	0x3f0eefd2	0.55834687
98	0x3e4c27cc	0.19937056
99	0x3e391c80	0.18077278
100	0xbf33ed14	-0.7028363
101	0x3ea13f5d	0.31493655
102	0x3f0023f2	0.5005485
103	0x3dfc47fb	0.12318417
104	0x3c01fe00	0.0079340935
105	0xbd65917b	-0.056046944
106	0x3e32eb95	0.1747268
107	0x3ea78c6f	0.3272433
108	0xbeaace4c	-0.33360517
109	0xbe9bb9a0	-0.30415058
110	0xbecd0d4e	-0.40049213
111	0x3e82ccc0	0.25546837
112	0x3e046014	0.12927276
113	0xbecac25f	-0.39601418
114	0xbe1f69e7	-0.15567742
115	0x3dc4ecf2	0.09615506
116	0xbd7e01b0	-0.062013328
117	0x3dfb9eee	0.12286173
118	0xbf26a340	-0.6509285
119	0xbd14951b	-0.03627501
120	0x3da57971	0.08079804
121	0x3e367b75	0.17820533
122	0x3ecb43de	0.39700216
123	0xbd0e679b	-0.034766775
124	0x3f19b7b3	0.6004593
125	0xbeb12774	-0.34600413
126	0xbe4547da	-0.1926569
127	0xbd660ede	-0.056166522
128	0xbe4768d7	-0.19473587
129	0xbede1649	-0.43376377
130	0xbda923a3	-0.0825875
131	0xbdddd333	-0.10831299
132	0x3e8f4765	0.27984157
133	0xbd59cf95	-0.05317648
134	0x3ecb8f9a	0.39757997
135	0xbd8f7e35	-0.07006494
136	0x3e010463	0.1259933
137	0xbec10f5f	-0.3770704
138	0xbf2cd08d	-0.67505723
139	0x3ea4668f	0.32109496
140	0x3ce6752e	0.028132048
141	0x3cafcebe	0.021460887
142	0xbe323015	-0.17401154
143	0x3e807fb7	0.2509744
144	0xbe45cb40	-0.19315815
145	0x3e8d78c2	0.27631193
146	0xbbead875	-0.007166917
147	0x3e2a7382	0.16645625
148	0x3efa07ec	0.4883417
149	0xbe7f8de7	-0.24956475
150	0xbe668bc0	-0.22514248
151	0xbdf4338a	-0.11923893
152	0x3e81df05	0.25365463
153	0xbf63953a	-0.88899577
154	0xbe428bd4	-0.18998653
155	0xbd8d8816	-0.06910722
156	0xbf339168	-0.7014375
157	0xbcf1deca	-0.02952518
158	0xbe082c28	-0.13298094
159	0x3ee000fc	0.4375075
160	0x3e4fcab6	0.20292172
161	0xbdcc459a	-0.09974213
162	0xbd967929	-0.07347328
163	0x3dc5f440	0.096657276
164	0x3dbe93a2	0.093055025
165	0xbde765a6	-0.11298685
166	0x3e0c7eb8	0.13720214
167	0x3ea30574	0.31840098
168	0x3ee32964	0.44367516
169	0x3e6e2406	0.2325593
170	0xbeec048d	-0.46097222
171	0x3e5293d4	0.20564204
172	0x3e8e5f9d	0.27807322
173	0xbed74b73	-0.4204975
174	0x3ee3e342	0.4450932
175	0x3ca0150c	0.019541286
176	0xbe69dada	-0.22837391
177	0x3e00450b	0.12526338
178	0xbf67ed3d	-0.9059637
179	0x3e8dd3dc	0.27700698
180	0x3ece2242	0.40260512
181	0xbd50c3c3	-0.050967943
182	0xbf164494	-0.5869839
183	0x3e03fef1	0.12890221
184	0x3e4af7b2	0.19821051
185	0x3eca8059	0.39551046
186	0xbedd29c9	-0.43195942
187	0x3dc24b86	0.09487061
188	0xbf09b409	-0.53790337
189	0xbed5f5e8	-0.41789174
190	0x3f5f15b4	0.8714249
191	0xbe970cca	-0.29501945
192	0xbd7ede2a	-0.06222359
193	0x3e6b9f36	0.23009953
194	0xbea3eed8	-0.3201816
195	0xbe9a9401	-0.30191043
196	0xbe5515d0	-0.20809102
197	0x3e088dbb	0.13335316
198	0x3ebd9ae7	0.37032244
199	0xbcdcb22e	-0.026940431
200	0x3e7201a7	0.23633443
201	0xbe0f8c1b	-0.1401829
202	0x3e8d3b6b	0.27584395
203	0x3ebf2d4e	0.37339252
204	0x3f0d7f88	0.5527272
205	0x3de21fd1	0.11041225
206	0xbe5273e9	-0.20552029
207	0x3e94d4c3	0.29068574
208	0x3e1b854f	0.15187572
209	0xbf230150	-0.6367388
210	0x3dab0596	0.08350675
211	0x3e2b47e1	0.16726638
212	0x3e4e9d4e	0.20177194
213	0x3f3fadfc	0.74874854
214	0xbe9fd974	-0.3122059
215	0x3e953a5b	0.29146084
216	0x3ee1450f	0.43998
217	0x3ed98eb8	0.42491698
218	0xbee1891a	-0.44049913
219	0xbede4787	-0.43413946
220	0xbe74b08a	-0.2389547
221	0x3e0426ae	0.1290538
222	0x3e0c1155	0.13678487
223	0xbb82306f	-0.003973059
224	0xbe75002e	-0.2392585
225	0xbf0b848d	-0.5449913
226	0xbda19843	-0.0789037
227	0x3eb1edca	0.3475173
228	0xbe0472d7	-0.12934433
229	0xbe8c1df8	-0.27366614
230	0xbe8a6dc0	-0.27036858
231	0x3ece46b7	0.40288326
232	0x3f12bd20	0.5731983
233	0x3ecaadae	0.39585632
234	0xbf0501f8	-0.5195613
235	0x3d941a17	0.07231539
236	0x3f09fcc9	0.53901345
237	0x3d145079	0.036209557
238	0x3e7e7a32	0.24851301
239	0xbefdca1f	-0.4956827
240	0xbd88187e	-0.066452965
241	0x3dfdb7dd	0.12388585
242	0xbd3fb3f2	-0.04680247
243	0xbd95ca6f	-0.07314002
244	0xbf593eb1	-0.84861284
245	0x3c74c922	0.014940532
246	0xbe626f56	-0.22112784
247	0xbe1e4c4c	-0.15458792
248	0x3c48f3d0	0.012265161
249	0xbe0ab347	-0.13544951
250	0xbee691e0	-0.4503317
251	0x3e175674	0.14779073
252	0x3d5a0055	0.053222973
253	0xbea61a65	-0.32442012
254	0xbdf41d8f	-0.119197
255	0xb98c8221	-0.00026799834

network_body._body_endoder.seq_layers.0.bias f4 [128]
0	0x00000000	0.0
1	0x00000000	0.0
2	0x00000000	0.0
3	0x00000000	0.0
4	0x00000000	0.0
5	0x00000000	0.0
6	0x00000000	0.0
7	0x00000000	0.0
8	0x00000000	0.0
9	0x00000000	0.0
10	0x00000000	0.0
11	0x00000000	0.0
12	0x00000000	0.0
13	0x00000000	0.0
14	0x00000000	0.0
15	0x00000000	0.0
16	0x00000000	0.0
17	0x00000000	0.0
18	0x00000000	0.0
19	0x00000000	0.0
20	0x00000000	0.0
21	0x00000000	0.0
22	0x00000000	0.0
23	0x00000000	0.0
24	0x00000000	0.0
25	0x00000000	0.0
26	0x00000000	0.0
27	0x00000000	0.0
28	0x00000000	0.0
29	0x00000000	0.0
30	0x00000000	0.0
31	0x00000000	0.0
32	0x00000000	0.0
33	0x00000000	0.0
34	0x00000000	0.0
35	0x00000000	0.0
36	0x00000000	0.0
37	0x00000000	0.0
38	0x00000000	0.0
39	0x00000000	0.0
40	0x00000000	0.0
41	0x00000000	0.0
42	0x00000000	0.0
43	0x00000000	0.0
44	0x00000000	0.0
45	0x00000000	0.0
46	0x00000000	0.0
47	0x00000000	0.0
48	0x00000000	0.0
49	0x00000000	0.0
50	0x00000000	0.0
51	0x00000000	0.0
52	0x00000000	0.0
53	0x00000000	0.0
54	0x00000000	0.0
55	0x00000000	0.0
56	0x00000000	0.0
57	0x00000000	0.0
58	0x00000000	0.0
59	0x00000000	0.0
60	0x00000000	0.0
61	0x00000000	0.0
62	0x00000000	0.0
63	0x00000000	0.0
64	0x00000000	0.0
65	0x00000000	0.0
66	0x00000000	0.0
67	0x00000000	0.0
68	0x00000000	0.0
69	0x00000000	0.0
70	0x00000000	0.0
71	0x00000000	0.0
72	0x00000000	0.0
73	0x00000000	0.0
74	0x00000000	0.0
75	0x00000000	0.0
76	0x00000000	0.0
77	0x00000000	0.0
78	0x00000000	0.0
79	0x00000000	0.0
80	0x00000000	0.0
81	0x00000000	0.0
82	0x00000000	0.0
83	0x00000000	0.0
84	0x00000000	0.0
85	0x00000000	0.0
86	0x00000000	0.0
87	0x00000000	0.0
88	0x00000000	0.0
89	0x00000000	0.0
90	0x00000000	0.0
91	0x00000000	0.0
92	0x00000000	0.0
93	0x00000000	0.0
94	0x00000000	0.0
95	0x00000000	0.0
96	0x00000000	0.0
97	0x00000000	0.0
98	0x00000000	0.0
99	0x00000000	0.0
100	0x00000000	0.0
101	0x00000000	0.0
102	0x00000000	0.0
103	0x00000000	0.0
104	0x00000000	0.0
105	0x00000000	0.0
106	0x00000000	0.0
107	0x00000000	0.0
108	0x00000000	0.0
109	0x00000000	0.0
110	0x00000000	0.0
111	0x00000000	0.0
112	0x00000000	0.0
113	0x00000000	0.0
114	0x00000000	0.0
115	0x00000000	0.0
116	0x00000000	0.0
117	0x00000000	0.0
118	0x00000000	0.0
119	0x00000000	0.0
120	0x00000000	0.0
121	0x00000000	0.0
122	0x00000000	0.0
123	0x00000000	0.0
124	0x00000000	0.0
125	0x00000000	0.0
126	0x00000000	0.0
127	0x00000000	0.0

network_body._body_endoder.seq_layers.2.weight f4 [128, 128]
0	0xbd71ddb3	-0.05904932
1	0x3d06ebcf	0.03293973
2	0x3d49dbbe	0.049281828
3	0x3c96bc3f	0.01840031
4	0xbd92bb8c	-0.07164678
5	0x3c64013c	0.01391631
6	0x3d4fe665	0.05075683
7	0x3e20a752	0.15688828
8	0xbc804761	-0.015659036
9	0x3e724564	0.23659283
10	0x3b6fbce2	0.0036581089
11	0xbd115423	-0.03548063
12	0xbdc77a10	-0.097400784
13	0xbd85e4f5	-0.06537811
14	0xbe746988	-0.23868382
15	0x3cc15556	0.023600262
16	0xbd603252	-0.05473549
17	0xbdd46fed	-0.10372911
18	0xbdc78db4	-0.097438246
19	0xbb49ada5	-0.0030773666
20	0x3cb1e0d1	0.021713646
21	0xbe57b032	-0.21063307
22	0xbd293ccf	-0.041317757
23	0xbc2aefe8	-0.010433175
24	0x3a69a085	0.0008912164
25	0x3d582f3a	0.052779414
26	0x3d2baead	0.04191463
27	0xbd2f2a23	-0.042764794
28	0x3e286c32	0.16447523
29	0x3d8d78fb	0.06907841
30	0x3dcc5ed3	0.09979024
31	0xbdfcd0dd	-0.12344525
32	0x3e08c65c	0.13356918
33	0xbd94fe2e	-0.072750434
34	0xbe2bee5b	-0.16790144
35	0x3d8df0d2	0.069306985
36	0xbca953a8	-0.020669773
37	0xbd42b6d8	-0.047537655
38	0x3d4d8664	0.050176993
39	0xbd308e20	-0.04310429
40	0xbdf39912	-0.1189443
41	0x3da7f1e7	0.08200436
42	0xbd07fe60	-0.033201575
43	0x3d85a987	0.065264754
44	0x3e31b871	0.17355515
45	0xbd275107	-0.040848758
46	0xbd9ec121	-0.0775168
47	0x3db338cc	0.087510675
48	0xbdd8ebfd	-0.10591886
49	0xbc77790e	-0.015104545
50	0xbdc4bfe1	-0.096069105
51	0xbd4f17c4	-0.050559774
52	0x3e27d9e8	0.16391718
53	0xbda07a62	-0.07835843
54	0xbd2fce15	-0.042921145
55	0x3d1ac9d5	0.03779014
56	0x3ca823a8	0.020524815
57	0xbe029906	-0.12753686
58	0xbc06f5b3	-0.00823729
59	0x3e215c24	0.15757805
60	0xbd157056	-0.036484085
61	0x3dc86cbf	0.09786367
62	0xbc8c9ced	-0.017164672
63	0x3e09fa8d	0.13474484
64	0xbcdb9133	-0.026802635
65	0xbce2d44f	-0.027689127
66	0x3c1bf2c2	0.009518327
67	0x3d4c46d2	0.049872227
68	0x3cd60701	0.026126387
69	0x3d367186	0.044541858
70	0xbe1ce262	-0.15320733
71	0xbbebb0fb	-0.0071927286
72	0xbd2de939	-0.042458747
73	0x3ddde54e	0.10834752
74	0xbd994744	-0.07484296
75	0xbae35bb4	-0.0017346055
76	0x3d8840d3	0.06652989
77	0xbd963c80	-0.07335758
78	0x3e339863	0.175386
79	0x3d7579e8	0.059930712
80	0x3b1a4c0b	0.002354386
81	0xbd991b9a	-0.07475968
82	0x3cf4a57e	0.02986407
83	0xbe3eae69	-0.1862122
84	0x3d9515f9	0.072795816
85	0x3d75dd60	0.060025573
86	0x3d7fb3c0	0.062427282
87	0xbd4c8888	-0.049934894
88	0xbd3077a3	-0.043082844
89	0xbd8bc447	-0.06824546
90	0x3d7a87c7	0.061164644
91	0x3cb96b93	0.022634303
92	0x3dec1555	0.11527506
93	0xbe12ad19	-0.14323844
94	0x3d825930	0.063646674
95	0xbd3c4b19	-0.045970056
96	0x3d911975	0.07084934
97	0xbda4009e	-0.0800793
98	0x3dc3bac2	0.095571056
99	0x3d673a6c	0.0564522
100	0xbce6537f	-0.028115986
101	0x3d56de2b	0.05245797
102	0xbb121e3c	-0.0022295853
103	0xbb568163	-0.003273093
104	0x3e4e3690	0.20138001
105	0x3c33cdd5	0.010974367
106	0xbe02e96f	-0.1278436
107	0xbca96764	-0.020679183
108	0x3b935701	0.0044964557
109	0xbd44f108	-0.048081428
110	0x3c4a6db2	0.012355255
111	0x3e0fd257	0.14045082
112	0xbd421efa	-0.047392823
113	0x3cf32509	0.029680746
114	0xbcb40eaf	-0.021979658
115	0xbc246786	-0.010034448
116	0xbd82708c	-0.06369123
117	0x3da601c0	0.081058025
118	0x3d47d4fb	0.0487871
119	0x3db94df7	0.09048074
120	0xb9f6e5b5	-0.0004709192
121	0x3d4222d4	0.047396496
122	0x3cace82a	0.021106798
123	0xbd7106d2	-0.058844395
124	0x3a2b92a4	0.00065449835
125	0xbc9af0dc	-0.018913679
126	0x3cc097e2	0.023509923
127	0x3cdfd267	0.027322007
128	0x3deddafc	0.116140336
129	0xbd227e45	-0.0396712
130	0xbc0aa54f	-0.008462264
131	0xbc27d66c	-0.010243993
132	0x3c991329	0.018685894
133	0x3e0976e4	0.1342426
134	0xbe1cd91e	-0.15317199
135	0x3cdd8683	0.02704168
136	0x3cec154a	0.028818745
137	0x3ba6fafa	0.0050958367
138	0x3df3870a	0.11890991
139	0xbdc64004	-0.09680179
140	0xbd3ab8fa	-0.045586564
141	0x3c8309ea	0.015995938
142	0xbdc0f1ed	-0.09421144
143	0x3d3e7db4	0.0465066
144	0xbde881a5	-0.11352853
145	0x3df120c1	0.117738254
146	0xbda1b086	-0.07894997
147	0xbbabcf07	-0.0052431854
148	0x3bcd00a0	0.006256178
149	0xbd713158	-0.05888495
150	0x3e2753cf	0.16340564
151	0xbdc2f856	-0.095200226
152	0xbd97db35	-0.07414857
153	0x3dcdd6c3	0.10050728
154	0x3dec9005	0.11550907
155	0x3db65154	0.08902231
156	0x3b363c3a	0.0027806894
157	0x3d870597	0.06592863
158	0x3dad4384	0.08460143
159	0xbd222fb5	-0.03959628
160	0x3ce12f9a	0.027488519
161	0xbba14e38	-0.0049226545
162	0xbc162247	-0.009163446
163	0xbda72058	-0.08160466
164	0x3da932f8	0.08261675
165	0x3bd66c51	0.006543674
166	0xba59edda	-0.0008313336
167	0xbe1bf453	-0.15229921
168	0x3e0caf73	0.13738804
169	0xbdf56024	-0.11981228
170	0xbcb41aa4	-0.02198536
171	0x3be177a8	0.006880719
172	0xbd1763ed	-0.03696053
173	0xba469d83	-0.00075765717
174	0x3e52ff40	0.20605183
175	0xbe03514e	-0.12823984
176	0xbe4c5c76	-0.19957146
177	0x3dfae7fb	0.12251278
178	0x3df99fe4	0.121887
179	0x3d41cf56	0.04731687
180	0x3b839492	0.0040155137
181	0x3cc22fee	0.023704495
182	0x3cea02dc	0.028565817
183	0xbc0d1bde	-0.008612601
184	0xbd8157bd	-0.06315563
185	0xbda46163	-0.080263875
186	0x3d2cefa5	0.04222073
187	0x3d74d0ff	0.059769627
188	0xbe336530	-0.17519069
189	0xbe32197e	-0.17392537
190	0xbd50fffc	-0.051025376
191	0x3d770c5c	0.06031452
192	0x3ca1b899	0.019741343
193	0x3c1f5a33	0.009726095
194	0xbcf50c08	-0.029912964
195	0x3cdd56ae	0.027018871
196	0xbca1f5ff	-0.01977062
197	0x3d04966d	0.03237002
198	0x3c5fb6ad	0.013654393
199	0xbc982042	-0.01857007
200	0x3c090b97	0.00836458
201	0x3e0c4050	0.13696408
202	0x3c2f2881	0.010690809
203	0xba98c47e	-0.0011655239
204	0xbbe3af60	-0.0069483966
205	0xba925767	-0.0011164964
206	0x3bf31524	0.0074182916
207	0xbd774eaf	-0.060377773
208	0xbc023ca1	-0.007949025
209	0xbe051fc4	-0.13000399
210	0xbd3dd659	-0.046346996
211	0x3d8869b5	0.06660787
212	0xbe34db36	-0.17661747
213	0x3d9103fd	0.07080839
214	0xbc97c337	-0.018525703
215	0x3d15d8f1	0.036583845
216	0x3e348a28	0.17630827
217	0x3d67ad81	0.05656195
218	0x3d4abf25	0.049498696
219	0xbd535ab2	-0.051600166
220	0x3c0a1888	0.0084287
221	0x3dc44340	0.095831394
222	0xbe041878	-0.12899959
223	0x393c19f1	0.00017938741
224	0x3d8cac63	0.06868818
225	0x3e168740	0.14700031
226	0x3d442a3b	0.047891837
227	0xbdc30ba6	-0.09523706
228	0xbc2a215a	-0.010383928
229	0x3c420b29	0.011843481
230	0x3dc53b7d	0.09630487
231	0x3d8263aa	0.06366666
232	0x3d04c500	0.032414436
233	0x3ba0e30c	0.0049098786
234	0xbe0bc045	-0.13647564
235	0xbe19a82e	-0.15005562
236	0xbd834915	-0.06410424
237	0x3d649865	0.055809397
238	0xbd9e859d	-0.077403285
239	0xbd2f4084	-0.042786136
240	0x3ccd5c05	0.025068292
241	0xbde982ca	-0.11401899
242	0xbe56975b	-0.20956175
243	0x3e6ac5ea	0.2292706
244	0x3e14940f	0.14509605
245	0xbd5aa187	-0.0533767
246	0x3d6bec3b	0.057598334
247	0x3ddf63ee	0.10907732
248	0xbdd06a71	-0.10176552
249	0x3dcbd7de	0.09953283
250	0x3d0fffd0	0.03515607
251	0xbd43511f	-0.047684785
252	0xbd269a60	-0.040674567
253	0x3a657143	0.0008752534
254	0xbe28d070	-0.16485763
255	0x3e09ba37	0.13449942

network_body._body_endoder.seq_layers.2.bias f4 [128]
0	0x00000000	0.0
1	0x00000000	0.0
2	0x00000000	0.0
3	0x00000000	0.0
4	0x00000000	0.0
5	0x00000000	0.0
6	0x00000000	0.0
7	0x00000000	0.0
8	0x00000000	0.0
9	0x00000000	0.0
10	0x00000000	0.0
11	0x00000000	0.0
12	0x00000000	0.0
13	0x00000000	0.0
14	0x00000000	0.0
15	0x00000000	0.0
16	0x00000000	0.0
17	0x00000000	0.0
18	0x00000000	0.0
19	0x00000000	0.0
20	0x00000000	0.0
21	0x00000000	0.0
22	0x00000000	0.0
23	0x00000000	0.0
24	0x00000000	0.0
25	0x00000000	0.0
26	0x00000000	0.0
27	0x00000000	0.0
28	0x00000000	0.0
29	0x00000000	0.0
30	0x00000000	0.0
31	0x00000000	0.0
32	0x00000000	0.0
33	0x00000000	0.0
34	0x00000000	0.0
35	0x00000000	0.0
36	0x00000000	0.0
37	0x00000000	0.0
38	0x00000000	0.0
39	0x00000000	0.0
40	0x00000000	0.0
41	0x00000000	0.0
42	0x00000000	0.0
43	0x00000000	0.0
44	0x00000000	0.0
45	0x00000000	0.0
46	0x00000000	0.0
47	0x00000000	0.0
48	0x00000000	0.0
49	0x00000000	0.0
50	0x00000000	0.0
51	0x00000000	0.0
52	0x00000000	0.0
53	0x00000000	0.0
54	0x00000000	0.0
55	0x00000000	0.0
56	0x00000000	0.0
57	0x00000000	0.0
58	0x00000000	0.0
59	0x00000000	0.0
60	0x00000000	0.0
61	0x00000000	0.0
62	0x00000000	0.0
63	0x00000000	0.0
64	0x00000000	0.0
65	0x00000000	0.0
66	0x00000000	0.0
67	0x00000000	0.0
68	0x00000000	0.0
69	0x00000000	0.0
70	0x00000000	0.0
71	0x00000000	0.0
72	0x00000000	0.0
73	0x00000000	0.0
74	0x00000000	0.0
75	0x00000000	0.0
76	0x00000000	0.0
77	0x00000000	0.0
78	0x00000000	0.0
79	0x00000000	0.0
80	0x00000000	0.0
81	0x00000000	0.0
82	0x00000000	0.0
83	0x00000000	0.0
84	0x00000000	0.0
85	0x00000000	0.0
86	0x00000000	0.0
87	0x00000000	0.0
88	0x00000000	0.0
89	0x00000000	0.0
90	0x00000000	0.0
91	0x00000000	0.0
92	0x00000000	0.0
93	0x00000000	0.0
94	0x00000000	0.0
95	0x00000000	0.0
96	0x00000000	0.0
97	0x00000000	0.0
98	0x00000000	0.0
99	0x00000000	0.0
100	0x00000000	0.0
101	0x00000000	0.0
102	0x00000000	0.0
103	0x00000000	0.0
104	0x00000000	0.0
105	0x00000000	0.0
106	0x00000000	0.0
107	0x00000000	0.0
108	0x00000000	0.0
109	0x00000000	0.0
110	0x00000000	0.0
111	0x00000000	0.0
112	0x00000000	0.0
113	0x00000000	0.0
114	0x00000000	0.0
115	0x00000000	0.0
116	0x00000000	0.0
117	0x00000000	0.0
118	0x00000000	0.0
119	0x00000000	0.0
120	0x00000000	0.0
121	0x00000000	0.0
122	0x00000000	0.0
123	0x00000000	0.0
124	0x00000000	0.0
125	0x00000000	0.0
126	0x00000000	0.0
127	0x00000000	0.0

action_model._continuous_distribution.mu.weight f4 [1, 128]
0	0x3cc07747	0.023494376
1	0x3c9b46d6	0.018954676
2	0x3cecfc67	0.028928949
3	0xbba88da7	-0.0051438394
4	0x3c80fa3b	0.01574432
5	0x3bc50b97	0.0060133445
6	0x3d2b6a7c	0.0418496
7	0xbcb81675	-0.022471646
8	0x3c109c90	0.00882639
9	0x3ce12b4f	0.027486471
10	0xbc23532d	-0.009968561
11	0x3c81b311	0.015832456
12	0x3bfa1bfd	0.007632731
13	0xbba875cf	-0.005140997
14	0xb9401aaa	-0.0001832048
15	0x3be7e7e5	0.0070772045
16	0x3c44b60b	0.012006293
17	0xbbc7ed2d	-0.0061012716
18	0x3bc7f4b7	0.0061021703
19	0x3d1cd68f	0.038290557
20	0xbc7ec747	-0.015550441
21	0xbc7c6a7f	-0.01540625
22	0xbc6e3d7b	-0.014541025
23	0xbc35caa5	-0.0110956775
24	0x3bebb40a	0.007193093
25	0xbc141fe9	-0.009040811
26	0xbbfe3022	-0.0077572027
27	0x3bd1dc1a	0.006404412
28	0x3b6f78a2	0.0036540409
29	0xbc4f609d	-0.012657312
30	0xbc2926e2	-0.010324212
31	0xbbc2498e	-0.0059291786
32	0xbbec558d	-0.007212347
33	0xbbcd342a	-0.006262322
34	0x3ca5f6bc	0.020259254
35	0x3bff8b10	0.00779856
36	0xbc86cb9b	-0.016454509
37	0x3c761ff3	0.015022266
38	0xbc4d2592	-0.0125211645
39	0x3cd15858	0.02555482
40	0x3c94e4ec	0.018175565
41	0x3c52b2c5	0.012860005
42	0x3c003160	0.007824272
43	0xbc1c3eb5	-0.009536435
44	0x3b6aec8f	0.0035846566
45	0xbb305c19	-0.0026910363
46	0xbd55614b	-0.05209474
47	0x3b503c53	0.0031774237
48	0x3c0d9ea9	0.008643785
49	0x3cd23fb0	0.025665134
50	0x3cbc6331	0.022996517
51	0x3ade49b0	0.0016959216
52	0xbc2a2d14	-0.010386724
53	0xbc25086e	-0.010072811
54	0xbc2f1a27	-0.010687388
55	0x3899283f	7.303105e-05
56	0xbc777f98	-0.015106104
57	0xbb69ea60	-0.0035692677
58	0xbcf059bf	-0.02933967
59	0xbd163a35	-0.036676604
60	0x3c2e23df	0.0106286695
61	0xbcac1287	-0.021004928
62	0x3bddb137	0.0067655104
63	0xbc0550ab	-0.0081369085
64	0x3c9f342d	0.019434059
65	0x3b780e98	0.0037850495
66	0xbb52a070	-0.0032139085
67	0xbcd68057	-0.026184244
68	0x3cb887e5	0.022525737
69	0xbc82257c	-0.015887015
70	0x3cecfa15	0.028927842
71	0x3c92872f	0.017886726
72	0x3ce30615	0.027712861
73	0x3cb9da49	0.022687094
74	0x3b3d5837	0.0028891691
75	0xbbb804a0	-0.0056157857
76	0x3b414c27	0.0029494853
77	0x3c3e96df	0.01163265
78	0x3b0924bb	0.0020926434
79	0xbba3f53f	-0.005003601
80	0x3c3e5055	0.011615832
81	0xbc077167	-0.008266783
82	0x3cbf0831	0.023319336
83	0x3c8613c8	0.016366854
84	0xbb8265b8	-0.003979411
85	0x3c481066	0.012210941
86	0xbd16db87	-0.03683045
87	0x3bce0e0b	0.006288295
88	0xbd1db4dd	-0.038502563
89	0xbcc64f81	-0.024207832
90	0x3b5a15ed	0.003327723
91	0xbd2a2723	-0.04154123
92	0xbd0d32d7	-0.034472313
93	0xbcb1f95a	-0.021725345
94	0xba49613b	-0.000768203
95	0xbc24f460	-0.010068029
96	0x3c32b04b	0.010906289
97	0x3c0f3a84	0.008741979
98	0xbcbbea4b	-0.022938868
99	0xbcacc08c	-0.021087907
100	0xbd554167	-0.052064326
101	0x3d13374c	0.035941407
102	0x3c847166	0.016167354
103	0xbc516787	-0.0127810305
104	0xbbe48b0a	-0.0069745826
105	0xbcc0aff6	-0.023521405
106	0xbcbe1073	-0.023201203
107	0x3c8dd148	0.017311707
108	0xbba46676	-0.005017097
109	0x3c89de6b	0.01682969
110	0xbc3a5707	-0.011373288
111	0x3af91f8a	0.0019006592
112	0xbc8f96f0	-0.017528027
113	0xbc10cec6	-0.008838361
114	0xbca15c56	-0.01969735
115	0x3ca92e05	0.020651827
116	0xbcad8d71	-0.021185609
117	0x3ccb11bb	0.024788728
118	0x3c8cada6	0.017172646
119	0x3b813e7b	0.003944216
120	0xbcc113c3	-0.023568993
121	0xbb8dea5c	-0.0043309163
122	0x3c05dd73	0.008170473
123	0xbd0fc42c	-0.035099193
124	0x3ce932cd	0.028466607
125	0x3cc2bac6	0.023770701
126	0xbc0fcc34	-0.008776713
127	0xbc718210	-0.014740482

action_model._discrete_distribution.branches.0.weight f4 [1, 128]
0	0x3b5bc00d	0.003353122
1	0xbafc6972	-0.0019257499
2	0xbb80251e	-0.0039106747
3	0xbc89b5eb	-0.016810378
4	0x3c590c30	0.013247535
5	0xbc41dbd4	-0.011832196
6	0x3b6791d3	0.003533472
7	0x3c053a60	0.0081315935
8	0x3c6790ef	0.014133676
9	0x3c33599b	0.010946657
10	0xb9be3574	-0.0003627945
11	0x3aabfa40	0.0013120845
12	0xbba99334	-0.0051750187
13	0x3bdb11a7	0.006685454
14	0x3a38366a	0.00070271513
15	0x3c4be735	0.012445261
16	0xbc790265	-0.015198325
17	0xbc3dec83	-0.011592033
18	0x3c8009bc	0.015629642
19	0x3a9596f9	0.0011412791
20	0x3c3b1b31	0.011420057
21	0x3b305fde	0.002691261
22	0xbbdbceaf	-0.006707988
23	0x3abc3954	0.0014360347
24	0x39b0155e	0.00033585256
25	0x3c4b976f	0.012426241
26	0x3bbdcbfc	0.005792139
27	0x3c0bbcfd	0.008528945
28	0x3b095f79	0.0020961447
29	0xbba38f93	-0.0049914806
30	0xbba5517e	-0.005045115
31	0xbbee2042	-0.007267029
32	0xbbc16f7a	-0.0059031816
33	0x3c0a478c	0.00843991
34	0xbbe82bad	-0.0070852847
35	0xbbfd322b	-0.0077269278
36	0xbc304798	-0.010759257
37	0x3c7e2d98	0.0155138
38	0x3c143b4b	0.00904734
39	0xbad0d2e8	-0.0015931996
40	0xbaa08ba5	-0.0012248649
41	0x3c852afc	0.016255848
42	0xbbab72ae	-0.0052321767
43	0xbbc6ebf6	-0.006070609
44	0xbc0198e7	-0.00790999
45	0x3aa94896	0.0012915309
46	0x3a802174	0.0009775595
47	0xbbb59ba1	-0.005542234
48	0xbb4e103f	-0.003144279
49	0xbbb5a1df	-0.005542978
50	0x3c1c75bb	0.0095495535
51	0xbafea5eb	-0.001942811
52	0xbc54ad83	-0.012980822
53	0xbb58a3ca	-0.003305661
54	0xbc03c28d	-0.00804199
55	0xbbc33e12	-0.005958327
56	0x3b1d7b32	0.002402973
57	0xbc4bd577	-0.012441031
58	0x3c4ed802	0.012624742
59	0x39a8f3db	0.00032225144
60	0x3a806591	0.0009795894
61	0xbbecd933	-0.0072280406
62	0xbc493282	-0.012280108
63	0xbc4a5cc1	-0.012351216
64	0x39ce0a60	0.00039299112
65	0x3b8e1225	0.004335659
66	0xbb3d4e13	-0.0028885647
67	0x3c05dacf	0.008169844
68	0x3b846e6f	0.004041485
69	0xbbb29745	-0.0054501616
70	0xbb48785b	-0.0030589316
71	0x3bc922ba	0.006138173
72	0x3ad87587	0.0016514518
73	0xbb59d490	-0.003323827
74	0xbb03ba7c	-0.0020100167
75	0x3b4ab86f	0.0030932685
76	0xbbd03608	-0.0063540973
77	0xbb83690d	-0.0040103258
78	0x3b8ff3d5	0.0043930807
79	0x3a9edd27	0.0012120352
80	0x399fddc2	0.00030492066
81	0x3af3da97	0.0018604574
82	0xbb5337c8	-0.0032229293
83	0x3c200491	0.009766714
84	0xbb166109	-0.002294602
85	0xbbdf6e23	-0.0068185492
86	0x3bd355c3	0.0064494326
87	0x3a420bd7	0.0007402277
88	0xbc8cc651	-0.017184408
89	0x3c3a83dd	0.011383978
90	0x3b3f7363	0.0029213063
91	0xbb845ac1	-0.004039139
92	0xbc9c2add	-0.019063408
93	0xbb85c888	-0.004082743
94	0xbbd500c2	-0.0065003345
95	0x3bb90af6	0.0056470586
96	0x3c24a304	0.010048632
97	0xbc7d7cb8	-0.01547163
98	0x3b6b8e25	0.003594288
99	0x3c117f7c	0.008880492
100	0x3c401ccd	0.011725617
101	0xbb8d9b9e	-0.0043215295
102	0xbbc141f7	-0.005897756
103	0xbb14c028	-0.0022697542
104	0x3b6c9850	0.0036101528
105	0xbb609a2a	-0.0034271576
106	0xbb9cad2e	-0.004781387
107	0x3b5e0bb2	0.0033881483
108	0x3ac1d445	0.0014787993
109	0x3a89bc8d	0.0010508463
110	0xba9302e9	-0.0011216077
111	0x3b22194b	0.0024734314
112	0xbb5e75e8	-0.003394479
113	0xbafaefe0	-0.0019144975
114	0x3c7fcaed	0.015612346
115	0x3c79da57	0.01524981
116	0x3b55db4a	0.0032631927
117	0xbc4c877f	-0.012483477
118	0x3c01b5a2	0.00791684
119	0xbc3a3700	-0.011365652
120	0xbb9c0c8d	-0.0047622384
121	0xbbc4f6cc	-0.006010866
122	0xbc5dd538	-0.013539605
123	0x3c8ce5d0	0.017199427
124	0xbbafe15d	-0.0053674416
125	0x3c42c417	0.011887572
126	0x3b8b282b	0.0042467318
127	0xba45fc8b	-0.00075525854

network_body._body_endoder.seq_layers.0.weight f4 [128, 10]
0	0x3ea7891e	0.327218
1	0x3eb83c03	0.35983285
2	0x3e0da7c1	0.13833524
3	0xbe153975	-0.145727
4	0x3f0499be	0.5179709
5	0x3f0f52bc	0.5598562
6	0xbc78779e	-0.015165238
7	0xbf3771f0	-0.7165823
8	0xbe92c485	-0.28665558
9	0xbe0bf48b	-0.13667504
10	0xbeb5fdaa	-0.35545093
11	0xbeedbe75	-0.4643437
12	0xbe837303	-0.25673684
13	0xbe0b1b3e	-0.13584611
14	0xbef50e6c	-0.47862566
15	0xbe3a4841	-0.18191625
16	0xbe69bc06	-0.22825631
17	0xbf402ff1	-0.7507315
18	0x3dbfb232	0.0936016
19	0xbeba4ab7	-0.36385128
20	0x3e8e2696	0.27763814
21	0x3e9889db	0.29792675
22	0x3ec6a094	0.38794386
23	0xbeefa69e	-0.46806806
24	0x3f1a6808	0.6031499
25	0xbd52bb05	-0.051447887
26	0xbd82c9e7	-0.06386166
27	0x3e5697c6	0.20956334
28	0x3e18474e	0.1487095
29	0x3ef4a63e	0.47783083
30	0x3e07aa6b	0.13248603
31	0x3e7136bd	0.23556037
32	0x3f0da0b9	0.5532337
33	0xbe13b793	-0.14425497
34	0xbeecb38a	-0.46230727
35	0xbe35616b	-0.17712943
36	0xbec01208	-0.37513757
37	0xbe5040fb	-0.20337288
38	0x3d8edfe7	0.069763
39	0x3dc4b2a3	0.09604385
40	0x3f52e69e	0.82383144
41	0x3e757b09	0.23972715
42	0xbed08b61	-0.40731338
43	0x3f1b4991	0.6065913
44	0xbd95dd36	-0.07317583
45	0x3e037d70	0.1284082
46	0xbb76edf7	-0.003767846
47	0xbec7bde0	-0.3901205
48	0xbeb617e1	-0.35565093
49	0x3daa1c6a	0.08306201
50	0x3e98515b	0.2974957
51	0xbe1c910a	-0.15289703
52	0x3d38a692	0.04508073
53	0xbe4e881b	-0.20169108
54	0x3cdb4d62	0.026770297
55	0x3dd72210	0.10504544
56	0x3ede3c41	0.43405345
57	0x3ec4521a	0.3834389
58	0x3e244560	0.1604209
59	0xbe9f1783	-0.31072626
60	0x3e1b7824	0.15182549
61	0xbea4eec8	-0.32213426
62	0xbcfdb384	-0.030969389
63	0xbf04981a	-0.5179459
64	0x3e0b5cb8	0.13609588
65	0x3d56376e	0.052298956
66	0x3e567abe	0.2094526
67	0xbe89ee69	-0.26939705
68	0xbf193d0a	-0.59858763
69	0x3c63cb01	0.01390338
70	0x3e6ecf57	0.23321281
71	0xbd60af69	-0.054854784
72	0x3e8dd165	0.27698818
73	0x3f132d15	0.57490665
74	0x3ee3482f	0.4439101
75	0xbdaa0d4c	-0.083033174
76	0x3e1b0dfc	0.15142053
77	0xbe41734c	-0.18891639
78	0x3f24f029	0.64428955
79	0x3db827bc	0.08991954
80	0xbe03802a	-0.1284186
81	0xbea43503	-0.32071695
82	0xbeea5e16	-0.45774907
83	0xbcea20c5	-0.028580079
84	0x3e2a03e4	0.16603047
85	0xbee89049	-0.4542258
86	0xbdb22dd3	-0.087001465
87	0x3dcfc69e	0.10145305
88	0xbefb7570	-0.49113035
89	0xbe9ff0a5	-0.31238285
90	0x3f448910	0.7677164
91	0xbe37cad1	-0.17948462
92	0x3e484a43	0.19559579
93	0x3f0b612f	0.54445165
94	0xbf1e0e33	-0.61740416
95	0xbd30fac9	-0.043207917
96	0x3eb1ec86	0.34750766
97	0x3e645ca7	0.22300969
98	0x3e55e666	0.20888671
99	0x3e3979e3	0.18112902
100	0x3e27f246	0.16401014
101	0xbebfa258	-0.37428546
102	0xbeb43296	-0.35194844
103	0xbacd75c4	-0.0015675356
104	0x3e1b9be7	0.15196191
105	0xbdf1555b	-0.117838584
106	0x3ee92fba	0.45544225
107	0xbe01f172	-0.1268976
108	0x3e9c250b	0.30497012
109	0x3ebeaf8c	0.37243307
110	0xbed8003d	-0.42187682
111	0x3e588d08	0.21147549
112	0x3e4854da	0.19563618
113	0xbe1982eb	-0.14991347
114	0x3e910f00	0.28331757
115	0x3e88ca1c	0.26716697
116	0x3e96cba3	0.29452237
117	0xbe391631	-0.18074872
118	0xbe8336d3	-0.25627765
119	0x3e3bd119	0.18341483
120	0x3da91cb9	0.082574315
121	0xbc92e186	-0.017929804
122	0x3e6028ff	0.21890639
123	0xbea4507d	-0.32092658
124	0x3e2ce8ef	0.16885732
125	0x3f37bd9a	0.71773684
126	0x3e2a550d	0.16634007
127	0x3e16b108	0.1471597
128	0x3d8472ae	0.06467186
129	0xbec82ac8	-0.3909514
130	0x3da60295	0.08105961
131	0x3c414e45	0.011798446
132	0xbd3eef64	-0.04661502
133	0xbeb34b8e	-0.3501858
134	0x3dec545f	0.1153953
135	0xbe75fd79	-0.24022473
136	0x3d53aa2d	0.051675964
137	0x3e5be06c	0.21472329
138	0xbcf77a04	-0.030209549
139	0x3d8e2ac6	0.06941752
140	0x3f2a69a7	0.6656746
141	0x3a9e236b	0.0012064999
142	0x3e41bef0	0.18920493
143	0x3eaf57cf	0.3424668
144	0xbeb944d1	-0.36185315
145	0xbe85ff82	-0.261715
146	0xbeddd1c3	-0.43324098
147	0x3dbe3418	0.0928728
148	0xbd7cd35e	-0.061725013
149	0x3e884497	0.2661483
150	0xbdc9c46c	-0.098519176
151	0xbd9e7edf	-0.077390425
152	0x3ed83583	0.42228326
153	0xbe95372c	-0.29143655
154	0xbf1ab948	-0.60438967
155	0x3f1d915c	0.61549926
156	0x3cca810a	0.024719734
157	0x3d8e4bfe	0.06948088
158	0xbda2ce5c	-0.07949516
159	0xbddceabd	-0.1078696
160	0x3d6c2476	0.05765196
161	0xbc89588d	-0.016765857
162	0x3ece6590	0.4031186
163	0x3d23e1cb	0.040010255
164	0x3de54564	0.11194876
165	0xbda2d581	-0.07950879
166	0x3e81b11c	0.25330436
167	0x3e5322d0	0.20618749
168	0xbf1bfc65	-0.60932
169	0xbdf919c0	-0.121631145
170	0x3e0e2aea	0.13883558
171	0xbf1bb881	-0.60828406
172	0xbeb89139	-0.36048296
173	0x3e9d0643	0.3066884
174	0xbe8f02a4	-0.27931702
175	0xbeaf242c	-0.34207284
176	0xbe6aed47	-0.22942077
177	0xbd4113ee	-0.047138147
178	0x3e616481	0.22010995
179	0xbd6317d1	-0.055442635
180	0x3dce0bd5	0.100608505
181	0x3efad96e	0.4899401
182	0xbde90c06	-0.113792464
183	0x3f0fe85b	0.5621392
184	0xbf2d9855	-0.67810565
185	0xbd2b7d78	-0.041867703
186	0x3d4c32af	0.049853023
187	0x3e96edd5	0.29478326
188	0xbc1fd5f7	-0.009755603
189	0xbd5dcc86	-0.054150127
190	0xbe8fddba	-0.2809885
191	0x3d12ea07	0.035867717
192	0x3bbb8666	0.0057228087
193	0xbd121426	-0.035663746
194	0xbda6160b	-0.08109673
195	0x3e3ef87f	0.18649481
196	0x3edee545	0.43534294
197	0xbefe9546	-0.49723262
198	0x3d594652	0.05304558
199	0x3eda20a1	0.4260302
200	0xbf014006	-0.50488317
201	0xbf09fd00	-0.5390167
202	0x3b9454a1	0.00452669
203	0x3f1c00ab	0.6093852
204	0xbe8d6767	-0.27617952
205	0x3d720020	0.05908215
206	0x3ecda9e8	0.4016869
207	0xbf4616c1	-0.7737847
208	0xbe634d3b	-0.2219743
209	0x3f263a25	0.6493247
210	0xbea0a63b	-0.31376824
211	0xbe054bd9	-0.13017215
212	0x3e01fa97	0.12693249
213	0xbf5a3430	-0.8523588
214	0xbe392a92	-0.18082646
215	0xbeb95f47	-0.36205503
216	0xbc765b82	-0.015036466
217	0x3ec196b4	0.3781029
218	0x3e9480c5	0.29004493
219	0xbc279970	-0.010229453
220	0x3e2801df	0.16406964
221	0x3f12c703	0.5733492
222	0x3e459117	0.19293629
223	0x3f1870b3	0.59546965
224	0x3e7ffb3d	0.24998184
225	0xbe73b4c6	-0.23799428
226	0x3ec1abf4	0.37826502
227	0xbf3d6629	-0.7398401
228	0xbdf16fef	-0.11788928
229	0x3e298304	0.16553885
230	0x3f18bd08	0.5966344
231	0xbdec0aca	-0.11525495
232	0x3dfdc21c	0.12390539
233	0x3e4af7bb	0.19821064
234	0x3d0bbecf	0.034117516
235	0xbf12ebcd	-0.57391053
236	0x3e89de67	0.26927492
237	0xbe6a2c0f	-0.2286837
238	0x3d913e27	0.07091933
239	0xbe863c33	-0.26217803
240	0xbe21c772	-0.15798739
241	0x3f20937f	0.6272506
242	0xbdd5543e	-0.104164585
243	0x3ea15481	0.31509784
244	0x3ebaa1ef	0.3645167
245	0x3c08d1e9	0.008350828
246	0x3f27403f	0.65332407
247	0x3e7df15e	0.24799106
248	0xbcd13d2b	-0.025541862
249	0xbe8718ed	-0.26386204
250	0xbd4c4eac	-0.049879715
251	0x3e29a201	0.16565706
252	0xbf2b8a5e	-0.67008007
253	0x3e44d223	0.19220786
254	0xbf13897e	-0.5763167
255	0xbe42e2f9	-0.19031896

network_body._body_endoder.seq_layers.0.bias f4 [128]
0	0x00000000	0.0
1	0x00000000	0.0
2	0x00000000	0.0
3	0x00000000	0.0
4	0x00000000	0.0
5	0x00000000	0.0
6	0x00000000	0.0
7	0x00000000	0.0
8	0x00000000	0.0
9	0x00000000	0.0
10	0x00000000	0.0
11	0x00000000	0.0
12	0x00000000	0.0
13	0x00000000	0.0
14	0x00000000	0.0
15	0x00000000	0.0
16	0x00000000	0.0
17	0x00000000	0.0
18	0x00000000	0.0
19	0x00000000	0.0
20	0x00000000	0.0
21	0x00000000	0.0
22	0x00000000	0.0
23	0x00000000	0.0
24	0x00000000	0.0
25	0x00000000	0.0
26	0x00000000	0.0
27	0x00000000	0.0
28	0x00000000	0.0
29	0x00000000	0.0
30	0x00000000	0.0
31	0x00000000	0.0
32	0x00000000	0.0
33	0x00000000	0.0
34	0x00000000	0.0
35	0x00000000	0.0
36	0x00000000	0.0
37	0x00000000	0.0
38	0x00000000	0.0
39	0x00000000	0.0
40	0x00000000	0.0
41	0x00000000	0.0
42	0x00000000	0.0
43	0x00000000	0.0
44	0x00000000	0.0
45	0x00000000	0.0
46	0x00000000	0.0
47	0x00000000	0.0
48	0x00000000	0.0
49	0x00000000	0.0
50	0x00000000	0.0
51	0x00000000	0.0
52	0x00000000	0.0
53	0x00000000	0.0
54	0x00000000	0.0
55	0x00000000	0.0
56	0x00000000	0.0
57	0x00000000	0.0
58	0x00000000	0.0
59	0x00000000	0.0
60	0x00000000	0.0
61	0x00000000	0.0
62	0x00000000	0.0
63	0x00000000	0.0
64	0x00000000	0.0
65	0x00000000	0.0
66	0x00000000	0.0
67	0x00000000	0.0
68	0x00000000	0.0
69	0x00000000	0.0
70	0x00000000	0.0
71	0x00000000	0.0
72	0x00000000	0.0
73	0x00000000	0.0
74	0x00000000	0.0
75	0x00000000	0.0
76	0x00000000	0.0
77	0x00000000	0.0
78	0x00000000	0.0
79	0x00000000	0.0
80	0x00000000	0.0
81	0x00000000	0.0
82	0x00000000	0.0
83	0x00000000	0.0
84	0x00000000	0.0
85	0x00000000	0.0
86	0x00000000	0.0
87	0x00000000	0.0
88	0x00000000	0.0
89	0x00000000	0.0
90	0x00000000	0.0
91	0x00000000	0.0
92	0x00000000	0.0
93	0x00000000	0.0
94	0x00000000	0.0
95	0x00000000	0.0
96	0x00000000	0.0
97	0x00000000	0.0
98	0x00000000	0.0
99	0x00000000	0.0
100	0x00000000	0.0
101	0x00000000	0.0
102	0x00000000	0.0
103	0x00000000	0.0
104	0x00000000	0.0
105	0x00000000	0.0
106	0x00000000	0.0
107	0x00000000	0.0
108	0x00000000	0.0
109	0x00000000	0.0
110	0x00000000	0.0
111	0x00000000	0.0
112	0x00000000	0.0
113	0x00000000	0.0
114	0x00000000	0.0
115	0x00000000	0.0
116	0x00000000	0.0
117	0x00000000	0.0
118	0x00000000	0.0
119	0x00000000	0.0
120	0x00000000	0.0
121	0x00000000	0.0
122	0x00000000	0.0
123	0x00000000	0.0
124	0x00000000	0.0
125	0x00000000	0.0
126	0x00000000	0.0
127	0x00000000	0.0

network_body._body_endoder.seq_layers.2.weight f4 [128, 128]
0	0x3d585311	0.052813593
1	0xbe0c6831	-0.13711621
2	0x3e16567c	0.14681429
3	0xbd613b61	-0.05498827
4	0xbca33562	-0.019922916
5	0x3c0a71e2	0.008450003
6	0x3da8ee38	0.082485616
7	0x3e3f4376	0.18678078
8	0x3d00a3c2	0.03140617
9	0xbb1adf2a	-0.0023631551
10	0x3e1d4d6a	0.15361562
11	0x3df96180	0.121768
12	0xbe4caca2	-0.19987729
13	0x3dd1dc59	0.10247106
14	0xbd1c2051	-0.038116757
15	0x3e1e168a	0.15438285
16	0x3d38d170	0.04512161
17	0x3b247329	0.0025093055
18	0xbdd17596	-0.10227506
19	0xbbd4f9c4	-0.006499501
20	0x3dace3a8	0.084418595
21	0xbbc587aa	-0.0060281353
22	0x3d5d9c85	0.054104347
23	0x3d1c0644	0.038091913
24	0x3e2710de	0.16315028
25	0x3dc1b269	0.09457857
26	0x3d0f5ffb	0.035003643
27	0xbce7a7cc	-0.028278254
28	0xbc6a89fd	-0.0143151255
29	0x3e1e755c	0.15474457
30	0xbcb7237e	-0.022355791
31	0x3bbe9639	0.005816248
32	0x3ca679f6	0.020321827
33	0x3d812762	0.0630634
34	0xbbe9d336	-0.007135774
35	0xbd033a03	-0.032037746
36	0x3b2510a4	0.002518692
37	0x3e0384bc	0.12843603
38	0x3cd7ecab	0.02635797
39	0xbddee7dc	-0.108840674
40	0x3d1c5b60	0.03817308
41	0x3cb4d21d	0.022072846
42	0x3da3b34b	0.07993182
43	0x3be7f148	0.0070783235
44	0x3e2d9d8f	0.16954635
45	0xbcb8e738	-0.022571191
46	0x3d8dcaf3	0.06923475
47	0xbc905174	-0.017616965
48	0xbbcdb7a5	-0.0062779956
49	0xbe054c69	-0.1301743
50	0xbd90d42a	-0.07071717
51	0xbc90ba1c	-0.017666869
52	0xbb52ffea	-0.0032195994
53	0x3dd8e1bf	0.10589933
54	0xbc4a2821	-0.012338669
55	0xbc857b09	-0.01629402
56	0xbd265bb5	-0.040614802
57	0x3cfa4a4e	0.03055301
58	0xbc9c58b0	-0.019085258
59	0x3d675e8d	0.056486655
60	0x3d4f9f0a	0.05068878
61	0x3d3118d4	0.04323657
62	0x3d781ebe	0.060576193
63	0x3cb5be7e	0.02218556
64	0xbcf2114a	-0.02954926
65	0xbd13e6c1	-0.036108736
66	0x3e194b2b	0.1497008
67	0xbe02ebae	-0.12785217
68	0x3de5956f	0.11210143
69	0xbe067cc6	-0.13133535
70	0xbe428f52	-0.18999985
71	0xbd3b8931	-0.045785133
72	0xbdaeb3ca	-0.08530386
73	0x3d31a602	0.043371208
74	0xbd605811	-0.054771487
75	0x3d22b0fa	0.03971956
76	0xbdf6fd4a	-0.1206003
77	0x3c9fad92	0.019491944
78	0x3e243de1	0.1603923
79	0xbd4a4bac	-0.049388573
80	0xbd9266b5	-0.07148496
81	0x3db37bdf	0.08763861
82	0xbe178959	-0.14798488
83	0x3ce054a7	0.027384115
84	0xbbb0b24d	-0.005392349
85	0xbd8c572b	-0.068525635
86	0x3dfceea4	0.123502046
87	0xbe11c4c0	-0.1423521
88	0xbcd1c3cc	-0.025606059
89	0xbcfe7cf1	-0.031065436
90	0x3a58320c	0.00082472037
91	0x3d4e6024	0.050384656
92	0xbe25f8d4	-0.16208202
93	0x3dda9fef	0.10675036
94	0x3dd6ba01	0.10484696
95	0x3d2dc18b	0.042420905
96	0x380e5eef	3.3943852e-05
97	0x3cb5c3b0	0.022188038
98	0xbcffb7b5	-0.031215528
99	0x3e08d3a0	0.13361979
100	0xbd3230fa	-0.04350374
101	0xbdbc149d	-0.09183619
102	0xbd50a944	-0.050942674
103	0xbe6d8618	-0.23195684
104	0xbd5e9289	-0.054338966
105	0x3d4da78a	0.050208606
106	0xbdc5335c	-0.09628937
107	0x3d94c569	0.072642155
108	0xbe1f18d4	-0.15536815
109	0x3d898a21	0.06715799
110	0x3dcfc4b1	0.10144938
111	0xbd47197d	-0.048608292
112	0xbd62d8c9	-0.055382524
113	0xbdb78bc1	-0.08962203
114	0xbdeceeaf	-0.11568963
115	0x3dcaebf4	0.09908286
116	0xbe2a8f11	-0.16656138
117	0x3e125de6	0.14293632
118	0x3d432745	0.047644872
119	0x3cd90909	0.026493566
120	0xbd42bf9b	-0.04754601
121	0x3dd115c9	0.10209233
122	0x3e4c7d24	0.19969612
123	0x3c94e08c	0.018173479
124	0xbddd88b3	-0.10817089
125	0x3e229487	0.15876971
126	0x3e14f2c5	0.14545734
127	0x3df732f2	0.12070264
128	0x3da3afcd	0.07992516
129	0xbd4e8847	-0.050422933
130	0x3df7c0c1	0.12097312
131	0x3e02be34	0.12767869
132	0xbd5c8a37	-0.05384275
133	0xbdfa88f8	-0.12233156
134	0xbdf928a2	-0.12165953
135	0xbe804f49	-0.2506049
136	0xbd6ccc37	-0.057811942
137	0x3e251422	0.16120961
138	0xbdd16ccb	-0.10225829
139	0xbbda5fcb	-0.0066642514
140	0x3dc51147	0.09622436
141	0xbc85084d	-0.01623931
142	0x3da3ca48	0.079975665
143	0xbcd072eb	-0.025445422
144	0x3cdaae20	0.026694357
145	0xbcf22a63	-0.029561227
146	0xbbf5030a	-0.007477169
147	0xbe216284	-0.15760237
148	0xbd2382c5	-0.039919633
149	0xbd0fcedc	-0.035109386
150	0x3d21fd62	0.039548285
151	0x3e2133e9	0.15742458
152	0x3d354a79	0.044260476
153	0xbce853ae	-0.028360214
154	0x3e0fed91	0.14055468
155	0x3e1760ba	0.14782992
156	0x3d3c6bc8	0.046001226
157	0x3c3cf3cb	0.011532734
158	0x3cfc574c	0.030803345
159	0x3e0e9a3e	0.13926026
160	0x3bdece56	0.0067994995
161	0xbbc7661d	-0.006085171
162	0xbc40583e	-0.011739789
163	0xbd68faf0	-0.056879938
164	0xbccdae31	-0.025107475
165	0x3d31f534	0.043446735
166	0x3c7c0762	0.01538262
167	0x3d1cf3b0	0.038318336
168	0x3d8ba410	0.06818402
169	0xbd8674ac	-0.06565222
170	0x3d6354ac	0.05550067
171	0xbcadad05	-0.021200666
172	0xbb9e0a54	-0.0048230086
173	0xbbd8a80f	-0.006611831
174	0x3d64319c	0.055711374
175	0xbc557d06	-0.013030296
176	0xbd993534	-0.07480851
177	0xbe436e69	-0.19085087
178	0xbcd8f1ee	-0.026482549
179	0xbca32181	-0.019913437
180	0xbbd99479	-0.006640014
181	0xbcaa8224	-0.020814009
182	0x3e196979	0.14981641
183	0x3de294f5	0.110635675
184	0x3e169190	0.14703965
185	0xbd8d22ad	-0.068913795
186	0x3b62b881	0.0034594836
187	0xbe30647b	-0.1722583
188	0xbce14809	-0.02750017
189	0x3e1be6e5	0.15224798
190	0x3da2098e	0.07911979
191	0xbd9d1892	-0.07670702
192	0xbdc15159	-0.09439344
193	0x3d07a750	0.033118546
194	0x3e0653ff	0.1311798
195	0x3df21619	0.11820621
196	0x3ceedb1c	0.029157214
197	0x3e0c92a3	0.13727812
198	0x3de575dd	0.11204121
199	0x3db641df	0.08899283
200	0xbdc4ce00	-0.09609604
201	0xbd041f75	-0.032256562
202	0x3b290e52	0.002579589
203	0xbb9497bc	-0.0045346897
204	0xbcaf2f0c	-0.021384738
205	0x3d88b261	0.06674648
206	0xbdb9dad3	-0.090749405
207	0xbcc50eea	-0.024054963
208	0xbdd2c9cf	-0.10292398
209	0x3d25e0af	0.040497478
210	0xbe149659	-0.14510478
211	0xbdcf406e	-0.10119711
212	0x3b981519	0.004641187
213	0x3da73ef0	0.08166301
214	0x3e06d01f	0.1316533
215	0x3e48826f	0.19581006
216	0x3c997dd5	0.01873676
217	0xbd8b079d	-0.067885615
218	0x3e55b43d	0.20869537
219	0x3d23bfcb	0.03997783
220	0xbbbb813f	-0.0057221944
221	0x3d3688e3	0.04456414
222	0x3d00bc59	0.031429622
223	0xbe14718b	-0.14496438
224	0x3e26b658	0.16280496
225	0xbdaa6e1f	-0.08321785
226	0x3c659454	0.014012415
227	0xbcc189f4	-0.023625351
228	0x3e55947f	0.20857428
229	0xbd5f2847	-0.05448177
230	0xbc8cdb98	-0.017194554
231	0x3d4caa44	0.049967065
232	0xbdc9fbf6	-0.09862511
233	0x3e11f7ae	0.14254639
234	0xbe49223d	-0.19641967
235	0xbd52044a	-0.05127362
236	0xbdefa448	-0.11701256
237	0x3d061d0b	0.03274254
238	0x3d785545	0.060628194
239	0x3df1e2d8	0.11810845
240	0xbdb88c7e	-0.09011172
241	0xbd1a054c	-0.037602708
242	0xbe02f51c	-0.12788814
243	0x3cc0fe95	0.023558894
244	0x3db35a16	0.08757417
245	0xbdc51ab1	-0.096242316
246	0xbd87c362	-0.06629063
247	0x3d06f13b	0.0329449
248	0x3d461647	0.04836109
249	0xbd32cf37	-0.043654647
250	0x3dfec4de	0.12439893
251	0xbe028c93	-0.12748937
252	0xbdd65d5e	-0.10467027
253	0x3ceab653	0.028651392
254	0x3d425dcb	0.04745273
255	0x3e627fd2	0.22119072

network_body._body_endoder.seq_layers.2.bias f4 [128]
0	0x00000000	0.0
1	0x00000000	0.0
2	0x00000000	0.0
3	0x00000000	0.0
4	0x00000000	0.0
5	0x00000000	0.0
6	0x00000000	0.0
7	0x00000000	0.0
8	0x00000000	0.0
9	0x00000000	0.0
10	0x00000000	0.0
11	0x00000000	0.0
12	0x00000000	0.0
13	0x00000000	0.0
14	0x00000000	0.0
15	0x00000000	0.0
16	0x00000000	0.0
17	0x00000000	0.0
18	0x00000000	0.0
19	0x00000000	0.0
20	0x00000000	0.0
21	0x00000000	0.0
22	0x00000000	0.0
23	0x00000000	0.0
24	0x00000000	0.0
25	0x00000000	0.0
26	0x00000000	0.0
27	0x00000000	0.0
28	0x00000000	0.0
29	0x00000000	0.0
30	0x00000000	0.0
31	0x00000000	0.0
32	0x00000000	0.0
33	0x00000000	0.0
34	0x00000000	0.0
35	0x00000000	0.0
36	0x00000000	0.0
37	0x00000000	0.0
38	0x00000000	0.0
39	0x00000000	0.0
40	0x00000000	0.0
41	0x00000000	0.0
42	0x00000000	0.0
43	0x00000000	0.0
44	0x00000000	0.0
45	0x00000000	0.0
46	0x00000000	0.0
47	0x00000000	0.0
48	0x00000000	0.0
49	0x00000000	0.0
50	0x00000000	0.0
51	0x00000000	0.0
52	0x00000000	0.0
53	0x00000000	0.0
54	0x00000000	0.0
55	0x00000000	0.0
56	0x00000000	0.0
57	0x00000000	0.0
58	0x00000000	0.0
59	0x00000000	0.0
60	0x00000000	0.0
61	0x00000000	0.0
62	0x00000000	0.0
63	0x00000000	0.0
64	0x00000000	0.0
65	0x00000000	0.0
66	0x00000000	0.0
67	0x00000000	0.0
68	0x00000000	0.0
69	0x00000000	0.0
70	0x00000000	0.0
71	0x00000000	0.0
72	0x00000000	0.0
73	0x00000000	0.0
74	0x00000000	0.0
75	0x00000000	0.0
76	0x00000000	0.0
77	0x00000000	0.0
78	0x00000000	0.0
79	0x00000000	0.0
80	0x00000000	0.0
81	0x00000000	0.0
82	0x00000000	0.0
83	0x00000000	0.0
84	0x00000000	0.0
85	0x00000000	0.0
86	0x00000000	0.0
87	0x00000000	0.0
88	0x00000000	0.0
89	0x00000000	0.0
90	0x00000000	0.0
91	0x00000000	0.0
92	0x00000000	0.0
93	0x00000000	0.0
94	0x00000000	0.0
95	0x00000000	0.0
96	0x00000000	0.0
97	0x00000000	0.0
98	0x00000000	0.0
99	0x00000000	0.0
100	0x00000000	0.0
101	0x00000000	0.0
102	0x00000000	0.0
103	0x00000000	0.0
104	0x00000000	0.0
105	0x00000000	0.0
106	0x00000000	0.0
107	0x00000000	0.0
108	0x00000000	0.0
109	0x00000000	0.0
110	0x00000000	0.0
111	0x00000000	0.0
112	0x00000000	0.0
113	0x00000000	0.0
114	0x00000000	0.0
115	0x00000000	0.0
116	0x00000000	0.0
117	0x00000000	0.0
118	0x00000000	0.0
119	0x00000000	0.0
120	0x00000000	0.0
121	0x00000000	0.0
122	0x00000000	0.0
123	0x00000000	0.0
124	0x00000000	0.0
125	0x00000000	0.0
126	0x00000000	0.0
127	0x00000000	0.0

value_heads.value_heads.extrinsic.weight f4 [1, 128]
0	0xbe457960	-0.19284582
1	0xbe43a499	-0.19105758
2	0x3e486caa	0.19572702
3	0xbdcb38bb	-0.0992293
4	0xbdbd560d	-0.092449285
5	0xbdbae9a9	-0.091265984
6	0x3e5859a4	0.21127945
7	0x3dc21f58	0.094786346
8	0xbd81963a	-0.063274816
9	0xbe3b33aa	-0.18281427
10	0x3e474228	0.1945883
11	0x3cd1c040	0.025604367
12	0xbdf35be6	-0.118827626
13	0x3ced57b8	0.028972492
14	0xbdcb1b02	-0.09917261
15	0xbd8a0252	-0.06738724
16	0xbe2c31a2	-0.16815808
17	0x3d801de4	0.06255701
18	0xbc87d4d8	-0.016580984
19	0xbe242d04	-0.16032797
20	0x3d13ade0	0.036054492
21	0x3e55b322	0.20869115
22	0xbd9bbeba	-0.076047376
23	0x3d816764	0.06318548
24	0x3abce480	0.001441136
25	0xbddb7915	-0.10716454
26	0x3d2b38e0	0.041802287
27	0xbe2fcfb0	-0.1716907
28	0xbdc6454e	-0.096811876
29	0x3df35274	0.11880961
30	0x3df5cef4	0.12002364
31	0xbda26224	-0.07928875
32	0xbda476f8	-0.08030504
33	0x3e3f0316	0.18653521
34	0x3c5b7c90	0.013396397
35	0xbc0bb040	-0.008525908
36	0x3d1e9a30	0.038721263
37	0xbe1d1f2b	-0.15343921
38	0xbdd54d70	-0.10415161
39	0xbd868952	-0.065691605
40	0x3df31e94	0.11871067
41	0xbe4f53f7	-0.20246874
42	0xbd2a11e4	-0.041520968
43	0x3e47130c	0.1944086
44	0xbdfda206	-0.12384419
45	0x3e4a8e42	0.1978083
46	0x3e2e5406	0.1702424
47	0xbb204e80	-0.0024460852
48	0xbd4cd438	-0.050007075
49	0x3e2ad3ba	0.1668233
50	0xbe553b8d	-0.20823498
51	0xbe429048	-0.19000351
52	0xbe053d3d	-0.13011642
53	0x3e0ba162	0.13635781
54	0xbe5c6a91	-0.21525027
55	0xbdf2a038	-0.118469656
56	0xbe3f7fcc	-0.18701094
57	0x3cd92c38	0.026510343
58	0x3e37842e	0.17921516
59	0x3e1c97c8	0.15292275
60	0x3e568e3e	0.20952699
61	0x3e25ad6a	0.16179433
62	0xbda4d202	-0.08047868
63	0x3e429a36	0.1900414
64	0x3e5ae0ae	0.21374771
65	0x3e16bcd4	0.1472047
66	0x3da11d7c	0.07866952
67	0xbe5a24f1	-0.21303155
68	0xbd6bfce0	-0.057614207
69	0x3d344358	0.044009537
70	0x3e27355c	0.16328949
71	0x3e15b2d4	0.14618999
72	0xbdae5958	-0.08513135
73	0xbe1ba397	-0.15199123
74	0x3e2852bc	0.1643781
75	0x3e372bbc	0.17887777
76	0xbad98400	-0.0016595125
77	0xbdf2f438	-0.11862987
78	0x3e062c32	0.13102797
79	0x3da58460	0.08081889
80	0xbdcd3b9b	-0.100211345
81	0x3c3abe20	0.011397868
82	0x3e0bd642	0.13655952
83	0x3d761100	0.060074806
84	0xbe372a97	-0.1788734
85	0x3e29c01a	0.16577187
86	0x3d490f40	0.04908681
87	0xbca110a0	-0.019661248
88	0xbe27c4dd	-0.16383691
89	0xbd2df8e0	-0.042473674
90	0xbe56e1a3	-0.20984511
91	0x3e22a6c4	0.15883929
92	0xbe4f645f	-0.20253132
93	0xbd167174	-0.03672929
94	0xbb919d20	-0.0044437796
95	0x3ddfb6ac	0.10923514
96	0xbe407a96	-0.18796763
97	0xbe5a4685	-0.21315964
98	0xbe113154	-0.14178973
99	0x3d2cf0b0	0.042221725
100	0x3da55278	0.0807237
101	0xbe4469f9	-0.1918105
102	0xbe5113ab	-0.20417659
103	0xbe2c29b9	-0.16812791
104	0x3c65a080	0.014015317
105	0x3db4b0d8	0.08822793
106	0xbe2e98da	-0.17050496
107	0x3e27a35a	0.16370907
108	0x3e46b0c0	0.19403362
109	0x3e34cf64	0.17657238
110	0x3e25aa7a	0.16178313
111	0xbda772b6	-0.08176176
112	0xbd9ed83c	-0.07756087
113	0xbdc3f768	-0.09568673
114	0xbcab5498	-0.02091436
115	0x3dd64624	0.10462597
116	0xbd3192ec	-0.043353006
117	0xbe445586	-0.1917325
118	0xbd8e2afa	-0.06941791
119	0xbbd8cb60	-0.006616041
120	0x3e00963e	0.12557313
121	0x3cb2bb38	0.021817788
122	0xbdfa8ad4	-0.122335106
123	0xbd84326a	-0.06454928
124	0xbd5a04e0	-0.053227305
125	0xbe1b14ec	-0.151447
126	0xbd707a30	-0.058710277
127	0xbda12ca2	-0.07869841
