Assets/ML-Agents/results/sshipMovMod1Test-4/My Behavior.onnx (onnx, 75174 bytes, 6 tensors)

network_body._body_endoder.seq_layers.0.weight f4 [128, 1]
00000000: fec0 f13f 692e 973e 4ac5 183e a9ad 043e
00000010: 4e80 aabe f876 0d3f 0826 83bf 73bd ca3f
00000020: 022e 813e afd6 323f 90c2 8f3f ecb2 1540
00000030: 02d1 243e c0e9 443f 6881 263e c42e 1ec0
00000040: 3b90 003f 04dc 64bf 4e0f 31bf a7f7 13bf
00000050: 926e de3e 473b 9c3e 3f76 5a3f e84c 113f
00000060: 4f35 9fbe 5eb8 383f a8cc ebbd bd44 003e
00000070: 5ff9 ca3f ad78 f7bd bf86 f73f 1e67 563e
00000080: 7a7c 253f fbfc 09c0 c15a 0f40 fc58 313f
00000090: 8242 0940 c15a 73bd 6f60 843f e0e1 453d
000000a0: 9ce8 45bf 3586 d03e cb9c 6dc0 2f63 0740
000000b0: 3d16 99be 0f19 5d3d 044b 9f3f 71b9 3340
000000c0: d4dd 593f 181c abbf e538 523d 3f75 f8bf
000000d0: c2f3 9fbf 336c cabf eb2f ecbe 7e1d 0f3f
000000e0: 905f 803f ca11 e33f 0afc c03f 99ba 98bf
000000f0: 7553 a23f b226 42be 1782 7abe 3229 26be
00000100: b502 11bf f121 99bf fd65 22be 2c74 2d3f
00000110: 7432 733f 3df5 60bf 73e2 6abf d858 babf
00000120: a339 3ebf fdc5 ddbf 2311 ed3e b01b 0ebf
00000130: 70b9 993f 30b9 14be c35d e33d 92d5 9fbe
00000140: 9870 6bbf eac1 f7be 9752 063f bc1e d43c
00000150: 5d14 e9be 8805 02c0 1bfd d7bf 29d1 debf
00000160: b612 47bf 6977 a6bf 4a7f 2c3f d201 b93d
00000170: a14a 0cc0 6ca3 71bf dd84 2740 b479 bc3f
00000180: 93b2 343f 92db 8fbf 96fe 4e3f 94ee 6fbf
00000190: b342 b23d 5a9b 16be d82c 8d3e 5fa9 a8be
000001a0: 56c9 fabe d063 ea3e bb8b 063f 38ff b73e
000001b0: e678 233f 1027 313f 153a 7abc c2ef ddbe
000001c0: 13b0 7bbf f611 58bf e7a9 86bf 178b c53b
000001d0: 46fc 70be 1df9 9fbd 2711 94bf 822f 3a3e
000001e0: b315 69bf 21fa fc3e c533 24bf 21b3 003f
000001f0: 77d7 89bd 7cf7 06bf ce84 a13d 0af4 3f3f
1.8887022 0.29527596 0.1491901 0.12956871 -0.33301014 0.55259657 -1.0245981 1.5839065
0.25230414 0.6985883 1.1231251 2.3390455 0.16095355 0.76919174 0.16260302 -2.4716043
0.5022008 -0.8939822 -0.6916398 -0.5779976 0.43443733 0.30513975 0.8533668 0.56757975
-0.3109536 0.7215632 -0.115136445 0.12526222 1.5857352 -0.12083564 1.9337996 0.20937774
0.6464306 -2.1560657 2.2399142 0.69276404 2.1446843 -0.05941272 1.0341929 0.048311114
-0.7730806 0.40727392 -3.712695 2.1154287 -0.2989978 0.053978976 1.2444768 2.8081934
0.8510411 -1.3367949 0.05132379 -1.9410781 -1.2496264 -1.581427 -0.46130309 0.55904377
1.0029163 1.7739804 1.5076916 -1.1931945 1.2681719 -0.18960074 -0.24463688 -0.16226652
-0.56644756 -1.1963483 -0.15859218 0.6775539 0.9499886 -0.87874204 -0.91751784 -1.4558363
-0.74306697 -1.7326046 0.46302137 -0.55511 1.2009716 -0.14523768 0.11101868 -0.3121763
-0.9196868 -0.48390132 0.5246977 0.025893562 -0.45523348 -2.0315876 -1.6874117 -1.7407581
-0.77762926 -1.3005191 0.6738173 0.0903355 -2.192055 -0.94389987 2.6174843 1.4724641
0.7058498 -1.1238883 0.8085722 -0.93723416 0.08704128 -0.147077 0.27573276 -0.3294172
-0.48981732 0.45779276 0.5255696 0.35936904 0.6385635 0.6920023 -0.015272637 -0.43346983
-0.9831554 -0.84402406 -1.05206 0.0060285437 -0.23533735 -0.078111865 -1.1567734 0.18182185
-0.91048735 0.49409583 -0.64141494 0.5027333 -0.0673055 -0.5272138 0.078866586 0.7498175

network_body._body_endoder.seq_layers.0.bias f4 [128]
00000000: b10b 77bb 2e4d dbbb 4615 df3b 8bd7 163b
00000010: f2f8 d53a 7bc4 aeba db5a 173b 0ee0 6e3b
00000020: 898b a83b 516e 2cbb 6774 75bb 97ff 60bb
00000030: b26d 003b a40e bf38 0aa2 a7bb 91b0 b9bb
00000040: 4164 89bb c45e 803a d679 1b3b 9a2a 073b
00000050: 861a 5bbb 65e0 603b b22b 683b 363f 203b
00000060: 4f93 69bb 5b64 a0b9 693a d6b9 82b9 883b
00000070: 6671 51bc b3bc 253b cf8f 80bb 13ab 5abb
00000080: 2bf0 553b b18f 5dbb 49b5 f1bb 0a99 583b
00000090: b49d 85bb cdd0 d9ba 42e9 363b 16d8 223b
000000a0: 270a a8ba 1abb 1a3c e268 673b 4e2e 95bb
000000b0: 8d7f 393b 686c e1b9 db8b 76bb 1ce3 6c3b
000000c0: 857a 283b ff01 58bb 6453 2e39 4a07 f0bb
000000d0: caf1 c8bb 895b b13a 5e18 8c3b 98a4 7b3b
000000e0: c8e5 503b eb7d c63a 9b84 91bb 704f a6bb
000000f0: b1b0 2b3b f0a7 363b 8ad1 713b 9be9 78ba
00000100: 8546 353b d6fb 88bb 0b02 0d3a 97ed 273b
00000110: b926 813b c36b 793b 37e7 98b8 60b6 003b
00000120: c33a 4dbb 288a 5c3b 3171 2a3b 9a00 28bb
00000130: 7288 c0bb 107e 6dbb e0b8 43bb 9ba8 303b
00000140: 1fde 9f3b 11d1 c43b eb35 6b3b c7a6 35bb
00000150: 450a 553a b99f 82bc 119c 8ebb 9d3b a83b
00000160: f5a5 6d3b c421 99bb 9a12 6bbb f71a 333b
00000170: 9857 42bb 86fc cbbb 4cdf 663b 0395 6c3b
00000180: eaae 483b a7fd 92bb 670d 98bb 2649 9dbb
00000190: 4490 843b 09ab 833b bd93 113b 6c8d 02ba
000001a0: a5df a8bb b5c3 9ebb 5368 1e3b 9f6f 573b
000001b0: 4d5b acbb ac66 333b c2a3 3abc 0e1c ca39
000001c0: 1ef7 61bb dba0 ffb9 97f3 793b ddee afbb
000001d0: 8a94 603b 7c49 2b3b 5b52 95bc 7819 8a3b
000001e0: 7fb3 7ebb 58b0 5fbb 4eb5 b6bb 3295 5d3b
000001f0: 455a 1abc 07c2 39ba 642a 293b 6cc4 363b
-0.0037696178 -0.00669255 0.006807956 0.0023016657 0.0016324802 -0.0013333702 0.0023094926 0.0036449465
0.005143587 -0.002631087 -0.0037453414 -0.003433203 0.0019596634 9.110317e-05 -0.005115752 -0.0056668003
-0.0041928594 0.0009793867 0.0023723743 0.0020624758 -0.0033432557 0.0034313437 0.0035426435 0.002445174
-0.0035640781 -0.0003059235 -0.0004086078 0.004172505 -0.012783384 0.0025289475 -0.0039233933 -0.0033366128
0.0032644372 -0.003380757 -0.007376347 0.0033050203 -0.0040776376 -0.0016618014 0.0027910029 0.0024848036
-0.0012820408 0.009444023 0.0035310318 -0.004552639 0.0028304786 -0.00042996113 -0.0037619981 0.003614611
0.0025707793 -0.0032960174 0.00016624999 -0.0073250877 -0.006132339 0.0013531308 0.0042753657 0.0038397666
0.0031875242 0.0015143728 -0.0044408566 -0.0050753877 0.0026197846 0.0027871095 0.0036898577 -0.0009495259
0.002766044 -0.004180412 0.00053790276 0.0025623792 0.0039413837 0.0038058616 -7.290992e-05 0.0019639954
-0.0031315542 0.0033651683 0.0026007409 -0.0025635124 -0.0058756405 -0.003623847 -0.0029864833 0.0026955965
0.004878774 0.006006368 0.0035890292 -0.0027717815 0.00081268355 -0.015945302 -0.0043521007 0.0051340596
0.0036262248 -0.0046732146 -0.0035869242 0.0027329305 -0.002965426 -0.0062251715 0.003522831 0.003609956
0.0030621835 -0.004485804 -0.0046402696 -0.0047999797 0.004045518 0.0040181917 0.0022213303 -0.000498018
-0.0051536136 -0.0048451074 0.0024171069 0.0032872928 -0.0052599073 0.002737443 -0.011391582 0.00038549345
-0.0034479569 -0.00048757237 0.0038139576 -0.005369051 0.0034268224 0.002613633 -0.018227747 0.004214462
-0.0038864312 -0.0034132209 -0.0055758124 0.0033810851 -0.009420936 -0.0007086102 0.002581262 0.0027888073

network_body._body_endoder.seq_layers.2.weight f4 [128, 128]
00000000: d60f 883c 9a06 b7bd 53c8 933d c5a6 283d
00000010: 3338 12be 5ff8 2fbd d866 d1bd 947c db3d
00000020: d7ee bb3d 6ea5 e6bc 3172 2b3d ac8d ef3b
00000030: fc6d 863d 09bc 80bc cabc 453d 7b66 85bd
00000040: 891a 95bd 8862 e83c 9372 e43b 223a ed3b
00000050: c18f bbbd d17d dd3d a8e3 6b3e b786 403d
00000060: a9bc 383e d2ea 653d 220e 1abe a21d 69bd
00000070: 999c 2bbd 0616 4b3d 0ae2 3b3d bb7f 9c3d
00000080: 9043 2bbc d978 99bd 0f41 87bd bc57 523e
00000090: ae55 073d b7fb 71bd d096 32bb c4b7 40bd
000000a0: 8412 92bd 5e94 0b3d b706 45bd 6ee8 6cbd
000000b0: 7204 c23c 93b2 eb3d d2df 3e3b a8d4 1abd
000000c0: deb4 b13d 42f8 8ebd 6eb8 3a3d 0dcd 143d
000000d0: 0f2a ec3c 9ce2 8b39 7c9f d83d 8ddf 433e
000000e0: 702c 503e fbe6 f23d cf3f d0bd 620d 5a3d
000000f0: 9564 263c 2876 15ba fd1c 95bd b255 323b
00000100: 64ce c23d dd1e 193d 41c5 cb3c edbe 67bd
00000110: 98e0 173e 1a77 a8bd 1a8e 9d3d bfa1 5f3b
00000120: 0f41 853e ea75 b13d 931a 083e e303 7e3d
00000130: f49e f739 bbd5 4abd 9254 823d 4189 da3c
00000140: b273 91bd c06e 0a3e 329b a93d bd31 9dbc
00000150: 864a bbbd cf83 ca3c dd62 e8bd 64a7 b2bd
00000160: 70df cfbc a19e ca3b 39b8 36bd b6b2 d0bd
00000170: 5f0a c9bd 341d b7bc 9f77 a73d c01f 3c3e
00000180: 4301 633d 5f46 f4bd f361 01bd 5acd 17be
00000190: 7803 00bd 2e06 abbb 5fd7 773b 8512 b5b9
000001a0: 9f12 0b3b b8ab 803d ca1d 953d 0d40 003e
000001b0: b11b 01be c8d9 0d3e 9567 aa3d fdf6 c83c
000001c0: 255f 94bc 7c1b 8f3d fcd0 b33c 2911 c23c
000001d0: 7d7e 05be 57b4 2b3d 3b31 33bd bdd6 c83d
000001e0: a12f 19be fbf4 e3bd 5605 c6bb 4b7d b3bc
000001f0: 84e5 1b3d 1dd3 08bd 3f01 2d3c f96f 7c3d
00000200: a9ee 8a3d 6062 593e 2634 e43d 4133 8dbc
00000210: 7cdd 413d d884 0f3e aaaa 04be 9cb9 113d
00000220: 1114 453d 41a9 683d ac32 373c 3233 ac3c
00000230: 94de 293d 0a85 ac3c fa76 113e bfea 28bd
00000240: 3fa9 24bc a55e e63d 5c57 953b 4878 9ebd
00000250: 1d73 1cbe a30e 13bd fc57 cebd 5476 56bd
00000260: 2194 bd3d ceb3 c8bd 9439 0fbc a216 fabd
00000270: ec54 b7bd d217 563d ca21 4dbd 9b26 d0bd
00000280: aafe 983d 7d22 2abd cf13 a3bd 0710 aebd
00000290: 1005 083d 9ee5 8bbd 1817 3bbd 9e66 6b3c
000002a0: 04f9 3e3d 96f5 82bd 16c8 043d 224a b33d
000002b0: 05b8 26be 5198 e0bd 603c 443c dadc fa3d
000002c0: a08b 963d 3d20 5f3a 56c6 043e b7ad 43bd
000002d0: f7fe 9a3d 6062 88bd d37b 78bd 76a7 f3bd
000002e0: 5a87 c43c 5ec4 b3bc 14fb d63b 9dba f6bd
000002f0: ed76 ddbc 9c31 c93c c71e 823d 6103 29bd
00000300: 3522 b03d ea2d 97bd dad8 09be 9841 48bd
00000310: ffab ccbc 0aee d63b 4ea3 c5bc 17e2 5a3e
00000320: cbe8 bf3c 4603 823c d45e 9f3c eca3 013e
00000330: 5258 783d c8e6 263d 7d42 aebd 5b74 d53c
00000340: bf91 a93c 49b4 1abd 98d0 8a39 a397 8c3b
00000350: c5e3 00be 8cf8 02bd 8e7f c3bb 6d07 583e
00000360: 6ec8 58bd 16ef 99bd 4deb 003d e265 fd3c
00000370: 1616 163d 312b 073d 8b6b 21be 79b6 e93c
00000380: 545b 843d 28b5 c6bc 4308 383d 906f 133e
00000390: 488b 813d 4a85 bf3d 9888 ecba 6d96 b5bd
000003a0: d0a4 2e3c 5b5e 403c cab4 033d 0c36 073d
000003b0: c7cd 17be ce53 c1bc 93e0 ab3c 35d9 0b3d
000003c0: 4269 12be ada4 b2bc 0ddb 243e 2c4e b5bd
000003d0: 0018 59bd 0dec 2bbd 4417 aa3c 5b24 7bbd
000003e0: 34d2 cebd 2e8d 2abc 62f1 8cbd f2b7 69bc
000003f0: da44 5abd bd0a d03d 8845 1e3e 4072 40bd
0.016609114 -0.08936806 0.07215943 0.04117467 -0.14279251 -0.042961475 -0.10224694 0.10717121
0.091764145 -0.028155055 0.04185695 0.00731059 0.065639466 -0.015714662 0.048275746 -0.06513687
-0.07280452 0.028367296 0.006971666 0.007239596 -0.09158278 0.10815013 0.23036063 0.047003474
0.18040718 0.056132145 -0.15044454 -0.056913026 -0.04189739 0.04958155 0.045869865 0.0764155
-0.01045312 -0.07493753 -0.06604206 0.2054128 0.033040695 -0.059077945 -0.0027250536 -0.047050253
-0.07132438 0.03407704 -0.048102107 -0.05783885 0.02368376 0.1150867 0.0029125107 -0.03780046
0.08677076 -0.06980945 0.045586042 0.036328364 0.028828649 0.00026680983 0.10577294 0.19128247
0.20329452 0.11860462 -0.101684205 0.05323542 0.010155817 -0.00057015056 -0.0728092 0.0027211723
0.09512022 0.03738295 0.024874331 -0.056578565 0.1483177 -0.08225842 0.07693119 0.0034123508
0.26026198 0.086650684 0.13291387 0.062015425 0.0004722994 -0.049520236 0.06363787 0.026676776
-0.07102145 0.1351881 0.08281554 -0.019188756 -0.091450736 0.024721054 -0.11346982 -0.087233335
-0.025375098 0.006183461 -0.044609282 -0.101903364 -0.09816431 -0.022352792 0.08177113 0.18371487
0.055421125 -0.11927485 -0.031587552 -0.14824429 -0.031253308 -0.0052192425 0.003781758 -0.00034536808
0.0021220816 0.06282753 0.072810724 0.12524433 -0.1260822 0.13852608 0.08320538 0.024531836
-0.018111775 0.06987664 0.021950237 0.023689823 -0.13036533 0.041920032 -0.04374812 0.09806583
-0.14959575 -0.11130711 -0.0060431166 -0.02191033 0.03806068 -0.03340446 0.010559379 0.061630223
0.06783802 0.21228933 0.11142759 -0.017236354 0.047330365 0.1401552 -0.12955728 0.0355774
0.04811484 0.056802038 0.011181515 0.021020506 0.041472033 0.021059532 0.14205542 -0.041239496
-0.010050117 0.11248521 0.004557533 -0.077377856 -0.15278287 -0.03590263 -0.100753754 -0.05235894
0.09256769 -0.0979992 -0.008741755 -0.12211348 -0.089517444 0.05226881 -0.050081052 -0.101636134
0.07470448 -0.041536797 -0.079627626 -0.08499151 0.033207953 -0.068309054 -0.04567632 0.014367728
0.0466242 -0.06394498 0.03241738 0.08754374 -0.16281135 -0.10966552 0.011977285 0.12249155
0.0735085 0.0008511579 0.12966284 -0.04777309 0.07568162 -0.066593885 -0.060664963 -0.11897175
0.023990322 -0.021944221 0.0065606926 -0.120473124 -0.027034247 0.024559788 0.063535266 -0.041262988
0.086002745 -0.07381804 -0.13461629 -0.04889068 -0.024984358 0.006559138 -0.024125721 0.21375309
0.023426434 0.015870702 0.019454397 0.12660187 0.060631104 0.040747434 -0.085087754 0.02605646
0.02069938 -0.03776959 0.00026476826 0.0042905374 -0.12586887 -0.031975314 -0.0059661334 0.21096583
-0.05292552 -0.07516305 0.0314744 0.03093237 0.036642157 0.033000175 -0.1576368 0.028529393
0.06462732 -0.024256304 0.044929754 0.14398026 0.06325394 0.09351595 -0.0018046079 -0.08866582
0.010659412 0.011741246 0.032154836 0.033010527 -0.14824592 -0.023599532 0.020981109 0.03414269
-0.14297965 -0.02180704 0.16099186 -0.08852801 -0.053001404 -0.041973162 0.020763047 -0.06131397
-0.10098687 -0.010409636 -0.068819776 -0.014265047 -0.05328832 0.10158298 0.15456212 -0.046983957

network_body._body_endoder.seq_layers.2.bias f4 [128]
00000000: 324d 803b b2d3 91bb 0528 93bb 3212 673a
00000010: a38e 513b 878e b7bb 6770 803b 034f 8ebb
00000020: 3e2b fbba 2513 b13b 9488 96bb 398a 7a3b
00000030: c472 3abc ea98 abbc ff97 333b 17d9 b2bb
00000040: e3d7 a3bb e33f b4bb 07e1 74bb 213d 6cbb
00000050: 7d9d a1bb a630 28bc 5370 e23a b114 00bc
00000060: 15d8 6d3b 40f3 b4bb 2aac 8cbb 294b abba
00000070: 5d85 133c db35 5a3b bdcc b3bb 0916 943b
00000080: cd6c 863b 471a 6c3b e331 833b cdaf 5bbb
00000090: fbda 97bb 70dc 96bb 2efd 25bc 6bf8 3e3b
000000a0: 5626 6a3b 14a4 813b 92fe a9bb f164 043b
000000b0: 0104 00bc b332 0bbc 19e5 abbb e128 7f3b
000000c0: ead8 94bb 8cad 81bb 4b05 7d3b dc87 6c3b
000000d0: 06e7 34bc 227a 06bb 7321 153c 461a 873b
000000e0: 8352 24bc f4a4 803b 0e20 853b 947e 8abb
000000f0: 9aeb 6f3b 1311 753b f223 803b c08f 98bb
00000100: b4fb 33bc 9142 873b 417e 873b 3ba6 3fbc
00000110: 7966 9bbb ea06 a3bb ad63 213b 6673 a5bb
00000120: 3d66 513b 1f99 463b 2ef6 563b 4ebf 84bb
00000130: 21fb 85bb b720 2c3b 2924 2c3b 7cba 07bb
00000140: 93c3 153b 846f 363b d915 86bb a9c8 5d3b
00000150: e43e 2aba c17b 61bb dacd 733b d1cc 333b
00000160: 1c69 473b 40e6 8e3b c62c 833b 6859 63bb
00000170: 7503 8dbb 41e8 ca3a a692 9abb 47f4 82bb
00000180: ae5c aebb 74d7 793b 6fef 9ebb 589a 533b
00000190: 3a7c 793b 7d6e 12bc 2d66 45bc 5224 6a3b
000001a0: 31f3 88bb bd78 7e3b 7b25 e33b 6c3c 24bc
000001b0: 58cd 9abb feaa 45bb ee37 0b3a 6ae1 a7bb
000001c0: 9e59 3d3b 212b 8cbb 8007 14bc 8f25 21bc
000001d0: fdd5 87bb 0fbc 90bb 976b 7f3b 3774 b4bb
000001e0: 2f02 58bb 58bf a4bb 1536 613b b31b 86bb
000001f0: 54b2 99bb eab5 a9bb 7a24 70bb 8962 5a3b
0.0039154524 -0.004450285 -0.0044908547 0.0008814662 0.0031975887 -0.0056017074 0.0039196494 -0.004342915
-0.0019162667 0.0054038935 -0.004593918 0.003822936 -0.011379901 -0.020946939 0.002740383 -0.005458008
-0.005000101 -0.00550078 -0.0037365572 -0.0036047178 -0.004932104 -0.010265505 0.0017275907 -0.007817433
0.0036292125 -0.0055221617 -0.0042929845 -0.0013068664 0.009003964 0.003329626 -0.005487053 0.0045192284
0.0041023255 0.0036026405 0.0040037497 -0.0033521533 -0.004634259 -0.004603915 -0.0101311635 0.0029139768
0.0035728416 0.003956327 -0.005187818 0.0020201767 -0.007813455 -0.008495974 -0.0052458164 0.0038934278
-0.0045424597 -0.003957456 0.0038607891 0.003609172 -0.011041408 -0.0020519574 0.009102213 0.004123005
-0.010029438 0.003925914 0.004062659 -0.004226515 0.0036608935 0.003739421 0.003910535 -0.004655808
-0.010985304 0.0041278084 0.0041349237 -0.011697347 -0.0047424403 -0.0049751895 0.0024626062 -0.005049157
0.0031951808 0.003030367 0.0032800543 -0.0040511256 -0.004088775 0.0026264617 0.002626667 -0.0020710519
0.0022852167 0.0027837465 -0.00409196 0.0033841527 -0.0006494357 -0.0034406038 0.0037201555 0.0027435313
0.003042764 0.004360944 0.00400314 -0.0034690741 -0.0043033906 0.0015480594 -0.004717189 -0.0039964053
-0.005321107 0.0038122805 -0.00485032 0.003228804 0.003806843 -0.008937475 -0.012048286 0.0035727215
-0.0041793813 0.003882929 0.0069319583 -0.010024171 -0.004724186 -0.0030161734 0.00053107634 -0.005123307
0.0028892527 -0.0042776023 -0.009034991 -0.009835615 -0.0041453824 -0.0044169496 0.003897404 -0.005507018
-0.0032960286 -0.0050276928 0.003436451 -0.0040926575 -0.004690448 -0.0051791565 -0.0036642835 0.0033322892

action_model._continuous_distribution.mu.weight f4 [1, 128]
00000000: bd06 59bd da67 ee3c 779b 3e3c 7a16 e03b
00000010: 716b fdbb f574 a23b 1f69 20bc 9128 a238
00000020: 917f c63b ae9e 15bb f629 093c 9fe6 9fbc
00000030: 791d 263c 4951 2a3c 0800 27bc af62 f738
00000040: 0469 d03b 7699 f03a b01c 813c 616e 253c
00000050: 118f 833c b6ea b53c 76bf a6bb faaf 273d
00000060: b8c6 87bc e87e 2c3c e014 f53c bba8 4d3b
00000070: ee71 f8bc 26cc 3dbc 94ae 123b d38d 92bc
00000080: 8cef 98bc ba4f 50bc 8bd0 3dbc 5a9f e43c
00000090: 68f8 c43b f594 2b3d 314d 933b 9f17 75bb
000000a0: 5fcf 42bc 152b 8fbc 4cec 743b a898 e7ba
000000b0: 53a5 933b 795d f23c e3bd 5b3c 5c82 aebc
000000c0: 653d 013d 18f0 b03c 1ada e0bc 6380 6ebc
000000d0: 65e1 f03c 7c52 703a 0ad1 d0bb 8ce7 4abd
000000e0: b606 9d3c ac9c 05bc 14b2 42bc eeb9 eb3b
000000f0: cc49 bdbc 1e93 d6bc d0d3 c6bb 3cee 623b
00000100: a004 ed3b bd42 26bc db4b a4bc b24d 7b3d
00000110: 1ebc af3c cb07 073c b579 13bc 33cc 5d3d
00000120: a6ed abbb a028 95bb dbfa 89bb 938c fb3b
00000130: 4437 d33b 0d19 15bd ede9 373a 8408 b43a
00000140: 3d52 b8bc 4655 a9bb 99c5 113c 5573 bebc
00000150: f27e 973b 3c9c 8d3c 653e 4cbc 9568 94bb
00000160: 5444 9bbb 5538 b2bc 8f8a e9bc 79d8 283c
00000170: 598b ce3c 8896 1cbb 29c4 1a3c 9ef7 9d3c
00000180: d334 fe3b 2a7c eabc eaf3 2f3c c361 55bb
00000190: 6b9a 64bc 7b71 883c 2b0f 5d3c 219d 93bb
000001a0: 961a 903c f281 c5bc acac 87bb 669d 943c
000001b0: 57d6 353c aa7b ab39 b253 32ba 3757 7e3b
000001c0: b320 8abc 3276 e43b 566a 863a e240 b13b
000001d0: 3e3d 1a3c 74c8 683c 13b0 37bd 800c 903b
000001e0: 5a81 983c 1fa8 743c 51c5 34bc 0a5b bc3b
000001f0: 760c bb3b 17fa aa3b 3452 bb3c c608 dabb
-0.05298494 0.029102255 0.011633745 0.006838617 -0.0077337553 0.00495779 -0.009790688 7.732318e-05
0.0060576876 -0.0022830176 0.008371821 -0.019519148 0.010138863 0.010395356 -0.010192879 0.00011796259
0.006360175 0.0018356282 0.01576075 0.010097117 0.01605943 0.022206645 -0.005088742 0.04093931
-0.016574249 0.010528304 0.02991718 0.0031381089 -0.030327763 -0.011584317 0.0022381889 -0.017889893
-0.018668912 -0.012714321 -0.011585365 0.027908016 0.0060110576 0.041890103 0.004495286 -0.0037398112
-0.011890261 -0.017476598 0.003737229 -0.0017669396 0.004505792 0.029585587 0.013411972 -0.021302395
0.03155269 0.02159886 -0.027447749 -0.014556977 0.029404351 0.00091675646 -0.0063725756 -0.049537227
0.01916824 -0.008155029 -0.011883277 0.0071937954 -0.023106478 -0.026193198 -0.0060677305 0.0034626862
0.0072332174 -0.010147748 -0.020055702 0.061353393 0.021452006 0.008241604 -0.009001185 0.054149818
-0.0052468358 -0.004551962 -0.0042108125 0.00767667 0.006445797 -0.036400843 0.00070157537 0.0013735448
-0.022500152 -0.005167636 0.008897209 -0.023248354 0.0046232874 0.017286412 -0.012466048 -0.0045290687
-0.00473837 -0.021755377 -0.028508453 0.010305517 0.02521293 -0.0023893435 0.009446182 0.019283112
0.007757762 -0.02862366 0.010739306 -0.0032559491 -0.013952832 0.016655674 0.013492386 -0.004504815
0.017590802 -0.024109814 -0.004140457 0.01814146 0.011098466 0.00032707799 -0.00068026327 0.0038809308
-0.016861295 0.006972098 0.0010255079 0.005409346 0.009414015 0.014207948 -0.04484565 0.0043960214
0.018616367 0.014932661 -0.011033372 0.0057481574 0.0057082726 0.0052178013 0.022866346 -0.006653878

action_model._discrete_distribution.branches.0.weight f4 [1, 128]
00000000: c01a c4bb 8596 9d3b b299 02bb 8830 d6bb
00000010: 877b be3b 36a9 0c3c e331 4f3c 8d5a 133c
00000020: 1fa2 e33b f0ba e8bb 9111 183c 3906 27bc
00000030: 4d77 b23a c9a2 b4bb b8f5 dfbb 09d3 adbb
00000040: 0074 efbb 90a7 71bc eee8 053c a7ee 0fbc
00000050: 03c0 bcbb 364c 083c 1f0f e63a d5f3 e3bb
00000060: d718 3ebc 273f 4abb ca76 d63a 1b2e 343c
00000070: a605 0fbb 6b5c 0f3c 683c e03c 8751 2c3c
00000080: 2ada 3b3b ef54 27bc ee6a 833b 4bae 533b
00000090: 510c b13b 8607 303c ae40 c93b 67ec 563b
000000a0: 53eb b43b 5abc 3cbc dc4d 23ba 6bff 513b
000000b0: a3fb 5bbc 651d ecbb af48 b53b 7cd1 3fbb
000000c0: 03e7 5bbc 5bc1 f93b 5732 ff3a f697 973b
000000d0: 7562 8d3c 61e6 0cbb adda 303c 944e 35bc
000000e0: 336f 113c 2f11 a7bb 4ae4 e73b ddaa 4cbc
000000f0: 5d98 8838 8507 483b 6054 a43b 9101 143b
00000100: 08ac e3bb 4429 cc3b dda6 8d3c ca1f 813c
00000110: 0b3c 80bb e74e cdbb 8c22 853c 6108 073b
00000120: 1b39 afbb d227 55bc c5bd 793c 934f 933c
00000130: 96d6 8bbc 27e3 a03c ddc5 e6bb 1b58 e63b
00000140: a706 2ebc 1f6b 7e3b d71f e63c 7ff2 ca3b
00000150: 2820 14bc 5355 4b3c 50a5 913b 8175 163c
00000160: 8725 46bb 2068 453b 9a30 883c a551 1bbb
00000170: 404a f43a ab42 893b d887 3bbb 67af 19bb
00000180: c536 68bb 7e1f 84bb 93c7 363c b743 1b3c
00000190: 6eed 15bb 978d 2dbc d767 78bb 186a 8abc
000001a0: 4214 653c d563 133c 61e2 473b 3b8d a4bb
000001b0: fb55 d23b 7818 d03b 86fa babb 10b9 4d3c
000001c0: f20a 853b a4cf 45bb 3362 613c 1ca3 c8bb
000001d0: f7a4 b93a 7b2a 64bc aa73 ffbb 2f60 2e3c
000001e0: 1376 4e3c d82b 91bb ba10 69bb f321 923b
000001f0: 84ca 9f3b b872 073b d317 2b3b 2c85 2e3a
-0.005984634 0.004809203 -0.0019928035 -0.006536547 0.0058130655 0.008585265 0.012646171 0.008993757
0.0069468166 -0.007102363 0.009281532 -0.010194355 0.0013615877 -0.0055125696 -0.006834712 -0.0053046984
-0.0073075294 -0.014749423 0.008173211 -0.0087849265 -0.0057601943 0.008318951 0.0017552114 -0.0069565573
-0.011602602 -0.0030860396 0.0016362306 0.0109973205 -0.0021823435 0.0087500615 0.027372554 0.0105174845
0.0028663971 -0.010213121 0.0040105497 0.0032299932 0.0054030796 0.010743981 0.0061417436 0.0032794715
0.005521217 -0.011519516 -0.00062295585 0.003204311 -0.013426694 -0.0072056525 0.005532346 -0.002926915
-0.013421777 0.0076219267 0.0019469958 0.0046262695 0.017258862 -0.0021499621 0.010794324 -0.011066098
0.00887661 -0.005098484 0.0070767747 -0.012491909 6.513365e-05 0.003052206 0.005014941 0.0022583941
-0.006947998 0.006230505 0.01729148 0.015762229 -0.0039134077 -0.0062655094 0.016251825 0.002060436
-0.0053473837 -0.013009982 0.0152429985 0.01798228 -0.017070096 0.019639565 -0.00704263 0.007029546
-0.010621703 0.0038821173 0.028091354 0.0061934586 -0.00904087 0.01241048 0.0044447556 0.009183289
-0.003023477 0.0030121878 0.016624738 -0.0023699787 0.0018637851 0.0041888556 -0.0028614905 -0.0023450495
-0.0035433036 -0.0040320745 0.011155981 0.009476594 -0.0022877115 -0.01059284 -0.003790369 -0.016896293
0.013981881 0.00899597 0.0030499923 -0.005021719 0.006418941 0.006350573 -0.0057061343 0.012556329
0.0040601427 -0.0030183578 0.013756323 -0.00612296 0.0014163543 -0.013926144 -0.0077957707 0.010643049
0.012601393 -0.0044302754 -0.0035562948 0.0044596135 0.0048764367 0.0020667743 0.002610673 0.00066574174
