Assets/ML-Agents/results/sshipMovMod2Test01/ShipMovementImitation.onnx (onnx, 605703 bytes, 9 tensors)

network_body._body_endoder.seq_layers.0.weight f4 [128, 1]
0	0xbdb67cfd	-0.089105584
1	0xbe304cb6	-0.17216763
2	0x3fbef3f9	1.4918205
3	0x3fb51926	1.41483
4	0x3f272b18	0.6530013
5	0xbe4c7631	-0.19966961
6	0x3d723db0	0.05914086
7	0xbf285c39	-0.6576572
8	0xbf19496e	-0.5987767
9	0x3df1464d	0.11780987
10	0xc00b3872	-2.1753201
11	0x3f64f95a	0.8944298
12	0x3f648e84	0.8927996
13	0x3f5161bc	0.81789756
14	0x3d02648f	0.03183418
15	0xbe056470	-0.13026595
16	0x3fca8c44	1.5824056
17	0x3f437c55	0.7636159
18	0xbfebd1c2	-1.8423388
19	0xbea2d475	-0.31802717
20	0x3f7768d8	0.96644354
21	0x3f8753fd	1.0572506
22	0xbfae5cff	-1.362213
23	0x3f9a0df6	1.203551
24	0xbf3a9c3b	-0.7289464
25	0x3d494b0e	0.049143843
26	0x3f21ae11	0.6315623
27	0x3f99caba	1.2014992
28	0xbfa72100	-1.3056946
29	0xbefa948b	-0.48941454
30	0x3f83c116	1.02933
31	0x3e519163	0.20465617
32	0xbfc2bec6	-1.521447
33	0x3fe2543f	1.768196
34	0xbea94fda	-0.33068734
35	0x3fd829a5	1.6887709
36	0xbf9e13b9	-1.2349769
37	0xbf755838	-0.95837736
38	0x3e202e7f	0.15642737
39	0x3e6e39cf	0.2326424
40	0x3f6c82df	0.92387193
41	0x3e808c18	0.25106883
42	0xbf0d74d8	-0.55256414
43	0xbff6383f	-1.9235915
44	0x3dbae022	0.09124781
45	0x3f3c6457	0.73590606
46	0xbee120ab	-0.43970236
47	0xbfea3d7d	-1.8300015
48	0x3c3bc5d3	0.011460739
49	0x3cf5edbd	0.030020589
50	0x3e9ab1db	0.30213818
51	0x3f1d930e	0.6155251
52	0xbf137e4c	-0.5761459
53	0x3fd4345d	1.657848
54	0xbfb2cd24	-1.3968854
55	0xbfce664b	-1.6124967
56	0x3efde0d0	0.4958558
57	0x3f43a871	0.76428896
58	0x3f295fae	0.6616162
59	0x3f6c76f4	0.9236901
60	0x3f2112cc	0.62919307
61	0x3e86f179	0.26356104
62	0xbf3beab6	-0.73405015
63	0xbdea834f	-0.114508264
64	0x3f60b595	0.8777707
65	0xbd476dfc	-0.048688874
66	0xbfd2d948	-1.6472559
67	0xbe0eae9d	-0.13933797
68	0x3feceaf5	1.8509203
69	0xbf6ddc50	-0.92914295
70	0xbf6e7be7	-0.9315781
71	0xbfc47f4b	-1.5351347
72	0xbf13000c	-0.57421947
73	0x3efad1bf	0.4898815
74	0x3f873f6d	1.0566231
75	0xbe2cd51f	-0.16878174
76	0xbf2e93b8	-0.6819415
77	0x3f67124a	0.9026228
78	0x3fa9f368	1.3277407
79	0xbddb5201	-0.107090004
80	0x3ec6e884	0.3884927
81	0xbeaf3c50	-0.34225702
82	0x4008c9ab	2.1373088
83	0xbdc0396c	-0.09385952
84	0x3e1b7ce5	0.15184362
85	0x3f0379da	0.51357806
86	0x3efae6e0	0.4900427
87	0x3f6e484f	0.93079084
88	0x3f7cc35f	0.9873561
89	0x3ed14d2f	0.408792
90	0xbd8e38bc	-0.06944415
91	0x3c9535ad	0.018214071
92	0x3fddd1e4	1.7329679
93	0x3f76f495	0.9646695
94	0xbe9ef715	-0.31047884
95	0x3e9d5cbb	0.3073481
96	0x3d0f2872	0.03495068
97	0xbca26346	-0.019822728
98	0xbf564688	-0.8370137
99	0x3f5ee52f	0.87068456
100	0x3e8c0b28	0.27352262
101	0x3f260487	0.6485066
102	0xbe239eb7	-0.15978514
103	0xbf4854e1	-0.78254515
104	0xbfa8b89a	-1.3181336
105	0xbf30065d	-0.6875971
106	0x3e5506f6	0.20803437
107	0x3f4e01e3	0.8047163
108	0xbefa0124	-0.48828995
109	0x3efe5935	0.49677435
110	0x3efb094b	0.49030527
111	0xbf0b76cc	-0.54478145
112	0xbde35c70	-0.111016154
113	0xbefc3b90	-0.49264193
114	0xbf8fc391	-1.1231557
115	0x3f490cc6	0.78535116
116	0xbe360827	-0.17776547
117	0xbee7456c	-0.45170152
118	0xbe0e879c	-0.13918918
119	0xbfd31d71	-1.649336
120	0xbec900e4	-0.39258492
121	0xbe858a38	-0.26082015
122	0xbf827fcd	-1.0195252
123	0x3f78015f	0.9687709
124	0xbed41483	-0.414219
125	0x3f878d24	1.0589948
126	0xbe2d1247	-0.16901504
127	0xbfaa6a1f	-1.3313636

network_body._body_endoder.seq_layers.0.bias f4 [128]
0	0xbaf410d5	-0.0018620739
1	0x3a18db31	0.0005831002
2	0xbc0cd551	-0.0085957805
3	0xbc64184d	-0.013921809
4	0xbceb3097	-0.028709693
5	0x3aeb3cfb	0.0017947251
6	0xbabf07b8	-0.0014574444
7	0xbce26c0d	-0.027639413
8	0xbc87ecac	-0.016592346
9	0xbc204f54	-0.009784538
10	0x3b0c3341	0.0021392854
11	0xba9c641d	-0.0011931692
12	0xba3f2622	-0.0007291754
13	0x3aa13ee9	0.0012302074
14	0x3c60998e	0.013708485
15	0xbc56789c	-0.013090279
16	0xbbb7d189	-0.0056096953
17	0xbca4d607	-0.020121587
18	0x3c357890	0.011076108
19	0xbc4f5601	-0.012654782
20	0xbb0fffa0	-0.0021972433
21	0xbbd92b8d	-0.006627506
22	0x3b5f25a4	0.0034049535
23	0xbc414bd7	-0.011797867
24	0xbbe9c5a1	-0.007134155
25	0x3a27ef41	0.0006406196
26	0x3bc45839	0.0059919623
27	0xbc26c621	-0.010179074
28	0xbc4d7a3a	-0.012541348
29	0xbafb9f45	-0.0019197246
30	0x3c230243	0.00994927
31	0x3c913daf	0.017729608
32	0xbc3b40f2	-0.011429058
33	0x3c13a796	0.009012124
34	0x3b919d4b	0.0044437996
35	0xbbe8b85a	-0.0071020545
36	0xbb93ab03	-0.00450647
37	0xbb78de6e	-0.0037974375
38	0x3ca77ca9	0.020445185
39	0xbc74fd03	-0.014952901
40	0xbb766525	-0.0037596908
41	0x3bb92e55	0.005651275
42	0x3abaea06	0.0014260418
43	0x3b095200	0.0020953417
44	0x3b732dab	0.0037106078
45	0x3a235b03	0.00062315183
46	0xbb07a0dd	-0.0020695247
47	0xbc3c71ff	-0.011501788
48	0xbc48b2df	-0.012249677
49	0xbc662f8a	-0.01404942
50	0xbba5650b	-0.0050474457
51	0xbaadd850	-0.0013263319
52	0x3a59b4af	0.0008304817
53	0x3bfaca45	0.007653507
54	0xbb91dcce	-0.004451371
55	0xbcb4b8fa	-0.02206086
56	0xbb784b75	-0.0037886773
57	0x3b4cff30	0.0031280033
58	0xbc234cd5	-0.009967049
59	0xbcc588ea	-0.024113137
60	0xbb205872	-0.002446678
61	0xbbcbdde9	-0.006221522
62	0x3998e21f	0.00029160173
63	0xbb92a53f	-0.0044752653
64	0xbb99e079	-0.0046959487
65	0x3b8d25d0	0.004307486
66	0xbba65812	-0.005076417
67	0xbb83e2a9	-0.0040248227
68	0xbb51992e	-0.0031982171
69	0xbc98e9fd	-0.018666262
70	0x3bbfa348	0.005848322
71	0xbc4a60a3	-0.012352142
72	0xbc85a6f6	-0.016314965
73	0x3b910895	0.004426072
74	0x3b8d27a2	0.004307703
75	0xbc0bc607	-0.0085311
76	0x3c477866	0.012174701
77	0x3bb0ebd1	0.0053992053
78	0xbbe926a4	-0.007115202
79	0xbc9b5d71	-0.018965455
80	0x3b902ca5	0.0043998533
81	0xba518658	-0.0007992736
82	0xbc6c3471	-0.0144168
83	0xbb2379aa	-0.0024944344
84	0x3bc501e7	0.0060121897
85	0xbb47a64f	-0.0030464118
86	0x3c3e5981	0.011618019
87	0x3b725f79	0.0036983176
88	0xbad39ded	-0.0016145088
89	0x3b145aeb	0.00226372
90	0xbcbdee0b	-0.023184797
91	0x3b360aae	0.0027777362
92	0x3a2eece4	0.00066728727
93	0xbc65dfd5	-0.0140304165
94	0xbc32dfe8	-0.010917641
95	0x3c6116f2	0.013738381
96	0xbbff75dc	-0.0077960324
97	0xbc96a677	-0.018389923
98	0xbc1bcefe	-0.0095098
99	0xbc4c2eed	-0.01246236
100	0xbb9f6092	-0.004863807
101	0x3ba1b6bc	0.0049351137
102	0xbc024d45	-0.007952993
103	0xbc84add5	-0.01619617
104	0xbae675e4	-0.0017582742
105	0x3bbcb43a	0.0057587894
106	0x3bfc3034	0.007696176
107	0x3c65ca88	0.014025338
108	0x3bacbd83	0.005271615
109	0xbb80a077	-0.003925379
110	0xbbb4b273	-0.005514437
111	0x3b399dca	0.002832281
112	0xbb4edebe	-0.003156587
113	0xb99fe5dc	-0.00030498102
114	0x3b9fec0c	0.004880434
115	0x3b1ee26e	0.002424385
116	0xbc9c0a85	-0.019047985
117	0x3b8e7b98	0.0043482296
118	0x3c014bf9	0.007891648
119	0x3b421d44	0.0029619494
120	0x3ccfd130	0.025368303
121	0x3c84bbfa	0.016202915
122	0xbbe632d6	-0.007025103
123	0x3c909ed2	0.017653856
124	0x3c04129e	0.008061079
125	0x3bb2b25a	0.00545339
126	0x3af28fb7	0.0018505965
127	0x3aa4ac2b	0.0012563517

network_body._body_endoder.seq_layers.2.weight f4 [128, 128]
0	0xbcbdec6a	-0.02318402
1	0x3db1b9a3	0.086779855
2	0x3e2c5224	0.16828209
3	0xbbd85098	-0.0066014044
4	0xbd65b489	-0.056080375
5	0x3ccd522b	0.025063595
6	0xbdf27779	-0.11839194
7	0xbd43bbea	-0.04778663
8	0xbd90bb4f	-0.07066976
9	0x3c6b8903	0.014375928
10	0x3dc2e416	0.0951616
11	0x3cd34493	0.025789535
12	0x3da776f8	0.08176988
13	0x3d375aa3	0.044764172
14	0x3dd5a9a2	0.104327455
15	0x3d6ec850	0.0582965
16	0x3d26a50e	0.040684752
17	0xbcc1eee9	-0.023673492
18	0x3cf34adf	0.029698787
19	0xbd40109b	-0.046890836
20	0x3cd0f14c	0.025505684
21	0x3a6c6fdc	0.0009019354
22	0x3e1632b8	0.14667785
23	0x38698ae3	5.5680877e-05
24	0xbcea9362	-0.02863473
25	0x3a8562ad	0.0010176502
26	0x3de7ccf6	0.1131839
27	0xbe2bf166	-0.16791305
28	0x3e0fe25f	0.14051197
29	0xbc9818ab	-0.01856645
30	0x3c777286	0.015102988
31	0x3e094c09	0.13407911
32	0xbd220098	-0.039551347
33	0x3cebb771	0.028773995
34	0xbce0c709	-0.027438657
35	0x3e1590dc	0.1460604
36	0xbc1ad5b3	-0.009450364
37	0x3e1a3fd2	0.15063408
38	0x3c1cc805	0.009569173
39	0x3db33c2b	0.087517105
40	0xbe0cda17	-0.1375507
41	0xb9918305	-0.00027754172
42	0x3e003164	0.12518841
43	0x3d54b9c5	0.051934976
44	0x3b323cce	0.0027196887
45	0x3b7f30d4	0.0038939016
46	0x3dbd5355	0.0924441
47	0xbdc2d516	-0.09513299
48	0xbd0bc20f	-0.034120616
49	0x3bd9eda9	0.0066506458
50	0x3e058709	0.13039793
51	0x3dfdb8b9	0.12388749
52	0x3b9a969b	0.0047176606
53	0x3d3ef00f	0.046615656
54	0xbd93075c	-0.07179138
55	0xbe059264	-0.13044125
56	0x3e356a67	0.1771637
57	0xbcbd1840	-0.023082852
58	0x3e918d1c	0.2842797
59	0x3cb4dd6e	0.022078242
60	0x3ac94633	0.0015356004
61	0x3e238b3d	0.15971084
62	0x3d3c7226	0.046007298
63	0x3dc80bc5	0.0976787
64	0xbd9fbf7a	-0.07800193
65	0xbdb083b2	-0.08618869
66	0xbbada0e8	-0.0052987225
67	0xbdad6514	-0.08466545
68	0x3dcfb152	0.10141243
69	0xbd0129c2	-0.031533964
70	0xbca3f0d0	-0.02001229
71	0x3d41010f	0.04712015
72	0x3d118425	0.035526413
73	0x3d009901	0.031395916
74	0x3d1e76e5	0.038687605
75	0xbae39b19	-0.0017364948
76	0x3ddddc80	0.10833073
77	0xbd1a15c7	-0.037618425
78	0xbda3c6b4	-0.07996884
79	0x3da83f40	0.08215189
80	0xbcc5e940	-0.024159074
81	0x3d8864e8	0.06659871
82	0x3d7e700d	0.06211858
83	0xbd2489e5	-0.04017057
84	0xbc2d3ab5	-0.010573079
85	0x3d98de1e	0.074642405
86	0xbdf56a3f	-0.119831555
87	0x3ce7dfba	0.028304923
88	0x3dd7d0c0	0.10537863
89	0x3e2023ca	0.15638652
90	0xbd8a9940	-0.06767511
91	0xbda2eaf3	-0.07954969
92	0x3df74ce6	0.12075214
93	0x3dd57d5d	0.10424302
94	0xbdbdd04d	-0.09268246
95	0xbc35833a	-0.01107865
96	0x3e04bfc0	0.12963772
97	0x3dd8bc29	0.10582764
98	0xbcc47b80	-0.02398467
99	0xbce82eb4	-0.028342582
100	0x3d4c5993	0.049890112
101	0x3ddad6fe	0.10685538
102	0xbd83c5ea	-0.064342335
103	0x3dd6bdc1	0.104854114
104	0xbdbbeee5	-0.09176425
105	0x3c79d4d9	0.015248501
106	0x3b93dd3f	0.0045124586
107	0xbe2e0005	-0.16992195
108	0xbcea0b60	-0.028569877
109	0xbda08e4a	-0.078396395
110	0x3aa343c8	0.0012456113
111	0x3b9e28f6	0.0048266603
112	0xbd804e37	-0.06264918
113	0x3dfa7c99	0.12230796
114	0x3daec510	0.085336804
115	0xbcee03c8	-0.029054537
116	0xbda37a94	-0.07982364
117	0xbd894f53	-0.06704583
118	0x3e055ab1	0.13022877
119	0xbe5738e4	-0.21017796
120	0xbd374ac2	-0.04474903
121	0x3d630829	0.055427704
122	0xbb5ff10b	-0.0034170772
123	0x3d440a4c	0.047861382
124	0x3e2545ea	0.16139951
125	0x3da9c6b6	0.08289854
126	0xbcf388de	-0.02972835
127	0xbd4f7f0b	-0.050658267
128	0xbd0e7d63	-0.034787547
129	0x3d36d3a4	0.04463543
130	0x3dfd6ea8	0.12374622
131	0xbd2346c4	-0.03986241
132	0xbd4a077e	-0.04932355
133	0xbd87c52a	-0.06629403
134	0xbd9227d1	-0.071365006
135	0x3c0ef66b	0.008725743
136	0xbcfbaad3	-0.030721104
137	0x3dd423b1	0.1035837
138	0xbd853afd	-0.06505392
139	0xbd01e590	-0.03171307
140	0x3d758791	0.05994374
141	0xbd05521f	-0.03254902
142	0xbd588016	-0.052856527
143	0x3e55bc99	0.20872726
144	0x3d6cbc1b	0.05779658
145	0xbcb450a1	-0.022011103
146	0xbdd3dfb6	-0.10345404
147	0x3d0ccc9c	0.03437482
148	0x3ba568aa	0.0050478773
149	0xbcecc3b4	-0.028901912
150	0x3d98ddd9	0.07464189
151	0x3a82f824	0.0009992165
152	0xbccb79bd	-0.024838323
153	0x3dbefeeb	0.093259655
154	0x3cb99220	0.022652686
155	0x3d65e9f7	0.05613133
156	0x3db76449	0.08954675
157	0x3dd74333	0.10510864
158	0x3da936f1	0.08262432
159	0x3d3a8d66	0.045545004
160	0x3e398e9e	0.1812081
161	0xbdc240de	-0.09485029
162	0xbe5128c6	-0.2042571
163	0xbe46a7b1	-0.19399907
164	0x3d700c87	0.058605697
165	0x3da6b97b	0.08140846
166	0x3daa05e6	0.08301906
167	0xbcb1b569	-0.021692948
168	0x3bca0c59	0.0061660227
169	0x3c1484e3	0.009064886
170	0x3b1d237c	0.002397745
171	0x3cf6ca37	0.03012572
172	0xbcf91ad8	-0.030408308
173	0x3d1889b2	0.03724069
174	0xbd3f845a	-0.04675708
175	0x3d4da2bd	0.050204027
176	0x3dc829f1	0.09773625
177	0x3d9fc15b	0.078005515
178	0x3ddfda1d	0.10930274
179	0xba94a604	-0.001134098
180	0x3ccb00f4	0.024780728
181	0xbd82e503	-0.06391337
182	0xbd45adea	-0.04826156
183	0xbd4fc5ad	-0.050725628
184	0x3cb61bd2	0.022230063
185	0xbe5f00ab	-0.21777599
186	0x3dce13fc	0.100624055
187	0x3da6104a	0.08108576
188	0xbdbb18da	-0.091355994
189	0x3d04f126	0.03245654
190	0x3b26d514	0.0025456594
191	0x3d56f12a	0.052476086
192	0x3d8b08c3	0.067887805
193	0x3d152b4c	0.036418244
194	0xbcbd83da	-0.02313416
195	0xbc2ff9bf	-0.010740696
196	0x3d4bf467	0.049793627
197	0x3cabf2a3	0.020989722
198	0x3da43f04	0.08019832
199	0x3dedc75b	0.1161029
200	0x3cb1467a	0.021640051
201	0xbde862a2	-0.11346938
202	0x3da368ab	0.07978948
203	0x3e0e65ac	0.13905972
204	0xbd3b7ddc	-0.045774326
205	0x3db5c181	0.088747986
206	0x3cb312cf	0.021859555
207	0x3d215c2f	0.039394554
208	0x3d89603f	0.067078106
209	0x3d8a517e	0.06753825
210	0xbd558cc7	-0.05213621
211	0xbd9a7f49	-0.07543809
212	0x3e0e310f	0.13885902
213	0x3db9d2d1	0.09073413
214	0xbd4a15a3	-0.04933704
215	0xbc3f3517	-0.011670372
216	0xbb20ca04	-0.0024534473
217	0xbd8e7e34	-0.06957665
218	0x3d6ec39d	0.05829202
219	0x3d2c6e43	0.04209734
220	0xbd2bb884	-0.041924015
221	0x3e1b68c1	0.15176679
222	0x3ca4ba02	0.020108227
223	0x3d857e7b	0.06518265
224	0x3d283338	0.04106447
225	0x3e90b6dd	0.28264514
226	0xbd297c34	-0.041378215
227	0x3cda27df	0.02663034
228	0x3daaad3b	0.08333822
229	0x3e001e97	0.12511669
230	0x3d5a9699	0.053366277
231	0x3d5ad316	0.053423963
232	0x3d3159b3	0.043298434
233	0x3df10578	0.11768621
234	0xbe10ef0e	-0.14153692
235	0xbd1fb5bb	-0.03899167
236	0xbe6ae18e	-0.22937605
237	0xbe25a450	-0.16175961
238	0xbe148590	-0.14504075
239	0xbd10afd4	-0.035323933
240	0xbd085652	-0.033285446
241	0x3de6e496	0.11274068
242	0xbd37a52a	-0.044835247
243	0x3dba7c78	0.09105772
244	0xbe11921b	-0.14215891
245	0x3bc878bf	0.0061179097
246	0xbdd3267f	-0.10310077
247	0x3de5908f	0.11209213
248	0xbe219d1e	-0.15782592
249	0xbde7c7ca	-0.113174036
250	0x3dfc3eae	0.12316643
251	0xbce88ca6	-0.028387379
252	0xbbef7d8f	-0.007308669
253	0xbdeac6ab	-0.11463674
254	0xbcacc0fe	-0.02108812
255	0x3cdf2a9d	0.027242

network_body._body_endoder.seq_layers.2.bias f4 [128]
0	0x3c62406b	0.013809304
1	0xbcee2c7a	-0.029073942
2	0x3b0d0317	0.0021516734
3	0xba8b5e74	-0.0010633008
4	0xbc84409c	-0.01614409
5	0xbb8ec1b6	-0.0043565882
6	0xbbacce27	-0.0052735987
7	0x3b028362	0.0019914736
8	0x3c14e7e2	0.009088488
9	0xba977799	-0.0011556029
10	0x3a557da9	0.000814403
11	0xb9ad350d	-0.00033036657
12	0x3a4ed59a	0.00078901055
13	0xbc0e2628	-0.008676089
14	0xbb83ae2e	-0.0040185666
15	0x3c1e848e	0.009675158
16	0xbc590011	-0.013244645
17	0xbb944ed3	-0.004525998
18	0xbc8b9918	-0.017040774
19	0xbc188e68	-0.009311296
20	0x3bf3a309	0.007435207
21	0xbb212984	-0.0024591396
22	0x3c5627cb	0.013071011
23	0xb9b2df4d	-0.00034117178
24	0x3cb42335	0.021989444
25	0xbbb2f719	-0.0054615852
26	0x3bc37c33	0.0059657334
27	0x3c9cd56f	0.019144742
28	0xbc924242	-0.01785386
29	0x3c2021c5	0.009773676
30	0x3c47ce2e	0.012195153
31	0xbb9d6812	-0.004803666
32	0xbc983243	-0.018578654
33	0x3bd69a19	0.0065491316
34	0xbbef5cc3	-0.007304759
35	0xbc286fdb	-0.010280575
36	0xbc067f97	-0.008209131
37	0x3ba153b9	0.0049233106
38	0xbc70ebce	-0.014704658
39	0x3b125736	0.0022329814
40	0x3b7102a9	0.0036775267
41	0xbc5b34d9	-0.013379299
42	0xbc7d1ebf	-0.015449225
43	0xbce15d16	-0.027510207
44	0xbcc25b53	-0.023725187
45	0xbbe2790a	-0.0069114016
46	0x3c38fba3	0.011290464
47	0xbb8240f5	-0.0039750286
48	0xbb8f829a	-0.0043795826
49	0x3afbc864	0.0019209501
50	0x3c383dff	0.01124525
51	0xbc993594	-0.018702306
52	0x3cf0d1f1	0.029396983
53	0x3b841e46	0.004031929
54	0x3b1a5e76	0.0023554838
55	0xbca780b4	-0.020447113
56	0x3ba260f9	0.0049554077
57	0x3b16f6e4	0.0023035342
58	0x3b119c19	0.0022218286
59	0x3ca730fd	0.020409102
60	0xbbd51ad6	-0.0065034432
61	0x3c8fb62b	0.01754292
62	0xbb493206	-0.0030699982
63	0x3a01d798	0.00049530854
64	0xbc9816c3	-0.018565541
65	0x3bfcec18	0.0077185743
66	0xbc722258	-0.014778696
67	0x3b8b63bd	0.004253833
68	0xbcb32bea	-0.021871526
69	0x3c1b352f	0.009473129
70	0x3bfdf8d3	0.0077506094
71	0xbc8bc2ae	-0.017060604
72	0xbbec0146	-0.0072023002
73	0x3b11b7c5	0.002223478
74	0xbc076fe4	-0.008266423
75	0x3bfa4704	0.0076378603
76	0x3b2a7eb0	0.0026015453
77	0xbc3b1153	-0.011417705
78	0xbbefab4e	-0.0073141223
79	0x3a93cefe	0.0011276898
80	0x3bbfaccc	0.0058494564
81	0xbc91f288	-0.017815843
82	0xbbcd3ccb	-0.0062633506
83	0x3c13e156	0.009025892
84	0x3d0adc01	0.03390122
85	0xbcd59c34	-0.02607546
86	0xbb545e46	-0.0032404824
87	0x3a0e2bcb	0.0005423396
88	0xbbe09e4e	-0.006854809
89	0x3be0ba01	0.006858111
90	0xbbe067db	-0.006848318
91	0x3c3f9a7c	0.011694547
92	0xba086646	-0.0005203228
93	0xbb7554fb	-0.0037434686
94	0xbb6ff832	-0.0036616442
95	0x3cb33077	0.021873696
96	0x3c0436d2	0.008069711
97	0x3bc1fa1b	0.0059197075
98	0x3c2786b7	0.01022499
99	0xbc571a04	-0.013128761
100	0xb9221e78	-0.00015460874
101	0xbc31dd08	-0.010855921
102	0xbc17de35	-0.009269287
103	0xbbb543b0	-0.0055317506
104	0x3ae192f7	0.0017209937
105	0x3b58fa6e	0.0033108252
106	0x3bc5e1e8	0.006038893
107	0xbb646e6e	-0.003485586
108	0x3a54947a	0.0008109283
109	0xbb3384a3	-0.002739229
110	0xbb348424	-0.0027544582
111	0xbbd98016	-0.0066375835
112	0x3c1fdc33	0.009757089
113	0xbbe2f415	-0.0069260695
114	0x39d05dd4	0.0003974276
115	0x3b7f4a45	0.003895418
116	0xbaf1d340	-0.0018449798
117	0xb9c56064	-0.00037646585
118	0x3c0c701c	0.008571651
119	0xbb820871	-0.0039682915
120	0xbc2d10b3	-0.010563063
121	0xbc8446c7	-0.01614703
122	0xbc116469	-0.008874037
123	0x3876d6f5	5.8851165e-05
124	0xba77a5fa	-0.00094470347
125	0x3b9efc81	0.004851878
126	0xbbbbc0fe	-0.0057297936
127	0xbc1e9048	-0.009677954

action_model._continuous_distribution.mu.weight f4 [1, 128]
0	0x3b86a936	0.004109527
1	0xbd05a585	-0.032628555
2	0xbd058ed3	-0.03260691
3	0xbcbf3494	-0.0233405
4	0x3cb53843	0.022121554
5	0x3bd7ee08	0.006589655
6	0xbd45013a	-0.048096873
7	0x3c81ba4f	0.01583591
8	0xbd2aa0be	-0.041657202
9	0xba3f7e20	-0.0007304866
10	0xbca35de6	-0.019942235
11	0x3cb9067d	0.022586102
12	0x3cd0d160	0.025490463
13	0xbcb3d128	-0.02195032
14	0x3d11690b	0.035500567
15	0x3bb3dc9e	0.005488946
16	0x3c517672	0.012784587
17	0xbcf5bc3e	-0.029996987
18	0xb9ec9ede	-0.00045131793
19	0xbc27f1d7	-0.01025053
20	0x3c95b45a	0.018274475
21	0xbc7d9e64	-0.015479658
22	0x3b7905a3	0.0037997745
23	0x3c487863	0.012235734
24	0x3d2c6813	0.04209144
25	0x3ce0af28	0.027427271
26	0xbcf53f50	-0.029937416
27	0x3d05966d	0.03261416
28	0xbc2c3920	-0.010511667
29	0x3cfd59cc	0.030926608
30	0x3c842d4a	0.016134877
31	0x3cc37822	0.023860995
32	0x3c50d495	0.012745996
33	0x3c8ef25e	0.017449554
34	0xbd3e8430	-0.046512783
35	0x3caeb875	0.02132819
36	0xbd13a221	-0.03604329
37	0xbd1f7e26	-0.038938664
38	0x3caed537	0.021341903
39	0x3d2fbbbe	0.042903654
40	0x3d314518	0.043278784
41	0xbc946533	-0.018114662
42	0xbc919ebd	-0.017775888
43	0xbce2bbb7	-0.0276774
44	0x3c9b9811	0.01899341
45	0xbb2912bd	-0.0025798522
46	0xbc4caf9c	-0.01249304
47	0xbb83a095	-0.0040169456
48	0xbba10cc2	-0.004914851
49	0xbc019aaa	-0.00791041
50	0x3cba3c0e	0.022733714
51	0xbd221222	-0.039568074
52	0xbc9032fc	-0.017602436
53	0x3bfb4119	0.0076676724
54	0x3c0b5ce1	0.008506031
55	0x3cba726a	0.022759635
56	0x3cd3ecc1	0.025869729
57	0xbd0a8c47	-0.033825185
58	0xbbf260e1	-0.007396803
59	0x3ce62bb9	0.02809702
60	0x3cfa2082	0.030533079
61	0x3c832709	0.016009824
62	0x3cb61230	0.02222547
63	0xbcd4fa6a	-0.025998313
64	0x3d1e3e17	0.038633432
65	0x3d495404	0.04915239
66	0xbc9b5b31	-0.018964382
67	0x3cb75923	0.02238137
68	0x3b82d046	0.0039921133
69	0xbc8ac8ab	-0.01694139
70	0x3c71f238	0.014767222
71	0x3d0c281e	0.034217946
72	0xbcab0beb	-0.020879706
73	0xbd390280	-0.0451684
74	0xbb75de3a	-0.003751649
75	0xbd24a411	-0.04019553
76	0x3ce06302	0.02739096
77	0xbd36b055	-0.044601757
78	0xbcb0a22c	-0.021561705
79	0xbac9bd36	-0.0015391472
80	0x3c21d527	0.00987748
81	0x3cc29e29	0.023757057
82	0xbd11ffff	-0.035644528
83	0xb6e93f08	-6.951279e-06
84	0xbc86776a	-0.016414363
85	0x3d0d8f68	0.03456059
86	0x3d1e1c7a	0.038601376
87	0x3d330347	0.043704297
88	0xbc8871db	-0.016655853
89	0x3cc9b9a4	0.024624653
90	0x3c281f8d	0.010261429
91	0x3d1d61a4	0.038423195
92	0x3c499362	0.012303205
93	0xbccac69c	-0.024752907
94	0x3c023af3	0.007948625
95	0xbb96b11b	-0.0045987493
96	0xbd4bd90b	-0.049767535
97	0xbb9daca6	-0.004811841
98	0xbd04c0b4	-0.03241034
99	0x3c4dff31	0.012573049
100	0x3bafb443	0.005362065
101	0xbc47eda2	-0.012202652
102	0x3c2fd054	0.010730822
103	0x3c872a41	0.01649964
104	0xbcc08ad3	-0.023503697
105	0x3d0658bb	0.032799464
106	0xbd10d55b	-0.03535972
107	0xbd6da6a5	-0.058020253
108	0xbb8aa7f6	-0.0042314483
109	0xbcf9618a	-0.030442018
110	0x3ca2502c	0.01981362
111	0x3d0c73b2	0.034290023
112	0xbb7f504e	-0.0038957777
113	0xbc1dae8c	-0.009624135
114	0x3d040c06	0.03223803
115	0xbcce5680	-0.02518773
116	0xbb65b4bb	-0.003505035
117	0x3be5ca12	0.007012614
118	0x3ca67fd4	0.020324625
119	0xbca3fc94	-0.0200179
120	0xbb85ee9e	-0.0040872833
121	0x3cc3f2cb	0.023919484
122	0xbc22555b	-0.009908046
123	0xbcfd0b02	-0.030889038
124	0xbcc1becc	-0.02365055
125	0xbd15659e	-0.036473863
126	0xbb3b2b49	-0.0028559736
127	0xbc990b06	-0.018682014

action_model._discrete_distribution.branches.0.weight f4 [1, 128]
0	0x3c4966b7	0.0122925555
1	0x3c15a7fd	0.00913429
2	0x3ca6027b	0.020264855
3	0xbbc61c5c	-0.006045861
4	0x3c869df5	0.016432742
5	0x3b95e971	0.0045749475
6	0x3bf5186d	0.0074797184
7	0x3bcbc614	0.006218681
8	0xbc0ec6cb	-0.008714388
9	0xbbf3da45	-0.0074417912
10	0xbb8c3304	-0.0042785425
11	0xbc5851ab	-0.013203065
12	0xbbae45ab	-0.0053183637
13	0xbc4d830b	-0.01254345
14	0x3b9af67b	0.00472909
15	0x3bd593af	0.0065178494
16	0xbbdc54a5	-0.0067239576
17	0xbb830ef2	-0.0039995844
18	0x3b7354c8	0.003712939
19	0xbc0c65bc	-0.008569177
20	0x3ac580f4	0.0015068338
21	0x3c58363d	0.013196525
22	0xbcbda4b3	-0.023149824
23	0x3b7729cb	0.003771412
24	0xbc822d86	-0.015890848
25	0x3b5c8360	0.0033647642
26	0xbaa322e7	-0.0012446315
27	0x3be80cad	0.007081589
28	0xbb694cc3	-0.0035598732
29	0x3c02a682	0.007974269
30	0xb72f6ac2	-1.0455669e-05
31	0x3c1a7533	0.0094273565
32	0xb957894d	-0.00020555146
33	0x3c8fca11	0.017552407
34	0xbbf271f7	-0.0073988396
35	0xba75c9ef	-0.0009376099
36	0x3ba1f223	0.004942195
37	0x3c03c7eb	0.00804327
38	0xbbd6ca98	-0.006554913
39	0x3abb647e	0.0014296917
40	0xbba4177c	-0.0050076824
41	0xbb12c3c4	-0.0022394517
42	0xbb385880	-0.0028128922
43	0xbbcdc662	-0.0062797526
44	0xbc933cdb	-0.017973354
45	0xbc8e8b11	-0.017400296
46	0x3bd5ce28	0.00652482
47	0xb9ca6603	-0.00038604447
48	0x3c0c18d1	0.008550839
49	0x3c88be53	0.016692316
50	0xba1abd9c	-0.0005902888
51	0xbb81aedc	-0.0039576124
52	0xba169dbd	-0.0005745551
53	0xbabbd1bb	-0.0014329472
54	0x3bc3ff6c	0.0059813764
55	0x3b0c7947	0.0021434592
56	0xb99b42d7	-0.00029613703
57	0xbc9d4615	-0.019198457
58	0xbb37fd3a	-0.0028074519
59	0x3ad51ec2	0.0016259777
60	0xbc2b0e35	-0.010440399
61	0xba9eae71	-0.0012106431
62	0x3bbbea79	0.0057347384
63	0x3b52324f	0.0032073443
64	0xbc536402	-0.012902262
65	0xb93bfe1d	-0.00017928374
66	0x3bb75d03	0.0055958047
67	0x3c66267f	0.014047264
68	0xbb5e3c7d	-0.0033910566
69	0xbb20a869	-0.0024514443
70	0xbbb1cc84	-0.0054259915
71	0x3b6a0c68	0.003571296
72	0xbb267ad3	-0.0025402799
73	0x3c268033	0.010162401
74	0x3af773b0	0.0018879082
75	0xbc152dd0	-0.009105161
76	0xba25da6e	-0.0006326799
77	0xbbad86c1	-0.005295605
78	0x3cd0368b	0.025416633
79	0xbc0ee533	-0.008721638
80	0xbaf4c4cb	-0.0018674372
81	0x3c9a5f1c	0.01884418
82	0xbb80855b	-0.003922147
83	0xbb53707b	-0.0032263089
84	0xbb96cdfb	-0.0046021915
85	0xbba27b29	-0.0049585295
86	0x3b8941bb	0.004188744
87	0x3b3f9737	0.0029234418
88	0x3b5e3df2	0.0033911434
89	0xbbf98d30	-0.007615708
90	0xbcf353db	-0.029703071
91	0xbc35fdf3	-0.0111079095
92	0x3b691442	0.0035565053
93	0xbb445e21	-0.0029963332
94	0x3c3b2cb2	0.01142423
95	0xbb5b28e3	-0.0033441118
96	0xbbf75a87	-0.0075486335
97	0xbab7f1bc	-0.0014033834
98	0x3c9b12c2	0.018929843
99	0x3b76bf95	0.0037650813
100	0xba5e0ae0	-0.00084702484
101	0xbc4088cc	-0.011751365
102	0x3bf737f0	0.00754451
103	0xbc93916e	-0.018013682
104	0xbac72c8b	-0.001519577
105	0x3be639c8	0.007025931
106	0x3c38fa33	0.011290121
107	0xbb96f097	-0.0046063173
108	0x3a11a22e	0.00055554777
109	0x3c3de34f	0.011589839
110	0xba9333d7	-0.001123066
111	0xbc00b40e	-0.007855428
112	0xbc554380	-0.013016582
113	0x3c0c9ec3	0.008582774
114	0xbbab9d53	-0.0052372604
115	0x3c0114ae	0.007878466
116	0x3c0c7431	0.008572624
117	0x3c5966ba	0.013269121
118	0x3c067633	0.008206892
119	0xbc2ac45f	-0.010422795
120	0x3cec608f	0.028854636
121	0x3c21643b	0.009850557
122	0xbc5d7f45	-0.013519113
123	0x3c7ef4ef	0.015561326
124	0x3a923527	0.0011154757
125	0x3bb54d0a	0.0055328654
126	0xbc2751d1	-0.010212378
127	0x3c4b48c6	0.012407487

onnx::LSTM_116 f4 [1, 512, 128]
0	0x3da78ef5	0.08181564
1	0xbc282379	-0.010262364
2	0x3da6a0b9	0.08136124
3	0x3d1c6f58	0.038192123
4	0xbd7de986	-0.061990283
5	0xbdc2315a	-0.09482069
6	0x3cace253	0.021104014
7	0xbd5f6262	-0.054537185
8	0x3c918a34	0.017766096
9	0x3ca127ee	0.01967236
10	0xbbb1bdb5	-0.005424226
11	0x3d5fd4ff	0.05464649
12	0x3e1ec491	0.15504672
13	0xbe00c52c	-0.12575215
14	0x3e125a19	0.14292182
15	0xbda62f43	-0.08114483
16	0xbde209c2	-0.110370174
17	0x3dc5cba1	0.0965798
18	0xbd2e1d72	-0.04250855
19	0x3c73c090	0.014877453
20	0xbe0248c9	-0.12723078
21	0x3e183949	0.14865603
22	0x3dfcb4cf	0.12339174
23	0x3c5c8f9d	0.013461974
24	0xbca4988e	-0.020092275
25	0x3e0f5d46	0.14000425
26	0xbdeade67	-0.11468201
27	0x3dbf4a42	0.093403354
28	0x3d7f4881	0.062325004
29	0xbdd7fd81	-0.10546399
30	0xbd35c5dd	-0.04437815
31	0xbd13d20c	-0.03608899
32	0x3d33a97a	0.043862797
33	0x3ddc4c62	0.10756756
34	0x3daf7da1	0.08568884
35	0x3d9bb99a	0.0760376
36	0x3e1e81e6	0.1547924
37	0x3cbfbcbb	0.023405423
38	0x3e177f07	0.14794551
39	0xbe02ce43	-0.12773995
40	0xbd020212	-0.031740256
41	0xbc35e996	-0.0111030545
42	0xbd842fee	-0.06454454
43	0x3ceba82f	0.02876672
44	0x3dcc2803	0.09968569
45	0xbdcee26c	-0.1010178
46	0x3db0fff3	0.086425684
47	0x3e02efde	0.12786815
48	0xbd2f5969	-0.042809878
49	0x3c12129c	0.00891557
50	0x3dd1e89c	0.10249445
51	0x3e180e52	0.14849213
52	0xbc3e89d9	-0.011629545
53	0xbdbb3f37	-0.09142917
54	0x3df43969	0.119250126
55	0xbcefb5e6	-0.02926154
56	0xbcac66f4	-0.021045186
57	0xbe0b7174	-0.13617498
58	0x3df04f10	0.1173383
59	0xbc837852	-0.016048584
60	0xbdb7a16f	-0.08966338
61	0xbddbf82b	-0.10740694
62	0x3dd5c4d5	0.10437933
63	0xbdfd5307	-0.12369352
64	0xbc8bdd6a	-0.017073352
65	0xbe0e6cd8	-0.13908708
66	0x3d6bb5b8	0.057546347
67	0x3cd701f7	0.026246054
68	0xbce2e89a	-0.027698804
69	0x3df686a6	0.12037401
70	0x3e1d912f	0.15387414
71	0xbe0027c5	-0.12515171
72	0xbdf6a7ea	-0.12043746
73	0xbe01007b	-0.1259784
74	0xbe1637be	-0.14669701
75	0x3db60272	0.08887185
76	0x3c2bf2cd	0.0104949
77	0xbdbab0bc	-0.09115741
78	0xbc7527c1	-0.014963091
79	0x3db1b4b3	0.08677044
80	0xbd22aea5	-0.039717335
81	0xbc59e122	-0.013298305
82	0xbde66d73	-0.112513445
83	0x3dc711ed	0.09720216
84	0x3d33c227	0.04388633
85	0xbda8debc	-0.08245608
86	0x3ca91a44	0.020642407
87	0xbdcd17e8	-0.100143254
88	0xbdff0d5f	-0.12453722
89	0xbdcb0403	-0.099128745
90	0x3c21c297	0.009873054
91	0x3d3feaf7	0.04685494
92	0x3e1c125a	0.15241376
93	0xbd031ab4	-0.032007888
94	0x3d77c274	0.06048818
95	0xbdb9bb21	-0.09068895
96	0x3cd57e8c	0.026061319
97	0xbc4770c6	-0.012172883
98	0xbdd080b1	-0.10180796
99	0x3ba67fee	0.0050811684
100	0x3e075171	0.13214661
101	0x3d9229ed	0.07136903
102	0x3d6ee15a	0.05832038
103	0xbdc589f0	-0.0964545
104	0x3cf3aa07	0.029744161
105	0xbdaa1fcd	-0.08306847
106	0xbbb23dd5	-0.0054395
107	0xbda648bc	-0.08119342
108	0x3e02bdce	0.12767717
109	0x3d23a0eb	0.039948385
110	0xbe14e2c4	-0.14539629
111	0x3d07ec00	0.03318405
112	0xbdc8c914	-0.098039776
113	0x3d88e1ae	0.0668367
114	0x3d6c9f1d	0.05776893
115	0x3e116669	0.14199223
116	0x3b8e2a88	0.004338566
117	0x3c6f2b20	0.014597684
118	0x3b32e15c	0.002729497
119	0xbd049cbb	-0.032376032
120	0x3cf1ead8	0.029530928
121	0xbd9c2d0a	-0.07625778
122	0xbd8cb483	-0.068703674
123	0x3e00645c	0.12538284
124	0xbe02c42e	-0.12770149
125	0x3dac5a6d	0.08415685
126	0xbdcdea81	-0.10054494
127	0x3e0232bd	0.12714668
128	0xbdc78552	-0.09742226
129	0xbb90f7bf	-0.004424065
130	0x3d87d4ed	0.06632409
131	0xbde05068	-0.10952836
132	0x3ba5613b	0.005046991
133	0xbe0ddec8	-0.13854516
134	0x3cab6ce7	0.020925952
135	0x3cbd50f3	0.023109889
136	0xbc0bf284	-0.008541707
137	0xbe19d7a4	-0.15023667
138	0xbb7dd5e3	-0.0038732223
139	0xbd7a9d4f	-0.061185177
140	0x3e1347f7	0.14382921
141	0xbe17044f	-0.14747737
142	0xbcd7f94e	-0.026363995
143	0x3ce12045	0.027481208
144	0x3d8f4da6	0.06997232
145	0xbd5663af	-0.05234116
146	0xbbe3f9c9	-0.006957267
147	0x3b5acd4a	0.0033386522
148	0x3d2b58c5	0.041832704
149	0xbd78d6b2	-0.060751624
150	0xbd62a2b2	-0.05533094
151	0x3d3e385c	0.046440467
152	0x3e072602	0.13198093
153	0xbdf69994	-0.120410115
154	0x3c06319f	0.0081905415
155	0x3d9b02ca	0.07568891
156	0xbd614815	-0.055000383
157	0x3a7e4fb0	0.00097012054
158	0x3de51e19	0.11187381
159	0xbdd3187e	-0.10307406
160	0x3c6d93fb	0.014500613
161	0xbdffd23f	-0.12491273
162	0xbdca2a1d	-0.09871314
163	0x3dff2878	0.12458891
164	0xbdbc4a41	-0.0919385
165	0xbd7082a6	-0.058718346
166	0xbd6c58fb	-0.057702046
167	0xbda8029c	-0.08203623
168	0xbbf1f29a	-0.0073836567
169	0xbde0dba9	-0.10979397
170	0xbe2b49cf	-0.16727374
171	0xbdc6a538	-0.09699482
172	0xbe21648c	-0.15761012
173	0x3c49f4ed	0.012326461
174	0xbe0515b6	-0.12996563
175	0x3d2dd5dd	0.042440284
176	0xbdf2f8ae	-0.11863838
177	0x3dd3431b	0.10315534
178	0x3e0b2915	0.1358989
179	0x3c684fac	0.0141791515
180	0xbe1286b4	-0.14309198
181	0x3e05a792	0.13052204
182	0xbcf88d37	-0.030340774
183	0x3dac72e0	0.08420348
184	0x3e20e7f8	0.15713489
185	0x3c5af035	0.013362934
186	0xbcdaac77	-0.026693566
187	0xbdacaad5	-0.08431021
188	0x3dbb0a02	0.09132768
189	0xbdef8ef4	-0.11697188
190	0x3e038a6e	0.12845775
191	0x3db8b579	0.09018988
192	0xbdcef5dc	-0.10105488
193	0x3c2ed8df	0.010671823
194	0xbdab5d24	-0.083673745
195	0xbd9b24f6	-0.07575409
196	0xbdedc466	-0.11609726
197	0x3d3fc37e	0.046817295
198	0xbd3a241b	-0.04544459
199	0xbdf1c64e	-0.11805402
200	0x3d63a378	0.055575818
201	0xbd8ebcbd	-0.06969593
202	0x3c22978e	0.009923829
203	0xbe17b136	-0.14813694
204	0x3d5d3158	0.054002136
205	0x3d3e9202	0.046525963
206	0x3d1c54ec	0.038166925
207	0x3d95fb58	0.07323331
208	0xbcd0898c	-0.025456212
209	0xbe009583	-0.12557034
210	0x3dd87408	0.10569006
211	0xbdc5548a	-0.09635265
212	0x3db2a6d2	0.08723225
213	0xbdd154dd	-0.102212645
214	0x3d970981	0.073748596
215	0xb98a18b0	-0.00026339805
216	0xbc6d7005	-0.01449204
217	0x3d71d53d	0.05904125
218	0x3d21235c	0.039340362
219	0xbce8c989	-0.028416412
220	0x3c7aafc6	0.015300697
221	0xbdd4eaa2	-0.10396315
222	0x3ddbed1e	0.10738586
223	0xbdba00ea	-0.090822056
224	0xbe0d1975	-0.13779242
225	0xba5eec57	-0.00085038453
226	0x3d8758ab	0.06608709
227	0x3cd3e7da	0.025867391
228	0x3d6d23bc	0.057895407
229	0xbd318da4	-0.04334797
230	0x3d0cae38	0.034345835
231	0xbd590192	-0.052980013
232	0xbe19cb9d	-0.15019079
233	0x3d96a3fe	0.07355498
234	0x3e112531	0.14174344
235	0x3da72655	0.08161608
236	0xbbb424d4	-0.0054975543
237	0x3ca8e5fd	0.02061748
238	0x3c386695	0.011254926
239	0x3d1c8cde	0.03822028
240	0xbcccea75	-0.025014142
241	0x3e0afed3	0.1357377
242	0xbdd8edc0	-0.10592222
243	0x3e015f74	0.12634069
244	0x3db6374f	0.08897268
245	0xbcf2a661	-0.029620351
246	0x3e03443e	0.12819001
247	0x3d916e6b	0.07101139
248	0xbe0a5f98	-0.13513029
249	0xbda3fd28	-0.0800727
250	0x3cb9b5b3	0.022669649
251	0x3e02942a	0.12751833
252	0xbc7ac3b5	-0.015305449
253	0xbdba40ba	-0.09094377
254	0x3e0be6fb	0.13662331
255	0x3de8bdf4	0.11364356

onnx::LSTM_117 f4 [1, 512, 128]
0	0x3d2e815e	0.042603843
1	0x3de68738	0.1125626
2	0x3d8f502e	0.06997715
3	0xbde530ca	-0.111909464
4	0x3dc5e78a	0.09663303
5	0xbe1da579	-0.15395154
6	0xbddba56f	-0.10724913
7	0x3caa9ce8	0.020826772
8	0xbda0a63e	-0.07844208
9	0xbe16639f	-0.1468644
10	0xbd2cf440	-0.042225122
11	0x3e108983	0.14114957
12	0xbdc01506	-0.0937901
13	0x3d3c5c13	0.045986246
14	0xbdcfcbd7	-0.10146301
15	0x3cf732d5	0.030175606
16	0xbe1e259a	-0.15444031
17	0xbd07ff5d	-0.033202518
18	0x3c0fe5a8	0.008782782
19	0xbda30110	-0.07959187
20	0x3acbb3f5	0.0015541302
21	0x3deeb066	0.11654739
22	0xbded016e	-0.11572538
23	0x3e0de382	0.13856319
24	0xbda3aef3	-0.07992353
25	0xbd5c0eb6	-0.053724967
26	0xbbf3090b	-0.0074168495
27	0xbdb1662d	-0.086620666
28	0xbe13ea57	-0.14444862
29	0xbd883708	-0.066511214
30	0xbdd80a12	-0.10548796
31	0x3dc6a836	0.097000524
32	0xbe07081f	-0.13186692
33	0xbd97b00c	-0.07406625
34	0xbd24241e	-0.040073507
35	0xbde0711f	-0.10959076
36	0x3e09b481	0.13447763
37	0x3dfad687	0.12247949
38	0xbe152c85	-0.14567764
39	0x3db33888	0.08751017
40	0x3d95ed74	0.07320681
41	0xbdd8d834	-0.105881125
42	0xbd731b6d	-0.059352327
43	0xbd8e87f0	-0.06959522
44	0xbde6087a	-0.112320855
45	0x3dd6f1f3	0.10495367
46	0xbd9a1f24	-0.07525471
47	0xbd49c497	-0.04925975
48	0x3c068903	0.008211377
49	0xbd2bb6c7	-0.041922357
50	0xbcf5c5dd	-0.030001575
51	0xbdcd2b91	-0.10018075
52	0x3dc295ac	0.09501204
53	0xbcaba4eb	-0.020952662
54	0xbd92e210	-0.07172024
55	0xbdbc0d25	-0.091821946
56	0x3d265603	0.04060937
57	0xbbd9a3ad	-0.006641826
58	0x3dfb0dae	0.122584686
59	0x3d980470	0.074227214
60	0xbd303628	-0.043020397
61	0xbd5851a7	-0.052812245
62	0xbd073397	-0.033008184
63	0xbd50c9e3	-0.050973784
64	0xbd1d032e	-0.03833311
65	0x3d93058c	0.07178792
66	0xbdf959f6	-0.12175362
67	0x3cc792a3	0.024361914
68	0x3cac33ed	0.021020854
69	0x3d6348ef	0.055489477
70	0x3e16cceb	0.14726608
71	0x3d94ed21	0.07271791
72	0xbde4de86	-0.111752555
73	0x3db61e2f	0.08892476
74	0x3dc51f84	0.09625152
75	0xbba24d49	-0.0049530608
76	0x3dec1ff1	0.1152953
77	0xbd57b76a	-0.05266515
78	0xbe1897dc	-0.1490168
79	0x3e0ea620	0.13930559
80	0x3d981725	0.074262895
81	0xbd41a12b	-0.047272842
82	0x3d19b724	0.037528172
83	0x3d9aadfe	0.075527176
84	0xbdbca32e	-0.092108116
85	0x3c907e07	0.01763822
86	0x3dc3bd3a	0.095575765
87	0xbd586bc3	-0.052837145
88	0x3bf6f2b2	0.0075362558
89	0x3def5ab0	0.11687219
90	0x3dbd5ea4	0.09246567
91	0x3b9269e0	0.0044681877
92	0xbd85108f	-0.06497299
93	0x3de0b8ff	0.10972785
94	0xbe194430	-0.14967418
95	0xbdc8f32a	-0.09812005
96	0xbdfbd3c7	-0.12296253
97	0x3d8625ba	0.065501645
98	0x3deda5d1	0.116038926
99	0x3d9f212e	0.077700004
100	0x3e01ac88	0.12663472
101	0xbcb5943b	-0.022165408
102	0x3d969620	0.07352853
103	0xbdb093a4	-0.0862191
104	0xbd8f0f3a	-0.06985326
105	0xbc0ee901	-0.008722545
106	0xbbce3745	-0.0062932097
107	0xbd7fdd7d	-0.062467087
108	0x3dd03dad	0.10168014
109	0xbe14ab00	-0.14518356
110	0xbd121511	-0.03566462
111	0x3df836fe	0.12119864
112	0x3d5dd905	0.054162044
113	0x3dc2e2cf	0.095159166
114	0x3e0219c6	0.12705144
115	0x3c217012	0.00985338
116	0x3e20b8d5	0.15695508
117	0xbe20f79d	-0.15719457
118	0xbd37bfe5	-0.04486074
119	0x3ca2f0dc	0.019890241
120	0xbd14041e	-0.03613674
121	0x3dab4f19	0.08364696
122	0xbcf7ea09	-0.030262964
123	0x3d41fd58	0.047360748
124	0x3c8f6c84	0.017507799
125	0x3e1b7179	0.15180005
126	0xbc659cf1	-0.0140144685
127	0x3dca70c9	0.09884793
128	0x3d8ee192	0.06976618
129	0xbda6ebaf	-0.08150422
130	0x3e0f7910	0.14011025
131	0xbd22005f	-0.039551135
132	0xbdb218a7	-0.08696108
133	0xbe0b2326	-0.13587627
134	0xbe19e129	-0.15027298
135	0xbca3d846	-0.020000588
136	0x3c579a08	0.0131592825
137	0xbd28afab	-0.041183155
138	0x3e063385	0.1310559
139	0x3dfdcd68	0.12392694
140	0x3c92e482	0.017931227
141	0xbda995d9	-0.08280534
142	0x3d9efeb3	0.07763424
143	0xbdf34fda	-0.11880465
144	0xbd3e4690	-0.046454012
145	0x3dcc1292	0.099644795
146	0x3dd42566	0.10358696
147	0x3dbeff1e	0.093260035
148	0xbe06c1dd	-0.1315989
149	0xbe133af7	-0.14377962
150	0x3e0a6031	0.13513257
151	0x3decf033	0.11569252
152	0x3d24e637	0.040258612
153	0x3da10e6e	0.0786408
154	0x3da0ee38	0.078579366
155	0xbdfd5355	-0.1236941
156	0xbe242584	-0.16029936
157	0x3bc541b6	0.0060197962
158	0xbdeb5a0e	-0.11491786
159	0x3df2ad55	0.11849467
160	0x3e097ecb	0.13427274
161	0xbdcf5216	-0.101230785
162	0xbd83d04f	-0.06436216
163	0x3db7ea1c	0.089802
164	0x3db5f1ac	0.08883986
165	0xbdfe0905	-0.12404064
166	0xbaee2cea	-0.0018171344
167	0xbd930052	-0.071777955
168	0x3da44ba4	0.0802224
169	0x3d819ffd	0.063293435
170	0xbd9eef9b	-0.07760545
171	0xbd7166f4	-0.058936074
172	0xbd4d1c73	-0.05007596
173	0xbc882afc	-0.016622059
174	0xbb763714	-0.003756945
175	0x3d59a159	0.05313239
176	0x3db16168	0.08661157
177	0xbdae8458	-0.08521336
178	0x3d1ed4d6	0.038777195
179	0xbd5dd48f	-0.05415779
180	0xbd29cb93	-0.04145391
181	0x39997789	0.00029271495
182	0xbd580d1e	-0.052746885
183	0x3d47e931	0.048806373
184	0x3dbccdcc	0.0921894
185	0xbd56f298	-0.05247745
186	0xbe103779	-0.14083661
187	0x3c8ece21	0.017432274
188	0xbe121e6d	-0.14269419
189	0xbd17e8b6	-0.037087165
190	0x3c5f03f9	0.013611787
191	0x3bca9064	0.0061817635
192	0x3d93a3a3	0.072089456
193	0x3cb85be8	0.022504762
194	0x3de0a52f	0.10969006
195	0x3e0243d3	0.12721185
196	0xbdcb37ef	-0.09922778
197	0xbe1cae3d	-0.15300842
198	0x3dd2eea5	0.10299424
199	0x3dd8fd59	0.10595197
200	0xbe0a0d0d	-0.13481541
201	0x3d2fe0ce	0.042939
202	0xbb940e36	-0.0045182956
203	0xbde1da22	-0.11027934
204	0xbc1bdbf7	-0.009512893
205	0xb983d46d	-0.00025144537
206	0x3cd5ce22	0.026099268
207	0xbd0a2d0f	-0.033734377
208	0xbd294665	-0.0413269
209	0xbd953c08	-0.07286841
210	0xbdd8e30b	-0.1059018
211	0xbd427f78	-0.047484845
212	0xbd121745	-0.035666723
213	0xbd8db9fe	-0.06920241
214	0x3d509832	0.050926395
215	0x3d64ecbe	0.055889837
216	0x3e00eb4c	0.12589759
217	0xbe112fd2	-0.14178398
218	0xbd77897e	-0.060433857
219	0xbdd264f2	-0.1027316
220	0x3c893eb5	0.016753534
221	0x3d5de27b	0.054171067
222	0x3e0c082d	0.13674994
223	0x3d043d9a	0.03228531
224	0xbd86dc53	-0.06584992
225	0x3bc54ce8	0.006021131
226	0xbdf7186f	-0.12065207
227	0x3d12136d	0.035663057
228	0x3d950470	0.07276237
229	0x3d658373	0.056033563
230	0xbdeda573	-0.116038226
231	0x3decda16	0.11565034
232	0xbd192ccf	-0.03739625
233	0x3ded89c7	0.115985446
234	0xbd119738	-0.035544604
235	0x3e0d2482	0.13783458
236	0xbd14c7db	-0.03632341
237	0xbd820ceb	-0.0635012
238	0xbdeccd2e	-0.115625724
239	0xbc954f51	-0.018226298
240	0x3de5c5b0	0.112193465
241	0xbda80413	-0.08203902
242	0x3d2b035e	0.041751258
243	0x3d80d108	0.062898695
244	0x3e124969	0.14285816
245	0xbd3d3eec	-0.046202585
246	0x3d8c863f	0.06861543
247	0xbe04d469	-0.12971653
248	0xbdeb224d	-0.11481152
249	0xbcc73db9	-0.024321424
250	0x3dc0df9e	0.094176516
251	0xbe13bdbf	-0.14427851
252	0xbd8d6c42	-0.06905414
253	0xbd5015f4	-0.050802186
254	0x3dd8b460	0.10581279
255	0x3caa990c	0.020824932

onnx::LSTM_118 f4 [1, 1024]
0	0xbbec9b66	-0.0072206734
1	0x3c284ada	0.010271752
2	0xb944f180	-0.00018781982
3	0x3b962817	0.004582416
4	0x3bae72c8	0.0053237416
5	0xbca72cee	-0.020407166
6	0x3993c640	0.00028185733
7	0x3ab2045b	0.001358162
8	0x3cb2e7f2	0.021839116
9	0x3c581bbc	0.013190206
10	0x3aaff9fe	0.0013425944
11	0x3b41f411	0.0029594938
12	0x3c90b88f	0.01766613
13	0xbb89e028	-0.0042076297
14	0x3b150c37	0.0022742876
15	0x3c20d387	0.009816057
16	0x3bc5dd0d	0.006038314
17	0x3bb6ae7a	0.0055749984
18	0xbc76fd09	-0.015074977
19	0x3c5fb461	0.0136538455
20	0xbbc857c2	-0.006113977
21	0xb9af7da1	-0.00033472202
22	0x3cc3cc31	0.023901077
23	0x3c6f3a90	0.014601365
24	0x3c259ec9	0.010108658
25	0x3beefba0	0.0072931796
26	0x3c870cf2	0.016485665
27	0x3c018b33	0.007906723
28	0x3caace4f	0.020850329
29	0x3cefe2ea	0.029283006
30	0x3afea081	0.0019426496
31	0x3ba369fc	0.0049869996
32	0x3b7ef0e2	0.0038900902
33	0x3c696d81	0.014247299
34	0xbb153941	-0.0022769722
35	0x3aed988b	0.0018127126
36	0x3b4dfcf4	0.003143129
37	0x3c9b6011	0.018966706
38	0x3bad661f	0.005291715
39	0x3bd2526e	0.006418518
40	0x3c56a8d5	0.013101776
41	0x3bb40d8a	0.005494778
42	0x3c572ab0	0.013132736
43	0x3c6447d9	0.013933145
44	0x3c4d20dc	0.012520041
45	0xbc0ea6bc	-0.008706745
46	0x3caed792	0.021343026
47	0xbbb97650	-0.005659856
48	0xbc4a7c54	-0.012358744
49	0xbbbdefcb	-0.005796408
50	0xbaf3a231	-0.0018587766
51	0x3c2bdd42	0.010489764
52	0x3c55ac28	0.0130415335
53	0xbb1d65bb	-0.0024016935
54	0x3c71f7d0	0.014768556
55	0x3c1c0db9	0.009524756
56	0xbc07b772	-0.008283483
57	0x3b233ae7	0.0024906935
58	0x39f995ce	0.00047604594
59	0x3c0cece3	0.0086014
60	0xbc660df0	-0.014041409
61	0x3a39fdd0	0.0007095011
62	0xbab934ec	-0.0014130152
63	0x3c17246a	0.00922499
64	0x3ca38b73	0.019963956
65	0xbc06f707	-0.008237607
66	0x3c925216	0.017861407
67	0xbbac5a9c	-0.005259825
68	0x3b858a0d	0.004075295
69	0x3afcef9b	0.0019297482
70	0xbb547cc1	-0.0032422992
71	0xbb446b10	-0.002997104
72	0x3b95aab5	0.004567469
73	0x3c79598f	0.015219106
74	0xba7fcf54	-0.00097583723
75	0x3cddc70b	0.02707245
76	0xbc0bbb26	-0.008528506
77	0xbbd64831	-0.0065393676
78	0x3c83ab20	0.01607281
79	0x3a0b7242	0.0005319455
80	0x3c27e02d	0.010246319
81	0x3cae66c0	0.02128923
82	0x3c414b12	0.011797683
83	0x3b654f74	0.0034989985
84	0xbb619602	-0.0034421687
85	0x3c8560d7	0.016281528
86	0x3cbf5d94	0.023360051
87	0xbba1d778	-0.004939016
88	0x3cbc4dac	0.022986256
89	0x3b8f7bfa	0.004378793
90	0x3bc95923	0.006144659
91	0x3b809216	0.003923665
92	0x3b4b0472	0.0030977991
93	0x3b929f48	0.004474554
94	0xbb7cd497	-0.0038578862
95	0x3ca09a07	0.019604696
96	0x3cbd9a5c	0.023144893
97	0xbc089ef0	-0.008338675
98	0xbbbe2e70	-0.0058038756
99	0x3c85c45c	0.016328983
100	0x3bca9307	0.006182078
101	0xbb923976	-0.0044624163
102	0x3c01cf1d	0.007922915
103	0x3c76cd48	0.015063591
104	0x3bcdd820	0.0062818676
105	0xba9a1ee5	-0.0011758475
106	0x3c38c925	0.011278425
107	0x3cef2d0a	0.029196281
108	0x394e5334	0.00019676686
109	0x3cb18d29	0.021673756
110	0x3b2fea4c	0.0026842533
111	0x3bbdda70	0.005793862
112	0xbaa9dc66	-0.0012959361
113	0xbc79419a	-0.015213395
114	0x3c55f375	0.013058533
115	0xbbd63d22	-0.0065380493
116	0x3c160f8b	0.009158979
117	0xbb3e6840	-0.0029053837
118	0x3c12f933	0.008970547
119	0x3b7d5c4f	0.0038659757
120	0xbb5fcc66	-0.003414893
121	0x3c2139e4	0.009840462
122	0x3c803cd0	0.015653998
123	0x3c276ed8	0.010219298
124	0x3b3811b2	0.002808672
125	0x3c9f1113	0.019417321
126	0x39b94f07	0.0003534483
127	0xbbf89007	-0.007585529
128	0xbc82d386	-0.015970003
129	0x3b463896	0.003024613
130	0xbbbc64bd	-0.0057493136
131	0x3ba16928	0.0049258657
132	0xbb76c8bf	-0.0037656275
133	0xbbb77021	-0.0055980836
134	0xbb912b87	-0.0044302377
135	0xbc5d37fb	-0.013502116
136	0x3b0e68c6	0.002172993
137	0x3c3e2fbf	0.011608063
138	0xbc9ac09e	-0.018890675
139	0x3c87c362	0.016572658
140	0x3c01062b	0.007875006
141	0xbbbbf2ea	-0.0057357447
142	0xbb404e36	-0.0029343492
143	0x3cdaff41	0.026733043
144	0x38f5bec9	0.00011718047
145	0x3b118ceb	0.0022209238
146	0xbc5d65e9	-0.013513067
147	0x3b3cb960	0.0028797016
148	0x3b186e22	0.0023259004
149	0x3c0d5738	0.008626752
150	0x3c6c9dc6	0.014441913
151	0x3b617dc0	0.0034407228
152	0x3c3a35d2	0.011365371
153	0xbb5fee89	-0.0034169278
154	0x3ce5af90	0.028037816
155	0xbb873a16	-0.0041267974
156	0x3c686d7d	0.01418626
157	0x3cb82eca	0.022483248
158	0x3bed660e	0.007244832
159	0x3bfea194	0.0077707265
160	0xb96a30bf	-0.00022334138
161	0xbafe305f	-0.0019393078
162	0xbc0a03f4	-0.008423794
163	0xbc873de1	-0.016508998
164	0x3bf73c84	0.007545056
165	0x3c866020	0.016403258
166	0xbbe063f0	-0.006847851
167	0x3be2d052	0.0069218064
168	0x3c71c3b4	0.014756132
169	0x3c4f8cd5	0.012667854
170	0x3bf47bd8	0.0074610524
171	0x3ccf58bf	0.025310872
172	0xba664151	-0.00087835366
173	0xbb82d152	-0.003992238
174	0xbbd77a3d	-0.0065758512
175	0x3b9f3883	0.0048590316
176	0xbc0806e7	-0.008302427
177	0x3a6852e3	0.0008862449
178	0xbc5e3007	-0.013561255
179	0x3b4be211	0.0031110088
180	0x3aa09c04	0.0012253528
181	0xbabfdc85	-0.0014637863
182	0x3be40dd0	0.0069596544
183	0xbc36956c	-0.011144023
184	0x3b6a63c4	0.0035765031
185	0x3c2bfb2d	0.010496897
186	0xba0f6d36	-0.0005471291
187	0x3a931906	0.0011222668
188	0x3ca35888	0.019939676
189	0x3a89b141	0.0010505096
190	0xbb8d732f	-0.0043167095
191	0x3ca01163	0.01953954
192	0x3b994e16	0.004678498
193	0x3c644488	0.013932355
194	0x3ba1e41c	0.004940523
195	0xbbd528c4	-0.006505104
196	0x3b089d45	0.0020845693
197	0x3b7536bd	0.003741666
198	0xbc01f4f2	-0.007931935
199	0x3aa6e89b	0.0012734117
200	0x3bfabf6b	0.0076522133
201	0x3adaa6e2	0.0016681815
202	0x3c46750b	0.012112866
203	0x3c86d299	0.016457843
204	0x3bfb69b2	0.007672512
205	0x3b3493b4	0.0027553858
206	0x3d11d7d1	0.03560621
207	0x3c8ecb23	0.017430848
208	0x3c58cb0c	0.013232004
209	0x3c85537c	0.01627516
210	0xba930497	-0.0011216578
211	0x3c8ef071	0.017448636
212	0xbc0fdaea	-0.0087802205
213	0x3cadc24b	0.02121081
214	0x3c97f746	0.018550526
215	0x3b4248b1	0.0029645378
216	0x3bf8b354	0.007589737
217	0xbbe07b56	-0.0068506403
218	0xbbca3b56	-0.006171624
219	0xbbcb424f	-0.006202973
220	0x3c4b9798	0.0124262795
221	0x3c6c5274	0.014423955
222	0xbc0451c9	-0.00807614
223	0x3caaca37	0.020848377
224	0xbc9095fc	-0.017649643
225	0x3c35772c	0.011075776
226	0x3c941d26	0.018080305
227	0x3ca0dbad	0.019636
228	0x3b9eeeb6	0.004850234
229	0x3bb3e18d	0.005489534
230	0x3c574c48	0.013140745
231	0x3bc4d5c2	0.006006927
232	0xbb311994	-0.0027023302
233	0x3b89fbe3	0.0042109354
234	0xbb8ae544	-0.0042387564
235	0x3c8b227e	0.01698422
236	0xbbbc3b39	-0.0057443646
237	0x3cb1639c	0.021653943
238	0x3b98775d	0.004652901
239	0x39a24594	0.00030950888
240	0x3a46ca69	0.0007583262
241	0xbbedceb3	-0.0072573065
242	0x3be3996a	0.0069457786
243	0xbc341e16	-0.010993501
244	0x3bb21277	0.00543433
245	0xbb256f5f	-0.0025243384
246	0x3a153112	0.0005691211
247	0xbc37a5cc	-0.011208963
248	0xb867f97d	-5.5307046e-05
249	0x3d04d4bc	0.03242944
250	0xbc6f8c6d	-0.014620882
251	0xbcd80d9c	-0.026373677
252	0xbc1b104c	-0.009464335
253	0x3c75a0a7	0.014991916
254	0x3baa1d81	0.0051915054
255	0xba967d9b	-0.0011481525
